trained_models/0_lag_ppo_InvertedPendulum-v2_eps_0.0_critic.pth (torch, 21585 bytes, 15 tensors)

critic_net.layers.0.weight f4 [32, 4]
00000000: 9c56 96bf f913 5abf 56e4 9ebd e6da 83be
00000010: f061 a7bd 9b3b b0bd 51a3 a03c dc76 1f3e
00000020: c3e2 79bf 0b50 4dbf cf28 23bf adf5 96be
00000030: fa36 59be e85a 99bf 3f10 123e 1991 a7be
00000040: 4299 e6bf 44ef 7abf d700 d83e 6d07 d53e
00000050: bcfa c23f d825 17bf 8f8e 8c3e b4af fcbc
00000060: 43c4 35bf 0642 dbbf 1968 7ebe fc1c 23bc
00000070: d7b3 bb3f 71d5 a23e 69d8 57be 26c5 a03d
00000080: 9191 0f3e f772 8e3f db02 01bf 089a b33e
00000090: 2f71 5bbf 62ee 9ebf 8938 2ebf d121 9bbe
000000a0: b0ba b6bd bf8b 79be 52ab 063e 3972 94be
000000b0: 41ad ac3e f367 fb3e 3061 a4bd a74b 5ebe
000000c0: 91c6 873f bab9 9a3f 9324 9b3e 0fbc c13e
000000d0: c1c3 48bf f433 22bf 2154 763b f7c0 edbe
000000e0: ee75 47bf 522e c13f a6de f6be 5c97 db3d
000000f0: 00b1 b7bc 61b7 b8bf 39ea e6be 74e4 d3be
00000100: 1945 7d3e abab 1d3f 0922 833e 9ec1 b93c
00000110: 137c 843e e991 7f3e f6a0 29be a8e6 d6be
00000120: c071 d6bf 1cbc 96be 2c1b f93e 7242 e83d
00000130: 61c3 59be 1ea7 4fbe 0aa5 a1bd 1a56 b0bc
00000140: bba7 9e3f c01d 9d3f 7d3c 6a3e 9c0b 8f3e
00000150: 66af c23f 9706 b8bf 67c6 c7be 769e 9ebe
00000160: fdfa 66bf 7b7e 95bf fc2e 25bf 5e59 893c
00000170: d432 68bf 9489 aabf f23b 0fbf 91c3 43be
00000180: 6394 9dbf 0037 bbbf db85 54bf 4bba bfbd
00000190: 9945 3abe 09a9 c6be 4a75 fbbd 6ac8 2f3d
000001a0: dd7e 483f d414 3e3f bcf1 163e 531d aebc
000001b0: b36f e53c f2d1 b43f 5e2f ff3d a7ed 193f
000001c0: 2deb 673f 55ed 8f3f d8e7 0c3e 5045 a33c
000001d0: 9bb1 61be 3cb0 83bf 8aa6 383e c0c6 0abf
000001e0: e16d c7be 9913 fdbe f75c 3b3e ba44 863e
000001f0: fbd4 5abe 002a b7be 9c5e 81bd 5938 a53c
-1.1745181 -0.85186726 -0.077583954 -0.25752944 -0.08172977 -0.08605119 0.019609125 0.15572685
-0.97611636 -0.8020026 -0.63734144 -0.2948431 -0.21212378 -1.1980867 0.1426401 -0.32727888
-1.801552 -0.9802134 0.4218814 0.41607228 1.5232768 -0.5904212 0.27452514 -0.0308455
-0.71002597 -1.7129524 -0.24844398 -0.009955641 1.4664258 0.31803468 -0.21078648 0.07850103
0.14020373 1.1128834 -0.5039498 0.35078454 -0.8571958 -1.2416499 -0.68055016 -0.30299237
-0.089223266 -0.24369715 0.13151291 -0.28993395 0.33725932 0.49102744 -0.080263495 -0.21708547
1.0607473 1.2087929 0.3030134 0.3783879 -0.78423697 -0.63360524 0.0037586766 -0.46436283
-0.7791432 1.5092261 -0.48216742 0.10722229 -0.022423267 -1.4430963 -0.45100573 -0.41385233
0.2473339 0.6159007 0.25611904 0.022675332 0.2587591 0.24958004 -0.16565308 -0.41972852
-1.6753464 -0.2944039 0.48653543 0.113407984 -0.21265937 -0.20278594 -0.07892807 -0.021525431
1.2394937 1.2274704 0.22874637 0.27938545 1.5209777 -1.4377011 -0.39018556 -0.3098027
-0.9022673 -1.1679224 -0.6452482 0.016766246 -0.9070256 -1.3323236 -0.55950844 -0.19117571
-1.2310909 -1.462616 -0.8301675 -0.093617044 -0.18190612 -0.3880084 -0.122782305 0.04291574
0.7831858 0.7425053 0.14740652 -0.021254217 0.028007364 1.412657 0.124602064 0.60128254
0.90593225 1.1244303 0.13760316 0.019930512 -0.22040407 -1.0288157 0.1803228 -0.5420952
-0.38951018 -0.49429014 0.18297182 0.2622431 -0.21370308 -0.3577423 -0.063168734 0.02016847

critic_net.layers.0.bias f4 [32]
00000000: b996 9a3e 20b7 163f 5261 5d3e 2210 ca3e
00000010: fd45 1f3d 5e15 083f 3b23 bb3e aa01 583e
00000020: b91a 123f 3617 42be beb1 c4be 99c5 283f
00000030: 7bf4 b7be d850 13bf 117e e5be 9682 f43e
00000040: d2ac 353f cbfb 22bf cc22 d0bd 0262 25bf
00000050: b894 aabe 7386 08bf 13ae 46be 0a91 23be
00000060: bfb0 db3e 9127 30bf 74a9 9b3e 7700 ff3e
00000070: fc79 84be 10a5 0d3f 4cb3 15bf 679a 32bf
0.30193117 0.58873177 0.21619156 0.39465433 0.038885105 0.53157604 0.36550316 0.21094385
0.57072026 -0.18954167 -0.38416857 0.6592651 -0.3592871 -0.5754523 -0.44822744 0.4775588
0.7096683 -0.63665456 -0.10162887 -0.64602673 -0.33316588 -0.53330153 -0.19402342 -0.15973297
0.42908284 -0.68810374 0.3040272 0.49805042 -0.25874317 0.5532999 -0.5847671 -0.6976685

critic_net.layers.2.weight f4 [32, 32]
00000000: b1ae 8fbd 1876 93be 1d69 02bd 670b 84be
00000010: 8933 ff3e c8c8 95be e0ad 4abe b399 38bf
00000020: 7eb5 efbc 0f75 463e ec9f 4f3e 0f4a 8ebe
00000030: 7706 363e a0da 8e3e fee7 be3c 3a8c 86be
00000040: 3460 88be 4b68 1f3d 8b56 7a3f cb6e 963e
00000050: 30b7 87bd c63a 4abe 0811 4d3e 08a1 df3e
00000060: 929f 92bb 6174 c73e ca82 06bf cb9c 2a3e
00000070: 4453 07be 3c29 20be 973c df3e 85cf 7e3d
00000080: 29c1 103e e87e 52be f23b d43d 8d6d 663e
00000090: c6fa 653e c86b e7bc 3741 2e3d 327b f2bc
000000a0: 8e63 553e 57f9 1c3e d695 ae3c 069f 87be
000000b0: aa48 01bd f18f 3abd b8e0 66be 7d01 bcbd
000000c0: edfe 49be bb7b 28bd 387b 94bd b298 d63d
000000d0: 55ce c3be 062c 32be 78b8 043e 7a22 f43d
000000e0: 6e1d aa3d eb44 003e b542 06bd ad94 f23d
000000f0: a420 94bd fd53 133e 3aaa 053e 8820 ee3d
00000100: 0571 8d3d 322a 62be 742e 3f3b 7093 8ebd
00000110: 4dff 963d 7403 953d 8256 2ebe 212c 64be
00000120: 992f b6bd 319e fc3d 8e15 b33e 5b75 c1be
00000130: bd8f 2a3e c308 663e 176c e23d c8bb 173d
00000140: f194 a8be 1587 cb3e e90f c8bd 9081 b63e
00000150: 0a41 32be 4395 83bd ba8f 703b 5881 e73c
00000160: ef4a 06be 9227 a43d 5822 85be 9f7f 2ebc
00000170: 382b 6abd 7926 4d3d 53f1 033e 9d27 203e
00000180: 789d 4e3e c96c 163d 9122 ee3e 44d8 43bd
00000190: edff 993f 1e41 fdbe b96e a8bd d775 b8bf
000001a0: 6be8 e8be 31c4 d33f bb37 9abb 034f bfbe
000001b0: 0bbf 98be 985c 0b3f 8efa 703e 491d b8bd
000001c0: 6fbc 03bf d5ea 103e b754 9d3f ab15 a63e
000001d0: 3c08 90be 96cb 02bc 6c12 673f 11d9 bd3f
000001e0: 7563 df3e 5cdd 913e a1c9 53bf 8ab1 d2be
000001f0: e658 3cbe 55b1 95bd 6a2f ae3e 7087 cd3e
00000200: 0434 b13c 29e7 35be 6a7f 183e 8002 19bc
00000210: 7918 7bbd eccc 3b3e 0d98 0cbd 0ec6 13be
00000220: f928 28be 7103 0d3e 234f 713e 8ed0 d1bc
00000230: 90ec 20bb 29f4 4d3e 5ed3 1e3e 8646 51be
00000240: 85a4 8fbe 0230 533e 1495 f6ba 3dfe bcba
00000250: 6aec 8abc 71ec b4bd 1a9f 9c3d b502 b53d
00000260: f705 46bd 1932 763e 0719 30be b1ac 41be
00000270: 0610 b23d 9830 583d 6622 823e 50fe 493e
00000280: ee4c dcbe 191e 1cbd 040f 2ebf 5802 90be
00000290: 996f 96bd d7f1 42be a364 0dbf 9105 01be
000002a0: 918c e7be 8cda ccbe e8c6 643e 00e2 03be
000002b0: b466 3c3f 5a28 e33d 0de6 0a3e eaaa ffbe
000002c0: ed0f 09be b673 5cbc 7060 a13c eebe 4c3d
000002d0: de95 3c3f aae6 783e 6777 86be e397 fbbe
000002e0: 08ac 43bf d088 b73d 9952 54bc a709 49be
000002f0: 6248 c43e c763 ddbe c22a 383e 3ca3 493e
00000300: 737a dcbd 2091 4ebe ecdf 04bc 931e d0be
00000310: 25fc 233f d6b1 c3be a294 333e 0511 653c
00000320: caf0 613d d065 693e e8d0 73bd 8710 38be
00000330: 00dd 1a3e 7889 41be b691 113e 93a6 acbe
00000340: 6d0f 88be fd0b d53d 37b8 f7ba 56cd 053e
00000350: 7d06 433e 76a6 a7be a7d4 213f 31b5 a33e
00000360: 7865 963d 505d 8a3e dcd8 66be 8776 993e
00000370: 8284 81be 2d97 d6be 929e ea3e e670 973e
00000380: d774 1ebc 40e9 413e b2fe 0bbe d512 83bc
00000390: ab11 8fbd 356b ca3e a420 2a3d e3c7 5e3e
000003a0: fc95 523e 49ad 3cbf ed12 17be 7084 853e
000003b0: 607f 98bb 5db4 ddbe 627a c3be 1f31 123e
000003c0: 4408 4e3e 8cf6 8a3d f677 b0bc 1d1f 88be
000003d0: 1521 313e dcf5 ecbe 1c2a 3bbe 978f 34bf
000003e0: 015d ca3d 39ab acbe ca43 fb3e aeb5 ff3e
000003f0: 9234 123d c2a1 863e 5e53 6abd 10d1 08be
-0.070157416 -0.28801036 -0.031838525 -0.2578995 0.49844006 -0.29254746 -0.1979289 -0.72109526
-0.029261347 0.19380592 0.20275849 -0.27790877 0.17775904 0.27901173 0.023303982 -0.2627886
-0.26635897 0.03891782 0.97788304 0.29381403 -0.06626737 -0.19748983 0.20026028 0.43677545
-0.0044745887 0.38955978 -0.5254332 0.16661374 -0.13215357 -0.1564073 0.43600914 0.062209625
0.14136185 -0.20556223 0.10362996 0.22502728 0.22458944 -0.028249636 0.042542662 -0.02959976
0.20838758 0.1532949 0.021311682 -0.26488513 -0.03156344 -0.04554743 -0.22546661 -0.09179971
-0.19726153 -0.041133624 -0.072500646 0.10478343 -0.38243356 -0.17399606 0.12960994 0.119206384
0.083063945 0.1252629 -0.03277846 0.11844764 -0.07232788 0.14387508 0.13053218 0.116272986
0.069063224 -0.22086409 0.0029171975 -0.06961715 0.073729135 0.07276049 -0.17025188 -0.22282459
-0.08895797 0.1233486 0.34977382 -0.37784848 0.16656394 0.2246428 0.11055773 0.037044317
-0.32926133 0.39751497 -0.097686596 0.35645723 -0.17407623 -0.06424954 0.0036706761 0.028259918
-0.13114522 0.0801536 -0.26002765 -0.010650544 -0.057170123 0.05008552 0.12885027 0.15640111
0.20177257 0.03672484 0.46510747 -0.04781367 1.2031227 -0.49463743 -0.08224244 -1.4410962
-0.4548982 1.6544248 -0.0047063506 -0.3736497 -0.29833254 0.5443816 0.23533079 -0.08989961
-0.514594 0.14152081 1.2291478 0.32438406 -0.28131282 -0.007983109 0.90262485 1.4831868
0.43630567 0.28489196 -0.82729536 -0.41151077 -0.18393287 -0.07309214 0.3402055 0.40142393
0.021631248 -0.17763962 0.14892355 -0.009338975 -0.061302636 0.1833989 -0.034324694 -0.1443102
-0.1642188 0.13770844 0.23565345 -0.025612142 -0.0024555065 0.20112671 0.15510318 -0.20437059
-0.28055206 0.20623782 -0.0018812739 -0.0014419031 -0.016958434 -0.0883416 0.07647534 0.08838407
-0.048345532 0.24042548 -0.17197047 -0.18913533 0.086944625 0.052780718 0.2541687 0.19725919
-0.43027443 -0.03811464 -0.6799166 -0.28126788 -0.07345504 -0.19037567 -0.55231684 -0.1259978
-0.4522443 -0.40010488 0.22341502 -0.12879181 0.7359421 0.11091681 0.1356432 -0.49935085
-0.13384981 -0.013455322 0.019699305 0.049986772 0.7366618 0.24306741 -0.26262972 -0.49139318
-0.76434374 0.08961642 -0.012959146 -0.19632588 0.38336474 -0.43240187 0.17985061 0.19691175
-0.10765543 -0.20172548 -0.008110028 -0.40648326 0.6405662 -0.38221616 0.17537168 0.013981109
0.055161275 0.22792745 -0.0595254 -0.17975055 0.15123367 -0.18900096 0.1421574 -0.33720836
-0.2657427 0.10402677 -0.0018899505 0.1306661 0.19045444 -0.32744187 0.63215107 0.31974176
0.073435724 0.27024317 -0.22543663 0.29973242 -0.25296408 -0.41912213 0.45824105 0.29578322
-0.0096714115 0.18936634 -0.13671377 -0.01600019 -0.06985792 0.39534917 0.041535035 0.21755938
0.20565027 -0.7370191 -0.14753313 0.26077604 -0.004653856 -0.4330167 -0.38179308 0.1427655
0.2012034 0.06785306 -0.021541577 -0.26586238 0.17297776 -0.46281326 -0.18277782 -0.705316
0.0988102 -0.33724383 0.49075156 0.49943298 0.035694666 0.26295286 -0.05720841 -0.13361001

critic_net.layers.2.bias f4 [32]
00000000: 3f26 02be 8142 0d3d 0cbb 8dbe c7b1 653b
00000010: 1c78 99be 1454 b5bc 2823 8fbe 456d f13d
00000020: dd7a 153e 4a7e 94be 3f67 8fbe ef2a d23e
00000030: 3fad 8c3d 713a cc3d d1d0 6d3e 05bc d53e
00000040: a757 5e3e 095b be3e 38de 0ebe dc92 303e
00000050: d229 b23e d8b1 d73d 5e31 d1be a502 913e
00000060: 2ef7 a83e bdcb ba3e 0aa2 b0be d0d0 3dbe
00000070: 802b 23be ae44 db3e d3cd ba3d ddcb 833e
-0.12709902 0.03448725 -0.27681768 0.003504859 -0.2997445 -0.022134818 -0.2795651 0.1178842
0.1459765 -0.290026 -0.28008458 0.4104838 0.068689816 0.09972084 0.23224188 0.4174501
0.21713124 0.3717883 -0.13951957 0.17243522 0.3479753 0.10531968 -0.40857977 0.2832233
0.33001083 0.36483565 -0.34498626 -0.18536687 -0.15934563 0.42825836 0.09121289 0.25741473

critic_net.layers.4.weight f4 [1, 32]
00000000: ad5a 90be ee7e c1bc 4687 8b3e fff1 0bbf
00000010: ff2c 803d 1001 f8be a84e 6a3e 521a 8f3e
00000020: 9ed5 c5be e9bf 98be 2a3c 293e 20a5 acbe
00000030: 2462 963e 088f 763e 08e7 873d 2111 88be
00000040: d28e b63e 4300 acbe b47e 433e 2b40 ec3e
00000050: 4b74 773e cc95 d63e c37f 543e b5f8 85be
00000060: 7ac6 4abe 6e73 68be 271a 7f3e fc3c 873d
00000070: 7d8b 143e 2232 6fbe bd64 773e 7eaa 3bbe
-0.2819418 -0.023620095 0.27251643 -0.5466613 0.06258582 -0.4843831 0.22881567 0.27949768
-0.3863954 -0.29833916 0.16526857 -0.3371973 0.2937175 0.24078 0.066358626 -0.26575568
0.35655838 -0.3359395 0.19091302 0.46142706 0.24165456 0.4191116 0.20751862 -0.2616631
-0.19802275 -0.22700283 0.2491232 0.06603429 0.14506336 -0.23358968 0.24159522 -0.18326756

exp_avg f4 [32, 4]
00000000: 947a 6db7 b69e 6737 a001 a3b8 befd 9b38
00000010: bf7d d0b7 4919 f9b7 a9cd 6939 1431 69b9
00000020: 1fdb d1b7 e4ef eab6 c3e9 5b38 48bd 56b8
00000030: 448f 50b7 2395 41b7 e1b3 9838 45ff 06b8
00000040: 0630 deb7 a1ba 2838 9c64 6db9 b013 2139
00000050: c41d 2e37 f949 4c36 b74e 26b8 f79e a638
00000060: 8e25 91b7 4a93 0bb6 103d 2238 1b08 8fb8
00000070: b7ca 9d37 fef0 9db7 4dac 1539 47d3 23b9
00000080: 6198 2d36 8d57 8636 74b6 6fb7 1513 0537
00000090: 6cbe 0fb8 919c 93b7 a3d3 0b39 2a2a 3fb9
000000a0: 3d5a ee37 4848 fb37 23d8 7bb9 cf1c 8d39
000000b0: bbe2 9cb7 331d d4b7 99b6 2539 570b f0b8
000000c0: 7394 aa37 c82c 65b5 56a8 45b7 cd58 9e37
000000d0: 209a fc36 aecc 9336 1bba 74b8 5f5f a238
000000e0: 7baf c8b6 2e26 e1b6 5206 4838 5f19 5eb8
000000f0: 8e33 66b7 eb3b 65b7 c4ef b938 6a48 72b8
00000100: b316 44b7 47b6 5ab7 bbc3 b938 083c 8ab8
00000110: 404c 0938 365e ef37 e144 81b9 1ed2 9139
00000120: bfba 8ab7 c6ea 1b38 43d0 81b9 a8ec 8239
00000130: 8bb8 5637 eda6 8f37 2b75 01b9 0267 e938
00000140: 722f 9137 cce5 42b7 a40d 8a38 3de4 84b8
00000150: a261 1bb6 9d01 09b8 5458 4c39 5d8e 3eb9
00000160: eaf4 1ab7 b3de 0337 8727 d5b7 388b 56b8
00000170: 6f23 13b8 7a95 f6b6 a5bb ad38 5212 22b9
00000180: d947 71b7 643b 3136 8cb8 13b7 07e8 53b7
00000190: 59fe 8c37 ddbd be37 513d 1cb9 b9b0 f738
000001a0: 5079 8db6 0e9a eeb7 8230 4039 56d1 12b9
000001b0: 1bf5 bbb6 9ec3 cb36 8c34 a0b7 9b97 ab36
000001c0: 345d cd37 46c0 9c35 8efd 1ab8 18b2 9038
000001d0: 0f19 c7b6 8072 12b7 12ec 1438 9743 e537
000001e0: 6abe aa37 d4c4 1238 b088 5cb9 949d 1339
000001f0: 2967 6e37 85b7 8737 b807 e0b8 6ef3 9b38
-1.4154841e-05 1.3805626e-05 -7.772748e-05 7.438239e-05 -2.4854087e-05 -2.9694887e-05 0.00022297226 -0.00022238895
-2.5016778e-05 -7.0016704e-06 5.2431376e-05 -5.1197858e-05 -1.2431123e-05 -1.153842e-05 7.28143e-05 -3.2185828e-05
-2.6486825e-05 4.0228133e-05 -0.00022639561 0.0001536149 1.03781385e-05 3.0441427e-06 -3.9650793e-05 7.945106e-05
-1.7302835e-05 -2.0798348e-06 3.868068e-05 -6.820281e-05 1.8810255e-05 -1.882808e-05 0.00014273934 -0.00015623598
2.5867705e-06 4.0037035e-06 -1.4287991e-05 7.931861e-06 -3.42712e-05 -1.7596672e-05 0.00013334914 -0.00018230887
2.8413831e-05 2.995519e-05 -0.00024017743 0.0002691508 -1.8702229e-05 -2.5285966e-05 0.00015803649 -0.00011446204
2.0334706e-05 -8.5374313e-07 -1.1781309e-05 1.8876419e-05 7.5281278e-06 4.4047692e-06 -5.8347458e-05 7.742526e-05
-5.980893e-06 -6.7099672e-06 4.7689602e-05 -5.2952553e-05 -1.3721072e-05 -1.3663414e-05 8.866147e-05 -5.7764737e-05
-1.1687795e-05 -1.3036252e-05 8.857945e-05 -6.5915345e-05 3.273436e-05 2.853489e-05 -0.00024656116 0.00027813105
-1.6537842e-05 3.717353e-05 -0.00024759964 0.00024971855 1.2798361e-05 1.712466e-05 -0.00012346047 0.000111294925
1.730744e-05 -1.1616805e-05 6.5828935e-05 -6.336763e-05 -2.315363e-06 -3.2664848e-05 0.00019487861 -0.00018172846
-9.236139e-06 7.86006e-06 -2.5409985e-05 -5.1151233e-05 -3.508053e-05 -7.3487727e-06 8.284234e-05 -0.00015456349
-1.4381448e-05 2.6409625e-06 -8.804851e-06 -1.2630603e-05 1.680774e-05 2.2738177e-05 -0.00014900161 0.00011810795
-4.21625e-06 -2.8443548e-05 0.00018328617 -0.00014001629 -5.6015683e-06 6.0726443e-06 -1.9097955e-05 5.1138463e-06
2.4481305e-05 1.1678865e-06 -3.6952602e-05 6.8996276e-05 -5.9335794e-06 -8.728937e-06 3.5505807e-05 2.7330401e-05
2.0354248e-05 3.4992423e-05 -0.00021031755 0.00014077715 1.4209924e-05 1.6178712e-05 -0.0001068259 7.436318e-05

exp_avg_sq f4 [32, 4]
00000000: bc08 8536 e040 3c34 229f bb36 0d74 a037
00000010: 57dc ae35 e6a0 5e33 43bc f835 7d3d c836
00000020: cbac 2336 e755 a133 39a3 2936 32fe 1037
00000030: eac9 1035 41aa 9b32 70e4 1735 bfd7 f635
00000040: aa61 0d37 358b 2d35 d754 a937 e437 9838
00000050: 049a ab35 5797 ea32 1a23 9235 60cc 5a36
00000060: 0948 b135 0588 3933 69de bd35 8ad1 a136
00000070: 9b89 e036 75bb 9834 1ee5 1f37 6d9d 0d38
00000080: b6d4 8135 a466 d232 a89d 5135 645f 0836
00000090: d90a e836 8b04 3834 dd1d d136 86b0 ae37
000000a0: 9add 8635 14aa 3d33 854c d435 6a6d b136
000000b0: 614f 5535 3558 1f33 d752 b235 fa31 9336
000000c0: 86bc 4c36 7eb7 f433 81ca 7436 e560 5337
000000d0: 9b5b 2735 4510 6f32 e0c7 ff34 c74f c735
000000e0: c7cd 4c35 f01d cc32 81e7 4335 2dfc 0f36
000000f0: 0426 1535 01f5 2b32 c902 bb34 be3d 7c35
00000100: 934f ef34 9ec8 2232 b2a4 c634 b8c3 9935
00000110: d05f 1436 3671 6e33 801f 1036 e693 d736
00000120: 0447 0837 d738 f934 cd2b 7a37 edd6 6038
00000130: c570 fd34 0bd4 a932 33c6 3a35 83b9 1a36
00000140: 5b1d c036 44fa 7c34 461f 0037 0948 da37
00000150: 39d2 4436 9c91 1634 3112 9036 03ee 6a37
00000160: cd99 0436 2340 8733 fafd 0f36 7746 fc36
00000170: a583 ee36 901f 6c34 e9f1 fe36 f856 d937
00000180: 1fff 4f36 3393 9733 7dec 1e36 25d2 0337
00000190: d65c f534 72eb b432 b9a2 4a35 70a9 2a36
000001a0: ac63 4a36 95d1 1734 d477 9d36 1db9 8937
000001b0: 0726 3335 c1e2 0933 2e63 6f35 b9bc 3636
000001c0: 21c4 0136 50fc b333 91a4 3436 3988 1f37
000001d0: 0888 0835 2589 5132 6f79 c334 286e 8835
000001e0: 9235 b735 1245 9033 b82c 2136 1109 0737
000001f0: 0097 8534 8b7a 2532 6f91 c634 a56c a635
3.9647257e-06 1.7532466e-07 5.59156e-06 1.9127527e-05 1.3028138e-06 5.183474e-08 1.8532231e-06 5.9676227e-06
2.4389471e-06 7.512772e-08 2.527797e-06 8.642253e-06 5.3938004e-07 1.8121797e-08 5.6584304e-07 1.8391219e-06
8.426994e-06 6.4650095e-07 2.0185877e-05 7.258335e-05 1.2785317e-06 2.7310007e-08 1.0888064e-06 3.2603493e-06
1.3208493e-06 4.3197378e-08 1.4146327e-06 4.8225675e-06 6.6917396e-06 2.84486e-07 9.530484e-06 3.3763634e-05
9.673156e-07 2.4493893e-08 7.808799e-07 2.0321104e-06 6.9154016e-06 1.7137988e-07 6.232162e-06 2.0824617e-05
1.0048273e-06 4.4159677e-08 1.5817501e-06 5.2877485e-06 7.9464195e-07 3.7100296e-08 1.3286143e-06 4.3867594e-06
3.0508104e-06 1.13955124e-07 3.6476706e-06 1.259914e-05 6.234565e-07 1.391533e-08 4.764288e-07 1.4849874e-06
7.629537e-07 2.376234e-08 7.2980043e-07 2.1455446e-06 5.5562145e-07 1.00092175e-08 3.483349e-07 9.396716e-07
4.4575117e-07 9.475256e-09 3.7000206e-07 1.145635e-06 2.2109489e-06 5.5516658e-08 2.1476008e-06 6.424717e-06
8.122766e-06 4.642122e-07 1.4911359e-05 5.3605927e-05 4.7206973e-07 1.9770615e-08 6.957882e-07 2.305577e-06
5.7254633e-06 2.3560375e-07 7.636676e-06 2.602117e-05 2.9328642e-06 1.4022811e-07 4.293652e-06 1.4002903e-05
1.9759057e-06 6.298094e-08 2.1456494e-06 7.5183884e-06 7.108278e-06 2.1990695e-07 7.597952e-06 2.5908914e-05
3.0993904e-06 7.058261e-08 2.368149e-06 7.857137e-06 4.5702353e-07 2.1061826e-08 7.5487657e-07 2.54306e-06
3.0158362e-06 1.4139216e-07 4.6929144e-06 1.6417873e-05 6.6738033e-07 3.210403e-08 8.9178764e-07 2.7229964e-06
1.933666e-06 8.3812324e-08 2.691788e-06 9.508855e-06 5.08619e-07 1.2196584e-08 3.6409935e-07 1.0164849e-06
1.3650154e-06 6.718086e-08 2.40169e-06 8.048738e-06 2.4883047e-07 9.632127e-09 3.698619e-07 1.2399584e-06

exp_avg f4 [32]
00000000: 4f8e 1dba 7ef8 8a3a 2cc1 bf38 9d64 3e39
00000010: 903c 9aba f355 3bb9 2360 0538 8df4 353a
00000020: 6138 c6b8 17c2 a539 89d2 99ba 8c90 5e3a
00000030: 8c0b 5639 ccb2 89b9 56f9 8f39 0a95 a739
00000040: 9006 e639 8d0c 8eba 64a7 98ba a80e 28ba
00000050: 0c20 1f3a eda1 6b3a ff6f 9eb9 c68e 3c38
00000060: a338 45b9 20ed 40ba 95da 8e3a 483e 96b8
00000070: fb25 bab7 237e dc38 5c22 90ba f5e4 08ba
-0.00060102803 0.0010602621 9.143571e-05 0.00018157293 -0.0011767317 -0.00017865728 3.1799205e-05 0.0006941043
-9.451877e-05 0.0003161586 -0.0011735718 0.0008490167 0.00020412932 -0.0002626389 0.00027460855 0.00031963765
0.00043873908 -0.0010837481 -0.0011646566 -0.00064108754 0.0006070144 0.00089886674 -0.00030219552 4.495566e-05
-0.00018808483 -0.0007359553 0.0010898883 -7.164158e-05 -2.2190614e-05 0.00010513912 -0.0010996568 -0.00052221055

exp_avg_sq f4 [32]
00000000: b5db 0c3a 3268 0439 ec76 7139 1234 4d38
00000010: 7215 0b3b 7ee0 8d38 bb29 0b39 1a3b 773a
00000020: c598 0538 c7af e439 f112 f138 5591 c738
00000030: f24b b939 7726 ec37 e5c2 3538 8990 8f37
00000040: 079d b437 44c8 f938 5d16 ca3a 5cb6 5b38
00000050: d4d6 3e3a c0f2 aa39 f0ae 4139 1185 203a
00000060: 1dd3 5739 0a5c 6538 8097 de39 7cdd 7338
00000070: b321 8d39 70a9 a937 8d8e 3939 40fc ca37
0.0005373315 0.00012627317 0.00023027853 4.8924303e-05 0.00212225 6.765219e-05 0.00013271619 0.0009431109
3.185195e-05 0.00043618513 0.000114953036 9.51613e-05 0.00035342533 2.8151304e-05 4.3335272e-05 1.7114233e-05
2.1530794e-05 0.000119105476 0.0015418042 5.2383504e-05 0.00072799367 0.0003260579 0.00018471084 0.0006123344
0.00020582644 5.4683573e-05 0.00042456016 5.8141988e-05 0.00026918724 2.022527e-05 0.00017696079 2.419774e-05

exp_avg f4 [32, 32]
00000000: 4897 ac38 4474 fa38 5060 4138 6cc3 d538
00000010: b782 1138 fa67 e738 9dfe b238 d7a3 cb37
00000020: c29f bf38 2c96 3db8 0a11 96b8 6c89 0739
00000030: 65d9 bbb8 d244 d3b8 04f1 e9b8 4dc9 d538
00000040: ff11 1439 8f39 05b9 a485 f736 cfbe 07b9
00000050: bc62 b5b8 8d31 fbb8 d416 59b8 46b4 17b8
00000060: 6ed7 b238 a9e6 0fb9 6b36 8338 7b3e ba38
00000070: a83e 8bb8 9cdd 0839 f451 f1b8 02a7 0fb9
00000080: ebcf 1f39 b6f5 6339 c89c a338 7904 5339
00000090: fd8d 3f38 6593 6539 0b79 2039 c322 4c38
000000a0: 8d7e 1d39 1e01 bcb8 b4b3 feb8 6a42 8039
000000b0: f194 2fb9 8094 39b9 9624 6bb9 b1c6 4d39
000000c0: 97c5 8a39 3317 6db9 defc d836 4a28 7db9
000000d0: 6279 26b9 5e8b 58b9 97d2 eab8 b5cc 9cb8
000000e0: bfad 1439 99e3 86b9 8e5a 0139 3d72 1939
000000f0: ac8e f5b8 78a7 8639 8d64 65b9 441e 86b9
00000100: a238 2fb9 d1d8 6bb9 267f b4b8 e3f6 64b9
00000110: 42fb 2fb8 33a1 6fb9 1bfa 25b9 490b 3db8
00000120: 2faf 1bb9 39c0 bd38 3532 fb38 e858 88b9
00000130: d469 4039 e083 3839 1374 7839 81f3 5cb9
00000140: c8ed 91b9 1168 7139 c8de 2ab7 1299 8439
00000150: d539 3539 cdff 6239 b52b ff38 2788 a138
00000160: 54e1 18b9 e91d 8e39 9888 08b9 3eed 15b9
00000170: ff9b 0039 7a0d 93b9 20eb 7439 bfe8 8c39
00000180: 3b01 8538 b4d0 b438 3ef7 1938 2a7e a638
00000190: 8eeb bf37 23f3 ac38 a1b3 8638 d1b0 8c37
000001a0: a0f9 8738 0b6b f6b7 956a 51b8 2305 c838
000001b0: 898b 92b8 f7a9 94b8 f7a1 b3b8 25ac a538
000001c0: c127 d738 928c beb8 bd1d a336 077b c5b8
000001d0: 951d 8cb8 f22e b1b8 8163 1db8 e782 c5b7
000001e0: 6153 8738 c815 d2b8 1f7a 3d38 dccc 7c38
000001f0: 1dfb 50b8 a7f7 d638 69f5 b2b8 f944 d1b8
00000200: 46ab 92b8 7065 c5b8 19b5 16b8 3238 c0b8
00000210: c044 91b7 0158 c9b8 a116 8bb8 1756 9fb7
00000220: 67be 81b8 080a 1f38 ddb8 5138 1e6a e4b8
00000230: 1e2a a138 da3b 9a38 ceed d038 f464 b9b8
00000240: a16b f4b8 0de9 c938 2a15 89b6 d718 de38
00000250: a4b7 9738 5f3a bd38 6167 5638 7f74 0738
00000260: f183 7fb8 130c ee38 8dfb 64b8 1e94 79b8
00000270: 5740 5738 b2c1 f6b8 a028 cd38 ca00 ec38
00000280: f4e9 1338 89ff 6e38 cb49 9637 8543 4938
00000290: f84b 0637 6848 7138 1755 1c38 463f 9037
000002a0: 7e8d 3238 da8c d9b7 1810 0eb8 1ebf 8538
000002b0: 7e80 24b8 0bb7 50b8 40d3 67b8 4330 4c38
000002c0: 00ee 9038 6566 79b8 884c 57b6 717c 84b8
000002d0: ffaf 1ab8 a822 5fb8 738e f8b7 7f06 b9b7
000002e0: a434 1238 d07b 8cb8 c5b8 0d38 6ba9 2f38
000002f0: a0a3 e8b7 9aed 8038 a712 70b8 a246 8cb8
00000300: 8b33 8fb8 97a1 03b9 ab14 9fb7 516b cab8
00000310: 3e93 8cb8 d02d 01b9 db31 bbb8 da4a e1b7
00000320: 7e98 bbb8 dfd9 9338 38d7 a738 d942 f5b8
00000330: 1906 8f38 8c7a ef38 acfb 0839 9bb4 afb8
00000340: 1b00 16b9 4409 1639 b2bb a9b7 aa03 0939
00000350: a254 9538 0160 0039 4d41 7d38 107d 5b38
00000360: cb4d 98b8 bb36 0e39 fcd0 81b8 f22c d7b8
00000370: 5bdd 8c38 fa49 eeb8 a32b ce38 d744 0e39
00000380: 33b8 1bb8 126d 47b8 0949 9ab7 78f2 4bb8
00000390: fd62 32b7 4bf6 4db8 1d75 10b8 1423 01b7
000003a0: bd7d f7b7 a3b2 9f37 ad20 cb37 c347 67b8
000003b0: f870 2938 02db 1538 6d41 5d38 04b7 3eb8
000003c0: 3d70 78b8 a4dd 4b38 8296 95b6 abfb 6038
000003d0: ee38 2038 fb26 4138 4de3 df37 60ae 8637
000003e0: 51e0 01b8 53db 7138 4988 e4b7 8bcc eeb7
000003f0: cbfb e137 319c 82b8 82f4 4e38 fc0d 6f38
8.2297774e-05 0.00011942585 4.6104484e-05 0.000101930316 3.469243e-05 0.000110343055 8.535127e-05 2.427578e-05
9.137347e-05 -4.520097e-05 -7.155731e-05 0.00012925797 -8.957348e-05 -0.00010074083 -0.000111551984 0.00010194127
0.00014121084 -0.0001270531 7.3767314e-06 -0.00012945685 -8.649143e-05 -0.00011977842 -5.1758092e-05 -3.6169098e-05
8.527828e-05 -0.0001372347 6.256703e-05 8.880809e-05 -6.639707e-05 0.00013052527 -0.000115070405 -0.00013699758
0.00015240877 0.00021739941 7.8016485e-05 0.00020124194 4.5670186e-05 0.0002189405 0.00015303881 4.8669765e-05
0.0001501983 -8.964747e-05 -0.00012145136 0.00024463545 -0.00016744786 -0.00017698295 -0.00022424976 0.00019624342
0.00026468627 -0.00022610724 6.4667393e-06 -0.00024142969 -0.00015876212 -0.00020651284 -0.00011197215 -7.476789e-05
0.00014179105 -0.00025728045 0.00012336133 0.00014633774 -0.00011709085 0.00025683246 -0.000218766 -0.0002558102
-0.00016710398 -0.00022492117 -8.606752e-05 -0.00021835747 -4.1957253e-05 -0.00022852868 -0.00015828798 -4.507162e-05
-0.00014847213 9.0480265e-05 0.000119779645 -0.00026006182 0.00018349971 0.00017596735 0.00023694364 -0.00021071547
-0.00027833716 0.00023022319 -1.018466e-05 0.00025291048 0.00017283049 0.00021648333 0.000121674886 7.7024386e-05
-0.00014579791 0.00027106635 -0.00013020856 -0.00014298127 0.00012265144 -0.00028048066 0.00023357244 0.0002687629
6.3421634e-05 8.621943e-05 3.6708305e-05 7.938997e-05 2.2878663e-05 8.246887e-05 6.4230764e-05 1.6771637e-05
6.483798e-05 -2.9375331e-05 -4.9928745e-05 9.5377e-05 -6.987813e-05 -7.088848e-05 -8.5655534e-05 7.8998775e-05
0.00010259404 -9.086089e-05 4.8612405e-06 -9.416608e-05 -6.68123e-05 -8.448762e-05 -3.7524387e-05 -2.3545186e-05
6.452832e-05 -0.000100176374 4.5174846e-05 6.0272272e-05 -4.9824932e-05 0.00010250444 -8.5334126e-05 -9.978744e-05
-6.993725e-05 -9.412586e-05 -3.5931447e-05 -9.1657406e-05 -1.7317361e-05 -9.600819e-05 -6.6322515e-05 -1.8994366e-05
-6.1866645e-05 3.7917896e-05 5.000165e-05 -0.00010891653 7.684923e-05 7.3544405e-05 9.9625075e-05 -8.8402914e-05
-0.00011654874 9.627836e-05 -4.085382e-06 0.00010590412 7.234447e-05 9.023095e-05 5.1117855e-05 3.2295004e-05
-6.0919618e-05 0.00011350973 -5.459371e-05 -5.950417e-05 5.1319916e-05 -0.00011766273 9.782729e-05 0.00011253504
3.5265417e-05 5.6981607e-05 1.7915756e-05 4.7985017e-05 8.00471e-06 5.752631e-05 3.7272544e-05 1.7195602e-05
4.2570282e-05 -2.5934005e-05 -3.3870427e-05 6.3775326e-05 -3.9220315e-05 -4.9761537e-05 -5.5271434e-05 4.8682337e-05
6.910786e-05 -5.946159e-05 -3.2082044e-06 -6.3174295e-05 -3.688037e-05 -5.319962e-05 -2.9630237e-05 -2.2056744e-05
3.4858138e-05 -6.698782e-05 3.37891e-05 4.1881034e-05 -2.7732749e-05 6.1477724e-05 -5.723783e-05 -6.6888766e-05
-6.828372e-05 -0.0001255333 -1.8963901e-05 -9.6521e-05 -6.703146e-05 -0.00012319465 -8.926141e-05 -2.6856946e-05
-8.945259e-05 7.050088e-05 8.003268e-05 -0.00011694962 6.819907e-05 0.00011419234 0.00013063726 -8.378291e-05
-0.00014305154 0.00014308566 -2.0233772e-05 0.00013066703 7.120638e-05 0.00012242795 6.0380717e-05 5.2330142e-05
-7.262415e-05 0.00013562564 -6.190126e-05 -0.000102603706 6.716951e-05 -0.000113625036 9.8309734e-05 0.0001356782
-3.712643e-05 -4.7546877e-05 -1.839224e-05 -4.8624788e-05 -1.0632674e-05 -4.9105187e-05 -3.4441346e-05 -7.697166e-06
-2.9503246e-05 1.9037461e-05 2.4214702e-05 -5.5141525e-05 4.039795e-05 3.5728335e-05 5.275144e-05 -4.5469977e-05
-5.9232338e-05 4.860539e-05 -4.4580675e-06 5.3640146e-05 3.8199993e-05 4.605109e-05 2.6689517e-05 1.6055244e-05
-3.0964908e-05 5.766314e-05 -2.724318e-05 -2.8467059e-05 2.693934e-05 -6.227976e-05 4.9341943e-05 5.6995064e-05

exp_avg_sq f4 [32, 32]
00000000: 6604 7636 5519 c636 30ab 1936 87bf 4136
00000010: 4078 d635 dad3 3d36 695d 6136 7afa b234
00000020: 6df7 ad36 a3a9 8e34 ae4f 3f36 a184 da36
00000030: 8eb3 7f36 46aa 8d36 a5bf 2936 b2d7 8736
00000040: a50c d636 c595 de36 fff0 1435 4d9e cb36
00000050: cbac 8c36 c451 0137 44f5 ab34 a5ae 2234
00000060: 4b10 b336 eee6 eb36 c66d 5535 8529 9136
00000070: 59a5 2d36 a3d6 a936 0fbe b136 ad3b ed36
00000080: 46fa 0536 a85f ef36 889d 8f35 0a4a 4e36
00000090: 6084 3235 8744 f336 4ac5 3136 c33c 0a36
000000a0: 48ef e236 d437 b135 fc8f 6836 3e0b 1137
000000b0: bb80 2c36 b511 e136 0c10 ad36 6791 9936
000000c0: e066 1037 e34d fb36 8f7b 9e35 3180 0a37
000000d0: b62b 2136 df50 b536 607e c635 97f7 8f35
000000e0: fc1e 7936 4774 1737 c7d3 2836 7f1e a336
000000f0: c9b2 b535 16ca c136 b4a7 f936 9d26 1437
00000100: bf4d fc35 62e5 a836 9ab5 9b35 c2ee 1c36
00000110: 4638 7735 e2ee b036 7390 f035 e93a 9a35
00000120: 6d6d 9236 9cfa 4635 53cd 1a36 2530 cd36
00000130: 87a2 1036 f734 8d36 bd97 8a36 909e 6636
00000140: 2517 b936 036a ac36 a478 6935 d772 bb36
00000150: 8263 0f36 3146 8e36 4c08 8735 7c10 2b35
00000160: b481 4736 db2a d436 7f2d bd35 ee74 5936
00000170: 8e9a a335 5bb9 9936 4165 b036 166e c636
00000180: c23c dd36 4ef8 2f37 ddbc 9136 60d5 8936
00000190: 4538 7136 7e13 a136 f694 a936 f5ff 1c35
000001a0: 890f 1237 4894 7334 34b2 a736 b187 3837
000001b0: 0b9a d936 0534 d136 d62e 9636 3b74 d936
000001c0: a165 2437 0985 4137 5ac2 bf35 9093 2b37
000001d0: 51fa f936 2f0a 6737 62c9 0135 6403 4834
000001e0: 81d1 2437 23e8 4837 5398 8935 c344 e936
000001f0: 8948 8d36 290d 0f37 2213 1837 d7f5 3e37
00000200: 38fe 3734 062c 0035 a442 cb33 3ea2 8634
00000210: 0815 9233 a517 0635 ba66 4e34 d929 0234
00000220: d5a6 e134 b407 ad33 39cc 6a34 58d9 2035
00000230: d5f3 6234 eacc e634 5f36 ce34 9944 b934
00000240: 30b7 1d35 35db 0535 6b57 ae33 ec7d 1435
00000250: 1a4e 5434 0f18 d234 35ef dd33 5b4c 8e33
00000260: 80d9 8f34 b7bf 2635 08d0 2734 5304 aa34
00000270: d8b6 f133 b638 f234 f047 0935 4dfa 2135
00000280: e6ac 0135 f27c 1a36 4e36 9b34 decd 6c35
00000290: d8ef 4a35 3a32 7336 e617 ed34 739e 9e35
000002a0: 0691 1236 7c18 5935 0a83 9735 246e 4736
000002b0: 25cc 0835 e65d 2936 ce33 3436 6f7a b635
000002c0: b967 2c36 27ef 1636 ea2e 7d35 7a72 3536
000002d0: 598d 1135 37ec b235 8693 7635 18ea 4a35
000002e0: dc30 5535 20d5 4936 df15 8a35 b4cf de35
000002f0: 375c 9a34 5c5b fa35 7e2f 3036 6c44 3636
00000300: 09d7 6e34 c88c 7035 05de 5334 5e18 5334
00000310: 9e85 2b34 2681 1135 0546 d034 4805 3634
00000320: 7d5c 9935 630e b333 2e4b 1c35 e36a 5b35
00000330: 9330 9034 82b4 8235 215d ac34 43ab e534
00000340: 939f 6f35 931e 9235 7750 af33 8b75 6b35
00000350: befa 9934 6a18 6835 df47 8033 04a4 6133
00000360: 3ed8 4235 41f1 7735 a393 3534 a486 7635
00000370: f9c8 7e34 9fa8 d434 0784 3435 5afa 8035
00000380: 0afd de34 16c0 6335 07a5 9634 ddbf d134
00000390: 1bc3 4934 39ce 3635 95a8 b634 280a eb33
000003a0: 0e13 4135 6307 6433 eb99 cf34 7b06 7d35
000003b0: 5a9f e534 eaa0 1735 ba48 1d35 a9df 1935
000003c0: 444c 4b35 b4fc 6935 b190 f133 9e0e 6635
000003d0: 1e6b fe34 0d35 6535 9826 0234 3b82 4333
000003e0: a20a 2e35 88cc 8235 128c 0b34 6536 0a35
000003f0: 45bf 9534 8046 4a35 4717 5a35 95ee 6a35
3.6659417e-06 5.903809e-06 2.289842e-06 2.8870725e-06 1.597924e-06 2.8286508e-06 3.3581985e-06 3.333733e-07
5.184606e-06 2.6572988e-07 2.8507598e-06 6.5123463e-06 3.8102476e-06 4.22195e-06 2.5294514e-06 4.0484238e-06
6.379169e-06 6.633551e-06 5.548499e-07 6.0683e-06 4.192441e-06 7.708037e-06 3.2029686e-07 1.5150961e-07
5.3365125e-06 7.0304295e-06 7.9508425e-07 4.3261703e-06 2.5875254e-06 5.0615795e-06 5.297137e-06 7.0700976e-06
1.9964223e-06 7.133891e-06 1.0700178e-06 3.0739488e-06 6.65028e-07 7.249942e-06 2.6489893e-06 2.059897e-06
6.763181e-06 1.3203776e-06 3.4654504e-06 8.645291e-06 2.5704928e-06 6.707584e-06 5.15767e-06 4.5766824e-06
8.607021e-06 7.48945e-06 1.1807878e-06 8.255288e-06 2.4016313e-06 5.403635e-06 1.478893e-06 1.0726388e-06
3.7121927e-06 9.027374e-06 2.5157221e-06 4.8613288e-06 1.3537584e-06 5.775374e-06 7.4403015e-06 8.830478e-06
1.879809e-06 5.033494e-06 1.1601253e-06 2.3384787e-06 9.209656e-07 5.2730184e-06 1.7923434e-06 1.1491039e-06
4.363878e-06 7.412543e-07 2.3067303e-06 6.115081e-06 2.1552275e-06 4.2082934e-06 4.130385e-06 3.4364966e-06
5.516124e-06 5.138341e-06 8.697482e-07 5.5864034e-06 2.1366582e-06 4.240101e-06 1.0060699e-06 6.372645e-07
2.9728808e-06 6.3230814e-06 1.4094838e-06 3.2403582e-06 1.2189428e-06 4.5813335e-06 5.2569962e-06 5.9136755e-06
6.5933864e-06 1.0488626e-05 4.3433233e-06 4.1077583e-06 3.5944552e-06 4.800443e-06 5.053934e-06 5.8486995e-07
8.705895e-06 2.2685083e-07 4.9977334e-06 1.0998848e-05 6.485037e-06 6.2347412e-06 4.475801e-06 6.480635e-06
9.798824e-06 1.1534671e-05 1.4287173e-06 1.0226751e-05 7.449919e-06 1.3771044e-05 4.8349295e-07 1.8627685e-07
9.823941e-06 1.19749775e-05 1.0251628e-06 6.951946e-06 4.2105717e-06 8.526528e-06 9.064361e-06 1.1382122e-05
1.7135687e-07 4.774778e-07 9.465046e-08 2.5077492e-07 6.8024804e-08 4.99533e-07 1.9222617e-07 1.2122418e-07
4.2030902e-07 8.0573415e-08 2.1867244e-07 5.992092e-07 2.1136596e-07 4.2989933e-07 3.841005e-07 3.4508847e-07
5.875363e-07 4.986535e-07 8.1184076e-08 5.5317537e-07 1.9772452e-07 3.9133053e-07 1.0334626e-07 6.626279e-08
2.6794078e-07 6.21188e-07 1.5628768e-07 3.1668114e-07 1.1255696e-07 4.5117275e-07 5.114116e-07 6.034141e-07
4.8307845e-07 2.3020516e-06 2.8910512e-07 8.821643e-07 7.559988e-07 3.6239057e-06 4.4162078e-07 1.1818032e-06
2.184011e-06 8.087443e-07 1.1288514e-06 2.971742e-06 5.096102e-07 2.5237619e-06 2.6852244e-06 1.359569e-06
2.5690372e-06 2.2490947e-06 9.4318113e-07 2.7037736e-06 5.42224e-07 1.3330781e-06 9.1856816e-07 7.5591515e-07
7.9419783e-07 3.007539e-06 1.0288167e-06 1.6600738e-06 2.875183e-07 1.8653041e-06 2.6253688e-06 2.715994e-06
2.2243707e-07 8.961183e-07 1.9731677e-07 1.9659771e-07 1.5974226e-07 5.4204645e-07 3.8793965e-07 1.6951992e-07
1.1426306e-06 8.337954e-08 5.822393e-07 8.17394e-07 2.6857433e-07 9.73829e-07 3.2105257e-07 4.2779183e-07
8.926665e-07 1.0886746e-06 8.163709e-08 8.771537e-07 2.868091e-07 8.646226e-07 5.973538e-08 5.2536066e-08
7.2585306e-07 9.236574e-07 1.6910649e-07 9.183807e-07 2.3728707e-07 3.9610765e-07 6.724735e-07 9.609605e-07
4.1534832e-07 8.484361e-07 2.805975e-07 3.9068883e-07 1.8790563e-07 6.8100377e-07 3.40228e-07 1.0944888e-07
7.192583e-07 5.3092105e-08 3.8668745e-07 9.4259275e-07 4.2770517e-07 5.6486044e-07 5.859289e-07 5.732241e-07
7.5734374e-07 8.7166995e-07 1.1248756e-07 8.570295e-07 4.7389125e-07 8.5386347e-07 1.2121234e-07 4.552042e-08
6.4835524e-07 9.745281e-07 1.2996341e-07 5.148816e-07 2.789258e-07 7.5353455e-07 8.12452e-07 8.7518976e-07

exp_avg f4 [32]
00000000: dbf9 6e39 3a94 dd39 9043 e8b9 8b55 2e39
00000010: 7d7c 42b9 79ad e638 dada 6db9 6d36 c5b8
00000020: d69e 1e3a a1dd 8239 4d2c ebb9 bc28 b939
00000030: b8e7 b5b9 19d6 04b9 4fa6 7dba 5154 5539
00000040: ead8 acb6 8619 9d39 f049 22b9 c9e3 8ab6
00000050: a58a 2fb8 e383 fcb9 bbcc 29b9 9146 0e3a
00000060: dcc5 4a3a 1224 d438 046a 9db9 a3a5 50ba
00000070: dc3a 25ba 6f57 c739 1013 98b8 54bf 7339
0.00022790527 0.00042262842 -0.00044300826 0.000166258 -0.00018547657 0.000109995664 -0.0002268361 -9.4038296e-05
0.000605089 0.0002496066 -0.000448557 0.000353163 -0.00034695654 -0.00012668259 -0.0009675966 0.00020344673
-5.1512516e-06 0.0002996439 -0.00015477068 -4.139238e-06 -4.1852374e-05 -0.0004816345 -0.00016193364 0.00054273853
0.0007735172 0.000101156664 -0.0003002436 -0.0007959252 -0.0006303021 0.0003802138 -7.2514755e-05 0.00023245561

exp_avg_sq f4 [32]
00000000: f3e9 b337 6e58 de37 6c42 a437 80bc 1f38
00000010: d296 f535 eb7c 1e37 552e 4636 e73e 5d36
00000020: be04 1138 9776 ee37 9352 7d37 d0c0 ab37
00000030: 865f 7238 a44a 8736 5aad 4f39 6dbb ba36
00000040: 779e 1736 7c6a 8537 fcbb 0536 fb8a 8236
00000050: 2051 ae35 1443 113a 33eb 6e36 c8c2 c037
00000060: 856e bf38 5b48 a135 3ffe 8037 e8aa 4b38
00000070: 8dce fd37 b9ef 4d37 fb04 0236 7fb1 0b37
2.1447404e-05 2.650564e-05 1.9581254e-05 3.808411e-05 1.8297817e-06 9.446619e-06 2.9531268e-06 3.296818e-06
3.457511e-05 2.8427034e-05 1.5099201e-05 2.0474574e-05 5.778626e-05 4.032003e-06 0.00019805637 5.565051e-06
2.2592992e-06 1.5904421e-05 1.9927966e-06 3.8904814e-06 1.2987621e-06 0.00055413065 3.5601668e-06 2.2978886e-05
9.1281756e-05 1.2016493e-06 1.5377182e-05 4.855814e-05 3.0256133e-05 1.2274767e-05 1.9374409e-06 8.326372e-06

exp_avg f4 [1, 32]
00000000: f935 883c fd68 deba 27d1 843c 6a56 8a3c
00000010: 049b 7e3c 9aa7 8a3c 326c 873c fb31 8abc
00000020: 090f 85bc 7b18 883c 7a24 803c cb43 87bc
00000030: b8a7 86bc 5766 89bc a584 a7bb ec72 88bc
00000040: 6d88 8bbc ddea 87bc da44 883c 368e 8bbc
00000050: e7df 8abc 95b2 86bc 9a65 883c 2de3 82bc
00000060: 5798 75bc 21c6 89bc 169e 863c ac7f 1c3c
00000070: 4c7d 713c 33d1 84bc 6e58 8abc 335f 86bc
0.016627299 -0.0016968545 0.016213013 0.016886909 0.015539888 0.016925622 0.016531084 -0.016869536
-0.01624252 0.016613236 0.015642393 -0.016511818 -0.016437396 -0.016772432 -0.005112248 -0.016656362
-0.017032826 -0.016591484 0.016634393 -0.017035585 -0.016952468 -0.016442576 0.01665001 -0.015977466
-0.014989934 -0.016818108 0.016432803 0.009551924 0.014739346 -0.016213035 -0.01688787 -0.016402816

exp_avg_sq f4 [1, 32]
00000000: 8b4c 523c e3cc 5139 cdb5 4d3c 9bcd 623c
00000010: 8fe0 3f3c 9d57 613c 3760 5d3c 0358 613c
00000020: f8f9 4e3c 5947 533c 65f7 3e3c 7e51 523c
00000030: d568 493c b68c 5e3c 367e 2a3a 20de 583c
00000040: 1ef6 663c 090a 553c 5779 5b3c 0f26 673c
00000050: 4055 653c 305d 293c cd6c 583c 9560 493c
00000060: 13c7 193c 9b0e 603c 09a5 4d3c 4739 9b3b
00000070: def6 283c a1df 4e3c 355d 623c ba0f 4d3c
0.012835632 0.0002000812 0.012555552 0.0138429655 0.011711254 0.013753799 0.013511709 0.013753894
0.012632839 0.012895429 0.011655663 0.012836812 0.01229306 0.013583353 0.0006503792 0.0132365525
0.014096765 0.013002881 0.013395629 0.014108195 0.013997376 0.010337159 0.013209534 0.012291093
0.009385842 0.013675357 0.0125515545 0.0047370526 0.010312764 0.0126265595 0.013816168 0.012515957
