trained_models/0_lag_ppo_InvertedPendulum-v2_eps_0.25_actor.pth (torch, 29858 bytes, 20 tensors)

policy_net.layers.0.weight f4 [32, 4]
-0.053562745 -1.566277 -0.20882487 -0.23519076 -0.5562465 1.375447 -0.59439105 0.6133254
0.467954 -0.7664673 0.006907502 -0.32585028 0.0067762677 1.4233845 -0.31759584 0.19414026
-0.45541677 -0.9914162 -0.39260542 0.59164906 -0.13723972 -1.2347708 -0.9122192 -0.12349676
-0.8282836 -1.7962393 -0.08715205 -0.114193566 -0.5868647 0.03492735 -0.8984219 -0.02849876
0.013055096 1.3175242 -0.48550427 -0.066162944 1.0950837 1.4215423 0.99733025 0.42785016
-0.57163596 0.30109268 0.0784312 -0.39422032 -0.057988666 0.23861599 0.14817904 -0.25759834
0.15204467 -1.2547501 -0.25003955 -0.030112322 0.14022899 0.34878737 -0.13463974 0.31211546
-0.4714029 -1.4128194 0.13353513 0.11303474 0.44182786 1.2048328 -0.4300849 0.41113004
0.36723068 -0.3989669 0.48806643 -0.025441516 0.32861596 -0.5172496 0.2741025 0.048311196
0.14160727 -0.72711694 -0.33471572 0.47885403 -0.14663993 -1.8179797 -0.831368 -0.6465338
-0.09905263 1.1740825 -0.3665448 0.23773335 -0.49553683 0.3334085 -0.020666271 -0.15000372
-0.32120258 0.33135563 -0.099139184 -0.24373858 -0.049264878 -0.900376 0.19122437 -0.13866346
-0.016846668 0.4847725 -0.3098735 -0.3261238 0.35168192 0.88926435 0.92668426 0.2578928
0.38041675 -0.29598162 0.23185857 -0.18485123 -0.04786083 1.3164605 -0.23288736 -0.18274452
0.44499567 -1.1850928 0.34572497 0.10261411 0.3740011 1.6403688 0.60932666 0.4625205
0.5175393 -0.63167536 -0.35826507 0.108729914 0.19313647 0.68200797 -0.6237808 0.4809672
00000000: 9c64 5bbd c47b c8bf 30d6 55be d9d5 70be
00000010: 2c66 0ebf a60e b03f 032a 18bf e502 1d3f
00000020: ab97 ef3e 3337 44bf 5458 e23b d9d5 a6be
00000030: 740b de3b 7731 b63f ec9b a2be b4cc 463e
00000040: 632c e9be 74cd 7dbf 9403 c9be 5076 173f
00000050: 9288 0cbe f80c 9ebf 3387 69bf dfeb fcbd
00000060: 650a 54bf 2beb e5bf c67c b2bd 51de e9bd
00000070: c43c 16bf fb0f 0f3d fafe 65bf 3b76 e9bc
00000080: 0be5 553c a2a4 a83f 0494 f8be 7080 87bd
00000090: b42b 8c3f 19f5 b53f 0951 7f3f 2d0f db3e
000000a0: bc56 12bf d228 9a3e 89a0 a03d 3fd7 c9be
000000b0: 8685 6dbd c057 743e 3fbc 173e eee3 83be
000000c0: 99b1 1b3e a79b a0bf 2f05 80be 1eae f6bc
000000d0: 3098 0f3e 4294 b23e 00df 09be 99cd 9f3e
000000e0: b95b f1be 44d7 b4bf 6fbd 083e c27e e73d
000000f0: 4337 e23e f637 9a3f 1734 dcbe a37f d23e
00000100: a905 bc3e 6445 ccbe d8e3 f93e ba6a d0bc
00000110: 5a40 a83e 786a 04bf 2a57 8c3e f6e1 453d
00000120: 7f01 113e 5624 3abf dc5f abbe 5b2c f53e
00000130: c728 16be 8fb3 e8bf 89d4 54bf 3d83 25bf
00000140: 1bdc cabd 5648 963f c3ab bbbe 5f70 733e
00000150: 01b7 fdbe 85b4 aa3e 504c a9bc 939a 19be
00000160: aa74 a4be 72a7 a93e 7c09 cbbd 9b96 79be
00000170: f8c9 49bd 0b7f 66bf 52d0 433e cbfd 0dbe
00000180: 0602 8abc 1a34 f83e bda7 9ebe b3f9 a6be
00000190: a70f b43e d4a6 633f 2e3b 6d3f 860a 843e
000001a0: fcc5 c23e e78a 97be 556c 6d3e a449 3dbe
000001b0: b809 44bd c781 a83f 067a 6ebe 6121 3bbe
000001c0: 79d6 e33e 1fb1 97bf dd02 b13e 5927 d23d
000001d0: 127d bf3e 9bf7 d13f d5fc 1b3f 7dcf ec3e
000001e0: 757d 043f 7ab5 21bf 856e b7be caad de3d
000001f0: 91c5 453e 1398 2e3f 19b0 1fbf 5541 f63e

policy_net.layers.0.bias f4 [32]
0.2072533 -0.17931929 -0.2057848 0.22545126 0.3355907 -0.21608073 0.19630949 -0.28792107
0.10892031 0.19360855 0.3870176 -0.33773786 -0.15596087 0.15941155 -0.14907129 0.047822464
0.025817953 -0.34403417 0.41976875 0.17478597 -0.24314325 0.45449814 -0.29776138 0.15589541
0.23257802 0.28979588 0.30354622 -0.30943787 -0.00476303 0.2302889 0.04260298 0.13975306
00000000: 363a 543e 7a9f 37be 40b9 52be b2dc 663e
00000010: 8bd2 ab3e 4444 5dbe 5b05 493e 646a 93be
00000020: 9d11 df3d 5241 463e 2c27 c63e faeb acbe
00000030: 35b4 1fbe c83c 233e 25a6 18be 7de1 433d
00000040: 2c80 d33c 3f25 b0be eeeb d63e 18fb 323e
00000050: 8bfa 78be fbb3 e83e 2e74 98be 0ca3 1f3e
00000060: ef28 6e3e 2060 943e 696a 9b3e a46e 9ebe
00000070: 3113 9cbb dad0 6b3e 7680 2e3d 6d1b 0f3e

policy_net.layers.2.weight f4 [32, 32]
-0.31144342 0.54332757 -0.2053354 0.37551886 0.098499425 0.014041037 -0.1949521 -0.07181568
0.3626078 0.24229194 0.061322603 -0.04004308 -0.11533084 0.1610695 -0.3530324 0.403116
-0.24185264 0.06410832 0.12735903 -0.36911523 0.18832107 0.04248677 -0.10988058 -0.19347462
-0.111814015 -0.017051881 -0.18501003 0.1021393 -0.7553877 0.2496633 0.24828453 0.39445448
0.27357218 0.019263359 0.12796861 -0.091363035 0.28747725 0.39395887 0.29137465 0.18291788
-0.21183217 -0.6595103 -0.11554378 0.027440678 0.4241266 -0.013136365 0.15540476 -0.115574785
-0.25397283 0.038981006 0.08009379 0.5968844 -0.0075423773 -0.20386045 -0.039571233 0.014516797
-0.034039374 -0.41573057 -0.11943934 -0.17798732 0.007921942 -0.31217995 0.36616513 0.15187494
-0.018127821 0.19084926 0.14425774 -0.004930104 0.1079664 0.12739623 0.00682101 0.047886103
0.20055263 0.1375977 0.11066678 -0.09624279 -0.080525555 -0.022324486 -0.033123672 0.06677115
-0.11064572 -0.13006167 -0.09931193 -0.027260862 0.073389776 0.15672705 -0.08512285 -0.02926919
-0.052911714 0.05946769 -0.14182678 0.1931439 -0.20004833 0.20893447 -0.14528273 0.07036792
0.09521301 0.10905766 -0.028704867 -0.0884359 0.083855115 0.17855261 -0.1842771 0.12947974
0.021666568 0.22115475 0.041764427 0.0040748855 -0.08643817 0.09011527 0.06309242 0.0428209
-0.07745802 -0.14317933 -0.049112733 -0.14707614 0.0469482 0.002070135 0.09475356 -0.003698698
0.00921392 0.04353954 -0.15207267 0.10649919 -0.35619816 -0.052491505 -0.060812265 0.18360674
0.08867287 -0.006130803 0.024288572 -0.18805154 0.060873386 0.19090346 0.16519594 0.16651523
-0.065484785 -0.15640214 -0.0053905197 0.07499685 0.020856345 -0.038979527 0.1883184 -0.02659485
-0.058734495 -0.010664284 0.04982959 0.39410177 -0.070934385 0.15297362 -0.119075656 0.21067685
-0.053893168 -0.006242325 -0.068463795 -0.15645629 0.012476844 -0.31506845 0.07514045 -0.13491204
-0.0070648766 0.19247006 -0.019729387 0.05334895 0.07920787 -0.15717697 0.08676283 0.16868027
0.17213492 0.06988524 -0.17763695 0.027957343 -0.20668972 -0.1429371 -0.025463557 -0.030631453
0.2201473 0.13637657 -0.14158756 0.08771514 -0.00020891955 -0.166105 -0.10100479 0.098712236
0.16105327 0.12307111 -0.08478468 -0.039855994 -0.06400031 -0.09392112 0.08109475 -0.081340924
0.19737376 0.070163265 -0.18440697 -0.13926819 0.2188729 -0.17113258 0.16876765 0.05721018
-0.05265742 -0.11896002 -0.0022133393 -0.16522 0.10335439 0.098240435 -0.15079392 -0.15199207
0.030636445 0.16052435 0.123024054 0.04969917 0.082298726 0.09899786 -0.05682416 0.20605521
-0.058991957 -0.06806821 0.18474868 -0.17419323 0.24808645 0.04658688 0.10779658 -0.022570651
-0.2895319 0.29983857 -0.13919027 -0.12786539 0.08368816 -0.14295627 0.063724756 0.10271992
0.054821208 -0.027377464 -0.10162654 0.1537468 -0.0758102 -0.18538442 0.11006614 0.14683811
-0.088317014 -0.07352807 -0.2135202 -0.23509201 0.05241988 0.12688467 0.072128765 -0.12297503
-0.17805961 0.03701081 -0.15394479 -0.05425019 -0.4445338 0.23416825 -0.23436902 0.18698539
00000000: 8375 9fbe 8417 0b3f 7143 52be 0244 c03e
00000010: 11ba c93d 610c 663c 86a1 47be 1914 93bd
00000020: bba7 b93e 611b 783e 692d 7b3d 3604 24bd
00000030: 9332 ecbd 67ef 243e aac0 b4be 3865 ce3e
00000040: 38a8 77be 394b 833d 686a 023e acfc bcbe
00000050: 3dd7 403e 9b06 2e3d 1209 e1bd 361e 46be
00000060: bffe e4bd 63b0 8bbc 4573 3dbe 692e d13d
00000070: 1761 41bf bca7 7f3e 4d3e 7e3e f0f5 c93e
00000080: a711 8c3e 31ce 9d3c 340a 033e 8b1c bbbd
00000090: 3830 933e fab4 c93e 0f2f 953e d34e 3b3e
000000a0: 88ea 58be abd5 28bf 38a2 ecbd 46cb e03c
000000b0: 1f27 d93e e939 57bc 6d22 1f3e 79b2 ecbd
000000c0: ba08 82be 8caa 1f3d 3708 a43d 6bcd 183f
000000d0: 0c26 f7bb cbc0 50be 7215 22bd dcd7 6d3c
000000e0: df6c 0bbd a3da d4be 9d9c f4bd 4f42 36be
000000f0: 08cb 013c 0dd6 9fbe ff79 bb3e 1b85 1b3e
00000100: cc80 94bc fd6d 433e 4db8 133e b68c a1bb
00000110: 7d1d dd3d 2874 023e c782 df3b 3824 443d
00000120: ab5d 4d3e 69e6 0c3e 44a5 e23d f11a c5bd
00000130: 95ea a4bd d7e1 b6bc b0ac 07bd 50bf 883d
00000140: 399a e2bd e32e 05be 0e64 cbbd 2c52 dfbc
00000150: 614d 963d 0e7d 203e e454 aebd f1c5 efbc
00000160: f4b9 58bd 6494 733d 0a3b 11be 84c7 453e
00000170: 78d9 4cbe ebf2 553e ffc4 14be 0e1d 903d
00000180: 0aff c23d 9f59 df3d 7826 ebbc e21d b5bd
00000190: 3bbc ab3d 7fd6 363e 23b3 3cbe 5696 043e
000001a0: 167e b13c 6476 623e 2d11 2b3d 9e86 853b
000001b0: 7f06 b1bd 5b8e b83d 9936 813d f864 2f3d
000001c0: 4fa2 9ebd 9a9d 12be 6f2a 49bd 219b 16be
000001d0: c14c 403d 1aab 073b 280e c23d db65 72bb
000001e0: fbf5 163c 8456 323d f0b8 1bbe 3f1c da3d
000001f0: 9b5f b6be 5501 57bd 4816 79bd 6803 3c3e
00000200: 1f9a b53d e7e4 c8bb d4f8 c63c 9590 40be
00000210: 5f56 793d 327c 433e 2029 293e f882 2a3e
00000220: e31c 86bd e227 20be f5a2 b0bb f397 993d
00000230: edda aa3c ffa8 1fbd 8ad6 403e 71dd d9bc
00000240: 9593 70bd 40b9 2ebc 1d1a 4c3d b5c7 c93e
00000250: 0c46 91bd 1ea5 1c3e f0dd f3bd acbb 573e
00000260: 15bf 5cbd 6b8c ccbb bf36 8cbd 1436 20be
00000270: ad6b 4c3c a750 a1be 3ce3 993d 6226 0abe
00000280: 7b80 e7bb df16 453e 869f a1bc 6e84 5a3d
00000290: bc37 a23d 00f3 20be b6b0 b13d 85ba 2c3e
000002a0: 2344 303e fe1f 8f3d 76e6 35be cc06 e53c
000002b0: 78a6 53be 1a5e 12be f398 d0bc d0ee fabc
000002c0: 4b6e 613e 4da6 0b3e 54fc 10be ffa3 b33d
000002d0: 6a11 5bb9 6e17 2abe 99db cebd a429 ca3d
000002e0: 26eb 243e b50c fc3d 97a3 adbd 0a40 23bd
000002f0: 9812 83bd b759 c0bd 0115 a63d 1296 a6bd
00000300: 591c 4a3e c2b1 8f3d 2ed5 3cbe 529c 0ebe
00000310: 3820 603e 613d 2fbe 6dd1 2c3e 3955 6a3d
00000320: 4faf 57bd 50a1 f3bd ac0d 11bb 6f2f 29be
00000330: 77ab d33d 4832 c93d b969 1abe cfa3 1bbe
00000340: 48f9 fa3c 7f60 243e 09f4 fb3d 5b91 4b3d
00000350: 3c8c a83d 64bf ca3d 73c0 68bd 2300 533e
00000360: 8da1 71bd 5867 8bbd c22e 3d3e b65f 32be
00000370: 600a 7e3e e2d1 3e3d 74c4 dc3d 16e6 b8bc
00000380: 863d 94be 7184 993e e587 0ebe 25ef 02be
00000390: b364 ab3d 2163 12be 2082 823d d25e d23d
000003a0: 348c 603d b446 e0bc 9321 d0bd cd6f 1d3e
000003b0: 6142 9bbd 6ad5 3dbe 5b6a e13d bb5c 163e
000003c0: 8ddf b4bd e295 96bd 0aa5 5abe f6bb 70be
000003d0: 3ab6 563d 0eee 013e 3fb8 933d 55da fbbd
000003e0: 4255 36be a698 173d b4a3 1dbe 7235 5ebd
000003f0: ef99 e3be cdc9 6f3e 6ffe 6fbe 1979 3f3e

policy_net.layers.2.bias f4 [32]
-0.09691355 0.02125149 -0.12770298 0.06289109 -0.096306965 0.08618519 0.0058865245 -0.07594947
-0.11247783 0.11741757 0.036482055 0.06218541 -0.124152 0.13993713 0.16844739 -0.17207497
-0.16223828 0.05347677 0.14116697 0.14053568 -0.13601865 0.12046615 -0.17671357 -0.025089316
-0.11736835 0.041600343 0.0068725813 -0.15473707 -0.1228426 0.09695164 0.054655127 0.043312255
00000000: 9c7a c6bd 9b17 ae3c 92c4 02be 0bcd 803d
00000010: 963c c5bd dc81 b03d bfe3 c03b 658b 9bbd
00000020: c75a e6bd 9f78 f03d 356e 153d 21b6 7e3d
00000030: 6743 febd ae4b 0f3e 797d 2c3e 6c34 30be
00000040: cb21 26be 750a 5b3d 138e 103e 96e8 0f3e
00000050: 7948 0bbe f5b6 f63d 67f4 34be 1c88 cdbc
00000060: d15e f0bd 1f65 2a3d 6433 e13b 6573 1ebe
00000070: e794 fbbd 958e c63d 0ede 5f3d 3168 313d

policy_net.mean_layer.0.weight f4 [1, 32]
0.20318484 -0.4496303 0.028866008 0.08118626 -0.15606841 -0.0019475142 -0.13685659 0.17456383
-0.013720979 0.23245068 0.07223292 0.12608434 -0.0052345702 -0.016697517 0.07211451 -0.0010657716
0.015401148 -0.12260859 0.010808922 -0.0035199828 -0.05436518 0.105627246 -0.00016863947 -0.0029077951
0.05510624 -0.21528144 0.00037494543 0.055252906 0.00020572933 0.16720097 -0.07469327 0.1484803
00000000: b00f 503e f135 e6be 6878 ec3c fb44 a63d
00000010: 66d0 1fbe bc43 ffba 2224 0cbe dcc0 323e
00000020: f5cd 60bc 8d07 6e3e daee 933d 411c 013e
00000030: c286 abbb 3bc9 88bc c6b0 933d 5cb1 8bba
00000040: 1955 7c3c 361a fbbd e817 313c 83af 66bb
00000050: 06ae 5ebd 1953 d83d d0d4 30b9 b590 3ebb
00000060: 15b7 613d bd72 5cbe 5394 c439 df50 623d
00000070: 0cb9 5739 bb36 2b3e c9f8 98bd 380b 183e

critic.critic_net.layers.0.weight f4 [32, 4]
-0.061437443 -0.94117683 -0.29245445 0.08455031 -0.8320668 -1.0347106 0.3568327 -0.283505
0.94202995 1.3238912 -0.6732019 0.022106403 0.19978543 -0.3129127 -0.70667374 -0.131187
0.57233477 2.516598 0.71460974 -0.19352438 -1.3401704 -0.08554292 -0.6161735 -0.3886758
-0.024548143 -0.03642805 0.6256879 0.46500745 -0.070468605 -0.49921924 -0.031720586 0.096451424
-1.2671508 0.90322644 -0.6673339 0.17631191 0.43764055 -0.054882675 0.31535208 -0.14621255
0.54937863 1.4090116 -0.46318883 -0.06479285 0.77905864 1.2222203 -0.30480987 0.30814657
0.8960592 2.8295631 1.0272062 0.5896849 1.0088469 1.2764907 -0.78007686 0.026332945
-0.17590417 -1.8749322 -0.21819991 -0.06242548 0.9952819 -0.5161561 0.22173277 -0.39331108
-0.1670368 -0.9059536 -0.057566553 0.060278002 0.040362753 0.15624873 0.008151265 -0.05097358
0.62049514 1.0663861 -0.14577287 0.4201236 -0.37599206 -1.2601858 0.30297393 -0.10848533
-0.8242398 -0.67152363 -0.4654518 -0.49110815 -1.1798743 0.33359984 -0.87539804 0.053036433
-0.7677034 -1.7154257 -0.27286693 -0.25220186 0.034282893 -0.5311865 -0.09326029 0.054422036
-2.5429852 -1.4453025 -0.52203053 -0.119444385 -0.98617554 -2.5559652 -1.0226332 -0.54145795
-0.03824392 -0.3593636 -0.06995834 0.007931035 -0.61129475 -0.58705187 -0.09485132 0.96136534
-0.194165 0.58194745 -0.173114 0.2922903 -1.2983841 -1.0654781 0.14987835 -0.28143603
0.20160191 1.1413912 0.07171039 -0.11711275 2.2228281 -0.6254844 -0.08018087 -0.12468426
00000000: d4a5 7bbd f7f0 70bf 97bc 95be b728 ad3d
00000010: 5402 55bf 6671 84bf c7b2 b63e 9127 91be
00000020: e028 713f 4475 a93f f656 2cbf 7d18 b53c
00000030: 8d94 4c3e 1836 a0be 92e8 34bf e355 06be
00000040: 8884 123f f10f 2140 aaf0 363f 412b 46be
00000050: b48a abbf 2031 afbd 8cbd 1dbf 8400 c7be
00000060: 3019 c9bc 9435 15bd 152d 203f 7515 ee3e
00000070: d851 90bd aa99 ffbe 72ed 01bd 5388 c53d
00000080: ff31 a2bf d939 673f 65d6 2abf 1c8b 343e
00000090: 6c12 e03e a8cc 60bd d475 a13e beb8 15be
000000a0: 14a4 0c3f 7e5a b43f 1627 edbe 1db2 84bd
000000b0: 6370 473f b771 9c3f 0a10 9cbe 63c5 9d3e
000000c0: 2364 653f 9017 3540 7e7b 833f 97f5 163f
000000d0: e521 813f 0c64 a33f 1eb3 47bf 30b8 d73c
000000e0: 3920 34be c7fd efbf cc6f 5fbe dcb1 7fbd
000000f0: cbca 7e3f ce22 04bf ea0d 633e 1260 c9be
00000100: b20b 2bbe 93ec 67bf e8ca 6bbd 11e6 763d
00000110: 6a53 253d abff 1f3e e28c 053c acc9 50bd
00000120: c5d8 1e3f 577f 883f 7c45 15be 711a d73e
00000130: 0882 c0be c54d a1bf 661f 9b3e 8f2d debd
00000140: 6101 53bf f9e8 2bbf b34f eebe 8772 fbbe
00000150: 1f06 97bf 99cd aa3e 161a 60bf bb3c 593d
00000160: 3688 44bf 1293 dbbf 37b5 8bbe 9a20 81be
00000170: 386c 0c3d d7fb 07bf 40ff bebd a4e9 5e3d
00000180: 45c0 22c0 acff b8bf cba3 05bf 429f f4bd
00000190: 0076 7cbf ef94 23c0 a5e5 82bf fd9c 0abf
000001a0: a8a5 1cbd 81fe b7be 5146 8fbd 2cf1 013c
000001b0: d07d 1cbf 0849 16bf 6941 c2bd 0a1c 763f
000001c0: 31d3 46be 82fa 143f cc44 31be 13a7 953e
000001d0: 7331 a6bf 9661 88bf b679 193e 6218 90be
000001e0: bb70 4e3e 1b19 923f e6dc 923d cfd8 efbd
000001f0: d142 0e40 bf1f 20bf de35 a4bd 765a ffbd

critic.critic_net.layers.0.bias f4 [32]
0.43979675 -0.37683016 -0.08395498 0.156151 -0.12779912 0.21342826 -0.06775935 0.61758107
-0.46056387 -0.2973446 -0.1298493 0.2878909 0.61797005 -0.3270274 0.26706636 -0.5423854
0.46670774 -0.62896186 0.31936425 -0.23553208 0.4125495 0.44422916 0.5606513 -0.5037843
-0.062194657 0.6923539 0.59259737 -0.27386376 0.1556301 0.70459545 -0.36288786 -0.21595792
00000000: 0a2d e13e e2ef c0be 97f0 abbd 0ce6 1f3e
00000010: c6dd 02be f08c 5a3e 6ac5 8abd cb19 1e3f
00000020: 07cf ebbe 8d3d 98be 37f7 04be 7066 933e
00000030: 4933 1e3f 2370 a7be ecbc 883e c5d9 0abf
00000040: 51f4 ee3e a503 21bf b683 a33e 522f 71be
00000050: b039 d33e 0172 e33e d886 0f3f 02f8 00bf
00000060: d3bf 7ebd 1b3e 313f 76b4 173f df37 8cbe
00000070: 7f5d 1f3e 5e60 343f 70cc b9be 1324 5dbe

critic.critic_net.layers.2.weight f4 [32, 32]
-0.06401405 1.0794456 -0.46716744 -0.22614224 -0.16361623 -0.2977547 0.123168476 -0.04626279
0.11106028 -0.07237621 -0.9839918 -0.87511647 -1.1271198 -0.1904155 -0.001543646 0.37833738
0.0378314 0.07810258 -0.7771198 0.9170198 -0.31512317 -0.65460604 -0.11939758 0.24659026
-0.28254777 -0.47931293 -0.16387509 0.483837 -0.06763321 -0.30268016 -0.052319147 0.1024828
0.26003727 0.56227314 -0.1514069 0.16748707 -1.2416562 0.1558072 -0.51964694 -0.10803857
0.12920643 0.23870409 -0.058861516 -0.20872116 -0.6313943 -0.0029832553 0.012814719 0.33701903
-0.012230961 0.07234114 -0.3865403 0.56005454 0.14337444 0.13306248 -0.015855668 0.4434415
0.28922898 0.757129 -0.2163863 0.052932672 -0.28251907 -0.12028452 -0.038687043 0.5540976
-0.15368038 -0.020509748 -0.03036583 0.13010952 -0.30801657 -0.19582486 0.2333835 -0.35274684
0.17927228 -0.0066616093 -0.06562296 0.103765056 0.020269725 0.13246526 0.022917813 0.06934925
-0.11497558 0.29701152 -0.12257991 0.33553755 0.017923502 0.0587401 -0.103483565 0.13974328
-0.011915513 0.14495082 -0.37623405 0.22721246 0.104224354 -0.15189835 0.0636304 -0.06368078
0.20701888 0.5226124 -1.2807044 -0.050286584 -0.66516733 0.21003884 0.07153147 0.025993904
0.5347912 -0.36617747 -1.0625123 -0.39447352 -0.9471585 -0.8591244 0.14223117 0.07905124
0.06995968 -0.10708382 -0.28528532 0.52733773 0.34432882 0.6241794 0.31037146 0.20165712
1.3886397 0.41261166 0.09706067 0.1805183 0.24064715 0.11650813 -0.23786835 -0.6733955
-0.45970875 0.09402609 -0.26309153 -0.8795861 0.73327565 0.13723125 0.7573314 -0.46680528
0.33971572 0.2475122 0.2625199 -0.012682878 -0.037238486 -0.21753104 -0.69677186 0.5142977
-0.5901653 0.14138708 0.09411059 -0.18870005 -0.8281574 -0.62879175 -0.9140594 0.22684902
0.40016553 -2.0616755 -0.4554466 0.16412097 -0.2946008 -0.62092227 0.67815024 -0.42369294
0.101252235 0.20706715 -0.1110391 0.21380128 -0.10468426 0.14418632 0.045754872 0.043361932
0.011661087 0.077001624 0.19778766 0.038440254 -0.23827149 -0.098441504 -0.053605042 0.16870527
-0.0013478859 -0.23641828 -0.05768195 -0.019769711 0.080898605 0.062376294 -0.2066457 -0.3332202
-0.07850489 -0.32790577 0.113581285 -0.022067605 0.09047506 -0.14511237 -0.06456063 0.060356148
-0.45691255 -0.35852516 0.70769244 0.30115184 0.72450423 0.10926783 -0.37461874 -0.29734862
0.5514645 0.22234976 1.3196424 0.38604546 0.047803394 0.65644026 -0.48108387 0.055127274
-0.31622747 0.16351546 0.008314299 -0.3036428 -0.06675428 0.048518002 -0.3200368 0.280745
0.00037596875 -0.20972943 -0.14895764 -0.6915241 -0.2544128 -0.4622058 0.51041764 0.42292956
0.2079883 -0.10978872 0.025668334 0.0014621514 0.14459166 0.10825759 -0.19570841 0.10319348
0.18597296 0.13231851 0.08866788 -0.016460782 -0.3601946 -0.08388499 0.06697456 0.018578334
0.24756542 -0.29330006 0.11589404 -0.11760318 0.08971124 0.09195907 0.074579164 -0.048303023
-0.060118828 -0.39433393 0.31814137 -0.10117483 0.049734287 -0.054537304 -0.25163406 0.04272556
00000000: cc19 83bd 462b 8a3f 9230 efbe d591 67be
00000010: 038b 27be 4e73 98be c13f fc3d 0d7e 3dbd
00000020: 9273 e33d fa39 94bd e3e6 7bbf a207 60bf
00000030: 7645 90bf 48fc 42be 2a54 caba 70b5 c13e
00000040: 19f5 1a3d 3ff4 9f3d 53f1 46bf cfc1 6a3f
00000050: d357 a1be 4394 27bf b886 f4bd 2882 7c3e
00000060: 1aaa 90be 8168 f5be dfce 27be 7cb9 f73e
00000070: 4883 8abd e5f8 9abe 9a4c 56bd 81e2 d13d
00000080: 9b23 853e 22f1 0f3f 690a 1bbe bb81 2b3e
00000090: 97ee 9ebf ec8b 1f3e 9507 05bf 5343 ddbd
000000a0: b14e 043e d86e 743e c618 71bd 00bb 55be
000000b0: 0fa3 21bf b882 43bb d4f4 513c c28d ac3e
000000c0: 5e64 48bc 9727 943d 9ce8 c5be bc5f 0f3f
000000d0: c0d0 123e 8841 083e bfe3 81bc c40a e33e
000000e0: d215 943e 35d3 413f 5f94 5dbe eecf 583d
000000f0: 57a6 90be bb57 f6bd 4e76 1ebd 57d9 0d3f
00000100: 645e 1dbe 0f04 a8bc c3c1 f8bc 6e3b 053e
00000110: 59b4 9dbe 5086 48be 16fc 6e3e 3c9b b4be
00000120: 2793 373e a149 dabb 5565 86bd c682 d43d
00000130: b20c a63c f9a4 073e 23be bb3c fb06 8e3d
00000140: 5178 ebbd e511 983e 2d0b fbbd 94cb ab3e
00000150: 4fd4 923c 7699 703d 31ef d3bd dd18 0f3e
00000160: 4939 43bc fd6d 143e c0a1 c0be 62aa 683e
00000170: 9473 d53d 3e8b 1bbe a850 823d 126b 82bd
00000180: c2fc 533e edc9 053f 1fee a3bf 4ef9 4dbd
00000190: 6848 2abf 6c14 573e 177f 923d 2bf1 d43c
000001a0: 13e8 083f 9d7b bbbe 6700 88bf 6ff8 c9be
000001b0: fb78 72bf 94ef 5bbf 0ca5 113e 9ee5 a13d
000001c0: 0547 8f3d c34e dbbd eb10 92be 9bff 063f
000001d0: de4b b03e 39ca 1f3f 02e9 9e3e 347f 4e3e
000001e0: f2be b13f d641 d33e bfc7 c63d cad9 383e
000001f0: 356c 763e d19b ee3d c393 73be a663 2cbf
00000200: f25e ebbe c090 c03d efb3 86be 8e2c 61bf
00000210: f4b7 3b3f 5986 0c3e 78e0 413f 1a01 efbe
00000220: 38ef ad3e d773 7d3e 0269 863e d9cb 4fbc
00000230: 6287 18bd 75c0 5ebe a45f 32bf 04a9 033f
00000240: 1315 17bf c6c7 103e 0ebd c03d 963a 41be
00000250: 2002 54bf 7ff8 20bf ccff 69bf 1c4b 683e
00000260: 7fe2 cc3e 7ef2 03c0 4c30 e9be 540f 283e
00000270: ebd5 96be c3f4 1ebf 419b 2d3f 48ee d8be
00000280: 555d cf3d 6909 543e 7868 e3bd b9ee 5a3e
00000290: b464 d6bd 94a5 133e 7669 3b3d 489c 313d
000002a0: 250e 3f3c 07b3 9d3d d988 4a3e 8773 1d3d
000002b0: 71fd 73be b39b c9bd f690 5bbd 13c1 2c3e
000002c0: 8cab b0ba a217 72be e943 6cbd 17f4 a1bc
000002d0: 2bae a53d 497e 7f3d ee9a 53be d79b aabe
000002e0: 2cc7 a0bd 44e3 a7be 4e9d e83d 1fc7 b4bc
000002f0: fd4a b93d 5698 14be 5d38 84bd 0238 773d
00000300: 71f0 e9be 9c90 b7be 552b 353f 9330 9a3e
00000310: 1c79 393f d0c7 df3d 07ce bfbe 143e 98be
00000320: c72c 0d3f a8af 633e 0bea a83f c0a7 c53e
00000330: 7ecd 433d 780c 283f a050 f6be 23cd 613d
00000340: 91e8 a1be 9970 273e b338 083c 1277 9bbe
00000350: 78b6 88bd d0ba 463d dddb a3be cfbd 8f3e
00000360: ac1d c539 50c3 56be 5a88 18be b907 31bf
00000370: 6542 82be 3da6 ecbe bbaa 023f 398a d83e
00000380: e3fa 543e e9d8 e0bd 6646 d23c a9a5 bf3a
00000390: d60f 143e 28b6 dd3d c967 48be 1a57 d33d
000003a0: b26f 3e3e 817e 073e 8197 b53d c3d8 86bc
000003b0: 6d6b b8be e5cb abbd f529 893d 9731 983c
000003c0: ca81 7d3e 6d2b 96be db59 ed3d f0d9 f0bd
000003d0: 87ba b73d 0955 bc3d f6bc 983d 64d9 45bd
000003e0: 293f 76bd 23e6 c9be 6de3 a23e c034 cfbd
000003f0: 2eb6 4b3d 8262 5fbd 2ed6 80be ff00 2f3d

critic.critic_net.layers.2.bias f4 [32]
-0.3151345 -0.35765266 -0.3077682 0.056891013 -0.10072017 0.15954836 -0.22398263 0.23622005
0.26785806 -0.17194733 0.415746 -0.39065427 -0.44470158 0.2846111 -0.41621616 0.3712183
-0.11099427 -0.35906357 0.0053332085 0.25441706 -0.42195517 0.2907109 0.32782966 0.05312477
0.42044696 0.27879515 -0.13369726 0.34909615 0.1806235 -0.25287205 0.2680814 -0.25641045
00000000: 4f59 a1be 401e b7be cb93 9dbe 8d06 693d
00000010: 6046 cebd a560 233e b45b 65be abe3 713e
00000020: b124 893e f612 30be a9dc d43e d603 c8be
00000030: edaf e3be 8cb8 913e 491a d5be 5310 be3e
00000040: f750 e3bd 2ed7 b7be 32c2 ae3b f442 823e
00000050: 820a d8be 0fd8 943e 4ad9 a73e 5c99 593d
00000060: d344 d73e 3dbe 8e3e efe7 08be bbbc b23e
00000070: 5ef5 383e 7278 81be f741 893e 3b48 83be

critic.critic_net.layers.4.weight f4 [1, 32]
-0.5676052 0.46587524 0.30254394 -0.21277088 -0.53414524 -0.031768437 0.18855044 -0.38047647
-0.30635214 0.20328513 -0.32106575 0.265739 0.3663855 -0.0646396 0.27232888 -0.1191648
-0.2611106 0.25188363 0.22836445 -0.35035083 0.31257787 -0.011234999 0.36532694 0.34477538
-0.24010274 -0.2518221 0.1315485 -0.22346106 0.40433028 0.306357 0.49294776 -0.33517286
00000000: 934e 11bf 3387 ee3e 0ae7 9a3e 9ce0 59be
00000010: bebd 08bf 9f1f 02bd 5e13 413e d0cd c2be
00000020: 30da 9cbe fa29 503e bb62 a4be f10e 883e
00000030: e196 bb3e c461 84bd b16e 8b3e ad0c f4bd
00000040: 4ab0 85be e4f6 803e 5fd8 693e 2f61 b3be
00000050: 350a a03e 0013 38bc 220c bb3e 6686 b03e
00000060: 7edd 75be d4ee 80be a6b4 063e fad2 64be
00000070: 6104 cf3e d3da 9c3e a663 fc3e c79b abbe

exp_avg f4 [32, 4]
-0.00051086233 0.00033659767 -0.00029291157 -3.4255158e-05 0.00040254524 -0.00033895386 -0.00016145193 0.00069760805
-0.00025218283 0.00018327883 -0.00015823061 -0.00019004737 0.00033012225 -0.00024198407 0.00013213382 0.00026583203
-0.00030115256 0.00026486474 -0.00031233756 -0.00030930288 7.732236e-05 6.5761975e-05 -0.0006983694 -0.00028612636
-0.00038707905 0.00025155404 -0.0005586365 -0.000291652 9.552165e-05 9.331846e-06 -0.00034857474 -0.00018595505
0.00092183385 -0.00057443354 0.0003105164 -9.761997e-05 0.00087632734 -0.0007214377 0.0019775745 8.7088076e-05
0.00033614217 -0.00016368175 0.00015422044 -9.676528e-05 0.0001465376 -5.401135e-05 -0.0001377758 -0.0002789677
-0.0004834825 0.00037103245 -0.0008110431 -7.570456e-05 2.7430191e-05 -4.2475644e-05 6.8412286e-05 0.000115991505
-0.00013187535 0.00015590308 -0.0003836241 -0.00036153564 0.0006549397 -0.00043623886 0.00013130419 0.00050108146
-0.0003127383 0.00010906008 0.00052933156 0.0002894825 -0.00025602235 0.00013162395 6.779977e-05 0.00013870132
-8.710394e-05 6.4563574e-05 3.9251432e-07 0.00010549975 -0.0009035723 0.0006032548 -0.0008371806 -0.0002575462
0.00033483165 -0.00020355803 3.108184e-05 0.000114702656 0.000254922 -0.00014836743 0.00024638127 -5.568241e-05
0.0001932639 -9.951578e-05 2.951255e-05 -0.0002718951 -0.0003018122 0.00016888804 -3.1177562e-05 9.2071845e-05
0.00010529718 -6.36636e-05 7.072252e-05 -0.00020289113 -2.55552e-05 -0.00010354335 0.0007999735 0.00013620358
-0.00022657623 9.0006935e-05 0.0002973495 0.00018483846 0.00040931755 -0.00029557358 0.0004129878 -0.0001851033
-0.0016065732 0.00083693606 0.00029070248 0.00026063572 0.00038588105 -0.00039130694 0.000863879 0.00017253561
-0.00035813206 0.00025216403 -0.0005458072 0.00031798697 0.00018296653 -9.185883e-05 -0.0002819741 0.00014178288
00000000: 64eb 05ba 6079 b039 ed91 99b9 32ad 0fb8
00000010: b50c d339 9eb5 b1b9 6c4b 29b9 afdf 363a
00000020: 6837 84b9 892e 4039 b5ea 25b9 7447 47b9
00000030: 4214 ad39 1bbd 7db9 678d 0a39 5f5f 8b39
00000040: 03e4 9db9 8bdd 8a39 3dc1 a3b9 ee29 a2b9
00000050: 2028 a238 b1e9 8938 c712 37ba 3b03 96b9
00000060: dff0 cab9 03e3 8339 7671 12ba dee8 98b9
00000070: cc52 c838 f98f 1c37 e9c0 b6b9 eefc 42b9
00000080: 39a7 713a 9595 16ba cecc a239 53b9 ccb8
00000090: 55b9 653a dd1e 3dba 329a 013b 0ea3 b638
000000a0: 3d3c b039 fca1 2bb9 3cb6 2139 77ee cab8
000000b0: e3a7 1939 3f8a 62b8 e977 10b9 6942 92b9
000000c0: ec7b fdb9 2287 c239 2e9c 54ba 93c3 9eb8
000000d0: e319 e637 e027 32b8 9178 8f38 7740 f338
000000e0: 0548 0ab9 ea79 2339 2821 c9b9 7e8c bdb9
000000f0: 42b0 2b3a fdb6 e4b9 b3ae 0939 025b 033a
00000100: 06f7 a3b9 2fb7 e438 d7c2 0a3a afc5 9739
00000110: bd3a 86b9 8904 0a39 b92f 8e38 5a70 1139
00000120: 92ab b6b8 4e66 8738 c2ba d234 bf3f dd38
00000130: b6dd 6cba bf23 1e3a 3d76 5bba 4407 87b9
00000140: 588c af39 3172 55b9 df5d 0238 858c f038
00000150: 0da7 8539 1493 1bb9 bc2c 8139 888c 69b8
00000160: e2a6 4a39 21b3 d0b8 b891 f737 248d 8eb9
00000170: 8c3c 9eb9 8a17 3139 a7c4 02b8 b216 c138
00000180: fed2 dc38 2383 85b8 dd50 9438 2cbf 54b9
00000190: 605f d6b7 6a25 d9b8 50b5 513a dfd1 0e39
000001a0: 1895 6db9 1bc2 bc38 93e5 9b39 32d1 4139
000001b0: ac99 d639 37f7 9ab9 4986 d839 4a18 42b9
000001c0: a793 d2ba d465 5b3a 6d69 9839 efa5 8839
000001d0: 1450 ca39 5428 cdb9 f075 623a adea 3439
000001e0: acc3 bbb9 e234 8439 8014 0fba 7db7 a639
000001f0: b4da 3f39 55a4 c0b8 ecd5 93b9 8dab 1439

exp_avg_sq f4 [32, 4]
0.00024810468 3.603921e-06 0.00019229692 0.00026981346 0.00029557906 4.359777e-06 0.00020780429 0.00021753792
4.2251133e-05 6.5216204e-07 3.5615027e-05 4.896794e-05 9.6424854e-05 1.2718325e-06 7.8087636e-05 8.29543e-05
8.446551e-05 1.5822518e-06 7.361149e-05 0.00013118629 8.045417e-06 1.6074077e-07 6.190159e-06 1.6726954e-05
6.761468e-05 1.1978238e-06 5.8815625e-05 9.5806616e-05 7.4869683e-07 2.4889632e-08 9.275516e-07 1.6348196e-06
0.0005797894 8.563309e-06 0.00047348038 0.0006427281 0.0006701324 1.2594605e-05 0.0005492103 0.0011291767
3.26625e-05 5.5149286e-07 2.9164938e-05 4.621466e-05 7.5587795e-06 2.2957427e-07 8.854157e-06 1.8708553e-05
0.00020455866 3.2051328e-06 0.00015227498 0.00028638748 2.5906406e-06 2.9331352e-08 1.713546e-06 1.4813633e-06
5.2507527e-05 6.4817124e-07 3.415073e-05 4.1933974e-05 0.00029841604 4.234978e-06 0.0002347686 0.00024764056
2.7398157e-05 5.5522383e-07 3.444129e-05 2.7711265e-05 2.3433788e-05 4.5142122e-07 2.5300145e-05 3.766135e-05
7.192564e-06 1.8931867e-07 7.288626e-06 1.6843576e-05 0.0006055844 8.779212e-06 0.0004477408 0.000701467
8.496204e-05 1.1869489e-06 6.449817e-05 7.49287e-05 2.241399e-05 4.2638015e-07 2.0608768e-05 4.1152893e-05
2.363776e-05 4.8231897e-07 2.2114595e-05 4.5707784e-05 5.4174303e-05 8.710644e-07 4.625207e-05 6.0471597e-05
7.194668e-06 1.5135089e-07 7.345807e-06 1.5510679e-05 1.5332054e-05 3.4231383e-07 1.2475735e-05 3.774204e-05
2.4828798e-05 4.3492636e-07 2.3620025e-05 2.4821786e-05 0.00016936778 2.881747e-06 0.00013842566 0.00024252264
0.0012472357 2.035093e-05 0.0011639651 0.0014300755 0.00027009516 3.7517098e-06 0.00018711368 0.00031724715
0.00010684615 2.1505916e-06 9.16301e-05 0.0002154505 2.3095094e-05 3.2906226e-07 2.3734356e-05 1.0738359e-05
00000000: 0c14 8239 e4da 7136 50a3 4939 c075 8d39
00000010: f3f7 9a39 334a 9236 0ae6 5939 e41a 6439
00000020: cf36 3138 3c10 2f35 5861 1538 ed62 4d38
00000030: b337 ca38 d5b3 aa35 fbc2 a338 c0f7 ad38
00000040: 1323 b138 c25d d435 de5f 9a38 0d8f 0939
00000050: cefa 0637 1698 2c34 10b5 cf36 dc50 8c37
00000060: 5bcc 8d38 eac4 a035 ccb0 7638 c9eb c838
00000070: 0efa 4835 e1cc d532 dcfc 7835 f96b db35
00000080: 02fd 173a 22ab 0f37 763d f839 c17c 283a
00000090: d3ab 2f3a 6b4d 5337 e1f8 0f3a e200 943a
000000a0: 18ff 0838 4d0a 1435 3aa7 f437 9dd6 4138
000000b0: 6ca1 fd36 e580 7634 518c 1437 50f0 9c37
000000c0: cc7e 5639 c317 5736 01ac 1f39 4726 9639
000000d0: deda 2d36 53f4 fb32 fefc e535 41d3 c635
000000e0: 873b 5c38 fdfd 2d35 113d 0f38 43e2 2f38
000000f0: b974 9c39 2f1a 8e36 372c 7639 c1d5 8139
00000100: 18d5 e537 b10a 1535 0e75 1038 7d75 e837
00000110: ad93 c437 dc5a f234 a63b d437 91f6 1d38
00000120: a857 f136 8547 4b34 d290 f436 4e4b 8d37
00000130: 15c0 1e3a 6e4a 1337 c1be ea39 a7e2 373a
00000140: a62d b238 414f 9f35 3143 8738 0a23 9d38
00000150: ad05 bc37 3ee9 e434 fee0 ac37 959b 2c38
00000160: b449 c637 b578 0135 bb82 b937 5cb6 3f38
00000170: 3739 6338 17d3 6935 c8fe 4138 e2a2 7d38
00000180: ba69 f136 0483 2234 007c f636 ee1c 8237
00000190: 569d 8037 41c7 b734 e04e 5137 354d 1e38
000001a0: 7047 d037 d37f e934 9e23 c637 6138 d037
000001b0: 5198 3139 0964 4136 5b26 1139 ad4d 7e39
000001c0: 497a a33a 4ab7 aa37 3090 983a 5f71 bb3a
000001d0: 8f9b 8d39 e2c5 7b36 f233 4439 3154 a639
000001e0: 9712 e038 e252 1036 8929 c038 8eea 6139
000001f0: 56bc c137 f9a9 b034 2419 c737 e728 3437

exp_avg f4 [32]
-0.0035278213 0.0029444562 -0.002334298 0.0034432244 -0.0023740833 -0.0019403783 -0.0028428766 -0.0008359397
0.00688282 0.0078909015 0.0017816318 -0.00044110435 -0.004875524 0.00089090393 -0.0029582705 0.004623071
-0.00011489522 -0.0014356314 -0.00010046404 -0.008627004 0.0017491638 0.0018086807 0.00026529923 -0.0011756737
0.0008801758 0.0019832342 -4.1093583e-05 0.002345779 -0.010808173 0.0049357507 -0.0025216783 0.0010850737
00000000: 0533 67bb c7f7 403b 06fb 18bb b8a7 613b
00000010: 8296 1bbb 4b54 feba 8e4f 3abb f722 5bba
00000020: 4789 e13b d748 013c a585 e93a 0644 e7b9
00000030: dcc2 9fbb 8d8b 693a 8bdf 41bb 217d 973b
00000040: e7f3 f0b8 cc2b bcba 39b0 d2b8 4758 0dbc
00000050: 3344 e53a 4111 ed3a dc17 8b39 1019 9aba
00000060: 99bb 663a 26f9 013b e65b 2cb8 a4bb 193b
00000070: c314 31bc 14bc a13b be42 25bb 0839 8e3a

exp_avg_sq f4 [32]
0.0064693335 0.0076970183 0.0012225506 0.002587645 0.0024166214 0.00021671181 0.00233055 1.3670869e-05
0.015135207 0.020573016 0.0009110331 0.00015633908 0.005446196 6.671186e-05 0.0014516397 0.008106313
0.000663459 0.00063125783 0.00016793355 0.016560815 0.002197016 0.0006650124 0.0005491584 0.0014427205
0.00017284339 0.0004212521 0.00057676627 0.004319025 0.033398356 0.006983775 0.0028069157 0.00057135004
00000000: b4fc d33b 4537 fc3b fe3d a03a 7b95 293b
00000010: 2e60 1e3b 223d 6339 24bc 183b ef5b 6537
00000020: a9f9 773c be88 a83c 65d2 6e3a f4ee 2339
00000030: 0176 b23b a8e7 8b38 f244 be3a 57d0 043c
00000040: fbeb 2d3a ff7a 253a 5217 3039 8caa 873c
00000050: d0fb 0f3b 3a54 2e3a 65f5 0f3a ab19 bd3a
00000060: 4b3d 3539 80db dc39 2132 173a 9c86 8d3b
00000070: b7cc 083d 27d8 e43b 3bf4 373b a7c6 153a

exp_avg f4 [32, 32]
0.00053194084 -0.0005256939 -0.0003593981 0.0003157796 0.00087368896 -0.0005827784 0.00045265525 -0.0009313503
-4.1612937e-05 0.0007739903 0.0005123498 -0.0007861787 -0.00016871905 0.00043813247 -0.0001434878 0.00010164332
0.00022573498 -0.0005438413 0.0010603971 0.00028565677 -0.00065498747 0.00072814734 -0.00078551326 0.00041467097
0.00027784272 0.00088867056 0.0006619614 -0.0009184469 0.00033343767 0.00060946064 0.0002632823 0.0003422009
-0.0015709876 0.002406365 0.0010607702 -0.00042374872 -0.0021775975 0.0029163414 -0.0015489955 0.0038797704
0.0007424962 -0.0032583778 -0.002212645 0.0021358158 0.0010093988 -0.00088699174 0.00034965522 0.00064987305
-0.00138684 0.0015214535 -0.0026290014 -0.00017994852 0.0027074998 -0.0025941867 0.0024075287 -0.0017284742
-0.0007899227 -0.0036716184 -0.0026009853 0.003046843 -0.0013380849 -0.002354105 -4.7307363e-05 0.00010882123
0.00010125936 -9.1962225e-05 1.6999868e-05 8.13732e-06 7.4841424e-05 -1.73699e-05 4.4689885e-05 -9.36228e-05
2.8454755e-07 5.0009974e-05 4.6097906e-05 -7.1466704e-05 1.9493627e-05 2.8949375e-05 -3.20407e-05 2.9907853e-06
2.9259465e-05 -4.657687e-05 0.000107114225 0.00013370282 -8.9497495e-05 5.9309117e-05 -7.468411e-05 5.5926062e-05
6.128823e-05 5.6530727e-05 9.219882e-05 -9.193119e-05 5.2411837e-05 4.480078e-06 6.5690474e-05 3.2565684e-05
0.00029291716 -0.00027994055 3.770914e-05 2.4104987e-05 0.00021867997 -6.671677e-05 0.00014240466 -0.00028139094
-4.1822354e-06 0.00014813362 0.0001518395 -0.00021052024 4.4875655e-05 8.197926e-05 -8.768199e-05 -5.9561585e-06
8.817309e-05 -0.0001426318 0.00030960375 0.00037578828 -0.00026879818 0.00018755795 -0.00021946251 0.00016871224
0.00017726261 0.00017682272 0.000272297 -0.0002739423 0.00014922758 2.3263574e-05 0.00017564176 7.957297e-05
-0.00062583596 0.0006903335 -1.9974712e-05 -6.43236e-05 -0.00046553215 0.00032678858 -0.00035238906 0.00075656624
4.0786505e-05 -0.00044963823 -0.00046646848 0.00048839167 6.364636e-06 -0.00017071496 0.00020212117 8.532264e-05
-0.00025225498 0.00036266822 -0.00067291193 -0.0007073337 0.00066937885 -0.00052842725 0.00052240724 -0.00042196843
-0.00039942464 -0.00054586405 -0.000673849 0.00065646926 -0.0003286562 -0.00016774972 -0.00028492292 -9.255878e-05
-1.8512445e-05 2.0693104e-05 4.597191e-06 -5.0028693e-06 -1.3439318e-05 1.0160929e-05 -1.6471118e-05 1.7973438e-05
-2.2084848e-06 -3.8039195e-06 -2.4195186e-05 1.4606281e-05 5.118638e-06 -3.2319163e-06 5.7967004e-06 7.129999e-06
-3.935031e-06 1.6841173e-05 -1.7565708e-05 -2.2527815e-05 2.0214819e-05 -2.3932325e-05 1.3181901e-05 -1.3325928e-05
-1.5732965e-05 -1.3386278e-05 -1.9668181e-05 1.7763952e-05 -2.4471358e-06 -3.3703407e-06 -1.729316e-06 1.0689943e-06
-0.00044993326 0.00047581713 -0.0001057121 2.2212265e-05 -0.00023614272 0.00010938804 -0.00022950322 0.00042835763
3.266134e-05 -0.0001797076 -0.00025379186 0.0002547985 -6.8798734e-05 -6.131769e-05 0.00011894212 8.896607e-05
-0.00015316275 0.00018785635 -0.0003679887 -0.0006033151 0.0004307477 -0.00027326186 0.00027781536 -0.00027274658
-0.00027708974 -0.00024978403 -0.00041547796 0.0003797042 -0.00022320397 2.159838e-05 -0.00022005504 -2.6777823e-05
0.0004584246 -0.00020864616 5.8501082e-05 0.00011403472 0.0004283722 0.00010799193 0.00018988852 -0.00020506396
0.00012430511 -6.194838e-06 0.00015659723 -0.00031717127 0.00014019813 0.00015849143 -0.00016630553 0.00012304881
-8.423477e-06 -0.00024778856 0.000515667 0.000747773 -0.00027673805 0.0002305769 -0.00026500018 0.0001745431
0.00032931982 6.0052404e-05 0.0003101792 -0.00031238986 0.0001246808 -0.00011046704 0.00035324358 0.000300935
00000000: f271 0b3a b8ce 09ba 996d bcb9 388f a539
00000010: 4608 653a 99c5 18ba 5c52 ed39 dc25 74ba
00000020: 8d89 2eb8 9ce5 4a3a 374f 063a 8f17 4eba
00000030: 2dea 30b9 25b5 e539 3775 16b9 5829 d538
00000040: 46b3 6c39 9290 0eba 06fd 8a3a 34c4 9539
00000050: 77b3 2bba 24e1 3e3a e7ea 4dba 3268 d939
00000060: 6bab 9139 acf5 683a 7a87 2d3a eec3 70ba
00000070: 3fd1 ae39 36c4 1f3a 2709 8a39 6d69 b339
00000080: 99e9 cdba 1bb4 1d3b 8b09 8b3a 972a deb9
00000090: 06b6 0ebb 1720 3f3b aa07 cbba bf43 7e3b
000000a0: 14a4 423a 828a 55bb 0602 11bb 0bf9 0b3b
000000b0: ce4d 843a 0285 68ba ee51 b739 3e5c 2a3a
000000c0: a1c6 b5ba 826b c73a 534b 2cbb 90b0 3cb9
000000d0: 4f70 313b 3b03 2abb a1c7 1d3b f88d e2ba
000000e0: d112 4fba 899f 70bb 4b75 2abb 8bad 473b
000000f0: ae62 afba 5447 1abb e56b 46b8 f436 e438
00000100: 345b d438 d8db c0b8 f09a 8e37 8685 0837
00000110: 2ff4 9c38 94b5 91b7 6671 3b38 5c57 c4b8
00000120: ebc3 9834 cdc1 5138 4059 4138 65e0 95b8
00000130: 3f86 a337 4fd8 f237 7163 06b8 4db5 4836
00000140: 3972 f537 895b 43b8 83a2 e038 9432 0c39
00000150: 9ab0 bbb8 aec2 7838 ba9f 9cb8 2792 6a38
00000160: de87 8038 681b 6d38 dd5a c138 2fcb c0b8
00000170: c8d4 5b38 9453 9636 4ec3 8938 2397 0838
00000180: ad92 9939 fcc4 92b9 e129 1e38 1135 ca37
00000190: 754d 6539 4bea 8bb8 7652 1539 a787 93b9
000001a0: 2155 8cb6 5154 1b39 1b37 1f39 19bf 5cb9
000001b0: de38 3c38 48ec ab38 e9e1 b7b8 03db c7b6
000001c0: 91e9 b838 6f8f 15b9 5052 a239 7305 c539
000001d0: 7bed 8cb9 34ab 4439 851f 66b9 59e8 3039
000001e0: 92df 3939 7d69 3939 16c3 8e39 ea9f 8fb9
000001f0: f979 1c39 2526 c337 7a2c 3839 6ae0 a638
00000200: 240f 24ba 7ff7 343a 5e8f a7b7 78e5 86b8
00000210: ab12 f4b9 d254 ab39 dcc0 b8b9 4d54 463a
00000220: 2d12 2b38 6cbd ebb9 5790 f4b9 6907 003a
00000230: cf8f d536 f301 33b9 7df0 5339 3eef b238
00000240: 1741 84b9 8124 be39 5b66 30ba 5c6c 39ba
00000250: 4179 2f3a 2786 0aba 28f2 083a a53b ddb9
00000260: de69 d1b9 5118 0fba 3ea5 30ba e816 2c3a
00000270: 7d4f acb9 f9e5 2fb9 b561 95b9 1e1c c2b8
00000280: 2c4b 9bb7 1a96 ad37 9241 9a36 52de a7b6
00000290: 6e79 61b7 dc78 2a37 752b 8ab7 aac5 9637
000002a0: 7b35 14b6 d746 7fb6 c4f6 cab7 800d 7537
000002b0: c4c0 ab36 e6e3 58b6 4781 c236 3a3e ef36
000002c0: a909 84b6 2546 8d37 125a 93b7 1dfa bcb7
000002d0: fe92 a937 47c2 c8b7 d527 5d37 6d92 5fb7
000002e0: 49fa 83b7 a095 60b7 19fd a4b7 cc03 9537
000002f0: 7939 24b6 032e 62b6 d81a e8b5 5d7a 8f35
00000300: 05e5 ebb9 1877 f939 c0b1 ddb8 7a54 ba37
00000310: 149d 77b9 4267 e538 cda6 70b9 3095 e039
00000320: d9fd 0838 e46f 3cb9 5e0f 85b9 7a96 8539
00000330: 0a48 90b8 af97 80b8 9070 f938 4c93 ba38
00000340: 509a 20b9 4efb 4439 9bee c0b9 ca27 1eba
00000350: fad5 e139 9644 8fb9 bfa7 9139 6dff 8eb9
00000360: 5b46 91b9 72f5 82b9 82d4 d9b9 0913 c739
00000370: dc0b 6ab9 2b2e b537 93be 66b9 f0a0 e0b7
00000380: b558 f039 07c8 5ab9 0f5f 7538 ed25 ef38
00000390: 2597 e039 ba79 e238 d01c 4739 7006 57b9
000003a0: e657 0239 41dd cfb6 4034 2439 024a a6b9
000003b0: 2602 1339 b830 2639 4d62 2eb9 aa06 0139
000003c0: 8f52 0db7 9ee9 81b9 d42d 073a 3206 443a
000003d0: 2717 91b9 04c7 7139 b9ef 8ab9 8e05 3739
000003e0: 8fa8 ac39 c7e0 7b38 8c9f a239 42c8 a3b9
000003f0: bfbc 0239 8aaa e7b8 8d33 b939 d0c6 9d39

exp_avg_sq f4 [32, 32]
7.056843e-05 7.626095e-05 0.00011096636 8.305735e-05 0.00021190765 0.00010891664 0.00013856543 0.0001467729
2.5098405e-05 0.00010222496 0.0003005155 0.00017215019 5.8029764e-05 4.532978e-05 2.9473373e-05 2.2884642e-05
1.639388e-05 0.00021270356 0.00024258869 7.8385485e-05 0.00010115977 0.00035710324 0.0001212028 4.7309615e-05
9.216061e-05 0.00014657341 0.00012580387 0.00014810705 1.9420073e-05 9.428727e-05 1.9582189e-05 4.368812e-05
0.00037555402 0.00042781362 0.00057431107 0.0004756834 0.0011966975 0.00033467554 0.0007005869 0.0004894271
0.0001514566 0.00025078398 0.0014300119 0.00086444506 0.00023428103 0.0002779777 0.000121597855 0.00022303217
6.8942114e-05 0.0010598758 0.0012720526 0.0004222431 0.00045636736 0.0017017828 0.00053897186 0.00022590176
0.00047105982 0.00045997533 0.00053502765 0.000654752 9.0497146e-05 0.00031301207 9.862099e-05 0.00038959988
2.8724598e-06 4.222462e-06 4.7431154e-06 3.7000573e-06 9.2154505e-06 4.3240834e-06 5.588062e-06 6.11878e-06
1.1543156e-06 4.5029633e-06 1.169693e-05 7.163e-06 2.2576316e-06 2.3263854e-06 1.2891123e-06 1.8362375e-06
8.184649e-07 8.487213e-06 1.0324638e-05 3.3783454e-06 4.1856256e-06 1.3967048e-05 5.0116914e-06 1.9517736e-06
3.7798643e-06 5.830909e-06 5.0525264e-06 5.8711557e-06 8.9651115e-07 3.987535e-06 1.0187817e-06 2.9448659e-06
1.7966137e-05 2.6056246e-05 3.0122299e-05 2.3591592e-05 5.855114e-05 2.7228572e-05 3.517785e-05 3.742684e-05
7.352806e-06 2.718822e-05 7.441433e-05 4.508796e-05 1.4457718e-05 1.44364685e-05 7.792544e-06 1.132359e-05
5.040081e-06 5.383823e-05 6.501412e-05 2.1037653e-05 2.6195934e-05 8.878897e-05 3.1280542e-05 1.2231975e-05
2.360503e-05 3.655967e-05 3.1433163e-05 3.6961424e-05 5.4989055e-06 2.4996461e-05 6.1166197e-06 1.8620507e-05
6.1499566e-05 8.820685e-05 9.945516e-05 7.914321e-05 0.00019776923 8.568749e-05 0.00011654609 0.00011836124
2.4932206e-05 7.419911e-05 0.0002527688 0.00015114194 4.7251513e-05 4.7388243e-05 2.4118339e-05 3.750356e-05
1.5261252e-05 0.00018174159 0.00021819792 6.821064e-05 8.8755696e-05 0.00030020674 0.00010211959 4.1585507e-05
8.0190126e-05 0.000114027345 0.000104825944 0.00012301125 1.658323e-05 7.435973e-05 1.9139075e-05 6.382887e-05
3.6325048e-08 5.617549e-08 6.062109e-08 4.6094392e-08 1.12283836e-07 4.9742304e-08 7.476342e-08 7.2654295e-08
1.428664e-08 5.3491377e-08 1.4317841e-07 8.282639e-08 2.7147339e-08 3.2404085e-08 1.5728375e-08 2.4883633e-08
1.0865018e-08 1.0431131e-07 1.2115188e-07 4.5159457e-08 5.3786174e-08 1.6941667e-07 5.8323103e-08 2.5541693e-08
4.876762e-08 6.780568e-08 5.9349166e-08 6.923376e-08 1.17261525e-08 4.834276e-08 1.139395e-08 3.8579163e-08
3.9957908e-05 6.821527e-05 6.304887e-05 5.0629318e-05 0.00011929952 6.6147215e-05 7.493616e-05 9.023157e-05
1.60862e-05 6.25046e-05 0.00016938959 9.4408264e-05 3.3416643e-05 3.0630472e-05 1.7975279e-05 2.8519067e-05
1.201139e-05 0.00011530872 0.0001349962 4.745857e-05 6.4480104e-05 0.00019557477 6.775538e-05 2.9362514e-05
5.3433116e-05 8.665526e-05 7.482146e-05 8.079681e-05 1.2069013e-05 5.8060457e-05 1.4007186e-05 4.2392585e-05
5.862097e-05 7.7792334e-05 0.00011432544 8.718826e-05 0.00021900848 9.5407166e-05 0.00012539569 0.000119798184
2.6878157e-05 8.813206e-05 0.00026117705 0.00016135164 5.3164975e-05 5.1664094e-05 2.3474171e-05 3.718284e-05
1.6804457e-05 0.00019421862 0.00023267025 6.814512e-05 8.3402665e-05 0.00031691673 0.000107248634 3.9961134e-05
7.853851e-05 0.0001259393 9.960868e-05 0.00012834641 1.8961735e-05 8.837779e-05 1.972104e-05 6.6992434e-05
00000000: 23fe 9338 49ee 9f38 9cb6 e838 132f ae38
00000010: 8733 5e39 2d6a e438 e04b 1139 0de7 1939
00000020: 6a8a d237 9c61 d638 828e 9d39 3783 3439
00000030: fc64 7338 7b20 3e38 963d f737 65f8 bf37
00000040: 9785 8937 2d09 5f39 685f 7e39 e362 a438
00000050: bd25 d438 9639 bb39 422e fe38 506e 4638
00000060: 5a46 c138 80b1 1939 38ea 0339 2f4d 1b39
00000070: 4ae8 a237 18bc c538 6e44 a437 c33d 3738
00000080: 02e6 c439 2c4c e039 5d8d 163a 2565 f939
00000090: 81da 9c3a 6477 af39 97a7 373a e64c 003a
000000a0: 52d0 1e39 a87b 8339 3d6f bb3a ed9b 623a
000000b0: 56a9 7539 89bd 9139 5a02 ff38 bedd 6939
000000c0: 0495 9038 88eb 8a3a 01bb a63a 8260 dd39
000000d0: 9744 ef39 5b0e df3a ca49 0d3a 0be0 6c39
000000e0: 94f8 f639 d828 f139 1941 0c3a aaa3 2b3a
000000f0: 49c9 bd38 c51b a439 bed2 ce38 3643 cc39
00000100: 7cc4 4036 acae 8d36 0d27 9f36 804e 7836
00000110: 0f9c 1a37 9817 9136 1681 bb36 ec4f cd36
00000120: fbed 9a35 2918 9736 ef3d 4437 b459 f036
00000130: d181 1736 ff1e 1c36 9005 ad35 a474 f635
00000140: 7bb4 5b35 4d64 0e37 fc37 2d37 88b7 6236
00000150: 4072 8c36 0454 6a37 1a2a a836 37fb 0236
00000160: 93a9 7d36 20a7 c336 df88 a936 d800 c536
00000170: c7a7 7035 aacc 8536 13bd 8835 69a0 4536
00000180: fcb5 9637 5d93 da37 25af fc37 8fe6 c537
00000190: cf94 7538 ea68 e437 ee8b 1338 c3fa 1c38
000001a0: 1fb8 f636 4212 e437 e40e 9c38 d41c 3d38
000001b0: 6d8f 7237 2934 7237 b9bc 0237 73fa 3d37
000001c0: f71d a936 5cd0 6138 3158 8838 047a b037
000001d0: 57bf db37 3734 ba38 3a33 0338 ef37 4d37
000001e0: 6a03 c637 a657 1938 1ad7 0338 0707 1b38
000001f0: 3d83 b836 7eaf d137 5d3d cd36 3c33 9c37
00000200: 54f9 8038 b1fb b838 9592 d038 b0f9 a538
00000210: 4660 4f39 1fb3 b338 356a f438 b538 f838
00000220: 8125 d137 589b 9b38 0e86 8439 db7b 1e39
00000230: ed2f 4638 bdc2 4638 bd51 ca37 244d 1d38
00000240: 4a05 8037 e391 3e39 0fcc 6439 4f0c 8f38
00000250: 5a22 ba38 1165 9d39 0a29 d638 196c 2e38
00000260: bf2b a838 f721 ef38 00d6 db38 95fc 0039
00000270: 371c 8b37 93f1 9b38 da8c a037 dddb 8538
00000280: d003 1c33 9b45 7133 cc2e 8233 52f9 4533
00000290: b120 f133 3ea4 5533 a08d a033 1f06 9c33
000002a0: 4f71 7532 64be 6533 95bc 1934 4ade b133
000002b0: a131 e932 ab2c 0b33 101b 8732 b0bf d532
000002c0: dba8 3a32 c001 e033 fa15 0234 59f5 4133
000002d0: 8602 6733 e6e8 3534 ee7e 7a33 c766 db32
000002e0: 9174 5133 919c 9133 19e7 7e33 a9ad 9433
000002f0: 2a74 4932 6da1 4f33 1fbf 4332 3db2 2533
00000300: 7a98 2738 cb0e 8f38 1b39 8438 d15a 5438
00000310: 7130 fa38 84b8 8a38 0b27 9d38 b53a bd38
00000320: daf0 8637 e714 8338 2c9e 3139 0dfd c538
00000330: d928 0c38 3879 0038 9ec9 9637 3b3c ef37
00000340: 8784 4937 e6d1 f138 c48d 0d39 400e 4738
00000350: 7e39 8738 3413 4d39 e517 8e38 854f f637
00000360: 5f1d 6038 b0ba b538 77e9 9c38 7571 a938
00000370: 047c 4a37 f185 7338 6800 6b37 b1ce 3138
00000380: cadf 7538 7124 a338 01c2 ef38 d7d8 b638
00000390: a4a5 6539 5515 c838 a67c 0339 293c fb38
000003a0: 6778 e137 8ad3 b838 97ee 8839 8030 2939
000003b0: 75fd 5e38 e6b1 5838 66ea c437 c5f4 1b38
000003c0: 4cf7 8c37 2aa7 4b39 f2f8 7339 22e9 8e38
000003d0: 77e8 ae38 d827 a639 acea e038 f19b 2738
000003e0: 0bb5 a438 930e 0439 01e5 d038 ba94 0639
000003f0: 0410 9f37 7757 b938 9c6e a537 4a7e 8c38

exp_avg f4 [32]
0.0021247063 -0.0069543603 0.00021516967 0.0006446278 -0.0016103175 -5.4663466e-05 -0.0008995229 0.00085165654
-7.512941e-05 0.0017123958 0.0005667246 0.0011776513 -4.356953e-05 -7.9659854e-05 0.0005376899 4.2865995e-06
0.000114781746 -0.0010061506 8.9636436e-05 -1.8690424e-05 -0.0005671986 0.0010181612 8.368022e-06 -3.3109811e-06
0.00039662054 -0.0024515984 4.6540754e-05 0.00035031076 -2.541313e-05 0.001194093 -0.0004458906 0.0011953169
00000000: a83e 0b3b 67e1 e3bb 2b9f 6139 3dfc 283a
00000010: 4a11 d3ba 7346 65b8 f6cd 6bba b441 5f3a
00000020: cb8e 9db8 7872 e03a 3e90 143a 6c5b 9a3a
00000030: 6dbe 36b8 0f0f a7b8 c2f3 0c3a 9cd5 8f36
00000040: fbb6 f038 d0e0 83ba 32fb bb38 61c9 9cb7
00000050: 0eb0 14ba d273 853a 6164 0c37 3932 5eb6
00000060: 82f1 cf39 ffaa 20bb c134 4338 eaa9 b739
00000070: 482e d5b7 1d83 9c3a 6cc6 e9b9 2eac 9c3a

exp_avg_sq f4 [32]
0.0016331761 0.0075926743 6.409287e-05 0.00040632038 0.0013677076 7.4984007e-07 0.0008948329 0.0014233892
3.4004664e-05 0.0031464598 0.00036230043 0.00073117856 6.5898876e-06 7.3660136e-05 0.00030288074 2.1010185e-06
6.1792554e-05 0.00086684286 1.2898097e-05 3.261052e-06 0.00022647611 0.0005303875 1.5624388e-05 3.0051754e-06
0.00025862813 0.0017708968 2.4285515e-07 0.00021055077 4.6443125e-07 0.0018795186 0.00021769802 0.0015817349
00000000: 4c10 d63a f8cb f83b 9969 8638 6607 d539
00000010: a744 b33a 9e48 4935 3893 6a3a 0491 ba3a
00000020: 3ba0 0e38 d634 4e3b 24f3 bd39 90ac 3f3a
00000030: b41e dd36 fc79 9a38 f7cb 9e39 39ff 0c36
00000040: a096 8138 d73c 633a e864 5837 72d8 5a36
00000050: 387a 6d39 b409 0b3a 1e11 8337 85ac 4936
00000060: 7b98 8739 701d e83a c261 8234 4bc7 5c39
00000070: f256 f934 2e5a f63a de45 6439 3752 cf3a

exp_avg f4 [1, 32]
-0.002985929 -0.0054669124 -0.0023027703 -0.0017912652 0.0012207078 -0.00071185443 0.003451605 -0.006454046
0.0032945913 -0.0033612382 -0.00032748937 0.0019251936 0.00042980784 0.0015398042 -0.0030305863 -0.001164075
-0.0011822814 0.004312308 7.625519e-05 -0.000565756 0.0003013124 0.0021979162 0.0019236023 -0.0012662666
-0.0028601137 0.0011280694 -0.00029627758 -0.0016447437 0.0013078348 -0.0029907424 0.0038060679 -0.0023276033
00000000: 93af 43bb c923 b3bb 13ea 16bb e3c8 eaba
00000010: 2800 a03a be9b 3aba 5334 623b 767c d3bb
00000020: 12ea 573b 3848 5cbb e1b2 abb9 c756 fc3a
00000030: d557 e139 41d3 c93a cd9c 46bb e093 98ba
00000040: c8f6 9aba 434e 8d3b 32eb 9f38 3e4f 14ba
00000050: 77f9 9d39 ea0a 103b 6221 fc3a dbf8 a5ba
00000060: bf70 3bbb badb 933a b455 9bb9 7194 d7ba
00000070: a76b ab3a 5500 44bb 396f 793b b48a 18bb

exp_avg_sq f4 [1, 32]
0.007814667 0.0087733315 0.00085113023 0.00090564886 0.0022342352 1.6582037e-05 0.007659359 0.005238594
0.00073119625 0.00091870327 0.0005696097 0.0069991006 0.00025645635 0.00040353998 0.0011743138 9.303219e-05
0.0002925351 0.0016626953 0.00028315437 9.873839e-05 0.0011863715 0.00578302 0.000298557 0.0001181949
0.00090511906 0.009130477 8.824227e-06 0.0017621092 7.268438e-05 0.00061570894 0.0115675535 0.00053394394
00000000: 1709 003c 05be 0f3c 621e 5f3a 1169 6d3a
00000010: 3f6c 123b a719 8b37 5cfb fa3b 83a8 ab3b
00000020: c0ad 3f3a 22d5 703a dc51 153a b658 e53b
00000030: fd74 8639 3892 d339 6feb 993a 471a c338
00000040: 655f 9939 ccee d93a 5674 9439 c511 cf38
00000050: 0680 9b3a 7d7f bd3b a487 9c39 67df f738
00000060: 8345 6d3a ff97 153c c40b 1437 93f6 e63a
00000070: 216e 9838 8767 213a d685 3d3c 5ff8 0b3a
