trained_models/0_lag_ppo_InvertedPendulum-v2_eps_0.75_critic.pth (torch, 21585 bytes, 15 tensors)

critic_net.layers.0.weight f4 [32, 4]
0	0x3fba61f5	1.4561144
1	0xbfbe33ba	-1.4859536
2	0x3e55107a	0.20807067
3	0xbda7ebb4	-0.08199254
4	0xbeaf3c58	-0.34225726
5	0x3f9e65e8	1.2374849
6	0x3e132eaa	0.1437327
7	0x3e7bf9da	0.2460703
8	0x3ecf3228	0.40467954
9	0xbf73bc6d	-0.9520939
10	0x3f72bfc7	0.9482388
11	0xbcc953c5	-0.024576077
12	0xbddc8b54	-0.10768762
13	0xbff81bb1	-1.9383451
14	0xbdfc2ff1	-0.123138316
15	0x3df2198c	0.11821279
16	0xbcf85286	-0.030312788
17	0x3f01f632	0.5076629
18	0xbdb0560a	-0.08610161
19	0x3ddec529	0.10877449
20	0x3ebc4d6b	0.36777815
21	0xbfc25d70	-1.5184765
22	0xbf4d4041	-0.8017617
23	0xbe6653d6	-0.22492918
24	0xbf0d22b2	-0.55131066
25	0xbfeab43b	-1.8336252
26	0xbf8fd1fe	-1.123596
27	0xbeb6232e	-0.35573715
28	0xc063fd8e	-3.5623507
29	0xbf80f075	-1.0073382
30	0xbf4bd721	-0.79625136
31	0xbe817acf	-0.25289008
32	0xbfa85983	-1.3152317
33	0x3d054c6d	0.03254359
34	0x3f07afab	0.53002423
35	0xbf6eee1d	-0.9333208
36	0x3fa20d69	1.2660342
37	0x3ec968ab	0.39337668
38	0xbe1ebac4	-0.15500933
39	0xbf21022b	-0.62893933
40	0xbea1b486	-0.3158304
41	0xbffbed57	-1.9681805
42	0xbea6950e	-0.32535595
43	0xbea77354	-0.32705176
44	0x3f0d8c8c	0.5529258
45	0x3f52b8a4	0.8231299
46	0xbeda074c	-0.42583692
47	0x3d70f6d1	0.058829132
48	0xbe3538dc	-0.17697471
49	0x3fa06509	1.2530833
50	0xbd3457f7	-0.044029202
51	0x3ee06808	0.4382937
52	0xbf4136c7	-0.7547421
53	0x3fb630e7	1.4233674
54	0xbf225fe6	-0.6342758
55	0x3eceeea5	0.40416446
56	0xbfa5f98a	-1.2966778
57	0x3fcac69a	1.5841858
58	0xbf03d573	-0.5149757
59	0xbe4ba684	-0.1988774
60	0xc0275883	-2.6147773
61	0xbe8f66bf	-0.28008077
62	0x3eb3a194	0.35084212
63	0x3e8f0b46	0.27938288
64	0xbd8a8beb	-0.067649685
65	0x3ddeda2b	0.10881456
66	0xbca721e6	-0.020401906
67	0xbdaf238c	-0.08551702
68	0xc0221e11	-2.533085
69	0x3edf3404	0.43594372
70	0xbe5e59be	-0.21713921
71	0xbd6df7ff	-0.058097836
72	0xbfba9454	-1.4576516
73	0xbe78a2a5	-0.24280794
74	0xbf8d5471	-1.1041394
75	0xbe87b5bd	-0.26505843
76	0x3f9b15fb	1.2116083
77	0xbe80c7a7	-0.25152323
78	0x3e85cfc3	0.26135072
79	0x3f375b0d	0.7162331
80	0x3fc307f2	1.52368
81	0xc001a05e	-2.025413
82	0xbf443ac1	-0.7665215
83	0xbe04f4b7	-0.12983976
84	0xbf020583	-0.5078966
85	0x3f5d31f1	0.8640433
86	0xbf25d53f	-0.6477851
87	0xbf23b8bd	-0.63953763
88	0x3f0c686a	0.54846823
89	0x3f0aa84b	0.54163045
90	0xbf822c0f	-1.0169696
91	0xbe1aab8f	-0.15104507
92	0x3fb820c7	1.4385003
93	0xbec71286	-0.3888132
94	0xbf2a50c2	-0.66529477
95	0xbf006c26	-0.5016502
96	0xc053bd6e	-3.3084369
97	0xc0038b75	-2.0553868
98	0x3e7b864a	0.24562946
99	0x3e8327b3	0.25616226
100	0xbf892d96	-1.0717037
101	0x3fd4f312	1.6636679
102	0x3e20a298	0.15687025
103	0x3e972450	0.29519892
104	0xbe0a4e53	-0.13506441
105	0xbe85bc70	-0.2612033
106	0x3e4073aa	0.18794122
107	0xbdce14b0	-0.100625396
108	0xbfe80db3	-1.8129181
109	0x3f56cc2f	0.8390531
110	0x3ea49c07	0.3215029
111	0x3e3c32c5	0.18378742
112	0xbfad4599	-1.3536865
113	0xbdec3653	-0.11533799
114	0xbe903c87	-0.2817118
115	0x3f088213	0.5332348
116	0xbfaf481e	-1.3693883
117	0xc000fed3	-2.0155532
118	0x3fb03244	1.376534
119	0x3f3bf405	0.7341922
120	0x3e89f6a1	0.26945975
121	0xbf04d613	-0.5188915
122	0xbe6c2620	-0.23061419
123	0x3e2d24fb	0.16908638
124	0x3f22c13a	0.6357609
125	0xc0046e4d	-2.0692322
126	0xbea55d36	-0.32297677
127	0xbc67a36d	-0.014138085

critic_net.layers.0.bias f4 [32]
0	0xbd1971f8	-0.037462205
1	0xbd602e65	-0.054731745
2	0xbe7c2ca0	-0.24626398
3	0xbe1151a4	-0.141913
4	0xbec3dfab	-0.38256583
5	0xbd9970ce	-0.07492219
6	0xbd032f6a	-0.03202764
7	0x3ca97b76	0.020688754
8	0x3e7a9bd8	0.24473512
9	0xbe807f7d	-0.25097266
10	0x3d2f8ffc	0.042861924
11	0xbbcd2d6c	-0.006261518
12	0x3df9483a	0.12171979
13	0x3ea0f9b5	0.3144051
14	0x3cf87f91	0.030334266
15	0x3e052b4b	0.13004796
16	0x3eca60b1	0.39526895
17	0x3da12da9	0.07870037
18	0x3e0b3e71	0.13598038
19	0xbe934a38	-0.28767562
20	0xbd348f26	-0.04408183
21	0x3e9aee51	0.30259946
22	0x3c2923d3	0.010323483
23	0x3dfeef46	0.124479815
24	0xbe0ce26b	-0.13758247
25	0x3dbfe840	0.0937047
26	0x3e7d73fb	0.24751274
27	0x3dbf4ab8	0.09340423
28	0x3ecfdfa7	0.4060032
29	0x3ee4c9e6	0.44685286
30	0xbee44180	-0.44581223
31	0xbd2cd1fc	-0.042192444

critic_net.layers.2.weight f4 [32, 32]
0	0x3de7efaf	0.11325013
1	0x3e17dfe4	0.14831501
2	0xbba19cfd	-0.0049320445
3	0xbddfd682	-0.10929586
4	0x3ddcb1fc	0.10776135
5	0xbd14e321	-0.03634942
6	0x3dab50d6	0.083650276
7	0x3e00c296	0.12574229
8	0x3e0654da	0.13118306
9	0xbc21dd00	-0.009879351
10	0xbdda00a6	-0.10644655
11	0x3e12bdff	0.1433029
12	0xbe144f89	-0.14483465
13	0x3d7a818c	0.0611587
14	0xbea31c3f	-0.31857488
15	0xbdce099a	-0.10060425
16	0xbd9c624c	-0.07635936
17	0x3ddef86a	0.10887225
18	0x3d775796	0.060386263
19	0x3d357e38	0.044309825
20	0x3e931dd1	0.28733686
21	0x3de89bc8	0.11357838
22	0xbd15290a	-0.03641609
23	0x3cbf6376	0.023362856
24	0x3ba8f845	0.005156549
25	0xbdf7ca2c	-0.12099108
26	0xbdbd57c0	-0.092452526
27	0xbd97dc80	-0.07415104
28	0x3e482a4d	0.19547386
29	0x3e98d7d0	0.29852152
30	0x3e00a41f	0.12562607
31	0x3e207e58	0.15673196
32	0x3efb2558	0.4905193
33	0xbe4db212	-0.2008746
34	0x3e6614e5	0.22468908
35	0xbd664fe6	-0.05622854
36	0xbe66fdc8	-0.22557747
37	0xbe4814f7	-0.19539247
38	0xbd953002	-0.072845474
39	0xbe126023	-0.14294486
40	0x3e2786c5	0.16360004
41	0xbe4095aa	-0.18807092
42	0x3c56f420	0.013119727
43	0xbddb2840	-0.107010365
44	0x3e0c38de	0.13693568
45	0x3dc3a702	0.095533386
46	0xbf6f423b	-0.93460435
47	0x3dd7f277	0.105442934
48	0x3e0a300f	0.13494895
49	0xbe4a043e	-0.19728181
50	0xbe447666	-0.1918579
51	0x3e895c08	0.26828027
52	0x3e92e496	0.28690022
53	0xbdfe07ee	-0.12403856
54	0xbefa1c2b	-0.48849615
55	0x3d4bb175	0.049729783
56	0x3e4a35eb	0.1974713
57	0xbdfbed9f	-0.12301182
58	0x3e7c463c	0.24636167
59	0xbe312023	-0.17297415
60	0x3e185e6e	0.14879772
61	0x3edf0434	0.43557894
62	0xbdc523ba	-0.09625955
63	0x3ea91095	0.33020464
64	0x3f6d2192	0.9262935
65	0x3d996c9f	0.07491421
66	0x3f0005a6	0.5000862
67	0x3f231ccf	0.63715833
68	0xbe279975	-0.16367133
69	0x3e5e93e9	0.21736111
70	0xbcaad144	-0.020851739
71	0x3eaad46d	0.33365193
72	0xbe87c258	-0.2651546
73	0xbe4d3e9b	-0.20043413
74	0x3c17d184	0.009266261
75	0xbe4137bb	-0.18868916
76	0xbebae5e6	-0.36503524
77	0xbf0beaf5	-0.5465539
78	0xbfb02a39	-1.3762885
79	0x3f16d3a0	0.58916664
80	0xbe1ecb6d	-0.15507288
81	0x3e371e50	0.17882657
82	0xbe6da8ba	-0.23208895
83	0x3f218a05	0.63101226
84	0x3f03e956	0.5152792
85	0xbf493c43	-0.7860758
86	0xbf27b13c	-0.65504813
87	0xbf09f09d	-0.5388277
88	0x3f8cecb3	1.1009735
89	0xbf3957a7	-0.7239937
90	0x3d57fca9	0.05273119
91	0xbd15edcf	-0.036603745
92	0xbc52c3a4	-0.012864027
93	0x3e772836	0.24136433
94	0x3e1bc4fa	0.1521186
95	0x3f4c3d09	0.7978063
96	0xbe02a2d4	-0.12757427
97	0xbda3ffe6	-0.08007793
98	0xbd4a8b56	-0.049449287
99	0xbe13aada	-0.14420643
100	0x3e204549	0.1565143
101	0x3d7289e9	0.059213553
102	0xbd437de3	-0.047727477
103	0x3db722b2	0.089421645
104	0x3e245c79	0.160509
105	0x3e37aee0	0.17937803
106	0xbdf68c1b	-0.12038442
107	0xbca1c07b	-0.019745102
108	0xbd5f90fe	-0.054581635
109	0xbc28dfea	-0.0103072915
110	0x3f0d3c75	0.55170375
111	0x3da27dd5	0.07934157
112	0xbd3e64cb	-0.046482842
113	0x3dccfc8b	0.10009106
114	0x3d7f3588	0.06230691
115	0x3dc1d9cf	0.09465372
116	0xbeb26106	-0.34839648
117	0xbe4c196d	-0.19931574
118	0x3e84227f	0.25807568
119	0xbe011417	-0.1260532
120	0xbd28b151	-0.041184727
121	0x3e812050	0.25219965
122	0xbcc3187d	-0.023815388
123	0x3e38551a	0.18001214
124	0x3c87d0ce	0.016579058
125	0xbeb20529	-0.34769562
126	0x3d959fc2	0.07305862
127	0xbe03f9e6	-0.12888297
128	0xbdc54615	-0.09632508
129	0x3de47570	0.11155212
130	0xbe4e6564	-0.20155865
131	0xbe756fe4	-0.23968464
132	0xbd58e86b	-0.052956026
133	0xbd69e95f	-0.057107326
134	0x3e2ad5b2	0.16683081
135	0xbc208b04	-0.009798769
136	0x3d81c1d3	0.06335797
137	0x3d3d0a92	0.04615266
138	0x3de45b2e	0.11150204
139	0x3e17ec8f	0.14836334
140	0xbda370a3	-0.07980468
141	0xbce47727	-0.027888848
142	0x3de72212	0.11285795
143	0x3db2cb09	0.08730132
144	0x3ea48883	0.321354
145	0x3d8ed36e	0.06973921
146	0xbd34d75b	-0.04415069
147	0x3e4ec241	0.2019129
148	0xbe8b0021	-0.27148536
149	0xbe414257	-0.18872963
150	0xbc78fa5b	-0.015196408
151	0xbdb857de	-0.09001134
152	0xbd4cc954	-0.04999669
153	0x3dcdd711	0.10050786
154	0x3e187f8e	0.14892408
155	0xbdf789f4	-0.12086859
156	0xbe2638d2	-0.16232613
157	0xbe21ab39	-0.15787973
158	0xbe551e8d	-0.20812435
159	0xbe07392f	-0.13205408
160	0xbd657f82	-0.056029804
161	0x3db5cca0	0.0887692
162	0x3c130a13	0.00897457
163	0x3d964179	0.07336707
164	0xbd0aa057	-0.03384432
165	0xba183507	-0.00058062415
166	0xbe1b61aa	-0.15173975
167	0x3e6a82ee	0.22901508
168	0xbdf29bed	-0.11846147
169	0x3d32dfca	0.043670453
170	0xbdd08352	-0.10181297
171	0x3c94921c	0.018136077
172	0xbd1067f8	-0.035255402
173	0x3d018584	0.03162147
174	0xbdcb698e	-0.09932242
175	0xbc5ae67e	-0.013360618
176	0xbe8bdb0a	-0.2731555
177	0x3d84a535	0.06476823
178	0x3d7dcb72	0.0619616
179	0xbca0d4c5	-0.019632706
180	0xbb799ca3	-0.0038087748
181	0x3dbe093f	0.09279107
182	0xbe3941cb	-0.18091504
183	0x3e44e022	0.19226125
184	0xbe0510ca	-0.12994686
185	0xbe250152	-0.16113785
186	0xb8d1a90d	-9.997385e-05
187	0x3dce0f6d	0.10061536
188	0xbd4af7e1	-0.049552802
189	0x3e18bf80	0.14916801
190	0xbdaa4e1b	-0.08315679
191	0x3e7bef21	0.24602939
192	0xbd4482f4	-0.04797645
193	0x3dc05082	0.09390356
194	0xbdc360f5	-0.095399775
195	0xbe6ec317	-0.23316608
196	0xbd33d6c2	-0.04390598
197	0xbce41943	-0.027844077
198	0xbe295561	-0.16536476
199	0xbe4d8941	-0.2007189
200	0xbe08b85b	-0.13351576
201	0x3d7a99f4	0.061181977
202	0xbc82ddf0	-0.015974969
203	0xbcba0d47	-0.02271141
204	0xbd93a655	-0.0720946
205	0x3c586c5b	0.013209428
206	0x3e8f78fc	0.2802199
207	0xbecd1d73	-0.4006153
208	0x3dd71fa6	0.10504083
209	0xbe428b4f	-0.18998455
210	0xbe061d23	-0.13097052
211	0x3e416db0	0.18889499
212	0xbe5f6ce8	-0.21818888
213	0xbde8b4d0	-0.11362612
214	0x3d9eecf6	0.077600405
215	0xbd844cb4	-0.064599425
216	0xbe1f5e79	-0.15563382
217	0x3e1dbb2e	0.15403435
218	0xbe554c8e	-0.20829985
219	0xbdb95c59	-0.09050817
220	0xbdcec7d4	-0.10096708
221	0xbea98b15	-0.33113924
222	0xbe161a5c	-0.14658493
223	0xbe170242	-0.14746955
224	0xbe64678b	-0.22305124
225	0x3dcdc6d2	0.100476876
226	0xbe65f2b5	-0.22455867
227	0xbe403df1	-0.18773629
228	0x3bec9e10	0.007220991
229	0xbe1a1ed7	-0.15050827
230	0x3e54102e	0.20709297
231	0xbd5d38d5	-0.054009277
232	0x3d9c7614	0.07639709
233	0xbcf409d7	-0.029789848
234	0xbdd0c385	-0.101935424
235	0xbd98e1e4	-0.0746496
236	0xbdc6cba0	-0.09706807
237	0xbdc28a0e	-0.09498988
238	0x3e09c25e	0.13453051
239	0xbd0ddb47	-0.034632947
240	0x3e3870f3	0.18011837
241	0x3deb8e56	0.11501758
242	0x3c47a2e0	0.0121848285
243	0x3deb7487	0.11496835
244	0xbe3bc09b	-0.18335192
245	0xbe54324c	-0.20722312
246	0x3e05ab56	0.1305364
247	0xba573537	-0.0008209529
248	0xbde59435	-0.11209909
249	0x3e9a4b96	0.30135792
250	0x3d1ae432	0.03781528
251	0x3e37d898	0.17953718
252	0xbe4b1067	-0.19830476
253	0xbea44193	-0.3208128
254	0xbe27e7ba	-0.1639699
255	0xbe836a1c	-0.25666893

critic_net.layers.2.bias f4 [32]
0	0xbe79d4d9	-0.24397601
1	0x3ca4f9d8	0.020138666
2	0xbe2530c0	-0.16131878
3	0x3e466c39	0.19377221
4	0x3e4c198e	0.19931623
5	0xbc3cc993	-0.011522668
6	0xbd593214	-0.053026274
7	0xbc98ab0b	-0.018636247
8	0x3e075dc4	0.13219362
9	0xbedd899d	-0.43269053
10	0xbe55c1eb	-0.20874755
11	0x3d09557a	0.033528782
12	0x3dd03ba0	0.101676226
13	0xbeaa99f1	-0.33320573
14	0xbea5b95f	-0.3236799
15	0xbd06936d	-0.03285544
16	0x3e9b76ef	0.30364177
17	0x3b7ee257	0.0038892233
18	0xbe622d1b	-0.22087519
19	0xbd3f2a63	-0.046671283
20	0xbdeb11e7	-0.11478024
21	0xbdda3146	-0.106539294
22	0x3e1516c3	0.14559464
23	0xbe9724eb	-0.29520354
24	0x3e9489f3	0.29011497
25	0xbeb4c185	-0.35303894
26	0xbcb40375	-0.021974305
27	0x3e1e1d25	0.15440805
28	0xbe35ee5c	-0.17766708
29	0x3d94165b	0.072308265
30	0xbe6834ad	-0.22676344
31	0xbe3ee2f1	-0.18641259

critic_net.layers.4.weight f4 [1, 32]
0	0x3e2fdbec	0.17173737
1	0x3e41f3fe	0.18940732
2	0xbeb08f8c	-0.34484518
3	0xbe14afee	-0.14520237
4	0xbe98c04f	-0.2983422
5	0x39c82406	0.00038173812
6	0xbdfbda41	-0.12297488
7	0xbdcb852b	-0.09937509
8	0xbc57e96a	-0.013178209
9	0x3e752e8b	0.23943536
10	0x3ea5ef94	0.32409346
11	0x3ac6a08e	0.001515405
12	0x3d730386	0.059329532
13	0xbecfeed8	-0.4061191
14	0x3e618f45	0.22027309
15	0x3da555c1	0.08072997
16	0xbe30bdc0	-0.17259884
17	0xbe9df1a4	-0.3084842
18	0x3e31804e	0.173341
19	0xbe8e7ac9	-0.27828053
20	0xbdc95775	-0.09831134
21	0x3e8c349d	0.2738389
22	0xbdc7d2bf	-0.097569935
23	0xbe4a7b98	-0.1977371
24	0x3ee885ab	0.4541448
25	0x3e4cb468	0.19990695
26	0x3d756b86	0.059916995
27	0xbe005284	-0.12531477
28	0x3e068ebb	0.13140385
29	0xbe1a8c63	-0.15092616
30	0x3e653092	0.2238181
31	0x3e9230ea	0.28552943

exp_avg f4 [32, 4]
0	0xb92b09b9	-0.00016311453
1	0x374d91ca	1.2252896e-05
2	0xb9d653dd	-0.00040879744
3	0xb9b23016	-0.00033986632
4	0x3812ad52	3.497053e-05
5	0x3707ab93	8.086575e-06
6	0xb9310289	-0.0001688098
7	0x382b5d6d	4.0856587e-05
8	0x37662502	1.3717685e-05
9	0x38712aeb	5.7498848e-05
10	0xb9f18b99	-0.0004607111
11	0xb984d963	-0.00025338968
12	0xb9101221	-0.00013739664
13	0x384455aa	4.6809822e-05
14	0xb83cccfe	-4.5013607e-05
15	0x39e5cc98	0.00043830718
16	0x38cd0014	9.775176e-05
17	0xb69acb39	-4.613216e-06
18	0xba0323e4	-0.00050026015
19	0xb9f7601a	-0.00047183112
20	0xb84eb725	-4.9284794e-05
21	0xb7325062	-1.0628342e-05
22	0xb763da5e	-1.3581097e-05
23	0x39b70f2a	0.00034915778
24	0xb8c572d9	-9.415084e-05
25	0x382f1841	4.174584e-05
26	0x39a1f840	0.00030893274
27	0x3a8dbcc0	0.0010813698
28	0xb8930d9a	-7.01204e-05
29	0x391b0fa3	0.00014787777
30	0x3a0c9092	0.0005362119
31	0x3aaf5110	0.0013375599
32	0x38302042	4.1991712e-05
33	0xb7e5abda	-2.7378952e-05
34	0xba01d1b5	-0.0004952208
35	0x3703d8d7	7.858695e-06
36	0xb8184e27	-3.631241e-05
37	0x37179b26	9.036425e-06
38	0x38e10683	0.00010730049
39	0x39b254d8	0.0003401402
40	0xb90cd4a4	-0.00013430655
41	0x38664c26	5.4907192e-05
42	0x397504d2	0.00023366816
43	0x39fc5dec	0.00048135163
44	0x38deb4ef	0.000106194864
45	0xb8e3aa35	-0.00010855907
46	0x37b9e710	2.2161315e-05
47	0xba2d6249	-0.0006614072
48	0x38d27687	0.00010035658
49	0xb8e4914a	-0.000108989494
50	0xb8997410	-7.317227e-05
51	0xba1adbb4	-0.0005907372
52	0x392c95fb	0.0001645907
53	0xb90f2cc0	-0.00013654213
54	0xb99ece87	-0.00030289983
55	0xba7d5884	-0.0009664374
56	0x3903aa40	0.00012556557
57	0xb89f1528	-7.5856515e-05
58	0x3a5a27d8	0.0008321977
59	0x3a5f101a	0.0008509174
60	0x371c59b7	9.319213e-06
61	0x387ff1a6	6.102179e-05
62	0xb87fd23b	-6.099253e-05
63	0xb993f68f	-0.00028221725
64	0xb8cdc02c	-9.8109565e-05
65	0x36a0d7d0	4.7934955e-06
66	0x3a351cbe	0.0006908885
67	0x3a223964	0.00061883614
68	0xb72a8f25	-1.0166118e-05
69	0x38066565	3.204252e-05
70	0x3961089d	0.00021460881
71	0x39e4bd13	0.0004362842
72	0xb893c8c4	-7.046902e-05
73	0xb8644472	-5.442318e-05
74	0x399eef5d	0.00030314448
75	0x3893d849	7.0497925e-05
76	0xb81e0a2d	-3.7679612e-05
77	0x38f47f99	0.000116585936
78	0x39dcad49	0.00042090777
79	0x3a0fcf71	0.0005485928
80	0x3835826e	4.3275235e-05
81	0x3653ca32	3.1559143e-06
82	0xba07b208	-0.000517637
83	0xb9e6fe7d	-0.00044058627
84	0x39666e15	0.00021975518
85	0xb92bb786	-0.00016376199
86	0xba4927fb	-0.0007673499
87	0xbac0426d	-0.0014668234
88	0x38fc10d1	0.00012019429
89	0xb90c5ca8	-0.00013385958
90	0x391d2e1a	0.00014989861
91	0xb8af3de8	-8.356181e-05
92	0x389820de	7.254047e-05
93	0xb8eb14f2	-0.000112095746
94	0xba1381f1	-0.0005626968
95	0xba9ae576	-0.0011817652
96	0xb9408d52	-0.00018363193
97	0x397940ad	0.00023770584
98	0x399b945a	0.00029674434
99	0x3aa3a587	0.0012485244
100	0x391b73e1	0.0001482512
101	0xb8ea560e	-0.000111740184
102	0x397e11b9	0.0002422993
103	0xba0f978a	-0.0005477598
104	0xb85e7b7f	-5.304394e-05
105	0x385b30e4	5.22592e-05
106	0x39cd5b53	0.0003916869
107	0x39e25c8f	0.0004317504
108	0x389e1013	7.537021e-05
109	0x3883fd8f	6.293796e-05
110	0x38dab937	0.00010429549
111	0x3985a5f3	0.0002549138
112	0x38b6e8d6	8.721805e-05
113	0xb8b99aa8	-8.8502944e-05
114	0xb9447c7d	-0.00018738392
115	0xba8214af	-0.0009924377
116	0xb7b3b2fe	-2.1421813e-05
117	0xb80c984b	-3.3520435e-05
118	0xbaacf668	-0.0013195993
119	0xbb144e96	-0.0022629849
120	0x38e02eac	0.00010689846
121	0xb7fe4a30	-3.0313706e-05
122	0xba1fe217	-0.00060990587
123	0xba05a2ac	-0.00050977874
124	0xb8f70659	-0.0001177906
125	0x37f04d06	2.8646096e-05
126	0xb94bda2f	-0.00019440868
127	0x3938cc8a	0.00017623804

exp_avg_sq f4 [32, 4]
0	0x345d1d77	2.0592948e-07
1	0x3477c204	2.307425e-07
2	0x36902b77	4.2965944e-06
3	0x3723aaac	9.755295e-06
4	0x33b9339f	8.6241236e-08
5	0x32846368	1.5412027e-08
6	0x3583ff7b	9.834615e-07
7	0x3582a8a9	9.734841e-07
8	0x34bf384a	3.5617478e-07
9	0x33fa5ed0	1.16587785e-07
10	0x3603fe4c	1.9668541e-06
11	0x3701bc0b	7.732781e-06
12	0x352a0157	6.3331885e-07
13	0x3485af10	2.4900555e-07
14	0x357bbfd6	9.3783945e-07
15	0x3664083a	3.3979436e-06
16	0x358cf02b	1.0500711e-06
17	0x33fa6377	1.1659625e-07
18	0x36475055	2.970007e-06
19	0x36e9844c	6.9593425e-06
20	0x3438051a	1.7138191e-07
21	0x34182d00	1.4172474e-07
22	0x358fb1ec	1.0706112e-06
23	0x36d6c12b	6.4001847e-06
24	0x35708925	8.960654e-07
25	0x34eec78d	4.4476147e-07
26	0x3672a83a	3.615873e-06
27	0x378d44e5	1.6840591e-05
28	0x34f93e31	4.6425114e-07
29	0x35441371	7.304398e-07
30	0x36a8745f	5.0203375e-06
31	0x37b00fe9	2.0988244e-05
32	0x3478cdd6	2.3171683e-07
33	0x3389f4f4	6.424116e-08
34	0x35767a36	9.181998e-07
35	0x35fe5437	1.8948984e-06
36	0x344b02e5	1.8906901e-07
37	0x332f4a3f	4.081289e-08
38	0x35acc57c	1.2872474e-06
39	0x361e41ab	2.3582058e-06
40	0x356d1bd3	8.832987e-07
41	0x3483e1f3	2.456505e-07
42	0x37039a09	7.844073e-06
43	0x37252bf7	9.845003e-06
44	0x35015b20	4.818885e-07
45	0x3403722f	1.2241865e-07
46	0x360d1345	2.1021854e-06
47	0x3637f0ca	2.7409283e-06
48	0x3494465c	2.761834e-07
49	0x348a540e	2.576566e-07
50	0x364a6db0	3.0164192e-06
51	0x3663607a	3.3881793e-06
52	0x35be70ab	1.4188894e-06
53	0x351e9394	5.907434e-07
54	0x36b7c988	5.4772863e-06
55	0x3773bb2d	1.4527509e-05
56	0x3525bc0e	6.1740946e-07
57	0x3522a03f	6.058289e-07
58	0x371210a2	8.706151e-06
59	0x37ef2034	2.8506016e-05
60	0x351b6f85	5.790428e-07
61	0x34317940	1.652852e-07
62	0x36989396	4.5471343e-06
63	0x37123dfd	8.716711e-06
64	0x35e09620	1.6732993e-06
65	0x34725d76	2.2572007e-07
66	0x36be6b12	5.674906e-06
67	0x374f0cca	1.2341139e-05
68	0x341ff954	1.4898734e-07
69	0x33b800d0	8.5683155e-08
70	0x3596c42b	1.1232963e-06
71	0x367ac2bf	3.736626e-06
72	0x34abd6c0	3.2007483e-07
73	0x339513f2	6.941981e-08
74	0x35ad6680	1.2919336e-06
75	0x36def718	6.644881e-06
76	0x3592119f	1.0882976e-06
77	0x34cfc5d3	3.870069e-07
78	0x36e310d0	6.7670844e-06
79	0x378c5c44	1.6732265e-05
80	0x353f0d92	7.117279e-07
81	0x34b66756	3.3975329e-07
82	0x3690e70f	4.318433e-06
83	0x37582e0f	1.2885327e-05
84	0x36abc8e5	5.1195843e-06
85	0x35bdc0e6	1.4137738e-06
86	0x37c0533e	2.2926946e-05
87	0x3872c403	5.7879846e-05
88	0x34df88e3	4.1636585e-07
89	0x33dfcbdf	1.04213306e-07
90	0x363a3854	2.7748947e-06
91	0x37871351	1.6102249e-05
92	0x35dfdf3a	1.6679762e-06
93	0x35063ba5	5.0005684e-07
94	0x3757601e	1.2837378e-05
95	0x37f819b8	2.957588e-05
96	0x356c8b0e	8.81192e-07
97	0x357b3809	9.358633e-07
98	0x370270f6	7.774905e-06
99	0x379576a4	1.781743e-05
100	0x34becd35	3.5539566e-07
101	0x352defa2	6.4796234e-07
102	0x36a6dda9	4.97299e-06
103	0x36e2b96b	6.7569104e-06
104	0x34ef1dc7	4.4538885e-07
105	0x33b7b690	8.5548095e-08
106	0x3637fbe7	2.7415751e-06
107	0x36b25353	5.3145136e-06
108	0x343fcbe1	1.7862432e-07
109	0x33845de8	6.1638104e-08
110	0x35ce32ee	1.5363019e-06
111	0x360dcd24	2.1130045e-06
112	0x352c9baf	6.430154e-07
113	0x346cd3d0	2.205627e-07
114	0x368437fd	3.9404244e-06
115	0x371b40ce	9.2538085e-06
116	0x365914a9	3.2347546e-06
117	0x357864de	9.253398e-07
118	0x37c789a2	2.3786739e-05
119	0x38866b82	6.409643e-05
120	0x35a6c830	1.2426226e-06
121	0x34302f79	1.6408548e-07
122	0x36a42ecd	4.893029e-06
123	0x3728f9ac	1.0071712e-05
124	0x34fa3d5a	4.6610768e-07
125	0x34d00d24	3.875258e-07
126	0x3606a8c6	2.0065795e-06
127	0x369164de	4.3330792e-06

exp_avg f4 [32]
0	0x3b8db18c	0.0043241438
1	0x3a32ceed	0.00068209955
2	0x3b2e185e	0.0026564817
3	0x3a7db485	0.00096780836
4	0x3a9aee6b	0.0011820322
5	0xb98052d6	-0.0002447578
6	0xbb267fe0	-0.002540581
7	0xbb89bf56	-0.004203717
8	0x3a257676	0.00063119025
9	0xbaaea475	-0.0013324158
10	0xbb12a15f	-0.0022374017
11	0x3a48405e	0.0007638986
12	0x3a483a44	0.0007638077
13	0x3a880af6	0.0010379243
14	0xbbfe0acd	-0.0077527524
15	0x39986cf7	0.00029072884
16	0xbb2b9e5a	-0.0026186914
17	0xbaf90fd2	-0.0019001907
18	0xbb057440	-0.002036348
19	0x3a38f6e2	0.00070558314
20	0x3b4aa97e	0.003092378
21	0x3ad036d9	0.0015885487
22	0xbb1e30f9	-0.0024138077
23	0x3afb7b55	0.0019186536
24	0xbaf813b6	-0.0018926773
25	0xbaaeff94	-0.0013351315
26	0xba9581da	-0.0011406497
27	0xbaa31b58	-0.0012444062
28	0x3b130485	0.0022433114
29	0x3bddc397	0.006767701
30	0x3b21a496	0.0024664751
31	0x3b011009	0.0019693396

exp_avg_sq f4 [32]
0	0x3a28e254	0.0006442417
1	0x37846f47	1.5787444e-05
2	0x39dc360a	0.00042001932
3	0x388dccb8	6.761536e-05
4	0x3985ccd9	0.0002552036
5	0x388abcc6	6.6155146e-05
6	0x39baaf43	0.00035607265
7	0x3a37b0cf	0.00070072425
8	0x38b0ba60	8.427049e-05
9	0x38704847	5.7287773e-05
10	0x39677a9c	0.00022075552
11	0x38b98b18	8.847396e-05
12	0x38ae3b9e	8.308071e-05
13	0x3a02a327	0.0004983418
14	0x3ad640b2	0.0016346185
15	0x395a9ba4	0.00020848081
16	0x3a1fff09	0.0006103372
17	0x393d576f	0.00018057016
18	0x391eabc5	0.00015132043
19	0x39d68147	0.0004091358
20	0x3a18ac75	0.0005824038
21	0x3b1440ad	0.0022621558
22	0x39552dad	0.00020330278
23	0x3aa1a3cd	0.0012332142
24	0x3a3cb21e	0.00071981724
25	0x398d833f	0.00026991402
26	0x3936d9dd	0.00017438033
27	0x38aafa59	8.1528626e-05
28	0x39b2e6bc	0.00034122716
29	0x3b36b414	0.002787833
30	0x39fafca2	0.00047871942
31	0x38ed46e1	0.00011314243

exp_avg f4 [32, 32]
0	0x38c7cd7a	9.5273324e-05
1	0xb9bbcc5f	-0.00035819688
2	0xba240357	-0.0006256601
3	0xb977144d	-0.00023563318
4	0xba348c07	-0.0006887321
5	0x39be1051	0.0003625178
6	0x3a1260d7	0.0005583888
7	0x398eeed4	0.0002726229
8	0x39dfe86f	0.0004270705
9	0x388ead06	6.803316e-05
10	0x39d988e6	0.00041491463
11	0x38fe8e0e	0.000121381236
12	0xb8b480ea	-8.607081e-05
13	0x39c973df	0.00038424038
14	0x3959e8b3	0.0002078142
15	0xb9803d14	-0.0002445957
16	0x3a38e677	0.0007053385
17	0x37c0c4b4	2.297978e-05
18	0x3a2a6272	0.0006499655
19	0xba5ad66f	-0.0008347993
20	0x39e4e55b	0.00043658432
21	0x3a82a813	0.0009968303
22	0x3a038a4b	0.00050178607
23	0x3a53f3b2	0.00080853247
24	0xba25421f	-0.00063041033
25	0xb95f1a69	-0.00021276776
26	0x39dcaeef	0.00042092006
27	0xb98121aa	-0.0002462988
28	0x39ac4fc2	0.0003286582
29	0xb9571d1d	-0.00020514843
30	0xba3b50ec	-0.0007145542
31	0x39203280	0.00015277602
32	0x388450a4	6.309271e-05
33	0xb9965f4d	-0.00028681234
34	0xba1eee9a	-0.0006062776
35	0xb99de6a6	-0.0003011722
36	0xba28ffcc	-0.0006446808
37	0x3984326d	0.00025214572
38	0x39cac047	0.000386717
39	0x3931330d	0.00016899053
40	0x39cbbd5f	0.0003886027
41	0x383bc9a0	4.4772052e-05
42	0x3998603c	0.000290634
43	0x3922f9e4	0.00015542615
44	0xb6cfa6e0	-6.1885075e-06
45	0x39dde6a3	0.00042324243
46	0x394e268b	0.0001966005
47	0xb978f142	-0.00023740999
48	0x3a31dd3d	0.0006784981
49	0x369a1eac	4.5931283e-06
50	0x3a0d2d06	0.0005385432
51	0xba3f80f9	-0.000730529
52	0x39b907a0	0.0003529163
53	0x3a75750a	0.00093634485
54	0x39ef1582	0.00045601657
55	0x3a4b6b76	0.00077598484
56	0xba2eaacb	-0.00066630234
57	0xb911557f	-0.00013860127
58	0x39cdc10c	0.00039244478
59	0xb9631b49	-0.00021658571
60	0x39b10b8d	0.00033768677
61	0xb8bbcd23	-8.9550645e-05
62	0xba37bcef	-0.00070090493
63	0x38a54147	7.879972e-05
64	0xb95d0de9	-0.00021081384
65	0x395f1c87	0.00021277565
66	0x383077f8	4.20734e-05
67	0xb945587b	-0.00018820346
68	0xb9c795b2	-0.0003806777
69	0xba28ba3f	-0.0006436444
70	0xba39f64c	-0.0007093891
71	0xb91c40b1	-0.00014901419
72	0x398a2382	0.00026347867
73	0xba3a8fab	-0.0007116745
74	0xb99c4c34	-0.00029811414
75	0xb947a111	-0.00019038121
76	0x39d9d25a	0.0004154619
77	0x39cddd4c	0.00039265526
78	0xb8ca0955	-9.633849e-05
79	0x3a1501b8	0.0005684155
80	0x39cc641a	0.00038984494
81	0x395e264b	0.00021185835
82	0xb9b0c97d	-0.00033719456
83	0x38117762	3.4681878e-05
84	0xba271b7e	-0.0006374641
85	0xb9507558	-0.0001988014
86	0xba174b3b	-0.0005771403
87	0xba113005	-0.00055384665
88	0x39a2918d	0.00031007492
89	0x3a00c745	0.0004912506
90	0x39a05e51	0.0003058785
91	0x3a0a0260	0.0005264636
92	0x3a27304f	0.0006377743
93	0x3aa1f516	0.0012356366
94	0xba09996a	-0.0005248996
95	0xb9a66bcc	-0.00031742302
96	0xb88c8b11	-6.701623e-05
97	0x3990aade	0.00027593126
98	0x3a05a0a1	0.0005097483
99	0x39835597	0.00025050036
100	0x3a15f8a2	0.0005720948
101	0xb9862615	-0.00025586845
102	0xb9d1b74e	-0.0004000016
103	0xb94af427	-0.00019355175
104	0xb9b6dd8c	-0.0003487881
105	0xb8a6c90b	-7.952944e-05
106	0xb99a778d	-0.0002946224
107	0xb8f31dd3	-0.00011592698
108	0x3858ea7e	5.17168e-05
109	0xb9a6e8d7	-0.00031835467
110	0xb93ec6ef	-0.0001819392
111	0x3961a07d	0.00021517459
112	0xba1befcf	-0.0005948515
113	0xb77c55cb	-1.5040346e-05
114	0xba035ca7	-0.00050110597
115	0x3a33bfb1	0.00068568724
116	0xb9a891d2	-0.00032152102
117	0xba58d00c	-0.00082707475
118	0xb9d9a9cf	-0.00041515983
119	0xba32875b	-0.00068103307
120	0x3a1556f8	0.0005696858
121	0x391e7902	0.00015113133
122	0xb9b8921f	-0.00035204084
123	0x394c0b96	0.00019459272
124	0xb981e7db	-0.00024777543
125	0x394b4615	0.00019385696
126	0x3a20ed06	0.0006138835
127	0xb8a7128e	-7.9666366e-05
128	0xb936cb00	-0.00017432496
129	0x3a1dc78b	0.0006018809
130	0x3a84b272	0.0010123982
131	0x39c205da	0.00037006923
132	0x3a97651a	0.0011550516
133	0xba1d6232	-0.0006003707
134	0xba70b442	-0.0009182134
135	0xb9e832e5	-0.00044288408
136	0xba3966f3	-0.00070725306
137	0xb8b5ef64	-8.6753425e-05
138	0xba371df4	-0.00069853594
139	0xb94132b8	-0.00018424809
140	0x391ab10a	0.00014752537
141	0xba223b64	-0.00061886595
142	0xb9a39560	-0.00031201076
143	0x39c3e1c2	0.000373615
144	0xba9a19a7	-0.0011756913
145	0xb8148571	-3.5410227e-05
146	0xba8a010c	-0.0010528876
147	0x3ab40d21	0.0013736823
148	0xba3d6000	-0.0007224083
149	0xbad56189	-0.0016279678
150	0xba53ecbe	-0.00080842886
151	0xbaad3aa2	-0.0013216326
152	0x3a82c016	0.0009975459
153	0x39bc0be7	0.00035867022
154	0xba397079	-0.00070739497
155	0x39d01903	0.00039691487
156	0xba122f67	-0.00055765215
157	0x39941d9d	0.00028250823
158	0x3a9bd44f	0.0011888834
159	0xb98d2beb	-0.00026926337
160	0x345d3c08	2.0604068e-07
161	0xb59858b8	-1.1350703e-06
162	0xb5e3ce40	-1.6972845e-06
163	0xb47ccf71	-2.3544796e-07
164	0xb6741027	-3.6368235e-06
165	0xb2215b68	-9.392217e-09
166	0x355eafd4	8.295731e-07
167	0x35ec5795	1.760886e-06
168	0x363f8bbd	2.8542556e-06
169	0xb63daf1e	-2.8265126e-06
170	0x35ceeee6	1.5417725e-06
171	0xb552b9ab	-7.850128e-07
172	0x34ca574f	3.7688957e-07
173	0x36142124	2.207301e-06
174	0xb4b12b73	-3.3000433e-07
175	0x360424d6	1.9690974e-06
176	0x366550c7	3.4170678e-06
177	0x358dfb65	1.0578484e-06
178	0x35e9ad69	1.7410322e-06
179	0xb6451947	-2.937e-06
180	0x34669d55	2.1477656e-07
181	0x362a5ce6	2.5386048e-06
182	0xb509dcca	-5.135777e-07
183	0x357e39fd	9.470676e-07
184	0x35537f0a	7.878849e-07
185	0x341be8e0	1.452022e-07
186	0x3625f836	2.4731394e-06
187	0x3556f770	8.008128e-07
188	0x3685755d	3.9773718e-06
189	0x36aa0f51	5.068178e-06
190	0xb67bef00	-3.754103e-06
191	0x351835ce	5.670271e-07
192	0xb7028642	-7.779863e-06
193	0x3982a425	0.0002491783
194	0x39dae00f	0.00041747137
195	0x393f5045	0.00018245082
196	0x3a065b1e	0.0005125272
197	0xb9565604	-0.00020440674
198	0xb9cb76c7	-0.00038807673
199	0xb9ab9bd9	-0.00032731777
200	0xb9e3eef9	-0.00043474862
201	0xb75b5b60	-1.3074692e-05
202	0xb9a41cef	-0.00031302075
203	0xb7ec378b	-2.8159257e-05
204	0x38ae7e8d	8.3205385e-05
205	0xb98826dd	-0.00025968897
206	0xb94c95ec	-0.00019510806
207	0x38243d1b	3.9157556e-05
208	0xba089816	-0.0005210651
209	0xb918c0e7	-0.00014567711
210	0xba030ca0	-0.00049991347
211	0x3a3171ec	0.000676899
212	0xb94de88c	-0.00019636954
213	0xba3ea8cd	-0.0007273078
214	0xb991d4b0	-0.0002781502
215	0xba0541af	-0.0005083335
216	0x399fac3d	0.0003045517
217	0x38dce8bb	0.00010533767
218	0xb9ade15d	-0.0003316504
219	0x388fc70e	6.855848e-05
220	0xb98b1540	-0.00026527978
221	0x387d5b3e	6.0404876e-05
222	0x3a115544	0.00055440166
223	0xb86f5990	-5.7065452e-05
224	0xb849964e	-4.8062117e-05
225	0x3950354b	0.00019856279
226	0x39b68b8f	0.00034817724
227	0x392ebeac	0.00016664964
228	0x39d3daf7	0.00040408198
229	0xb93caa35	-0.00017992484
230	0xb997b307	-0.0002893435
231	0xb9104da9	-0.00013761841
232	0xb98e1bcd	-0.00027105064
233	0xb863b896	-5.4292927e-05
234	0xb9676a8f	-0.00022069573
235	0xb888eb54	-6.5288186e-05
236	0x384de9bd	4.9093494e-05
237	0xb95cdc56	-0.00021062916
238	0xb905e9d3	-0.00012770975
239	0x39120cc1	0.00013928396
240	0xb9da475b	-0.00041633364
241	0xb7740865	-1.4545488e-05
242	0xb9b9aac4	-0.0003541318
243	0x3a0264da	0.00049741345
244	0xb96291d5	-0.00021607366
245	0xba1a0a28	-0.0005876147
246	0xb991561a	-0.00027720706
247	0xb9f22325	-0.00046184022
248	0x39c8777f	0.00038236004
249	0x38e208de	0.000107781714
250	0xb9843afa	-0.00025220943
251	0x3905b54a	0.00012751404
252	0xb930319e	-0.00016803152
253	0x39008f1e	0.00012260347
254	0x39e2fabf	0.000432929
255	0xb86eefca	-5.6966943e-05

exp_avg_sq f4 [32, 32]
0	0x35d733fa	1.6033875e-06
1	0x360ee7fb	2.129468e-06
2	0x37acfeee	2.0622709e-05
3	0x36a7b010	4.997484e-06
4	0x3824dd24	3.93066e-05
5	0x365f81ab	3.3305066e-06
6	0x36a76d91	4.989743e-06
7	0x36e7c942	6.907766e-06
8	0x37764ed7	1.4681099e-05
9	0x37a49db3	1.9623758e-05
10	0x3617117d	2.2510933e-06
11	0x355ca199	8.219154e-07
12	0x36b747e5	5.4621946e-06
13	0x37e5dce2	2.7401784e-05
14	0x36151b9e	2.2218805e-06
15	0x36d597cd	6.3655666e-06
16	0x38285311	4.0131683e-05
17	0x36a5d27d	4.9418873e-06
18	0x371e192c	9.423395e-06
19	0x37a971f3	2.0199432e-05
20	0x36588c8f	3.2268324e-06
21	0x37d8389f	2.5775573e-05
22	0x36249893	2.4526714e-06
23	0x36d902f4	6.4674477e-06
24	0x3710af37	8.623864e-06
25	0x36364da1	2.71653e-06
26	0x37931a6b	1.7536067e-05
27	0x365004db	3.0997242e-06
28	0x3834ec27	4.313528e-05
29	0x384573b4	4.7076217e-05
30	0x384a0da8	4.817327e-05
31	0x35b6b6f6	1.3613305e-06
32	0x355ceee9	8.2304047e-07
33	0x35af8d40	1.3079625e-06
34	0x37692e6d	1.3898692e-05
35	0x366a7a79	3.4940006e-06
36	0x37e442e4	2.7210866e-05
37	0x35d13218	1.5586293e-06
38	0x36071d82	2.0133743e-06
39	0x365ae6b9	3.261883e-06
40	0x37376470	1.0931035e-05
41	0x3756071f	1.2757052e-05
42	0x359c80c4	1.1660381e-06
43	0x34dd9318	4.1271483e-07
44	0x3667223b	3.4441607e-06
45	0x379b8f70	1.8544233e-05
46	0x3580e491	9.603265e-07
47	0x3687154a	4.025792e-06
48	0x37eb3d3c	2.8042698e-05
49	0x36421cfd	2.8925126e-06
50	0x36bd52e4	5.6422887e-06
51	0x37779220	1.475637e-05
52	0x35d43bcf	1.5812637e-06
53	0x379b5c59	1.8520443e-05
54	0x35916abe	1.0834408e-06
55	0x368d41fd	4.2098095e-06
56	0x36b99720	5.531023e-06
57	0x35e6c541	1.7193744e-06
58	0x374b7121	1.2126083e-05
59	0x35ffacd6	1.9049282e-06
60	0x37f58aa9	2.9270845e-05
61	0x38018987	3.088408e-05
62	0x380e8bbd	3.398558e-05
63	0x3540674c	7.167589e-07
64	0x35bbdeb3	1.39974e-06
65	0x35a25757	1.209536e-06
66	0x372c63d4	1.0275242e-05
67	0x36347619	2.6890832e-06
68	0x37e418c3	2.7191249e-05
69	0x36638807	3.3904814e-06
70	0x36a5b8eb	4.9389105e-06
71	0x36d6aefe	6.3980688e-06
72	0x371feb88	9.531977e-06
73	0x37969ae3	1.7953518e-05
74	0x35fa87f1	1.8666016e-06
75	0x35262c95	6.1904694e-07
76	0x3699b34e	4.580629e-06
77	0x37904c8a	1.7201779e-05
78	0x35d96cc6	1.6199417e-06
79	0x36f5175f	7.3042897e-06
80	0x37dc79fa	2.6282843e-05
81	0x368a8fe1	4.12947e-06
82	0x36a7ba7d	4.998698e-06
83	0x3731eae6	1.0604714e-05
84	0x3665c79a	3.4239843e-06
85	0x3744aad4	1.1722284e-05
86	0x35d951ef	1.6191606e-06
87	0x364a4816	3.0142305e-06
88	0x36b94f25	5.5226433e-06
89	0x363117d9	2.6388936e-06
90	0x374c69eb	1.21840085e-05
91	0x366e343a	3.5495164e-06
92	0x380494fa	3.1609998e-05
93	0x384216e9	4.627454e-05
94	0x38082b95	3.2465516e-05
95	0x359c1524	1.1629058e-06
96	0x357c0f2f	9.389941e-07
97	0x3619eee3	2.2937827e-06
98	0x379e2f51	1.8857101e-05
99	0x36b69f6d	5.4425823e-06
100	0x381c717d	3.7298993e-05
101	0x366e814c	3.5540024e-06
102	0x36a257f6	4.8382162e-06
103	0x36adf51e	5.184337e-06
104	0x37581bee	1.2881106e-05
105	0x379895f4	1.818964e-05
106	0x35f828a5	1.8489269e-06
107	0x355a6cc2	8.136959e-07
108	0x36b2e64c	5.3316235e-06
109	0x37cf939a	2.4745055e-05
110	0x35c1c3e1	1.4436629e-06
111	0x3694425b	4.4184685e-06
112	0x381e970a	3.78108e-05
113	0x3657de86	3.2167022e-06
114	0x36f5188a	7.3044257e-06
115	0x378eaa65	1.7007065e-05
116	0x363fc720	2.8577124e-06
117	0x37c046ce	2.2921155e-05
118	0x360bc092	2.0824705e-06
119	0x36bab111	5.563845e-06
120	0x36f625ba	7.3357633e-06
121	0x361fbdbd	2.3803289e-06
122	0x378f154a	1.7056842e-05
123	0x3611eb3e	2.1743613e-06
124	0x38247fc9	3.9219656e-05
125	0x3839247e	4.4141423e-05
126	0x383fe4e2	4.5751112e-05
127	0x35baf506	1.3929391e-06
128	0x3691d4a0	4.3460896e-06
129	0x36cb8466	6.0652847e-06
130	0x386d9c2e	5.6650657e-05
131	0x3766cd32	1.3756844e-05
132	0x38e341c0	0.000108364504
133	0x371f3614	9.48973e-06
134	0x376e792e	1.421412e-05
135	0x37a0a2ad	1.9149238e-05
136	0x3826f440	3.980496e-05
137	0x38632742	5.415758e-05
138	0x36d24a1d	6.2671156e-06
139	0x361af317	2.3089285e-06
140	0x377c0ee3	1.5023837e-05
141	0x389da730	7.5174845e-05
142	0x36cb99a1	6.067756e-06
143	0x37923972	1.7431306e-05
144	0x38e77a9f	0.00011037778
145	0x3761280b	1.3420368e-05
146	0x37d97764	2.5924011e-05
147	0x38656635	5.4693042e-05
148	0x37183e93	9.074475e-06
149	0x38932099	7.015578e-05
150	0x36e94ea8	6.953098e-06
151	0x3795eb83	1.7871853e-05
152	0x37c6df86	2.3707526e-05
153	0x36f7868b	7.3768365e-06
154	0x384a9c27	4.830598e-05
155	0x370d6b3b	8.429221e-06
156	0x38f8b91c	0.00011860041
157	0x3908b336	0.00013036732
158	0x390add77	0.00013243208
159	0x36822b36	3.8793323e-06
160	0x313cb17c	2.7458489e-09
161	0x31f67e8e	7.17393e-09
162	0x3308f303	3.1885985e-08
163	0x32413983	1.1247155e-08
164	0x338ba0c1	6.501933e-08
165	0x31f95a86	7.257145e-09
166	0x321e5760	9.216677e-09
167	0x325c36bc	1.2818131e-08
168	0x32d6a1ba	2.4986424e-08
169	0x330e1220	3.3078436e-08
170	0x3183e7c3	3.83895e-09
171	0x30f558b4	1.7851307e-09
172	0x322998b7	9.871818e-09
173	0x333098a4	4.111702e-08
174	0x31692b19	3.393046e-09
175	0x32261397	9.666926e-09
176	0x33872807	6.293708e-08
177	0x3209aa12	8.013119e-09
178	0x3286362a	1.5624284e-08
179	0x32f6bcb7	2.8723987e-08
180	0x31d9a8c2	6.3347168e-09
181	0x33216645	3.7578747e-08
182	0x31756416	3.5709085e-09
183	0x3225c383	9.648718e-09
184	0x3292b8a8	1.7080609e-08
185	0x31a3e892	4.7703645e-09
186	0x3303ecf0	3.0716308e-08
187	0x31c2e6ed	5.6723963e-09
188	0x33900b05	6.707527e-08
189	0x339f5eb0	7.421238e-08
190	0x33a64577	7.742613e-08
191	0x31572f71	3.1313585e-09
192	0x34ecc668	4.4102785e-07
193	0x35677c6b	8.623526e-07
194	0x371ae7ac	9.233056e-06
195	0x3619a26d	2.289332e-06
196	0x379a1cde	1.8371673e-05
197	0x35c9163c	1.4982138e-06
198	0x36137980	2.197543e-06
199	0x3615e2f3	2.2334832e-06
200	0x36dab61a	6.5181057e-06
201	0x3711a336	8.680674e-06
202	0x357410c4	9.092148e-07
203	0x34adacfd	3.2349627e-07
204	0x362d489e	2.5821278e-06
205	0x3750b309	1.2439451e-05
206	0x3542dc34	7.259107e-07
207	0x3619001e	2.2798845e-06
208	0x379cf972	1.8712806e-05
209	0x35c162d4	1.4408383e-06
210	0x36773052	3.6833994e-06
211	0x3716f00c	8.996587e-06
212	0x35a98c14	1.2632249e-06
213	0x37465731	1.18220205e-05
214	0x359cdc86	1.1687086e-06
215	0x364e636b	3.075426e-06
216	0x367f3412	3.802827e-06
217	0x3595e4c2	1.1167942e-06
218	0x370755eb	8.066631e-06
219	0x358ec8a5	1.063822e-06
220	0x37a313d1	1.9440342e-05
221	0x37b6fbd3	2.1813355e-05
222	0x37bce80f	2.2519407e-05
223	0x350c9e75	5.238465e-07
224	0x3524a48b	6.13342e-07
225	0x359a5af0	1.150036e-06
226	0x371a0528	9.180316e-06
227	0x3631186f	2.6389278e-06
228	0x3795c1c3	1.7852411e-05
229	0x35ec0651	1.7585209e-06
230	0x36244819	2.447987e-06
231	0x364b15e5	3.0262102e-06
232	0x36d71fa9	6.411185e-06
233	0x3714f406	8.878304e-06
234	0x357c3d01	9.396609e-07
235	0x34e2a156	4.2213168e-07
236	0x362bec73	2.5618617e-06
237	0x3749a0c0	1.2017961e-05
238	0x356dd9d7	8.860638e-07
239	0x3627413c	2.492291e-06
240	0x3797be27	1.808915e-05
241	0x360566d5	1.98784e-06
242	0x36834056	3.911594e-06
243	0x370cbdcc	8.388841e-06
244	0x35ccdbd6	1.5263165e-06
245	0x373a9f32	1.11235295e-05
246	0x358deef1	1.057486e-06
247	0x36372c07	2.7294752e-06
248	0x36805877	3.824996e-06
249	0x35a3892c	1.2184369e-06
250	0x37093938	8.179159e-06
251	0x35a82686	1.2528187e-06
252	0x379f4f5e	1.8991235e-05
253	0x37b1d5c0	2.119958e-05
254	0x37b7ef8e	2.1926851e-05
255	0x353eb376	7.1041666e-07

exp_avg f4 [32]
0	0x3ae705ba	0.0017625608
1	0x3adf872e	0.0017053836
2	0x3a965945	0.0011470696
3	0xbac25a44	-0.0014827927
4	0xbb412523	-0.0029471598
5	0x371a27ae	9.188354e-06
6	0xbaa8ca42	-0.001287766
7	0xba878f0c	-0.0010342314
8	0xb91c8102	-0.00014925378
9	0x3a7130ac	0.0009200673
10	0x3b3b226f	0.002855446
11	0x36751fb8	3.6526308e-06
12	0x3a096bc1	0.0005242192
13	0x399973d4	0.00029268733
14	0x3af05e6f	0.001833869
15	0x3a5f2cf0	0.0008513471
16	0xba9bc36b	-0.0011883801
17	0xbae9917b	-0.0017819846
18	0x3a8cc719	0.0010740488
19	0xbaffbdac	-0.0019511483
20	0xba522db8	-0.0008017677
21	0x3b13b483	0.0022538013
22	0xba812473	-0.0009852782
23	0xba0e8118	-0.00054361066
24	0x3ad77a22	0.0016439597
25	0x3aa574b6	0.0012623284
26	0x3a104d45	0.0005504678
27	0xbaac610b	-0.001315148
28	0x3a9932e4	0.001168814
29	0xba8b7570	-0.0010639858
30	0x3a94107a	0.0011296414
31	0x3b3a56b7	0.0028433034

exp_avg_sq f4 [32]
0	0x3995eedf	0.00028597467
1	0x395029a2	0.00019851935
2	0x394a4c47	0.00019292637
3	0x398d099a	0.0002690077
4	0x3a4ec297	0.00078872725
5	0x34f3ac94	4.5387844e-07
6	0x390bd7ad	0.00013336418
7	0x39070549	0.00012876572
8	0x36142f43	2.2081229e-06
9	0x39064ab2	0.00012807062
10	0x3a0d4681	0.0005389229
11	0x370742e9	8.062206e-06
12	0x38275595	3.9895607e-05
13	0x388133f8	6.160879e-05
14	0x3995f0b6	0.00028598838
15	0x38a0f79a	7.675514e-05
16	0x3911f367	0.00013918952
17	0x399a282f	0.00029403108
18	0x396f1789	0.00022801584
19	0x395aeed1	0.00020879066
20	0x38854c4e	6.356147e-05
21	0x39f39e54	0.00046466535
22	0x39005407	0.00012238334
23	0x38217c78	3.850131e-05
24	0x395d9372	0.0002113113
25	0x393c7df2	0.00017975995
26	0x37b1a2ce	2.1175856e-05
27	0x3903f606	0.00012584784
28	0x38d6553c	0.00010220191
29	0x38f9085d	0.00011874803
30	0x39b05ac1	0.00033636953
31	0x3a59cf1f	0.00083087565

exp_avg f4 [1, 32]
0	0xbad4b3f5	-0.0016227948
1	0xbb209d4b	-0.0024507816
2	0xbc2313c6	-0.009953445
3	0xb95256ce	-0.00020059498
4	0x3b45b7a8	0.0030169282
5	0xb8508fed	-4.9725106e-05
6	0xbb33d99c	-0.0027442938
7	0xb88582a4	-6.366268e-05
8	0xbab10e91	-0.001350837
9	0xbc17e755	-0.009271462
10	0xbb53aa2f	-0.0032297482
11	0xba8d2b4e	-0.0010770352
12	0x3bba8743	0.005692394
13	0xbc3861f0	-0.011253819
14	0xbbb35408	-0.005472664
15	0x38dc5993	0.00010507102
16	0x3bde7b05	0.0067895674
17	0xbb2e4f65	-0.0026597616
18	0xbbcc731e	-0.006239309
19	0x3a68e6fa	0.0008884516
20	0xbba71e74	-0.005100066
21	0xbb3024ed	-0.0026877478
22	0x3b0a1200	0.0021067858
23	0x3b1750ca	0.0023088926
24	0x3c020c25	0.007937466
25	0xbbf34fcf	-0.0074252854
26	0x3b965609	0.004587893
27	0xba32bf54	-0.0006818671
28	0xbaddbea0	-0.0016917773
29	0x3ac9491b	0.001535687
30	0xbbd55c79	-0.0065112677
31	0xbb26ae52	-0.0025433493

exp_avg_sq f4 [1, 32]
0	0x39f77654	0.00047199673
1	0x3a974b2e	0.0011542791
2	0x3bd40816	0.0064706905
3	0x391a021a	0.00014687367
4	0x3a934db5	0.0011238368
5	0x36ad585a	5.1660872e-06
6	0x3a5a28af	0.00083221024
7	0x38a8758b	8.032758e-05
8	0x3891113b	6.917348e-05
9	0x3bc47f4a	0.0059966194
10	0x3b646434	0.0034849765
11	0x38977bd1	7.223304e-05
12	0x3a20aa8e	0.000612893
13	0x3c1c2634	0.009530593
14	0x3b3cd3b7	0.0028812715
15	0x3940c8ef	0.000183854
16	0x3b719f5a	0.0036868663
17	0x3bc1b3b6	0.005911316
18	0x3abbe0fb	0.0014334017
19	0x3bb6a29a	0.005573583
20	0x3abe09cf	0.0014498773
21	0x3b002d05	0.0019558084
22	0x39c1f04e	0.0003699087
23	0x3c074621	0.008256466
24	0x3bf82db7	0.007573809
25	0x3b7968c5	0.0038056832
26	0x3a2e558b	0.000665032
27	0x39c5e539	0.00037745552
28	0x3acc7c0a	0.0015600931
29	0x3adac6e7	0.0016691358
30	0x3b1b819d	0.0023728379
31	0x3a5c4614	0.00084027764
