trained_models/0_lag_ppo_InvertedPendulum-v2_eps_0.25_critic.pth (torch, 21585 bytes, 15 tensors)

critic_net.layers.0.weight f4 [32, 4]
-0.061437443 -0.94117683 -0.29245445 0.08455031 -0.8320668 -1.0347106 0.3568327 -0.283505
0.94202995 1.3238912 -0.6732019 0.022106403 0.19978543 -0.3129127 -0.70667374 -0.131187
0.57233477 2.516598 0.71460974 -0.19352438 -1.3401704 -0.08554292 -0.6161735 -0.3886758
-0.024548143 -0.03642805 0.6256879 0.46500745 -0.070468605 -0.49921924 -0.031720586 0.096451424
-1.2671508 0.90322644 -0.6673339 0.17631191 0.43764055 -0.054882675 0.31535208 -0.14621255
0.54937863 1.4090116 -0.46318883 -0.06479285 0.77905864 1.2222203 -0.30480987 0.30814657
0.8960592 2.8295631 1.0272062 0.5896849 1.0088469 1.2764907 -0.78007686 0.026332945
-0.17590417 -1.8749322 -0.21819991 -0.06242548 0.9952819 -0.5161561 0.22173277 -0.39331108
-0.1670368 -0.9059536 -0.057566553 0.060278002 0.040362753 0.15624873 0.008151265 -0.05097358
0.62049514 1.0663861 -0.14577287 0.4201236 -0.37599206 -1.2601858 0.30297393 -0.10848533
-0.8242398 -0.67152363 -0.4654518 -0.49110815 -1.1798743 0.33359984 -0.87539804 0.053036433
-0.7677034 -1.7154257 -0.27286693 -0.25220186 0.034282893 -0.5311865 -0.09326029 0.054422036
-2.5429852 -1.4453025 -0.52203053 -0.119444385 -0.98617554 -2.5559652 -1.0226332 -0.54145795
-0.03824392 -0.3593636 -0.06995834 0.007931035 -0.61129475 -0.58705187 -0.09485132 0.96136534
-0.194165 0.58194745 -0.173114 0.2922903 -1.2983841 -1.0654781 0.14987835 -0.28143603
0.20160191 1.1413912 0.07171039 -0.11711275 2.2228281 -0.6254844 -0.08018087 -0.12468426
00000000: d4a5 7bbd f7f0 70bf 97bc 95be b728 ad3d
00000010: 5402 55bf 6671 84bf c7b2 b63e 9127 91be
00000020: e028 713f 4475 a93f f656 2cbf 7d18 b53c
00000030: 8d94 4c3e 1836 a0be 92e8 34bf e355 06be
00000040: 8884 123f f10f 2140 aaf0 363f 412b 46be
00000050: b48a abbf 2031 afbd 8cbd 1dbf 8400 c7be
00000060: 3019 c9bc 9435 15bd 152d 203f 7515 ee3e
00000070: d851 90bd aa99 ffbe 72ed 01bd 5388 c53d
00000080: ff31 a2bf d939 673f 65d6 2abf 1c8b 343e
00000090: 6c12 e03e a8cc 60bd d475 a13e beb8 15be
000000a0: 14a4 0c3f 7e5a b43f 1627 edbe 1db2 84bd
000000b0: 6370 473f b771 9c3f 0a10 9cbe 63c5 9d3e
000000c0: 2364 653f 9017 3540 7e7b 833f 97f5 163f
000000d0: e521 813f 0c64 a33f 1eb3 47bf 30b8 d73c
000000e0: 3920 34be c7fd efbf cc6f 5fbe dcb1 7fbd
000000f0: cbca 7e3f ce22 04bf ea0d 633e 1260 c9be
00000100: b20b 2bbe 93ec 67bf e8ca 6bbd 11e6 763d
00000110: 6a53 253d abff 1f3e e28c 053c acc9 50bd
00000120: c5d8 1e3f 577f 883f 7c45 15be 711a d73e
00000130: 0882 c0be c54d a1bf 661f 9b3e 8f2d debd
00000140: 6101 53bf f9e8 2bbf b34f eebe 8772 fbbe
00000150: 1f06 97bf 99cd aa3e 161a 60bf bb3c 593d
00000160: 3688 44bf 1293 dbbf 37b5 8bbe 9a20 81be
00000170: 386c 0c3d d7fb 07bf 40ff bebd a4e9 5e3d
00000180: 45c0 22c0 acff b8bf cba3 05bf 429f f4bd
00000190: 0076 7cbf ef94 23c0 a5e5 82bf fd9c 0abf
000001a0: a8a5 1cbd 81fe b7be 5146 8fbd 2cf1 013c
000001b0: d07d 1cbf 0849 16bf 6941 c2bd 0a1c 763f
000001c0: 31d3 46be 82fa 143f cc44 31be 13a7 953e
000001d0: 7331 a6bf 9661 88bf b679 193e 6218 90be
000001e0: bb70 4e3e 1b19 923f e6dc 923d cfd8 efbd
000001f0: d142 0e40 bf1f 20bf de35 a4bd 765a ffbd

critic_net.layers.0.bias f4 [32]
0.43979675 -0.37683016 -0.08395498 0.156151 -0.12779912 0.21342826 -0.06775935 0.61758107
-0.46056387 -0.2973446 -0.1298493 0.2878909 0.61797005 -0.3270274 0.26706636 -0.5423854
0.46670774 -0.62896186 0.31936425 -0.23553208 0.4125495 0.44422916 0.5606513 -0.5037843
-0.062194657 0.6923539 0.59259737 -0.27386376 0.1556301 0.70459545 -0.36288786 -0.21595792
00000000: 0a2d e13e e2ef c0be 97f0 abbd 0ce6 1f3e
00000010: c6dd 02be f08c 5a3e 6ac5 8abd cb19 1e3f
00000020: 07cf ebbe 8d3d 98be 37f7 04be 7066 933e
00000030: 4933 1e3f 2370 a7be ecbc 883e c5d9 0abf
00000040: 51f4 ee3e a503 21bf b683 a33e 522f 71be
00000050: b039 d33e 0172 e33e d886 0f3f 02f8 00bf
00000060: d3bf 7ebd 1b3e 313f 76b4 173f df37 8cbe
00000070: 7f5d 1f3e 5e60 343f 70cc b9be 1324 5dbe

critic_net.layers.2.weight f4 [32, 32]
-0.06401405 1.0794456 -0.46716744 -0.22614224 -0.16361623 -0.2977547 0.123168476 -0.04626279
0.11106028 -0.07237621 -0.9839918 -0.87511647 -1.1271198 -0.1904155 -0.001543646 0.37833738
0.0378314 0.07810258 -0.7771198 0.9170198 -0.31512317 -0.65460604 -0.11939758 0.24659026
-0.28254777 -0.47931293 -0.16387509 0.483837 -0.06763321 -0.30268016 -0.052319147 0.1024828
0.26003727 0.56227314 -0.1514069 0.16748707 -1.2416562 0.1558072 -0.51964694 -0.10803857
0.12920643 0.23870409 -0.058861516 -0.20872116 -0.6313943 -0.0029832553 0.012814719 0.33701903
-0.012230961 0.07234114 -0.3865403 0.56005454 0.14337444 0.13306248 -0.015855668 0.4434415
0.28922898 0.757129 -0.2163863 0.052932672 -0.28251907 -0.12028452 -0.038687043 0.5540976
-0.15368038 -0.020509748 -0.03036583 0.13010952 -0.30801657 -0.19582486 0.2333835 -0.35274684
0.17927228 -0.0066616093 -0.06562296 0.103765056 0.020269725 0.13246526 0.022917813 0.06934925
-0.11497558 0.29701152 -0.12257991 0.33553755 0.017923502 0.0587401 -0.103483565 0.13974328
-0.011915513 0.14495082 -0.37623405 0.22721246 0.104224354 -0.15189835 0.0636304 -0.06368078
0.20701888 0.5226124 -1.2807044 -0.050286584 -0.66516733 0.21003884 0.07153147 0.025993904
0.5347912 -0.36617747 -1.0625123 -0.39447352 -0.9471585 -0.8591244 0.14223117 0.07905124
0.06995968 -0.10708382 -0.28528532 0.52733773 0.34432882 0.6241794 0.31037146 0.20165712
1.3886397 0.41261166 0.09706067 0.1805183 0.24064715 0.11650813 -0.23786835 -0.6733955
-0.45970875 0.09402609 -0.26309153 -0.8795861 0.73327565 0.13723125 0.7573314 -0.46680528
0.33971572 0.2475122 0.2625199 -0.012682878 -0.037238486 -0.21753104 -0.69677186 0.5142977
-0.5901653 0.14138708 0.09411059 -0.18870005 -0.8281574 -0.62879175 -0.9140594 0.22684902
0.40016553 -2.0616755 -0.4554466 0.16412097 -0.2946008 -0.62092227 0.67815024 -0.42369294
0.101252235 0.20706715 -0.1110391 0.21380128 -0.10468426 0.14418632 0.045754872 0.043361932
0.011661087 0.077001624 0.19778766 0.038440254 -0.23827149 -0.098441504 -0.053605042 0.16870527
-0.0013478859 -0.23641828 -0.05768195 -0.019769711 0.080898605 0.062376294 -0.2066457 -0.3332202
-0.07850489 -0.32790577 0.113581285 -0.022067605 0.09047506 -0.14511237 -0.06456063 0.060356148
-0.45691255 -0.35852516 0.70769244 0.30115184 0.72450423 0.10926783 -0.37461874 -0.29734862
0.5514645 0.22234976 1.3196424 0.38604546 0.047803394 0.65644026 -0.48108387 0.055127274
-0.31622747 0.16351546 0.008314299 -0.3036428 -0.06675428 0.048518002 -0.3200368 0.280745
0.00037596875 -0.20972943 -0.14895764 -0.6915241 -0.2544128 -0.4622058 0.51041764 0.42292956
0.2079883 -0.10978872 0.025668334 0.0014621514 0.14459166 0.10825759 -0.19570841 0.10319348
0.18597296 0.13231851 0.08866788 -0.016460782 -0.3601946 -0.08388499 0.06697456 0.018578334
0.24756542 -0.29330006 0.11589404 -0.11760318 0.08971124 0.09195907 0.074579164 -0.048303023
-0.060118828 -0.39433393 0.31814137 -0.10117483 0.049734287 -0.054537304 -0.25163406 0.04272556
00000000: cc19 83bd 462b 8a3f 9230 efbe d591 67be
00000010: 038b 27be 4e73 98be c13f fc3d 0d7e 3dbd
00000020: 9273 e33d fa39 94bd e3e6 7bbf a207 60bf
00000030: 7645 90bf 48fc 42be 2a54 caba 70b5 c13e
00000040: 19f5 1a3d 3ff4 9f3d 53f1 46bf cfc1 6a3f
00000050: d357 a1be 4394 27bf b886 f4bd 2882 7c3e
00000060: 1aaa 90be 8168 f5be dfce 27be 7cb9 f73e
00000070: 4883 8abd e5f8 9abe 9a4c 56bd 81e2 d13d
00000080: 9b23 853e 22f1 0f3f 690a 1bbe bb81 2b3e
00000090: 97ee 9ebf ec8b 1f3e 9507 05bf 5343 ddbd
000000a0: b14e 043e d86e 743e c618 71bd 00bb 55be
000000b0: 0fa3 21bf b882 43bb d4f4 513c c28d ac3e
000000c0: 5e64 48bc 9727 943d 9ce8 c5be bc5f 0f3f
000000d0: c0d0 123e 8841 083e bfe3 81bc c40a e33e
000000e0: d215 943e 35d3 413f 5f94 5dbe eecf 583d
000000f0: 57a6 90be bb57 f6bd 4e76 1ebd 57d9 0d3f
00000100: 645e 1dbe 0f04 a8bc c3c1 f8bc 6e3b 053e
00000110: 59b4 9dbe 5086 48be 16fc 6e3e 3c9b b4be
00000120: 2793 373e a149 dabb 5565 86bd c682 d43d
00000130: b20c a63c f9a4 073e 23be bb3c fb06 8e3d
00000140: 5178 ebbd e511 983e 2d0b fbbd 94cb ab3e
00000150: 4fd4 923c 7699 703d 31ef d3bd dd18 0f3e
00000160: 4939 43bc fd6d 143e c0a1 c0be 62aa 683e
00000170: 9473 d53d 3e8b 1bbe a850 823d 126b 82bd
00000180: c2fc 533e edc9 053f 1fee a3bf 4ef9 4dbd
00000190: 6848 2abf 6c14 573e 177f 923d 2bf1 d43c
000001a0: 13e8 083f 9d7b bbbe 6700 88bf 6ff8 c9be
000001b0: fb78 72bf 94ef 5bbf 0ca5 113e 9ee5 a13d
000001c0: 0547 8f3d c34e dbbd eb10 92be 9bff 063f
000001d0: de4b b03e 39ca 1f3f 02e9 9e3e 347f 4e3e
000001e0: f2be b13f d641 d33e bfc7 c63d cad9 383e
000001f0: 356c 763e d19b ee3d c393 73be a663 2cbf
00000200: f25e ebbe c090 c03d efb3 86be 8e2c 61bf
00000210: f4b7 3b3f 5986 0c3e 78e0 413f 1a01 efbe
00000220: 38ef ad3e d773 7d3e 0269 863e d9cb 4fbc
00000230: 6287 18bd 75c0 5ebe a45f 32bf 04a9 033f
00000240: 1315 17bf c6c7 103e 0ebd c03d 963a 41be
00000250: 2002 54bf 7ff8 20bf ccff 69bf 1c4b 683e
00000260: 7fe2 cc3e 7ef2 03c0 4c30 e9be 540f 283e
00000270: ebd5 96be c3f4 1ebf 419b 2d3f 48ee d8be
00000280: 555d cf3d 6909 543e 7868 e3bd b9ee 5a3e
00000290: b464 d6bd 94a5 133e 7669 3b3d 489c 313d
000002a0: 250e 3f3c 07b3 9d3d d988 4a3e 8773 1d3d
000002b0: 71fd 73be b39b c9bd f690 5bbd 13c1 2c3e
000002c0: 8cab b0ba a217 72be e943 6cbd 17f4 a1bc
000002d0: 2bae a53d 497e 7f3d ee9a 53be d79b aabe
000002e0: 2cc7 a0bd 44e3 a7be 4e9d e83d 1fc7 b4bc
000002f0: fd4a b93d 5698 14be 5d38 84bd 0238 773d
00000300: 71f0 e9be 9c90 b7be 552b 353f 9330 9a3e
00000310: 1c79 393f d0c7 df3d 07ce bfbe 143e 98be
00000320: c72c 0d3f a8af 633e 0bea a83f c0a7 c53e
00000330: 7ecd 433d 780c 283f a050 f6be 23cd 613d
00000340: 91e8 a1be 9970 273e b338 083c 1277 9bbe
00000350: 78b6 88bd d0ba 463d dddb a3be cfbd 8f3e
00000360: ac1d c539 50c3 56be 5a88 18be b907 31bf
00000370: 6542 82be 3da6 ecbe bbaa 023f 398a d83e
00000380: e3fa 543e e9d8 e0bd 6646 d23c a9a5 bf3a
00000390: d60f 143e 28b6 dd3d c967 48be 1a57 d33d
000003a0: b26f 3e3e 817e 073e 8197 b53d c3d8 86bc
000003b0: 6d6b b8be e5cb abbd f529 893d 9731 983c
000003c0: ca81 7d3e 6d2b 96be db59 ed3d f0d9 f0bd
000003d0: 87ba b73d 0955 bc3d f6bc 983d 64d9 45bd
000003e0: 293f 76bd 23e6 c9be 6de3 a23e c034 cfbd
000003f0: 2eb6 4b3d 8262 5fbd 2ed6 80be ff00 2f3d

critic_net.layers.2.bias f4 [32]
-0.3151345 -0.35765266 -0.3077682 0.056891013 -0.10072017 0.15954836 -0.22398263 0.23622005
0.26785806 -0.17194733 0.415746 -0.39065427 -0.44470158 0.2846111 -0.41621616 0.3712183
-0.11099427 -0.35906357 0.0053332085 0.25441706 -0.42195517 0.2907109 0.32782966 0.05312477
0.42044696 0.27879515 -0.13369726 0.34909615 0.1806235 -0.25287205 0.2680814 -0.25641045
00000000: 4f59 a1be 401e b7be cb93 9dbe 8d06 693d
00000010: 6046 cebd a560 233e b45b 65be abe3 713e
00000020: b124 893e f612 30be a9dc d43e d603 c8be
00000030: edaf e3be 8cb8 913e 491a d5be 5310 be3e
00000040: f750 e3bd 2ed7 b7be 32c2 ae3b f442 823e
00000050: 820a d8be 0fd8 943e 4ad9 a73e 5c99 593d
00000060: d344 d73e 3dbe 8e3e efe7 08be bbbc b23e
00000070: 5ef5 383e 7278 81be f741 893e 3b48 83be

critic_net.layers.4.weight f4 [1, 32]
-0.5676052 0.46587524 0.30254394 -0.21277088 -0.53414524 -0.031768437 0.18855044 -0.38047647
-0.30635214 0.20328513 -0.32106575 0.265739 0.3663855 -0.0646396 0.27232888 -0.1191648
-0.2611106 0.25188363 0.22836445 -0.35035083 0.31257787 -0.011234999 0.36532694 0.34477538
-0.24010274 -0.2518221 0.1315485 -0.22346106 0.40433028 0.306357 0.49294776 -0.33517286
00000000: 934e 11bf 3387 ee3e 0ae7 9a3e 9ce0 59be
00000010: bebd 08bf 9f1f 02bd 5e13 413e d0cd c2be
00000020: 30da 9cbe fa29 503e bb62 a4be f10e 883e
00000030: e196 bb3e c461 84bd b16e 8b3e ad0c f4bd
00000040: 4ab0 85be e4f6 803e 5fd8 693e 2f61 b3be
00000050: 350a a03e 0013 38bc 220c bb3e 6686 b03e
00000060: 7edd 75be d4ee 80be a6b4 063e fad2 64be
00000070: 6104 cf3e d3da 9c3e a663 fc3e c79b abbe

exp_avg f4 [32, 4]
-0.00019314825 5.071079e-05 -0.00030739765 0.00017142347 -0.00037806272 3.082388e-05 -0.0001931659 -0.00013522203
-6.9464804e-05 -1.0513562e-05 0.00027967864 5.1760067e-06 -0.00017705125 3.6168898e-05 -6.2688855e-06 -0.00010368903
0.00081333367 -2.0339225e-05 -0.0002070362 0.0010214885 -0.00015935133 5.680701e-05 -0.00011589263 -8.403016e-06
0.000552688 -8.698754e-05 0.00012292241 5.0340193e-05 2.4335306e-05 4.229039e-05 -0.00058303575 0.0006546184
-7.533173e-05 5.318836e-05 -0.0004302922 0.0006582829 -0.0002316979 9.145163e-06 0.00010403579 -0.00010741159
-0.0001872588 4.9670256e-05 0.00020008835 -2.797272e-05 8.213435e-05 6.2162744e-06 0.0001502579 5.9518916e-06
-7.5839985e-06 2.3950026e-05 0.0009903662 -0.0011582884 -6.468717e-05 -2.2462533e-05 0.00022159041 -7.106846e-05
7.1909795e-05 -1.7057639e-05 -0.0001933 0.00019770866 -9.6086376e-05 1.4737466e-05 -0.00017598413 -4.5015433e-05
1.5917751e-06 1.584959e-05 -0.0003932376 0.00043050054 -1.5309119e-05 -2.4201261e-05 0.0005936462 -0.00073870947
0.0002479822 -1.0279607e-05 8.411755e-05 0.00010031001 -0.00031963002 9.9099125e-06 0.00014230132 -0.00065301295
4.0172536e-06 5.1650795e-06 0.00012395649 -0.00021539764 3.4689827e-05 4.5245513e-05 0.00020545773 -0.00033477525
4.0431925e-05 -5.037683e-06 -4.627295e-05 1.1482483e-05 -0.00016882896 3.0139383e-06 0.00075856573 -0.0011766976
0.0002707274 4.0170282e-05 0.0001030233 -0.00021478385 0.00046662663 -0.00010462396 0.00078353233 -0.0010955164
0.00010356136 1.125835e-05 -0.00053881767 0.0007397976 5.8844893e-05 -2.3305884e-05 0.00012408798 -0.00040162276
0.00025178556 1.3765405e-05 -0.0004002079 0.00047922786 7.40817e-05 -3.5372336e-06 0.00019556703 -0.0001619991
-7.85639e-06 -1.6579948e-05 0.0004600552 -0.00045347604 -0.00018643276 -5.942683e-06 0.00022414223 5.0469447e-05
00000000: d787 4ab9 4cb2 5438 372a a1b9 23c0 3339
00000010: b836 c6b9 e448 0138 948c 4ab9 63ca 0db9
00000020: a2ad 91b8 6863 30b7 d5a1 9239 8fad ad36
00000030: d5a6 39b9 0fb4 1738 5159 d2b6 a073 d9b8
00000040: e635 553a 279e aab7 db17 59b9 77e3 853a
00000050: 8c17 27b9 1044 6e38 620b f3b8 aefa 0cb7
00000060: 44e2 103a 146d b6b8 bce4 0039 5f24 5338
00000070: ac23 cc37 f660 3138 ded6 18ba b29a 2b3a
00000080: 6afb 9db8 9116 5f38 d798 e1b9 9e90 2c3a
00000090: eef3 72b9 2d6e 1937 ca2d da38 2942 e1b8
000000a0: e75a 44b9 0855 5038 cfce 5139 f5a6 eab7
000000b0: 8b3f ac38 6495 d036 8c8e 1d39 5cb6 c736
000000c0: 0d7a feb6 4ae8 c837 2dcf 813a b6d1 97ba
000000d0: a9a8 87b8 ec6d bcb7 b95a 6839 970a 95b8
000000e0: 47ce 9638 0017 8fb7 93b0 4ab9 0450 4f39
000000f0: fb81 c9b8 ef40 7737 6188 38b9 f4ce 3cb8
00000100: faa4 d535 bcf4 8437 752b ceb9 ceb4 e139
00000110: 156c 80b7 d003 cbb7 ec9e 1b3a f4a5 41ba
00000120: 9c03 8239 9376 2cb7 4468 b038 875d d238
00000130: 0494 a7b9 c042 2637 b836 1539 f52e 2bba
00000140: f2cb 8636 b24f ad36 51fa 0139 5ddc 61b9
00000150: eb7f 1138 00c6 3d38 2470 5739 c684 afb9
00000160: 7395 2938 5e09 a9b6 3415 42b8 e4a4 4037
00000170: ae07 31b9 1143 4a36 7cda 463a 6b3b 9aba
00000180: 6bf0 8d39 837c 2838 370e d838 9a37 61b9
00000190: 91a5 f439 9069 dbb8 f765 4d3a 6e97 8fba
000001a0: 152f d938 3fe2 3c37 713f 0dba faee 413a
000001b0: 39d0 7638 0181 c3b7 9d1d 0239 e590 d2b9
000001c0: 1602 8439 f7f1 6637 ffd2 d1b9 e040 fb39
000001d0: 4f5c 9b38 3661 6db6 2011 4d39 4dde 29b9
000001e0: f0ce 03b7 2b15 8bb7 9033 f139 86c0 edb9
000001f0: 2a7d 43b9 4267 c7b6 b907 6b39 28af 5338

exp_avg_sq f4 [32, 4]
3.383114e-05 3.876784e-07 2.139905e-05 4.3627428e-05 3.5897167e-05 2.1148988e-07 1.36063345e-05 2.1524751e-05
7.986176e-06 1.2272021e-07 6.4110045e-06 1.1992251e-05 5.5566734e-06 4.473922e-08 2.7301091e-06 4.220807e-06
0.00015602437 9.818514e-07 4.9387563e-05 9.467863e-05 2.4643487e-06 7.220431e-08 2.608124e-06 6.0281554e-06
1.0785036e-05 1.1582211e-07 5.460066e-06 1.034164e-05 0.00011648132 1.0943523e-06 5.964384e-05 0.00012174854
7.677739e-05 6.540416e-07 3.1837415e-05 6.794363e-05 3.9814763e-06 3.1911846e-08 1.6055736e-06 3.150666e-06
2.0498663e-05 1.9883868e-07 9.065525e-06 1.4849178e-05 1.6339738e-05 1.077981e-07 6.1898927e-06 1.0049367e-05
0.0004953664 3.6012507e-06 0.00017698221 0.00037579113 3.2642006e-06 7.719584e-08 3.914775e-06 6.467912e-06
1.0806058e-05 8.3356255e-08 3.4032328e-06 6.2450467e-06 1.9501598e-05 2.2598607e-07 1.3264933e-05 2.1325954e-05
3.5977137e-05 3.6440585e-07 1.8925088e-05 4.0442577e-05 9.9552686e-05 8.955804e-07 4.8494952e-05 0.00010049424
1.1822453e-05 5.2293597e-08 2.885342e-06 4.931906e-06 3.6701334e-05 1.9245726e-07 1.013074e-05 1.9644576e-05
1.4180967e-05 1.234892e-07 8.2718825e-06 1.1327354e-05 1.8429895e-05 2.772619e-07 1.4302158e-05 2.4933344e-05
7.786115e-06 3.8806238e-08 2.6243672e-06 2.6342552e-06 0.00014688162 1.2832039e-06 6.914835e-05 0.00014172646
1.5583406e-05 2.0683866e-07 9.790858e-06 2.1526517e-05 0.00031189542 3.0432375e-06 0.00021248762 0.00030871923
6.948258e-05 6.177945e-07 3.3229044e-05 7.0340495e-05 1.4534365e-05 1.1888515e-07 5.9654863e-06 9.274924e-06
7.835984e-05 6.6547307e-07 3.6268808e-05 6.784549e-05 1.0962067e-05 9.106158e-08 5.722637e-06 9.2893515e-06
6.0808918e-05 5.8657986e-07 2.9805784e-05 6.4145475e-05 7.464832e-06 1.9213672e-07 1.22557685e-05 1.8527056e-05
00000000: e9e5 0d38 1d22 d034 1c82 b337 98fc 3638
00000010: 4a90 1638 e515 6334 c346 6437 0d90 b437
00000020: 5dfc 0537 13c5 0334 1c1e d736 5332 4937
00000030: 7673 ba36 4b27 4033 eb36 3736 75a0 8d36
00000040: 799a 2339 28c8 8335 7e25 4f38 348e c638
00000050: 3061 2536 bd0e 9b33 3b07 2f36 7645 ca36
00000060: 60f1 3437 e1b9 f833 9c35 b736 0181 2d37
00000070: 6f47 f438 a9e1 9235 162a 7a38 4053 ff38
00000080: 8c03 a138 6691 2f35 2a89 0538 f57c 8e38
00000090: 9f98 8536 720f 0933 177f d735 0870 5336
000000a0: 8bf4 ab37 5c80 5534 2218 1837 bc20 7937
000000b0: 5211 8937 a27e e733 c6b2 cf36 b499 2837
000000c0: 7adb 013a 04ad 7136 4d94 3939 d505 c539
000000d0: 8a0e 5b36 ddc6 a533 a95b 8336 f106 d936
000000e0: aa4b 3537 9601 b333 1863 6436 8b8c d136
000000f0: 5d97 a337 94a6 7234 748c 5e37 23e5 b237
00000100: 28e6 1638 8fa3 c334 51c1 9e37 e3a0 2938
00000110: f1c6 d038 d167 7035 0f67 4b38 6fc0 d238
00000120: 0d59 4637 6b99 6033 cca1 4136 c07c a536
00000130: c2ef 1938 40a6 4e34 32f7 2937 68ca a437
00000140: caea 6d37 7498 0434 77c7 0a37 9d0a 3e37
00000150: e699 9a37 96da 9434 4df3 6f37 f327 d137
00000160: 1ca1 0237 e9ab 2633 491e 3036 29c8 3036
00000170: 3c04 1a39 8d3a ac35 bd03 9138 689c 1439
00000180: 1cb9 8237 6117 5e34 6a43 2437 d893 b437
00000190: e585 a339 6c3a 4c36 36cf 5e39 98db a139
000001a0: 2db7 9138 84d6 2535 6a5f 0b38 c483 9338
000001b0: 9fd8 7337 cd4d ff33 232b c836 7f9b 1b37
000001c0: 1e55 a438 f6a2 3235 561f 1838 4548 8e38
000001d0: b8e9 3737 a28d c333 1405 c036 76d9 1b37
000001e0: 140d 7f38 7675 1d35 6f07 fa37 d785 8638
000001f0: 6b7a fa36 244e 4e34 209e 4d37 8d6a 9b37

exp_avg f4 [32]
0.00051811547 0.0007128048 -0.0011754455 0.00015984266 -0.0010895407 0.00044356933 -0.00070985965 0.00040998802
0.0010431631 -0.00021735122 -0.00068580505 -0.0003216155 -0.0020365936 -0.0009889868 1.1964317e-05 9.6207026e-05
0.0003020198 -0.0005331384 -0.00040470457 0.0005215808 3.7849168e-05 0.0004957499 0.00018467178 -0.00051355106
0.0005017897 -0.00052683207 0.0003562229 -1.12775215e-05 0.00030590018 -5.532007e-05 -0.00028278903 -0.0010410323
00000000: 24d2 073a 85db 3a3a 6811 9aba 709b 2739
00000010: ebce 8eba de8e e839 e015 3aba a9f3 d639
00000020: bfba 883a c6e8 63b9 99c7 33ba 809e a8b9
00000030: 5f78 05bb e4a0 81ba 5aba 4837 c1c2 c938
00000040: 6958 9e39 50c2 0bba 872e d4b9 b2ba 083a
00000050: 3cc0 1e38 36f5 013a 74a4 4139 d49f 06ba
00000060: 898a 033a 1a1b 0aba 6ec3 ba39 9634 3db7
00000070: 3a61 a039 7907 68b8 4d43 94b9 3f73 88ba

exp_avg_sq f4 [32]
0.0013341754 0.0004104254 0.0002558164 8.501964e-05 0.0027502498 0.000143897 0.00026619207 0.0036463495
0.0021769868 9.232708e-05 0.0002113941 0.00017373191 0.010395367 0.00014237635 0.00017026847 0.00051854906
0.0012379136 0.0030927812 9.6177086e-05 0.00052720855 0.00031452862 0.00055170263 6.4022504e-05 0.0044216723
0.00057247013 0.008308928 0.0021654754 0.00036058985 0.0021822657 0.00025683115 0.0019464358 0.00043879985
00000000: 7fdf ae3a 5d2e d739 191f 8639 924c b238
00000010: 893d 343b 0fe3 1639 b28f 8b39 98f7 6e3b
00000020: c7ab 0e3b b99f c138 aca9 5d39 ce2b 3639
00000030: 5451 2a3c dc4a 1539 188a 3239 3def 073a
00000040: 7d41 a23a 42b0 4a3b aeb2 c938 5e34 0a3a
00000050: 51e7 a439 23a0 103a d243 8638 ade3 903b
00000060: d211 163a 2c22 083c a6ea 0d3b 8d0d bd39
00000070: 5804 0f3b 4ba7 8639 8c1f ff3a b80e e639

exp_avg f4 [32, 32]
-1.710483e-05 -5.793782e-06 3.596045e-05 5.565577e-06 -1.7368404e-05 -3.5663008e-05 1.1585801e-05 -3.5562927e-05
1.4406141e-05 1.6753796e-05 2.1905147e-05 1.0118642e-05 -3.5020217e-05 5.1941934e-05 -9.7813e-06 3.7221536e-05
-2.7052638e-05 3.8869133e-05 6.1712517e-06 4.36529e-06 -4.6841975e-05 -2.5851059e-05 -4.3954205e-05 4.0567298e-05
-1.6445778e-05 -4.3784785e-05 -3.6213376e-05 5.794789e-05 -2.240269e-06 -6.225218e-05 1.7263346e-05 4.762118e-05
5.30577e-05 0.00079213094 -0.0009915829 -0.0002563549 5.288586e-06 0.0010838392 -0.00023433479 0.00024467896
0.0005699527 -0.00031247048 -0.00054472714 -0.00079392473 -0.00021044735 -0.0010898579 8.5170315e-05 -0.00073969155
0.00022501967 -0.0002848186 -0.0006780971 0.00029335314 0.0008819626 0.000775663 0.0006502008 -0.0003936486
0.0014531064 0.0007028941 0.00026168732 -0.0007477897 1.670992e-05 0.0009099247 -0.00013923977 -0.0014619314
-0.00022802157 0.00025343132 -8.562293e-05 -0.0001496842 0.00027315845 -0.00015122122 -2.4855515e-05 -0.00022791234
-0.00011875813 0.00023012518 -1.21088615e-05 -0.0002322498 -0.00016315411 -2.8715118e-05 -0.00012666988 0.00030020613
-0.00019136343 0.00021401154 -0.00025550666 0.00016902754 -0.00010976437 -0.00031721173 -0.00018906209 0.00012777247
-0.00022535467 -0.00026552167 -0.000204203 -0.00034476235 -0.0002077304 -0.00016939544 0.00018648212 0.00019166661
0.00032880928 -0.00040069481 0.00017720937 0.00024848126 -8.3249e-05 7.387282e-05 -0.00016181912 0.00040663683
-0.00034874168 -0.00019987319 6.3425774e-05 0.0003376832 0.00036364543 1.3478109e-05 0.00019017314 -0.0002648127
0.0003096003 -0.00041759745 0.00030694006 -0.00027199087 0.00024619486 0.00025932226 0.00032400945 -0.00034079258
-0.00032448102 0.00042872335 0.00040465448 -0.00025101632 0.00010862267 0.00031346086 -0.00023444198 0.0001416866
-3.5511995e-08 -1.0052777e-06 1.8103408e-06 1.0546182e-06 -7.2305124e-07 -1.0144091e-06 -6.0877574e-07 -6.585852e-07
5.517565e-07 2.4880222e-07 1.2268665e-06 1.0007516e-06 -1.0335383e-06 1.8793327e-06 -4.8582013e-08 1.027205e-06
-5.3920047e-07 7.1693904e-07 5.94383e-07 -5.289343e-07 -9.309138e-07 -4.822006e-07 -1.0006565e-06 8.179694e-07
-1.683087e-06 -4.2682674e-07 -6.1308276e-07 4.9814236e-07 1.4307691e-08 -1.7556063e-06 3.8135659e-07 2.3848297e-06
4.791847e-05 -6.239954e-05 3.3253946e-05 4.1343148e-05 -5.1157753e-05 4.1521052e-05 -6.7086276e-06 4.698072e-05
2.0202182e-05 -4.805123e-05 1.5574706e-05 5.6943154e-05 3.207486e-05 2.0347798e-05 2.4514336e-05 -5.4972716e-05
3.8105398e-05 -4.527427e-05 5.769073e-05 -4.363876e-05 2.9243785e-05 7.2704635e-05 4.0269904e-05 -2.8297523e-05
5.0023915e-05 6.2307554e-05 4.374637e-05 6.8687885e-05 4.2142176e-05 3.491847e-05 -3.517234e-05 -3.1235017e-05
-7.014537e-05 6.9542795e-05 -1.9895091e-05 -4.9990056e-05 2.450706e-05 -5.919147e-05 4.0652438e-05 -8.8029796e-05
4.1236275e-05 5.5411918e-05 -6.7941296e-06 -5.6730703e-05 -6.199321e-05 1.5078508e-05 -3.950623e-05 7.9865844e-05
-6.789349e-05 9.10163e-05 -5.276898e-05 5.438194e-05 -7.795731e-05 -8.827619e-05 -8.437479e-05 7.714804e-05
-8.880781e-07 -0.00011017712 -8.79413e-05 4.7897294e-05 -2.9998771e-05 -9.1462156e-05 5.1166102e-05 3.199222e-05
0.00027832485 -0.0003601231 0.00017793087 0.0002275714 -0.00035607527 0.00031965115 1.613195e-05 0.0002616118
0.00025532805 -0.00032875192 8.546772e-05 0.0003380235 0.00021229977 0.000120976765 0.00012641659 -0.00038256973
0.0002151572 -0.0002472607 0.00036256373 -0.0002612821 0.00016293122 0.00052177603 0.00022799055 -0.00013978434
0.0005207087 0.00037491426 0.00023552646 0.000617793 0.00030898253 0.00019686116 -0.0002102958 -0.0003192849
00000000: 587c 8fb7 3568 c2b6 3dd4 1638 f1bf ba36
00000010: 5db2 91b7 dd94 15b8 a360 4237 6729 15b8
00000020: e8b1 7137 818a 8c37 f2c0 b737 3dc3 2937
00000030: ace2 12b8 3adc 5938 5d1a 24b7 521e 1c38
00000040: 19ef e2b7 6a07 2338 a612 cf36 8e79 9236
00000050: 3078 44b8 bada d8b7 785b 38b8 ce26 2a38
00000060: 0af5 89b7 8ea5 37b8 d1e3 17b8 130d 7338
00000070: 8757 16b6 628d 82b8 c1d0 9037 dabc 4738
00000080: 468a 5e38 02a7 4f3a 00f8 81ba 5f67 86b9
00000090: 9c74 b136 9c0f 8e3a c4b7 75b9 4148 8039
000000a0: e168 153a 14d3 a3b9 05cc 0eba 631f 50ba
000000b0: 88ab 5cb9 90d9 8eba 779d b238 dce7 41ba
000000c0: 42f3 6b39 b553 95b9 53c2 31ba 31cd 9939
000000d0: 8233 673a dd55 4b3a 3d72 2a3a 9f62 ceb9
000000e0: 2976 be3a 6d42 383a 1433 8939 5107 44ba
000000f0: 482c 8c37 0388 6e3a e400 12b9 479e bfba
00000100: 1319 6fb9 fade 8439 7690 b3b8 8cf4 1cb9
00000110: b536 8f39 2391 1eb9 d080 d0b7 c1fb 6eb9
00000120: c90d f9b8 c24d 7139 2a27 4bb7 1588 73b9
00000130: 5914 2bb9 3fe1 f0b7 b0d2 04b9 fc64 9d39
00000140: bba8 48b9 4968 6039 86f5 85b9 fc3c 3139
00000150: 4c31 e6b8 704f a6b9 f83e 46b9 a9fa 0539
00000160: 2f4d 6cb9 b735 8bb9 531f 56b9 38c1 b4b9
00000170: 34d2 59b9 be9f 31b9 6a8a 4339 1dfa 4839
00000180: 0964 ac39 5914 d2b9 47d1 3939 9746 8239
00000190: f795 aeb8 2bec 9a38 fdad 29b9 df31 d539
000001a0: 51d7 b6b9 0d95 51b9 7403 8538 120b b139
000001b0: aaa7 be39 0a20 6237 3769 4739 8fd6 8ab9
000001c0: d951 a239 fbf0 dab9 ccec a039 ff99 8eb9
000001d0: b713 8139 a5f5 8739 d0df a939 68ac b2b9
000001e0: 1b1f aab9 46c6 e039 ce27 d439 d79a 83b9
000001f0: 5acc e338 0158 a439 8ad4 75b9 b591 1439
00000200: da85 18b3 14ed 86b5 d6fa f235 688c 8d35
00000210: b417 42b5 d526 88b5 c06a 23b5 a1c9 30b5
00000220: 6b1c 1435 1e93 8534 d0aa a435 9051 8635
00000230: 1bb8 8ab5 613d fc35 7da8 50b3 7fde 8935
00000240: 93bd 10b5 ad73 4035 b08d 1f35 17fc 0db5
00000250: e9e3 79b5 9370 01b5 4c4e 86b5 6e92 5b35
00000260: 6ee6 e1b5 9f26 e5b4 ba92 24b5 15b8 0535
00000270: e4cd 7532 2ca2 ebb5 40bd cc34 100b 2036
00000280: 11fc 4838 7fdc 82b8 277a 0b38 de67 2d38
00000290: 3892 56b8 e426 2e38 ac1a e1b6 2a0d 4538
000002a0: db77 a937 9e8a 49b8 6da6 8237 3fd6 6e38
000002b0: 1e88 0638 90b0 aa37 23a4 cd37 8192 66b8
000002c0: 5cd3 1f38 e1e4 3db8 f3f8 7138 c308 37b8
000002d0: 8d50 f537 0179 9838 7be7 2838 7860 edb7
000002e0: c5d0 5138 1dab 8238 4f7c 3738 870c 9038
000002f0: d1c1 3038 6c75 1238 0386 13b8 5802 03b8
00000300: 021b 93b8 81d7 9138 62e4 a6b7 6aac 51b8
00000310: 8394 cd37 5b44 78b8 3982 2a38 a39c b8b8
00000320: 1df5 2c38 186a 6838 21f9 e3b6 21f2 6db8
00000330: 5a02 82b8 b3f9 7c37 7eb3 25b8 a67d a738
00000340: 0a62 8eb8 01e0 be38 4354 5db8 2a18 6438
00000350: 037d a3b8 eb20 b9b8 5ff2 b0b8 8aca a138
00000360: 4364 6eb5 e40e e7b8 206d b8b8 54e5 4838
00000370: dfa5 fbb7 5fcf bfb8 2f9b 5638 622f 0638
00000380: 21ec 9139 e7ce bcb9 f492 3a39 3ca0 6e39
00000390: 9daf bab9 da96 a739 1953 8737 f128 8939
000003a0: 8ddd 8539 565c acb9 223d b338 bf38 b139
000003b0: c99c 5e39 e8b4 fd38 b28e 0439 a493 c8b9
000003c0: d29b 6139 c5a2 81b9 7b16 be39 b1fc 88b9
000003d0: 84d8 2a39 ccc7 083a bf10 6f39 1393 12b9
000003e0: 2b80 083a 2490 c439 a7f7 7639 63f3 213a
000003f0: effe a139 846c 4e39 d982 5cb9 b265 a7b9

exp_avg_sq f4 [32, 32]
2.4106841e-06 8.9467693e-07 3.0308663e-06 4.965143e-07 2.9200066e-06 5.7899247e-06 5.1681616e-07 3.82988e-06
2.8397621e-06 2.5521902e-06 1.5700709e-06 9.902769e-07 1.4960698e-06 5.196685e-06 1.0840713e-06 6.752057e-06
3.1021898e-06 3.8841204e-06 7.0409556e-07 2.052365e-07 5.623713e-06 6.5257746e-06 5.487008e-06 2.374481e-06
7.250275e-06 7.978767e-06 3.4816214e-06 1.4589361e-06 8.92055e-07 8.357622e-06 2.2020413e-06 7.547382e-06
0.00013805277 4.699997e-05 4.1202813e-05 2.0884057e-05 5.5297263e-05 0.00015473773 1.28348065e-05 0.00022800367
4.5100507e-05 8.2071056e-05 3.284731e-05 2.8155308e-05 9.727788e-05 0.00011931589 5.7126414e-05 0.000286003
0.00015335357 0.00023221198 3.434779e-05 2.3324244e-05 0.0002026725 0.00026229428 0.00025477758 0.00015634026
0.00012783539 0.00039770128 0.00021271172 4.4112643e-05 2.8771066e-05 0.00038364413 0.00010250391 0.00022421435
3.791393e-05 2.6835452e-05 1.2648756e-05 5.921957e-06 1.2383163e-05 2.2863975e-05 2.527566e-06 6.4184154e-05
2.3172062e-05 1.667918e-05 8.383687e-06 1.9618541e-05 4.768331e-05 1.948116e-05 1.1112838e-05 7.0643015e-05
3.9702525e-05 6.563575e-05 2.115133e-05 1.1408784e-05 3.4845463e-05 5.5315133e-05 4.7258396e-05 4.23695e-05
2.3338573e-05 8.7875924e-05 5.9384758e-05 1.23911805e-05 8.824987e-06 8.016388e-05 2.5818297e-05 3.7979426e-05
1.5857144e-05 1.0851962e-05 2.4891863e-06 1.9681308e-06 2.9606008e-06 7.0321807e-06 9.944051e-07 2.8054726e-05
1.1852893e-05 6.0418547e-06 2.2433035e-06 7.0756264e-06 2.2321186e-05 6.499396e-06 5.280069e-06 2.818067e-05
1.7406028e-05 2.897381e-05 8.494595e-06 4.694712e-06 1.5816084e-05 2.0692712e-05 2.2729177e-05 1.973511e-05
3.035089e-06 3.841055e-05 2.6377127e-05 7.086364e-06 2.8207596e-06 3.797688e-05 1.08596405e-05 1.0971821e-05
9.812535e-07 4.109014e-06 3.4832242e-06 3.9248107e-07 1.6686511e-06 3.6644196e-06 4.3788026e-07 2.426647e-06
5.9806675e-06 6.6365385e-07 1.9262345e-06 3.661107e-06 6.3939156e-06 3.3682663e-06 1.78294e-07 5.682882e-07
9.108773e-07 2.7758647e-06 3.308228e-06 1.5559418e-06 6.6499354e-07 1.5568912e-06 3.468158e-07 1.9977397e-06
7.023583e-06 4.9119075e-07 2.431229e-06 2.8314028e-06 1.1587304e-07 8.2953136e-07 3.3945054e-07 5.4065326e-06
2.9974759e-05 2.3408842e-05 1.179583e-05 4.2280126e-06 8.085051e-06 1.8264722e-05 2.6527284e-06 5.4733984e-05
2.7438191e-05 9.2031e-06 7.113494e-06 1.7673034e-05 4.535653e-05 1.22871215e-05 7.410065e-06 5.4468517e-05
3.2836128e-05 5.756107e-05 1.8125742e-05 9.9903145e-06 3.003843e-05 4.034464e-05 3.5844092e-05 3.8368333e-05
2.2092136e-05 7.345727e-05 5.2043528e-05 1.6079963e-05 5.26425e-06 6.863228e-05 1.9620958e-05 2.7861437e-05
1.9893938e-05 1.7613891e-05 6.5890154e-06 2.477125e-06 3.4736818e-06 8.13309e-06 1.4395472e-06 3.6371897e-05
1.8661583e-05 3.8713492e-06 3.9486245e-06 1.2551247e-05 3.1541433e-05 2.339787e-06 4.6353816e-06 3.3758184e-05
2.1328384e-05 3.8135164e-05 1.3187568e-05 7.164564e-06 1.7258104e-05 2.3693095e-05 2.2527569e-05 2.5775496e-05
7.650266e-06 4.74344e-05 3.4664223e-05 1.1217011e-05 3.0677998e-06 4.387926e-05 1.2455774e-05 1.0388753e-05
0.00024031688 0.00015783732 7.392844e-05 2.6056265e-05 5.7356385e-05 0.00015124846 1.4412171e-05 0.0004327853
0.00018035433 9.998052e-05 5.5437347e-05 0.000106947475 0.00033818863 0.000148105 8.134036e-05 0.00045050136
0.00027010322 0.00044712125 0.00012564029 6.884892e-05 0.00025743968 0.00033808194 0.00035908163 0.0003058075
0.00013389443 0.00059256016 0.00040601278 0.00010195933 4.397971e-05 0.0006021214 0.00017008891 0.00024630723
00000000: 3dc7 2136 bb29 7035 e365 4b36 3448 0535
00000010: 55f5 4336 1347 c236 56bb 0a35 6b82 8036
00000020: be92 3e36 4b46 2b36 3abb d235 a8e9 8435
00000030: 91cc c835 2f5f ae36 6880 9135 ba8f e236
00000040: 372f 5036 5754 8236 1401 3d35 fb5e 5c34
00000050: 54b3 bc36 faf7 da36 0a1d b836 4659 1f36
00000060: 6347 f336 8bdc 0537 cda5 6936 aad0 c335
00000070: 8e75 6f35 b737 0c37 c8c6 1336 853f fd36
00000080: 42c2 1039 d521 4538 2fd1 2c38 2c30 af37
00000090: fcee 6738 1841 2239 1355 5737 4514 6f39
000000a0: 4d2a 3d38 901d ac38 88c5 0938 102f ec37
000000b0: aa01 cc38 3b39 fa38 059b 6f38 acf2 9539
000000c0: 89cd 2039 ee7d 7339 a910 1038 6fa8 c337
000000d0: 7c84 5439 8b84 8939 ab93 8539 45ef 2339
000000e0: 8d0b 0639 9082 d039 5e0b 5f39 9705 3938
000000f0: 6559 f137 d823 c939 5ef7 d638 151b 6b39
00000100: c605 1f38 b21c e137 fe35 5437 39b5 c636
00000110: 48c1 4f37 03cc bf37 419f 2936 9b9a 8638
00000120: a061 c237 44ea 8b37 a9a7 0c37 7f92 a437
00000130: 90ff 4738 796b a337 4771 3a37 2e26 9438
00000140: 4386 2638 eda5 8938 236e b137 5b68 3f37
00000150: 0827 1238 2c02 6838 5137 4638 e7b5 3138
00000160: 34c7 c337 074a b838 e613 7938 b7e3 4f37
00000170: 080f 1437 a81d a838 5f94 d837 194c 1f38
00000180: f504 8537 d210 3637 e50b 2736 3b14 0436
00000190: bcae 4636 f9f5 eb36 8077 8535 1157 eb37
000001a0: cadb 4637 23bb ca36 a98b 1636 2b6b ed36
000001b0: 623e bb37 6315 da36 732b b136 8765 ec37
000001c0: 2903 9237 c80c f337 0284 0e37 4587 9d36
000001d0: c8ac 8437 4395 ad37 89aa be37 d38c a537
000001e0: 6fae 4b36 041b 2138 7344 dd37 67c7 ed36
000001f0: 484c 3d36 5d49 1f38 cd31 3637 9d13 3837
00000200: 9db3 8335 29e0 8936 56c1 6936 30b6 d234
00000210: 6af6 df35 40ea 7536 ce15 eb34 7ad9 2236
00000220: 8bad c836 f225 3235 7544 0136 57b1 7536
00000230: 518b d636 600a 6236 1571 3f34 788c 1835
00000240: 0383 7435 fe48 3a36 ed02 5e36 c1d5 d035
00000250: 0282 3235 60f6 d035 0032 ba34 e810 0636
00000260: 1eac eb36 5fda 0335 3228 2336 2103 3e36
00000270: e1d5 f833 f6ac 5e35 ba3d b634 c369 b536
00000280: 4e72 fb37 1b5e c437 b4e6 4537 5ade 8d36
00000290: 08a5 0737 3137 9937 8705 3236 2b92 6538
000002a0: 112b e637 0367 1a37 73b0 ee36 8d40 9437
000002b0: 343d 3e38 c924 4e37 f9a3 f836 2075 6438
000002c0: 86b9 0938 ba6d 7138 bc0c 9837 139c 2737
000002d0: 0afb fb37 ba37 2938 4d57 1638 afed 2038
000002e0: 8052 b937 120d 9a38 5049 5a38 75e3 8637
000002f0: 90a3 b036 adee 8f38 b097 a437 fbb7 e937
00000300: e8e1 a637 8bc1 9337 3617 dd36 af3c 2636
00000310: 661d 6936 5b73 0837 7736 c135 078e 1838
00000320: 728b 9c37 a3e6 8136 6d7e 8436 3293 5237
00000330: 5b4b 0438 3c05 1d36 a089 9b36 9397 0d38
00000340: 5bea b237 52f3 1f38 2c40 5d37 2367 f036
00000350: 7fc5 9037 89c0 c637 96f9 bc37 7538 d837
00000360: a459 0037 4df4 4638 6d64 1138 b230 3c37
00000370: 66e0 4d36 ff0a 3838 24f9 5037 5b4b 2e37
00000380: 92fd 7b39 2281 2539 070a 9b38 6793 da37
00000390: f391 7038 7398 1e39 cecb 7137 76e7 e239
000003a0: 7f1d 3d39 a2ac d138 6685 6838 fd48 e038
000003b0: e94e b139 a24c 1b39 4695 aa38 4531 ec39
000003c0: a49c 8d39 996b ea39 4fbe 0339 fc62 9038
000003d0: f8f8 8639 9740 b139 1f43 bc39 ca54 a039
000003e0: 0366 0c39 0a56 1b3a 1dde d439 00d3 d538
000003f0: db76 3838 afd7 1d3a e559 3239 cc22 8139

exp_avg f4 [32]
-7.3102165e-05 0.00055486854 -0.00034993133 0.00075662107 -1.3099324e-06 7.517681e-05 -0.000165153 0.0003932804
0.0003675947 -0.0003575631 6.424865e-05 8.3645195e-05 -0.00024389423 3.2769785e-05 -0.00023336122 0.00027076146
-6.689006e-05 -0.0005045783 -1.6717595e-05 -3.0893548e-06 -0.00012999975 2.4195591e-05 -1.22163365e-05 0.00012075413
7.9083286e-05 2.851144e-05 -0.0002962133 1.0647325e-05 3.3659693e-05 -0.00060686347 -0.00045938682 0.00016101316
00000000: 6d4e 99b8 9974 113a fd76 b7b9 fb57 463a
00000010: efd0 afb5 3ea8 9d38 ec2c 2db9 3431 ce39
00000020: bab9 c039 4f77 bbb9 3bbd 8638 ac6a af38
00000030: dcbd 7fb9 4a72 0938 6db2 74b9 fdf4 8d39
00000040: 5447 8cb8 ad45 04ba c33c 8cb7 b652 4fb6
00000050: 8b50 08b9 a3f7 ca37 c4f4 4cb7 613d fd38
00000060: 84d9 a538 da2b ef37 134d 9bb9 eaa1 3237
00000070: d22d 0d38 eb15 1fba dbd9 f0b9 a4d5 2839

exp_avg_sq f4 [32]
1.3090079e-05 0.0007460446 0.00021359752 9.428041e-05 9.84063e-06 0.00019153171 0.00012503428 0.0014498475
0.00074851967 0.00072058546 0.00015628408 0.00010809987 0.0008923245 0.00013735674 0.00046915407 0.00029701967
0.00017654769 0.0010502948 6.503748e-05 9.457448e-05 0.00045972 1.47022765e-05 2.2508195e-05 9.565983e-05
7.7768906e-05 7.356413e-05 0.0009491091 5.694423e-05 1.1385029e-05 0.0018052184 0.00017341498 4.348729e-05
00000000: 769d 5b37 3592 433a 26f9 5f39 69b8 c538
00000010: 2f19 2537 e7d5 4839 a21b 0339 cf08 be3a
00000020: 4e38 443a ace5 3c3a 30e0 2339 adb3 e238
00000030: e2ea 693a 6b07 1039 cbf8 f539 4eb9 9b39
00000040: a91f 3939 0caa 893a bb64 8838 4a56 c638
00000050: 9306 f139 cca9 7637 fbcf bc37 fb9c c838
00000060: dd17 a338 7146 9a38 a2cd 783a 67d7 6e38
00000070: 5402 3f37 149d ec3a bbd6 3539 1f66 3638

exp_avg f4 [1, 32]
0.0022612107 0.0029722035 0.0015302701 0.0027118926 0.0022035774 -6.6880995e-05 0.0017429645 -0.0016547942
0.0014694446 0.00087595324 -0.0021113092 0.0024494247 0.0018642616 -0.0017222376 0.0017378042 -0.00055006635
0.0023122344 0.00056754414 -0.0021655853 -0.002208421 0.002030051 -0.00096449564 -0.0021855363 -0.0024273482
-0.0020405485 -0.0021595822 2.968053e-05 -0.002203244 -0.0022397302 -0.00045113373 -0.0017404023 0.0019031478
00000000: d230 143b 4dc9 423b 5893 c83a 02ba 313b
00000010: e569 103b 7642 8cb8 2f74 e43a aee5 d8ba
00000020: 619a c03a 3aa0 653a e45d 0abb 8786 203b
00000030: 3d5a f43a b4bc e1ba 08c7 e33a 5432 10ba
00000040: db88 173b 3ec7 143a 7eec 0dbb 28bb 10bb
00000050: 9b0a 053b 35d6 7cba 373b 0fbb 2514 1fbb
00000060: b9ba 05bb c787 0dbb 74fa f837 4d64 10bb
00000070: 70c8 12bb 2586 ecb9 361e e4ba 0b73 f93a

exp_avg_sq f4 [1, 32]
0.01514869 0.0092132175 0.009807065 0.0083601745 0.015239186 7.4775635e-05 0.011026341 0.0037728166
0.0051511433 0.0015843859 0.010787557 0.011004498 0.0057442416 0.0008411007 0.0059771957 0.0015937906
0.009825844 0.0015443689 0.012141093 0.013620965 0.007319856 0.0005564582 0.014745225 0.012779398
0.011035803 0.011349019 7.663866e-05 0.01140759 0.014903883 0.0007366078 0.012659314 0.013539431
00000000: 3632 783c 09f3 163c d0ad 203c 1df9 083c
00000010: c7ad 793c ddd0 9c38 d3a7 343c 5c41 773b
00000020: ecca a83b 2bab cf3a 4bbe 303c 364c 343c
00000030: 313a bc3b 507d 5c3a 5adc c33b bde6 d03a
00000040: 94fc 203c 6c6c ca3a 6feb 463c 782a 5f3c
00000050: 67db ef3b 47df 113a f595 713c ae60 513c
00000060: 83cf 343c 3cf1 393c 11b9 a038 e6e6 3a3c
00000070: 6b2f 743c ea18 413a 0369 4f3c 7dd4 5d3c
