trained_models/0_lag_ppo_InvertedPendulum-v2_eps_0.75_actor.pth (torch, 29858 bytes, 20 tensors)

policy_net.layers.0.weight f4 [32, 4]
000000 82 03 78 3f 88 b3 89 bf f6 26 6d 3f d3 92 16 3f
       0.9688035 -1.0757914 0.92637575 0.58817786
000010 32 d9 0c 3e 73 5f 8a 3f cc cd 33 3f bb f9 85 be
       0.13754728 1.0810379 0.70235896 -0.26167092
000020 35 7f 4e bf 97 8a d1 3f 71 fd 1c bf c9 5b 43 3f
       -0.8066285 1.6370419 -0.6132422 0.7631193
000030 82 0f 60 3e 74 97 01 40 d9 0d 68 3e 2f e3 e4 3e
       0.21880916 2.024869 0.22661532 0.44704577
000040 2e 7f f8 bd 5f 15 b4 bf 62 4d d3 3d a0 a7 e0 3e
       -0.121336326 -1.4069022 0.10317494 0.43877888
000050 30 0c 7b be b1 4e ba 3f 24 09 af be 31 70 35 be
       -0.24516368 1.4555265 -0.3418666 -0.17718579
000060 1e 4a 34 bf e5 8b 0e 3f e3 c9 0a bf 83 8f 46 3e
       -0.70425594 0.5568221 -0.54214305 0.19390683
000070 fd 3b 4f bf fc 7b bb 3f 01 1c 8d be ea a3 51 3d
       -0.8095091 1.4647212 -0.27560428 0.05118171
000080 5d 96 9a 3e 8e e7 19 3f df 25 fc 3e 7c 4e a5 be
       0.30192843 0.6011895 0.49247643 -0.3228644
000090 cc 97 16 bf 61 2d 31 bf e5 04 ed bd 3c 4a 85 3e
       -0.58825374 -0.6920987 -0.11573199 0.260332
0000a0 4a 76 99 be 16 4d c7 3f 1b d8 18 bd 83 cd ec bd
       -0.2997306 1.55704 -0.03731547 -0.11562636
0000b0 bf 60 08 3f 78 eb ce bf 62 40 4c 3f 93 87 12 bf
       0.5327262 -1.6165609 0.7978574 -0.5723812
0000c0 ba 93 22 be 1a 2e 05 3f 3f 61 ce be 87 a2 22 3c
       -0.15876666 0.5202347 -0.40308568 0.009926445
0000d0 de 7f 56 3e b5 77 0d 3f 7e bc ea be a3 2b a8 be
       0.20947215 0.55260783 -0.45846933 -0.32845792
0000e0 fd a1 28 bf 5d 89 5f bf 9a 89 0e 3f 7d 39 01 bf
       -0.65872175 -0.87318975 0.55678713 -0.50478345
0000f0 45 c7 51 3e 60 97 e0 3f 21 01 ac be 5e 04 ef bd
       0.20486172 1.7546196 -0.3359461 -0.11670755
000100 44 3e 80 be 0e ed ef 3f a5 21 c3 bd 7d 6e 12 3f
       -0.25047505 1.8744218 -0.095279016 0.5719984
000110 8b 8a da bd 91 c5 b8 3f 3f 7f 9b be 0e 03 17 3f
       -0.10670956 1.4435292 -0.3037052 0.58989036
000120 fe f8 43 bf e7 e0 b5 3f 67 d3 51 3e db f7 d5 3e
       -0.76551807 1.420926 0.204908 0.4179066
000130 a9 7e 0a 3f 17 eb 43 3f fa 94 f9 3e 83 0b 90 be
       0.5409952 0.76530594 0.48746473 -0.28133783
000140 6a 8c 8b 3f df e4 dc be 06 66 24 3f 49 3a 5c bd
       1.0902226 -0.43143365 0.64218175 -0.053766523
000150 f8 8d af be c1 af f8 bf 9c 3b 2f 3f b2 52 12 bf
       -0.34288 -1.9428636 0.6845033 -0.57157433
000160 29 62 86 3e 60 22 93 3f 28 e3 82 3d 9e 7f 28 3f
       0.26246765 1.1494865 0.06390983 0.6581973
000170 09 df cf 3c b0 76 5e bf d6 c1 88 bd ee 4f e5 3e
       0.025374906 -0.8689985 -0.06677596 0.44787544
000180 58 98 8c 3d f0 b4 4b bf fd b0 c9 3d 5a 7a 58 3e
       0.06864995 -0.79572964 0.09848211 0.21140423
000190 0a b2 e0 3c db 59 af bf 1a 74 2c be ad 14 32 be
       0.027428646 -1.3699297 -0.16841164 -0.173907
0001a0 25 ba e6 bd 54 f0 55 bf 93 cb 42 3e c7 1b aa 3e
       -0.11265973 -0.83569837 0.1902297 0.33224317
0001b0 9b 14 b5 3e 46 e1 8c bf 42 40 b7 3e de b6 ca 3e
       0.35367283 -1.1006248 0.35791212 0.39592642
0001c0 fb cc b8 bf d5 ad ab 3e c8 30 43 bf f1 08 af 3e
       -1.4437555 0.3353106 -0.7624631 0.3418651
0001d0 bd 76 a1 3f f8 12 24 bf f5 c0 80 3f 98 c7 2e bf
       1.2614361 -0.64091444 1.0058886 -0.68273306
0001e0 ff 82 50 3d cf 26 c5 bf b8 81 09 bf 8d ed 20 3e
       0.050906178 -1.5402468 -0.5371356 0.15715618
0001f0 45 47 9d bd 31 3e b5 bf 68 b4 ff 3e 41 80 00 bf
       -0.07679609 -1.4159604 0.49942327 -0.501957

policy_net.layers.0.bias f4 [32]
000000 b0 66 be 3c 40 58 52 be a7 09 ca 3d df 14 72 bd
       0.023242325 -0.20541477 0.09865122 -0.059101935
000010 e0 04 93 3e ee 2b 6f bb 04 7d de 3d f9 5f d0 3d
       0.28714657 -0.003649469 0.108636886 0.10174555
000020 39 da c3 be 32 b4 01 be a8 2d c6 3b 1d c6 db 3c
       -0.38252428 -0.12666395 0.006047923 0.026827866
000030 34 ff 72 3e 88 8f 51 3c 67 ca ae 3e 2f 15 1c be
       0.23730165 0.012790568 0.34138796 -0.15242456
000040 95 df 1b 3d 92 d1 a3 3e d1 0a 8c bc b7 5b a2 3e
       0.03805502 0.31995827 -0.017095001 0.31710598
000050 c1 f5 ca bd fe 84 9c 3e 9b 12 77 3e 4c f4 62 3e
       -0.09910155 0.30570215 0.24128191 0.22163504
000060 8b be b9 3e bf da 29 3e bb 98 14 3e 38 6b a1 be
       0.36278185 0.16587351 0.14511387 -0.31527114
000070 52 2b 3b bd 9a 19 94 3e 22 f1 8c be 24 17 13 3e
       -0.04569561 0.28925782 -0.2752772 0.14364296

policy_net.layers.2.weight f4 [32, 32]
000000 28 a3 82 bd 59 a5 94 3b f4 e5 8b 3e 8f 82 b4 3d
       -0.06378776 0.0045363125 0.27323878 0.088139646
000010 6a 58 88 bd 3d 16 00 3e 5d 2a ee bd a7 d4 24 3e
       -0.06657489 0.12508483 -0.11629174 0.16096745
000020 d8 16 d0 3d 5e b9 0d be 13 2c 39 3f 90 67 9f be
       0.10160607 -0.13840243 0.72332877 -0.311337
000030 24 bd 07 3e ee a8 da bc 9a c9 a1 3d 97 10 1e 3e
       0.13255745 -0.02669188 0.078997806 0.15436016
000040 82 76 6a 3e 78 d1 5e 3d a8 3c e5 3d 16 18 4d 3e
       0.2289677 0.054398984 0.1119321 0.2002872
000050 4b 95 49 bd a6 d0 5d be 29 11 5a 3d 7f b7 e2 3d
       -0.049214642 -0.21661624 0.05323902 0.11070155
000060 21 d3 05 be 73 2a ba bc e4 6d ce bd 68 98 02 be
       -0.1306882 -0.02272532 -0.10079554 -0.12753451
000070 2a 88 52 be f3 a6 a6 bc 6c 63 c1 bb e0 d9 01 be
       -0.20559755 -0.02034328 -0.0059017446 -0.12680769
000080 39 48 d2 bc 9a 4a 4f 3d 32 bc ac 3c 7c da 60 3d
       -0.025669204 0.050608255 0.021085832 0.054895863
000090 78 20 0e 3c 34 23 58 bd 92 69 e6 3c cd 7e 82 bd
       0.008674733 -0.052767947 0.028126512 -0.063718416
0000a0 7d 0a 72 bd d0 92 7b bd a7 d0 48 3e 9f d0 c7 bb
       -0.059092034 -0.06141931 0.19610845 -0.0060978676
0000b0 a6 99 53 bd d7 4b 42 bd 91 45 d6 bd 39 10 a8 bd
       -0.051660202 -0.047435608 -0.104624875 -0.08206219
0000c0 d1 c1 9f bd 69 8d 6c bd 1f e0 be bd 2d 0d f6 bd
       -0.078006394 -0.057752047 -0.093200915 -0.12014232
0000d0 c3 24 07 3e 3b 4e 91 3d e8 40 4c 3d bb 20 ca 3d
       0.13197617 0.070949994 0.049866587 0.09869524
0000e0 4a e6 fd 3d 55 50 ce bc ce 6d 20 be d0 71 22 be
       0.1239744 -0.02518479 -0.15666887 -0.15863729
0000f0 d8 98 0a bd 74 3e 45 be 34 aa 38 be c6 e4 6a 3d
       -0.03383717 -0.19262105 -0.18033677 0.05734708
000100 fc f6 9f be bf 54 5a be 58 f1 40 3f da 7c f8 3e
       -0.31243122 -0.2132139 0.7536826 0.48532754
000110 e2 ab 1d be 09 15 66 3f d6 c5 a9 3e 51 6b 07 3f
       -0.153976 0.8987585 0.3315875 0.52898127
000120 79 d9 46 be 40 63 af bb 23 48 99 3f d0 19 63 bf
       -0.19418897 -0.0053524077 1.1975139 -0.8871126
000130 bf e2 52 3e 08 19 02 3f dc de ff 3c 61 01 ae 3e
       0.2059431 0.50819445 0.031234197 0.33985427
000140 99 99 14 3f c1 66 e6 3d 9e b4 d5 3e f3 a7 02 be
       0.5804687 0.112500675 0.41739362 -0.1275938
000150 98 12 9a bd 01 f9 9a be 45 5b 00 3e bb 3c ca 3b
       -0.07523078 -0.302681 0.12534817 0.0061717904
000160 24 04 3a 3e 04 1f 22 be e1 7a 87 bd 9b e8 db bd
       0.18165642 -0.15832144 -0.06615234 -0.10737725
000170 49 22 fa 3e f0 0e f5 bd 89 fa 68 bd 69 7a c1 be
       0.48854282 -0.1196574 -0.056879554 -0.37788704
000180 31 d5 29 be 8f ed 08 be 36 f4 e6 3c 10 17 93 3d
       -0.16585232 -0.13371871 0.02819262 0.07182133
000190 37 93 85 3d fd dd 14 3d 4e 88 0e 3b 29 86 43 be
       0.0652222 0.036344517 0.0021748724 -0.19094147
0001a0 b4 8f 20 3d 1f e4 f1 bc 86 63 ce ba 39 06 da bd
       0.039199546 -0.029527722 -0.0015746213 -0.10645718
0001b0 59 aa 98 bc 76 7d 56 3d 95 3a 0b 3c c3 0e ab bd
       -0.018635916 0.052365743 0.008497854 -0.08352425
0001c0 e7 70 08 3e cf d4 32 bc c0 60 21 3e 27 c2 11 bd
       0.13324319 -0.010914995 0.15759563 -0.03558555
0001d0 d7 45 f4 bc 25 4f 25 3e ca 77 06 3e 42 70 e5 bd
       -0.029818458 0.16143472 0.13131633 -0.11203052
0001e0 e0 79 e0 bc cb f8 80 3d 26 a1 3c bd 10 b0 74 3c
       -0.027401865 0.062974535 -0.04605212 0.014934555
0001f0 a4 5b a9 bd cb 98 32 3e b3 a3 ff 3d c5 65 c4 bc
       -0.08269432 0.17441098 0.12482395 -0.023974309
000200 b4 cf 79 bd 77 fa 3e be 6e 5d 9c 3d 94 53 c8 be
       -0.060989097 -0.18650232 0.07635008 -0.39126265
000210 5d 49 01 3e 60 47 4b be b8 f2 37 bd a7 90 99 3c
       0.12625642 -0.19851446 -0.04490921 0.018745733
000220 a8 ff e6 bc 7f 7c 7a 3e 62 5d a6 be fc b6 33 3d
       -0.028198078 0.24461554 -0.3249312 0.04387568
000230 a1 88 6f 3d 9f 58 2c 3e 26 2b 07 3e 12 41 83 be
       0.05847991 0.16830681 0.13200054 -0.25635582
000240 fd 06 07 be 76 40 dc bd 91 20 9a 3d 63 e4 25 3d
       -0.1318626 -0.107544824 0.07525743 0.04050101
000250 82 bf f9 bd 43 de 3e 3d 4e 6d df bd 3f 1e 1b 3e
       -0.1219473 0.046598684 -0.1090952 0.15148257
000260 5b 64 de bd ff 9a 84 3d f0 1a 1d 3e 26 12 18 bd
       -0.10858985 0.06474876 0.15342307 -0.037126683
000270 ac 77 c7 3e 8f 19 5d be f4 c0 74 3e ed d5 a2 3d
       0.3895849 -0.21591781 0.23901731 0.07950959
000280 d5 11 4f 3e 1b 7d 47 3e fe 7c 40 3e 42 da c4 3d
       0.20221646 0.19481318 0.1879768 0.09611942
000290 f9 b7 2f be d9 2f 6a bd 2d ce 37 3d e5 fa 25 3e
       -0.17160024 -0.057174537 0.04487436 0.1620899
0002a0 0b 61 28 3e 98 3c 2a be 6f 31 a4 3e a9 b8 3e be
       0.16443269 -0.16624677 0.32068965 -0.1862513
0002b0 6e 09 f8 3d 9a 40 18 3e 08 c0 1c be 81 36 4e 3b
       0.121111736 0.14868394 -0.15307629 0.0031465592
0002c0 84 71 57 3d 58 0b d2 3d bc a7 e7 3d 8a b3 d3 bc
       0.05259849 0.1025607 0.1131129 -0.025842447
0002d0 96 21 08 3e 08 73 57 bd b3 cf 04 3e 2b d2 58 be
       0.13294062 -0.052599937 0.12969856 -0.21173923
0002e0 98 01 40 be a3 f1 59 bb 3b 11 84 bd ef 60 28 be
       -0.18750608 -0.00332556 -0.06448599 -0.16443227
0002f0 91 d6 90 be 25 b4 34 3e db 09 97 3c 3a b9 5d be
       -0.282887 0.17646845 0.018437317 -0.2165269
000300 3b 1e 17 be 61 df 83 bc 58 c1 f8 3e c4 90 ef 3e
       -0.14757626 -0.016097726 0.4858501 0.46790135
000310 87 8c 28 be c8 db 40 3e 59 89 97 3d 94 48 66 3e
       -0.16459857 0.1883384 0.07399244 0.22488624
000320 6c d5 18 bb 3d 5c 4f bd 1b 6b 83 3f 62 8f cf be
       -0.0023320569 -0.050625075 1.0267061 -0.4053908
000330 99 0c 0a be 48 d7 84 bd bb 4e 0d bc 3e 13 f3 3b
       -0.13481368 -0.06486374 -0.008624728 0.0074180653
000340 44 a2 08 3f 3c 73 2c 3e 07 66 b2 3e b4 9a 1d 3d
       0.533726 0.16840833 0.34843466 0.038477615
000350 1e 11 bf bd df 7d c3 bd 95 92 b9 3d bb 87 59 3d
       -0.09329437 -0.095454924 0.090611614 0.05310796
000360 6c d8 1d be c6 79 69 be 45 94 4d bd b4 85 16 be
       -0.1541459 -0.22800359 -0.05019023 -0.14699441
000370 a4 97 7b 3e 31 b0 42 bd 8f 88 a3 bd ec 06 db bd
       0.24569565 -0.04753131 -0.07985031 -0.106946796
000380 d1 bd 79 3e 68 fe 81 3e 49 15 d4 bc fa ce 95 3e
       0.24388815 0.2538941 -0.025889056 0.29259473
000390 44 19 fa bd dc b5 91 3d 5d c2 9f be d8 2a 9d 3d
       -0.1221185 0.07114765 -0.31202975 0.076741874
0003a0 b7 6e 56 3e 23 26 67 3d ac a8 01 3f 94 2a 47 be
       0.20940672 0.056432854 0.50648 -0.19449836
0003b0 5f 44 90 bd 3d dd cf 3b 0c c1 03 3e 10 87 5f 3e
       -0.07044291 0.0063435123 0.1286661 0.21828866
0003c0 f8 d0 0c 3d c7 bf cb bc 6c c4 33 3e bc 43 49 3e
       0.034378976 -0.02487172 0.17555398 0.19654745
0003d0 c9 01 e8 3d 02 9c fe bd 6b da 1f 3e 62 76 66 3c
       0.113284655 -0.124321 0.15610664 0.014066311
0003e0 13 e3 ac 3d 73 a6 80 3d 0e 62 da bd 9c 67 9d ba
       0.084417485 0.06281748 -0.10663234 -0.0012009027
0003f0 c0 04 ab be de 01 cf bd 2d 44 3d be 8d 1e c0 bc
       -0.3340206 -0.10107778 -0.18483038 -0.023452068

policy_net.layers.2.bias f4 [32]
000000 a0 74 21 be 74 8f 28 bd 0b e0 a3 bd 16 a7 7d bd
       -0.15767145 -0.041152433 -0.08001717 -0.061926924
000010 08 cc 7c bd 20 70 f5 3d ea 00 2c 3e 05 9a 13 3e
       -0.061718017 0.11984277 0.16797224 0.14414223
000020 6f 09 08 bc 5d e6 1e be 59 1f 06 bd c9 21 16 3e
       -0.00830303 -0.15517564 -0.03274474 0.14661326
000030 eb 6e c0 3d 58 4c 05 3e 06 34 57 3a bd 60 26 3e
       0.09396156 0.13017404 0.0008209351 0.1624784
000040 ad e8 ab 3d 3e 03 50 3d 09 6a 50 bc 32 b7 df 3d
       0.08393989 0.050784342 -0.012720593 0.109236136
000050 e7 0a 93 3b 8c ad 88 bd 02 ab c2 bd d9 5e 22 3d
       0.0044873836 -0.066737264 -0.095052734 0.039641235
000060 b9 a2 32 3d ce ce 01 be b2 d1 b9 bd 03 e1 6a 3d
       0.043612216 -0.12676546 -0.09073199 0.057343494
000070 77 22 4a 3d bb 48 60 3b 22 f6 f8 bd 8e c1 7a bd
       0.049349274 0.0034223038 -0.12156321 -0.061219744

policy_net.mean_layer.0.weight f4 [1, 32]
000000 87 1a 73 3e a6 71 c4 38 c0 c7 9b 3e 40 8b 16 3b
       0.23740588 9.367177e-05 0.30425835 0.0022971183
000010 77 76 42 be ac d8 22 3e 49 5c 7e 3e 77 84 23 3d
       -0.18990503 0.15902966 0.24839891 0.03992125
000020 15 40 20 3a 75 9f 96 3b ad c0 40 3a bc 6d da 3c
       0.00061130646 0.0045966455 0.00073529297 0.026663654
000030 c2 65 e7 39 3f 7b d4 3c b8 ae 2c be ee 5c 37 bc
       0.0004413557 0.025937675 -0.16863525 -0.01119159
000040 36 4c 0a 3e 50 da d7 bb e3 8f 39 ba e4 84 21 be
       0.13505635 -0.006587304 -0.0007078631 -0.1577335
000050 0f ff 0a 3d 83 1f 75 bd 7a b0 59 3a 76 24 1f bb
       0.03393465 -0.059844505 0.000830419 -0.0024283207
000060 9a f9 03 be 47 41 64 be 82 70 ab bd 5b 97 3a 3a
       -0.12888184 -0.22290526 -0.083710685 0.00071178906
000070 d1 86 33 bd 56 d2 6b 3c 42 7d 89 3a 77 f4 34 be
       -0.043829743 0.01439341 0.00104896 -0.17671381

critic.critic_net.layers.0.weight f4 [32, 4]
000000 f5 61 ba 3f ba 33 be bf 7a 10 55 3e b4 eb a7 bd
       1.4561144 -1.4859536 0.20807067 -0.08199254
000010 58 3c af be e8 65 9e 3f aa 2e 13 3e da f9 7b 3e
       -0.34225726 1.2374849 0.1437327 0.2460703
000020 28 32 cf 3e 6d bc 73 bf c7 bf 72 3f c5 53 c9 bc
       0.40467954 -0.9520939 0.9482388 -0.024576077
000030 54 8b dc bd b1 1b f8 bf f1 2f fc bd 8c 19 f2 3d
       -0.10768762 -1.9383451 -0.123138316 0.11821279
000040 86 52 f8 bc 32 f6 01 3f 0a 56 b0 bd 29 c5 de 3d
       -0.030312788 0.5076629 -0.08610161 0.10877449
000050 6b 4d bc 3e 70 5d c2 bf 41 40 4d bf d6 53 66 be
       0.36777815 -1.5184765 -0.8017617 -0.22492918
000060 b2 22 0d bf 3b b4 ea bf fe d1 8f bf 2e 23 b6 be
       -0.55131066 -1.8336252 -1.123596 -0.35573715
000070 8e fd 63 c0 75 f0 80 bf 21 d7 4b bf cf 7a 81 be
       -3.5623507 -1.0073382 -0.79625136 -0.25289008
000080 83 59 a8 bf 6d 4c 05 3d ab af 07 3f 1d ee 6e bf
       -1.3152317 0.03254359 0.53002423 -0.9333208
000090 69 0d a2 3f ab 68 c9 3e c4 ba 1e be 2b 02 21 bf
       1.2660342 0.39337668 -0.15500933 -0.62893933
0000a0 86 b4 a1 be 57 ed fb bf 0e 95 a6 be 54 73 a7 be
       -0.3158304 -1.9681805 -0.32535595 -0.32705176
0000b0 8c 8c 0d 3f a4 b8 52 3f 4c 07 da be d1 f6 70 3d
       0.5529258 0.8231299 -0.42583692 0.058829132
0000c0 dc 38 35 be 09 65 a0 3f f7 57 34 bd 08 68 e0 3e
       -0.17697471 1.2530833 -0.044029202 0.4382937
0000d0 c7 36 41 bf e7 30 b6 3f e6 5f 22 bf a5 ee ce 3e
       -0.7547421 1.4233674 -0.6342758 0.40416446
0000e0 8a f9 a5 bf 9a c6 ca 3f 73 d5 03 bf 84 a6 4b be
       -1.2966778 1.5841858 -0.5149757 -0.1988774
0000f0 83 58 27 c0 bf 66 8f be 94 a1 b3 3e 46 0b 8f 3e
       -2.6147773 -0.28008077 0.35084212 0.27938288
000100 eb 8b 8a bd 2b da de 3d e6 21 a7 bc 8c 23 af bd
       -0.067649685 0.10881456 -0.020401906 -0.08551702
000110 11 1e 22 c0 04 34 df 3e be 59 5e be ff f7 6d bd
       -2.533085 0.43594372 -0.21713921 -0.058097836
000120 54 94 ba bf a5 a2 78 be 71 54 8d bf bd b5 87 be
       -1.4576516 -0.24280794 -1.1041394 -0.26505843
000130 fb 15 9b 3f a7 c7 80 be c3 cf 85 3e 0d 5b 37 3f
       1.2116083 -0.25152323 0.26135072 0.7162331
000140 f2 07 c3 3f 5e a0 01 c0 c1 3a 44 bf b7 f4 04 be
       1.52368 -2.025413 -0.7665215 -0.12983976
000150 83 05 02 bf f1 31 5d 3f 3f d5 25 bf bd b8 23 bf
       -0.5078966 0.8640433 -0.6477851 -0.63953763
000160 6a 68 0c 3f 4b a8 0a 3f 0f 2c 82 bf 8f ab 1a be
       0.54846823 0.54163045 -1.0169696 -0.15104507
000170 c7 20 b8 3f 86 12 c7 be c2 50 2a bf 26 6c 00 bf
       1.4385003 -0.3888132 -0.66529477 -0.5016502
000180 6e bd 53 c0 75 8b 03 c0 4a 86 7b 3e b3 27 83 3e
       -3.3084369 -2.0553868 0.24562946 0.25616226
000190 96 2d 89 bf 12 f3 d4 3f 98 a2 20 3e 50 24 97 3e
       -1.0717037 1.6636679 0.15687025 0.29519892
0001a0 53 4e 0a be 70 bc 85 be aa 73 40 3e b0 14 ce bd
       -0.13506441 -0.2612033 0.18794122 -0.100625396
0001b0 b3 0d e8 bf 2f cc 56 3f 07 9c a4 3e c5 32 3c 3e
       -1.8129181 0.8390531 0.3215029 0.18378742
0001c0 99 45 ad bf 53 36 ec bd 87 3c 90 be 13 82 08 3f
       -1.3536865 -0.11533799 -0.2817118 0.5332348
0001d0 1e 48 af bf d3 fe 00 c0 44 32 b0 3f 05 f4 3b 3f
       -1.3693883 -2.0155532 1.376534 0.7341922
0001e0 a1 f6 89 3e 13 d6 04 bf 20 26 6c be fb 24 2d 3e
       0.26945975 -0.5188915 -0.23061419 0.16908638
0001f0 3a c1 22 3f 4d 6e 04 c0 36 5d a5 be 6d a3 67 bc
       0.6357609 -2.0692322 -0.32297677 -0.014138085

critic.critic_net.layers.0.bias f4 [32]
000000 f8 71 19 bd 65 2e 60 bd a0 2c 7c be a4 51 11 be
       -0.037462205 -0.054731745 -0.24626398 -0.141913
000010 ab df c3 be ce 70 99 bd 6a 2f 03 bd 76 7b a9 3c
       -0.38256583 -0.07492219 -0.03202764 0.020688754
000020 d8 9b 7a 3e 7d 7f 80 be fc 8f 2f 3d 6c 2d cd bb
       0.24473512 -0.25097266 0.042861924 -0.006261518
000030 3a 48 f9 3d b5 f9 a0 3e 91 7f f8 3c 4b 2b 05 3e
       0.12171979 0.3144051 0.030334266 0.13004796
000040 b1 60 ca 3e a9 2d a1 3d 71 3e 0b 3e 38 4a 93 be
       0.39526895 0.07870037 0.13598038 -0.28767562
000050 26 8f 34 bd 51 ee 9a 3e d3 23 29 3c 46 ef fe 3d
       -0.04408183 0.30259946 0.010323483 0.124479815
000060 6b e2 0c be 40 e8 bf 3d fb 73 7d 3e b8 4a bf 3d
       -0.13758247 0.0937047 0.24751274 0.09340423
000070 a7 df cf 3e e6 c9 e4 3e 80 41 e4 be fc d1 2c bd
       0.4060032 0.44685286 -0.44581223 -0.042192444

critic.critic_net.layers.2.weight f4 [32, 32]
000000 af ef e7 3d e4 df 17 3e fd 9c a1 bb 82 d6 df bd
       0.11325013 0.14831501 -0.0049320445 -0.10929586
000010 fc b1 dc 3d 21 e3 14 bd d6 50 ab 3d 96 c2 00 3e
       0.10776135 -0.03634942 0.083650276 0.12574229
000020 da 54 06 3e 00 dd 21 bc a6 00 da bd ff bd 12 3e
       0.13118306 -0.009879351 -0.10644655 0.1433029
000030 89 4f 14 be 8c 81 7a 3d 3f 1c a3 be 9a 09 ce bd
       -0.14483465 0.0611587 -0.31857488 -0.10060425
000040 4c 62 9c bd 6a f8 de 3d 96 57 77 3d 38 7e 35 3d
       -0.07635936 0.10887225 0.060386263 0.044309825
000050 d1 1d 93 3e c8 9b e8 3d 0a 29 15 bd 76 63 bf 3c
       0.28733686 0.11357838 -0.03641609 0.023362856
000060 45 f8 a8 3b 2c ca f7 bd c0 57 bd bd 80 dc 97 bd
       0.005156549 -0.12099108 -0.092452526 -0.07415104
000070 4d 2a 48 3e d0 d7 98 3e 1f a4 00 3e 58 7e 20 3e
       0.19547386 0.29852152 0.12562607 0.15673196
000080 58 25 fb 3e 12 b2 4d be e5 14 66 3e e6 4f 66 bd
       0.4905193 -0.2008746 0.22468908 -0.05622854
000090 c8 fd 66 be f7 14 48 be 02 30 95 bd 23 60 12 be
       -0.22557747 -0.19539247 -0.072845474 -0.14294486
0000a0 c5 86 27 3e aa 95 40 be 20 f4 56 3c 40 28 db bd
       0.16360004 -0.18807092 0.013119727 -0.107010365
0000b0 de 38 0c 3e 02 a7 c3 3d 3b 42 6f bf 77 f2 d7 3d
       0.13693568 0.095533386 -0.93460435 0.105442934
0000c0 0f 30 0a 3e 3e 04 4a be 66 76 44 be 08 5c 89 3e
       0.13494895 -0.19728181 -0.1918579 0.26828027
0000d0 96 e4 92 3e ee 07 fe bd 2b 1c fa be 75 b1 4b 3d
       0.28690022 -0.12403856 -0.48849615 0.049729783
0000e0 eb 35 4a 3e 9f ed fb bd 3c 46 7c 3e 23 20 31 be
       0.1974713 -0.12301182 0.24636167 -0.17297415
0000f0 6e 5e 18 3e 34 04 df 3e ba 23 c5 bd 95 10 a9 3e
       0.14879772 0.43557894 -0.09625955 0.33020464
000100 92 21 6d 3f 9f 6c 99 3d a6 05 00 3f cf 1c 23 3f
       0.9262935 0.07491421 0.5000862 0.63715833
000110 75 99 27 be e9 93 5e 3e 44 d1 aa bc 6d d4 aa 3e
       -0.16367133 0.21736111 -0.020851739 0.33365193
000120 58 c2 87 be 9b 3e 4d be 84 d1 17 3c bb 37 41 be
       -0.2651546 -0.20043413 0.009266261 -0.18868916
000130 e6 e5 ba be f5 ea 0b bf 39 2a b0 bf a0 d3 16 3f
       -0.36503524 -0.5465539 -1.3762885 0.58916664
000140 6d cb 1e be 50 1e 37 3e ba a8 6d be 05 8a 21 3f
       -0.15507288 0.17882657 -0.23208895 0.63101226
000150 56 e9 03 3f 43 3c 49 bf 3c b1 27 bf 9d f0 09 bf
       0.5152792 -0.7860758 -0.65504813 -0.5388277
000160 b3 ec 8c 3f a7 57 39 bf a9 fc 57 3d cf ed 15 bd
       1.1009735 -0.7239937 0.05273119 -0.036603745
000170 a4 c3 52 bc 36 28 77 3e fa c4 1b 3e 09 3d 4c 3f
       -0.012864027 0.24136433 0.1521186 0.7978063
000180 d4 a2 02 be e6 ff a3 bd 56 8b 4a bd da aa 13 be
       -0.12757427 -0.08007793 -0.049449287 -0.14420643
000190 49 45 20 3e e9 89 72 3d e3 7d 43 bd b2 22 b7 3d
       0.1565143 0.059213553 -0.047727477 0.089421645
0001a0 79 5c 24 3e e0 ae 37 3e 1b 8c f6 bd 7b c0 a1 bc
       0.160509 0.17937803 -0.12038442 -0.019745102
0001b0 fe 90 5f bd ea df 28 bc 75 3c 0d 3f d5 7d a2 3d
       -0.054581635 -0.0103072915 0.55170375 0.07934157
0001c0 cb 64 3e bd 8b fc cc 3d 88 35 7f 3d cf d9 c1 3d
       -0.046482842 0.10009106 0.06230691 0.09465372
0001d0 06 61 b2 be 6d 19 4c be 7f 22 84 3e 17 14 01 be
       -0.34839648 -0.19931574 0.25807568 -0.1260532
0001e0 51 b1 28 bd 50 20 81 3e 7d 18 c3 bc 1a 55 38 3e
       -0.041184727 0.25219965 -0.023815388 0.18001214
0001f0 ce d0 87 3c 29 05 b2 be c2 9f 95 3d e6 f9 03 be
       0.016579058 -0.34769562 0.07305862 -0.12888297
000200 15 46 c5 bd 70 75 e4 3d 64 65 4e be e4 6f 75 be
       -0.09632508 0.11155212 -0.20155865 -0.23968464
000210 6b e8 58 bd 5f e9 69 bd b2 d5 2a 3e 04 8b 20 bc
       -0.052956026 -0.057107326 0.16683081 -0.009798769
000220 d3 c1 81 3d 92 0a 3d 3d 2e 5b e4 3d 8f ec 17 3e
       0.06335797 0.04615266 0.11150204 0.14836334
000230 a3 70 a3 bd 27 77 e4 bc 12 22 e7 3d 09 cb b2 3d
       -0.07980468 -0.027888848 0.11285795 0.08730132
000240 83 88 a4 3e 6e d3 8e 3d 5b d7 34 bd 41 c2 4e 3e
       0.321354 0.06973921 -0.04415069 0.2019129
000250 21 00 8b be 57 42 41 be 5b fa 78 bc de 57 b8 bd
       -0.27148536 -0.18872963 -0.015196408 -0.09001134
000260 54 c9 4c bd 11 d7 cd 3d 8e 7f 18 3e f4 89 f7 bd
       -0.04999669 0.10050786 0.14892408 -0.12086859
000270 d2 38 26 be 39 ab 21 be 8d 1e 55 be 2f 39 07 be
       -0.16232613 -0.15787973 -0.20812435 -0.13205408
000280 82 7f 65 bd a0 cc b5 3d 13 0a 13 3c 79 41 96 3d
       -0.056029804 0.0887692 0.00897457 0.07336707
000290 57 a0 0a bd 07 35 18 ba aa 61 1b be ee 82 6a 3e
       -0.03384432 -0.00058062415 -0.15173975 0.22901508
0002a0 ed 9b f2 bd ca df 32 3d 52 83 d0 bd 1c 92 94 3c
       -0.11846147 0.043670453 -0.10181297 0.018136077
0002b0 f8 67 10 bd 84 85 01 3d 8e 69 cb bd 7e e6 5a bc
       -0.035255402 0.03162147 -0.09932242 -0.013360618
0002c0 0a db 8b be 35 a5 84 3d 72 cb 7d 3d c5 d4 a0 bc
       -0.2731555 0.06476823 0.0619616 -0.019632706
0002d0 a3 9c 79 bb 3f 09 be 3d cb 41 39 be 22 e0 44 3e
       -0.0038087748 0.09279107 -0.18091504 0.19226125
0002e0 ca 10 05 be 52 01 25 be 0d a9 d1 b8 6d 0f ce 3d
       -0.12994686 -0.16113785 -9.997385e-05 0.10061536
0002f0 e1 f7 4a bd 80 bf 18 3e 1b 4e aa bd 21 ef 7b 3e
       -0.049552802 0.14916801 -0.08315679 0.24602939
000300 f4 82 44 bd 82 50 c0 3d f5 60 c3 bd 17 c3 6e be
       -0.04797645 0.09390356 -0.095399775 -0.23316608
000310 c2 d6 33 bd 43 19 e4 bc 61 55 29 be 41 89 4d be
       -0.04390598 -0.027844077 -0.16536476 -0.2007189
000320 5b b8 08 be f4 99 7a 3d f0 dd 82 bc 47 0d ba bc
       -0.13351576 0.061181977 -0.015974969 -0.02271141
000330 55 a6 93 bd 5b 6c 58 3c fc 78 8f 3e 73 1d cd be
       -0.0720946 0.013209428 0.2802199 -0.4006153
000340 a6 1f d7 3d 4f 8b 42 be 23 1d 06 be b0 6d 41 3e
       0.10504083 -0.18998455 -0.13097052 0.18889499
000350 e8 6c 5f be d0 b4 e8 bd f6 ec 9e 3d b4 4c 84 bd
       -0.21818888 -0.11362612 0.077600405 -0.064599425
000360 79 5e 1f be 2e bb 1d 3e 8e 4c 55 be 59 5c b9 bd
       -0.15563382 0.15403435 -0.20829985 -0.09050817
000370 d4 c7 ce bd 15 8b a9 be 5c 1a 16 be 42 02 17 be
       -0.10096708 -0.33113924 -0.14658493 -0.14746955
000380 8b 67 64 be d2 c6 cd 3d b5 f2 65 be f1 3d 40 be
       -0.22305124 0.100476876 -0.22455867 -0.18773629
000390 10 9e ec 3b d7 1e 1a be 2e 10 54 3e d5 38 5d bd
       0.007220991 -0.15050827 0.20709297 -0.054009277
0003a0 14 76 9c 3d d7 09 f4 bc 85 c3 d0 bd e4 e1 98 bd
       0.07639709 -0.029789848 -0.101935424 -0.0746496
0003b0 a0 cb c6 bd 0e 8a c2 bd 5e c2 09 3e 47 db 0d bd
       -0.09706807 -0.09498988 0.13453051 -0.034632947
0003c0 f3 70 38 3e 56 8e eb 3d e0 a2 47 3c 87 74 eb 3d
       0.18011837 0.11501758 0.0121848285 0.11496835
0003d0 9b c0 3b be 4c 32 54 be 56 ab 05 3e 37 35 57 ba
       -0.18335192 -0.20722312 0.1305364 -0.0008209529
0003e0 35 94 e5 bd 96 4b 9a 3e 32 e4 1a 3d 98 d8 37 3e
       -0.11209909 0.30135792 0.03781528 0.17953718
0003f0 67 10 4b be 93 41 a4 be ba e7 27 be 1c 6a 83 be
       -0.19830476 -0.3208128 -0.1639699 -0.25666893

critic.critic_net.layers.2.bias f4 [32]
000000 d9 d4 79 be d8 f9 a4 3c c0 30 25 be 39 6c 46 3e
       -0.24397601 0.020138666 -0.16131878 0.19377221
000010 8e 19 4c 3e 93 c9 3c bc 14 32 59 bd 0b ab 98 bc
       0.19931623 -0.011522668 -0.053026274 -0.018636247
000020 c4 5d 07 3e 9d 89 dd be eb c1 55 be 7a 55 09 3d
       0.13219362 -0.43269053 -0.20874755 0.033528782
000030 a0 3b d0 3d f1 99 aa be 5f b9 a5 be 6d 93 06 bd
       0.101676226 -0.33320573 -0.3236799 -0.03285544
000040 ef 76 9b 3e 57 e2 7e 3b 1b 2d 62 be 63 2a 3f bd
       0.30364177 0.0038892233 -0.22087519 -0.046671283
000050 e7 11 eb bd 46 31 da bd c3 16 15 3e eb 24 97 be
       -0.11478024 -0.106539294 0.14559464 -0.29520354
000060 f3 89 94 3e 85 c1 b4 be 75 03 b4 bc 25 1d 1e 3e
       0.29011497 -0.35303894 -0.021974305 0.15440805
000070 5c ee 35 be 5b 16 94 3d ad 34 68 be f1 e2 3e be
       -0.17766708 0.072308265 -0.22676344 -0.18641259

critic.critic_net.layers.4.weight f4 [1, 32]
000000 ec db 2f 3e fe f3 41 3e 8c 8f b0 be ee af 14 be
       0.17173737 0.18940732 -0.34484518 -0.14520237
000010 4f c0 98 be 06 24 c8 39 41 da fb bd 2b 85 cb bd
       -0.2983422 0.00038173812 -0.12297488 -0.09937509
000020 6a e9 57 bc 8b 2e 75 3e 94 ef a5 3e 8e a0 c6 3a
       -0.013178209 0.23943536 0.32409346 0.001515405
000030 86 03 73 3d d8 ee cf be 45 8f 61 3e c1 55 a5 3d
       0.059329532 -0.4061191 0.22027309 0.08072997
000040 c0 bd 30 be a4 f1 9d be 4e 80 31 3e c9 7a 8e be
       -0.17259884 -0.3084842 0.173341 -0.27828053
000050 75 57 c9 bd 9d 34 8c 3e bf d2 c7 bd 98 7b 4a be
       -0.09831134 0.2738389 -0.097569935 -0.1977371
000060 ab 85 e8 3e 68 b4 4c 3e 86 6b 75 3d 84 52 00 be
       0.4541448 0.19990695 0.059916995 -0.12531477
000070 bb 8e 06 3e 63 8c 1a be 92 30 65 3e ea 30 92 3e
       0.13140385 -0.15092616 0.2238181 0.28552943

exp_avg f4 [32, 4]
000000 15 03 8b b9 5d 00 ad 38 f2 d4 55 3a 8c 01 6a 3a
       -0.00026514442 8.2493505e-05 0.00081570365 0.0008926622
000010 90 fb 2c b9 a1 db 12 39 8e 03 c1 3a 52 c5 13 3b
       -0.00016496913 0.00014005463 0.0014725791 0.0022548032
000020 9f 49 a3 3a 3d 81 08 3a 8a fd c7 3b a5 f8 92 3b
       0.0012457854 0.0005207246 0.0061032223 0.004485207
000030 49 a5 54 3a 60 03 55 3a 81 18 12 3c e6 20 f3 3b
       0.00081117876 0.0008125808 0.008916975 0.0074196933
000040 2a 1a 01 ba c2 a2 78 b9 97 e9 73 bb 46 11 37 bb
       -0.0004924858 -0.00023711755 -0.0037218088 -0.002793388
000050 8a 1e 72 3a 86 be f4 39 ae 89 9f 3b 23 e7 96 3b
       0.0009236118 0.00046681258 0.0048687076 0.0046051904
000060 50 69 85 39 a2 77 fa 37 b8 32 96 39 ef ba 3e b9
       0.000254462 2.985803e-05 0.00028648018 -0.0001818945
000070 89 2c 0b 3a ef cf 95 39 b7 0f 54 3b f0 62 22 3b
       0.00053090655 0.00028574417 0.0032358 0.002477821
000080 84 1c f7 b8 28 7b 8a 38 75 19 65 3a 15 0a a0 3a
       -0.00011783189 6.6032924e-05 0.000873945 0.0012210036
000090 ec 5c b6 b8 c2 da 7f b9 55 31 1c bb 9a 9e 22 bb
       -8.695744e-05 -0.00024400189 -0.0023833115 -0.0024813772
0000a0 2f ec 1e 3b ac 46 e2 3a bd 11 b0 3c 8e e9 90 3c
       0.0024249663 0.0017263494 0.021492833 0.017689493
0000b0 95 b2 94 ba f8 e4 0a ba ab 92 bb bb e3 d6 a2 bb
       -0.0011344725 -0.0005298401 -0.0057242713 -0.004969464
0000c0 f1 e6 d2 38 3d ff 2e 38 e0 4a cc 39 e7 64 e5 39
       0.000100565965 4.1722542e-05 0.00038965698 0.00043753462
0000d0 ae aa d9 39 b4 d3 85 38 e8 e0 1f 3a 72 f0 13 3a
       0.00041516632 6.381367e-05 0.00060988823 0.0005643434
0000e0 2e 51 40 38 ee b4 16 b9 9d ae bf ba 8b ef 87 ba
       4.585197e-05 -0.00014372516 -0.0014624182 -0.0010371072
0000f0 c0 fa f6 39 4e df a5 39 97 79 6f 3b d4 83 79 3b
       0.000471076 0.00031637627 0.003654098 0.003807296
000100 87 3c b0 3a bf 69 45 3a fa ee 14 3c 5f 22 ce 3b
       0.0013445773 0.0007530711 0.00909018 0.0062907184
000110 68 de 46 39 cc be 71 39 b2 9e 0b 3b dc 11 f3 3a
       0.00018965604 0.00023054628 0.0021304307 0.0018544751
000120 f1 ca 78 3a ed 2f d4 39 5d d0 a5 3b ec d6 63 3b
       0.000949069 0.00040471499 0.005060239 0.0034765555
000130 9a 35 20 39 24 5f 74 39 7c 34 35 3b 70 5d 10 3b
       0.00015278757 0.00023305096 0.0027649691 0.002202835
000140 b0 7e 87 b8 d3 ad 1a 38 55 a6 07 39 3f 99 1f 3a
       -6.460899e-05 3.6878348e-05 0.00012936567 0.0006088204
000150 84 ac 0b ba d7 ce b9 b9 a8 f9 85 bb af 18 2b bb
       -0.0005328136 -0.00035440057 -0.0040885992 -0.0026107242
000160 37 e6 7e 39 34 12 25 39 48 67 d4 3a 4f 9c a3 3a
       0.0002430909 0.00015742407 0.0016205097 0.0012482497
000170 e9 39 4d 38 26 9a cb b8 31 57 94 ba 2e 5b 94 ba
       4.892974e-05 -9.708507e-05 -0.0011317489 -0.0011318678
000180 85 50 33 b9 8d 8c 07 b9 24 51 17 bb af 89 b7 ba
       -0.00017100766 -0.00012926963 -0.0023089135 -0.0014002825
000190 2e 03 d4 b9 a3 b0 a9 b9 39 6a 87 bb 4a bb 59 bb
       -0.0004043816 -0.00032365797 -0.004132536 -0.0033223205
0001a0 d8 80 8b b9 80 58 5e b9 fd 9b 33 bb 43 ea 17 bb
       -0.00026608142 -0.00021204539 -0.0027406209 -0.0023180402
0001b0 cf 6f 84 b8 d4 ba 25 b9 22 fc cb ba 9a 5c 9e ba
       -6.3150765e-05 -0.00015805225 -0.0015562812 -0.0012082041
0001c0 8a 9a af 38 af e1 90 b9 63 77 4f bb 93 61 88 bb
       8.3734354e-05 -0.00027633968 -0.0031656853 -0.0041620224
0001d0 c0 e1 dd b7 a9 93 8f 38 2c da 41 3a 02 60 85 3a
       -2.6450376e-05 6.846275e-05 0.0007394876 0.0010175707
0001e0 02 07 5f b9 a1 8c 92 b9 b4 55 2a bb 1a 51 27 bb
       -0.00021269548 -0.00027952067 -0.0025991024 -0.0025530518
0001f0 ae 71 04 ba 0f 67 b3 b9 a9 38 75 bb ed 98 2e bb
       -0.000505234 -0.00034218325 -0.0037417805 -0.0026641444

exp_avg_sq f4 [32, 4]
000000 d1 78 55 36 08 75 b5 34 82 6d ea 36 b5 31 4f 37
       3.1809798e-06 3.379903e-07 6.986492e-06 1.2349735e-05
000010 78 dd 7b 37 87 75 4a 35 e1 e1 ce 37 25 9a 58 38
       1.5012331e-05 7.542189e-07 2.4662297e-05 5.164197e-05
000020 3b 4e d1 38 34 13 ff 36 01 79 6b 39 27 9f 65 39
       9.980468e-05 7.6018277e-06 0.00022456424 0.0002189843
000030 9b 6d 5f 39 71 df 51 37 20 40 10 3a 78 04 10 3a
       0.00021307768 1.2509395e-05 0.00055027194 0.000549383
000040 32 1e 09 38 0e 58 dd 35 97 f8 c1 38 9c a6 a8 38
       3.2691467e-05 1.649141e-06 9.2492606e-05 8.041898e-05
000050 00 a4 83 38 23 35 a6 36 d2 ff 05 39 3c 37 5e 39
       6.277114e-05 4.9533714e-06 0.00012779169 0.00021192146
000060 80 5a 7b 35 1f 01 01 34 99 95 bd 35 b6 78 a9 36
       9.363648e-07 1.2014469e-07 1.4125136e-06 5.050645e-06
000070 4c d0 b4 37 63 0d ec 35 33 92 7e 38 98 3a ab 38
       2.1554668e-05 1.7587266e-06 6.0694478e-05 8.164829e-05
000080 a2 98 a3 36 9b 02 7d 34 e3 99 22 37 5b 6e 94 37
       4.8755473e-06 2.3563409e-07 9.691782e-06 1.7694363e-05
000090 0e 7b 45 37 9e 95 88 35 34 46 17 38 bb 43 7f 38
       1.1770766e-05 1.0176334e-06 3.6066587e-05 6.0859817e-05
0000a0 df 06 89 3a 2b 2a 83 38 37 be 36 3b f1 6a 53 3b
       0.0010454318 6.254421e-05 0.0027884373 0.0032259787
0000b0 6a ff df 38 58 cb fd 36 36 a8 44 39 17 49 8a 39
       0.00010681043 7.56366e-06 0.0001875468 0.00026375867
0000c0 f5 45 8e 35 a7 1d 4f 33 56 87 ba 35 74 9a 22 36
       1.0600185e-06 4.8222912e-08 1.3897468e-06 2.4229785e-06
0000d0 00 ac 5e 36 34 63 88 34 35 2c 88 36 df 8f fc 36
       3.3180695e-06 2.5404154e-07 4.058262e-06 7.526934e-06
0000e0 53 bd da 36 4b 3b ad 34 2e 50 bc 37 b5 32 66 37
       6.5189465e-06 3.2266902e-07 2.2448683e-05 1.3720874e-05
0000f0 21 05 14 38 33 4f 0c 36 a3 d4 b0 38 ea c4 0d 39
       3.5290726e-05 2.0907726e-06 8.431941e-05 0.00013520164
000100 68 bc 39 39 82 14 3b 37 ea 3d f3 39 db fb c1 39
       0.00017713162 1.1150843e-05 0.000463947 0.00036999476
000110 59 05 49 37 89 80 7e 35 bf ff f5 37 9e c6 09 38
       1.1981779e-05 9.4809417e-07 2.9325367e-05 3.2848322e-05
000120 3b 72 51 38 38 ee 78 36 e7 1d 11 39 6d 5b 0d 39
       4.993587e-05 3.7093541e-06 0.00013839417 0.00013480867
000130 b1 f7 83 37 a0 9e 4d 35 34 98 26 38 85 da 39 38
       1.5731757e-05 7.659928e-07 3.9719234e-05 4.431095e-05
000140 3f d6 49 34 19 f0 8f 33 94 65 dc 34 bb 15 6b 36
       1.8797526e-07 6.70263e-08 4.10521e-07 3.5030378e-06
000150 f8 ba 1b 38 e5 58 0b 36 0b e6 c4 38 31 0e a5 38
       3.7129008e-05 2.0764357e-06 9.388857e-05 7.8704565e-05
000160 22 d6 84 36 c5 55 c4 34 35 1f 33 37 1b 55 43 37
       3.958835e-06 3.657025e-07 1.0676497e-05 1.1642721e-05
000170 d4 a7 a3 36 de 2a 9f 34 62 8d 5a 37 ce 38 8b 37
       4.8773163e-06 2.9647248e-07 1.3026731e-05 1.6596543e-05
000180 84 cc 4a 37 ac 96 d5 34 5b e4 19 38 b9 83 c1 37
       1.2087756e-05 3.978397e-07 3.6690715e-05 2.3068731e-05
000190 1e 37 48 38 a3 6d 2e 36 4c 8b 01 39 55 87 fa 38
       4.7735048e-05 2.5991837e-06 0.00012354291 0.000119461365
0001a0 30 c4 b2 37 dc 05 9b 35 1f 5b 67 38 80 29 79 38
       2.131061e-05 1.1550105e-06 5.5159555e-05 5.9404876e-05
0001b0 9c 31 04 37 e9 97 f3 34 ee 8c 9f 37 41 37 a4 37
       7.879364e-06 4.5372806e-07 1.9019903e-05 1.9576053e-05
0001c0 02 e2 92 37 c3 35 35 36 f3 95 94 38 0c 1d 38 39
       1.75098e-05 2.7002395e-06 7.08512e-05 0.00017558428
0001d0 31 33 ab 35 2c d8 4b 34 53 90 7d 36 4a 5c 17 37
       1.2755391e-06 1.8984491e-07 3.7783946e-06 9.021789e-06
0001e0 b1 4b 85 37 03 6f a1 35 b5 51 1e 38 69 89 86 38
       1.5890082e-05 1.2027743e-06 3.774623e-05 6.4152126e-05
0001f0 da 24 16 38 28 91 12 36 80 db ae 38 8c 40 9d 38
       3.5797108e-05 2.1840187e-06 8.3378516e-05 7.498366e-05

exp_avg f4 [32]
000000 88 04 f2 ba a6 a7 cb bb 8b a3 d5 bc 7c 35 0a bd
       -0.0018464485 -0.0062150536 -0.02607896 -0.033742413
000010 fc 28 54 3c cb 6a a7 bc cb b6 f9 ba ba f3 48 bc
       0.012949225 -0.020436665 -0.0019051669 -0.01226514
000020 06 58 58 bb 89 ff 03 3c 50 c2 66 bd 3a d7 cd 3c
       -0.003301145 0.00805653 -0.056337655 0.025127042
000030 ba d7 d5 ba b8 d2 67 bb 20 10 97 3b 66 a6 5e bc
       -0.0016314902 -0.00353734 0.0046100765 -0.013589477
000040 94 0e 09 bd e8 7c 16 bc 13 e9 9c bc 73 3e ff bb
       -0.03346117 -0.009185053 -0.019154107 -0.007789427
000050 50 42 5c ba f2 c2 5f 3c 0a 73 d7 bb 91 2c 82 3b
       -0.00084022153 0.013657318 -0.006574993 0.003972598
000060 54 17 c8 3b d4 e4 74 3c bd ab 19 3c 00 6c af 3b
       0.0061062966 0.014947135 0.0093793245 0.005353451
000070 e8 d2 2c 3c 09 2a 25 bb e4 1e 18 3c 4d 99 62 3c
       0.010548331 -0.0025202057 0.009284709 0.013830495

exp_avg_sq f4 [32]
000000 95 d2 ab 38 36 85 79 3a 6b a4 c2 3c fd 8f 11 3d
       8.1931394e-05 0.0009518446 0.023760041 0.03553771
000010 a5 e5 8f 3b b2 e0 89 3c 26 42 cf 39 e1 02 ca 3b
       0.0043913894 0.016830776 0.000395314 0.006164894
000020 93 dd 64 39 ff 97 ea 3a 74 f6 d3 3d dd 98 c9 3c
       0.00021826317 0.0017898082 0.103497416 0.024609024
000030 4f a9 39 39 b5 b9 83 3a 85 79 1e 3a 6a a3 c2 3b
       0.00017706047 0.0010049852 0.00060453295 0.0059398906
000040 b1 c5 fd 3c 95 30 0b 3b d1 63 3c 3c 5c 20 ab 3a
       0.030978056 0.0021238674 0.011498407 0.0013055908
000050 8e b5 7c 37 f6 44 cb 3b 52 5c 8f 3a c0 53 ce 39
       1.5062642e-05 0.006203289 0.0010937548 0.0003935378
000060 a8 ae 23 3a fd 59 dd 3b b3 f1 25 3b 51 f4 96 3a
       0.00062439824 0.006755112 0.0025321066 0.0011516904
000070 c4 7e f3 3a 56 bc 07 39 a0 5b 26 3b 53 95 d4 3b
       0.0018577208 0.00012944764 0.0025384203 0.0064875274

exp_avg f4 [32, 32]
000000 ef d9 b3 3b be 23 99 3b 3e 46 90 ba ba cf 89 3b
       0.005488626 0.0046734503 -0.0011007262 0.004205671
000010 69 f0 14 bb f9 cf ea ba 20 b5 43 bb 50 24 0c bb
       -0.0022726303 -0.0017914764 -0.0029862598 -0.0021383949
000020 6f 1b bd 3b b6 61 d8 3a 9c 69 94 b9 64 d0 19 3a
       0.0057710926 0.0016508612 -0.00028307445 0.00058675394
000030 01 89 96 bb d5 f2 50 bb e0 17 8e bb 1e 40 47 3a
       -0.004593969 -0.003188302 -0.004336342 0.0007600802
000040 78 af d4 3a cd 74 47 bb 4d 4b 38 3b 78 8c 22 bb
       0.001622661 -0.003043461 0.0028121055 -0.0024802964
000050 3e 26 80 3b 2a cb 77 bb 17 88 21 b9 55 99 f7 ba
       0.003910809 -0.0037810304 -0.00015404854 -0.0018890301
000060 a6 c9 77 bb 96 89 85 bb bd 28 38 b9 23 a4 d5 3b
       -0.00378094 -0.0040752394 -0.00017562784 0.0065198108
000070 82 e2 e4 ba fd ed c8 ba f8 4b a4 3a 98 0c 06 bb
       -0.0017462524 -0.0015329715 0.0012534847 -0.0020454284
000080 95 04 11 37 f4 9b f9 36 02 54 4f b3 0e e4 06 37
       8.64374e-06 7.4389336e-06 -4.8272348e-08 8.0401205e-06
000090 ea 8d 8b b6 f4 33 e1 b5 b3 8b 9d b6 e4 01 50 b6
       -4.159044e-06 -1.6778927e-06 -4.6952277e-06 -3.0995516e-06
0000a0 98 f9 11 37 9a e3 b9 35 27 1b b7 34 8e 20 0b b5
       8.700787e-06 1.3849815e-06 3.4106162e-07 -5.182891e-07
0000b0 fa ef d4 b6 6a d3 7b b6 c9 0c f4 b6 56 50 38 36
       -6.3460293e-06 -3.7524974e-06 -7.273255e-06 2.7464898e-06
0000c0 ef f6 8b 36 c2 41 0f b6 a4 4b 99 36 81 3c 4c b6
       4.1712697e-06 -2.1346937e-06 4.568561e-06 -3.0433587e-06
0000d0 56 14 e6 36 4e 87 e9 b6 04 9d eb 35 0f 9a 43 b6
       6.8569016e-06 -6.9596927e-06 1.7554562e-06 -2.9146938e-06
0000e0 58 bc c3 b6 21 0b e3 b6 a1 fa 7e b5 60 1b 1f 37
       -5.833379e-06 -6.7664228e-06 -9.4987087e-07 9.483512e-06
0000f0 1f 09 5d b6 c9 8c 22 b6 d4 c4 a4 35 aa 5b 94 b6
       -3.2936875e-06 -2.422183e-06 1.2276237e-06 -4.421415e-06
000100 1d 8a 15 3b e8 e1 19 3b 6c 9e 4a ba 0f cc ff 3a
       0.0022817918 0.0023480598 -0.0007729295 0.001951577
000110 67 fa 03 bb c2 fd 0e ba f9 35 dd ba c6 cc ba ba
       -0.0020138265 -0.0005454683 -0.0016877047 -0.0014251701
000120 0e 3e 64 3b 0c 15 3c 3a 05 dc 3f b9 cf 5b e2 36
       0.0034827027 0.0007174767 -0.00018297143 6.746013e-06
000130 fd 91 21 bb 71 fd 67 ba 6a 97 56 bb f1 e3 9f 3a
       -0.0024653666 -0.00088497164 -0.0032744058 0.0012198669
000140 62 ca 0f 3a a5 68 07 bb 56 2d 3a 3a b0 c7 f6 ba
       0.00054851745 -0.0020661738 0.00071020925 -0.0018827822
000150 b2 ea 11 3b e3 68 43 bb 03 3e 2f ba 23 4a c0 ba
       0.0022265133 -0.0029817156 -0.00066849607 -0.0014670532
000160 df 65 33 bb 25 95 09 bb d1 bd 4f ba fe 44 69 3b
       -0.0027373952 -0.0020993438 -0.0007924708 0.00355941
000170 85 a6 91 ba 24 03 a0 ba ac 2d d4 3a 0d 83 d4 ba
       -0.0011112249 -0.0012207967 0.0016187928 -0.0016213373
000180 18 3b 66 38 3e 6a 3e 38 59 d0 01 33 82 f6 4a 38
       5.489131e-05 4.5398476e-05 3.0224644e-08 4.839013e-05
000190 af 63 a8 b7 e1 ab 92 b7 28 2b bf b7 46 48 5d b7
       -2.007358e-05 -1.7484594e-05 -2.278907e-05 -1.3189454e-05
0001a0 5d d8 66 38 a6 c5 b9 37 c0 16 33 34 8c dc 70 b6
       5.5037777e-05 2.2145756e-05 1.667895e-07 -3.5891162e-06
0001b0 ea ca 3c b8 05 1f 20 b8 ab ba 4c b8 75 c2 d9 36
       -4.501167e-05 -3.8175862e-05 -4.881124e-05 6.4897417e-06
0001c0 86 e6 cf 37 36 7d de b7 19 c5 25 38 81 06 e8 b7
       2.4783669e-05 -2.6522768e-05 3.9522627e-05 -2.7659584e-05
0001d0 24 b5 02 38 05 c7 41 b8 a4 5b 25 36 bb f9 8e b7
       3.1163116e-05 -4.6200137e-05 2.4640258e-06 -1.7044009e-05
0001e0 b3 77 1d b8 64 df 40 b8 ca 26 f1 35 f9 1e 88 38
       -3.7543196e-05 -4.5984416e-05 1.7967188e-06 6.4907545e-05
0001f0 b4 f4 fb b6 9a e6 d5 b7 25 42 21 37 68 7d e4 b7
       -7.50887e-06 -2.549896e-05 9.611748e-06 -2.7238115e-05
000200 a9 c6 6e bb e5 2c 49 bb dc 6c 86 b8 d8 bf 4e bb
       -0.0036434329 -0.0030696925 -6.4098946e-05 -0.0031547453
000210 6c 00 d0 3a dc ca 8a 3a a8 de d8 3a c6 ac 93 3a
       0.0015869266 0.0010589021 0.0016545849 0.00112667
000220 73 6f 80 bb 8e 42 cd ba 30 ba 8c 38 96 8a e9 39
       -0.003919536 -0.0015660094 6.7104e-05 0.00044544478
000230 a6 27 4d 3b e6 cc 14 3b 16 f1 68 3b 95 2c 37 ba
       0.003130415 0.0022705137 0.003554409 -0.0006987539
000240 30 2d d6 ba 62 b6 eb 3a cc 16 1f bb 30 d7 1a 3b
       -0.0016340371 0.0017983431 -0.0024275063 0.0023626797
000250 76 7b 18 bb 1d 61 5f 3b bc 41 85 b7 f1 5f a3 3a
       -0.0023266948 0.0034084984 -1.5885445e-05 0.0012464506
000260 21 8f 39 3b 7c 2e 48 3b b5 85 e1 38 02 3a 98 bb
       0.0028314071 0.0030545285 0.00010753741 -0.004645587
000270 20 fd 01 3a 6d d6 0c 3b 0e 93 a4 ba 47 e7 07 3b
       0.0004958678 0.0021490112 -0.0012556033 0.0020737217
000280 47 46 69 3b 61 c5 58 3b 27 db d1 b9 3e 08 47 3b
       0.0035594867 0.0033076631 -0.00040026868 0.0030369903
000290 80 44 e3 ba 08 f3 8d ba 16 26 f4 ba 5e f1 9e ba
       -0.001733914 -0.0010829875 -0.0018627073 -0.0012126376
0002a0 19 f9 85 3b c7 78 b0 3a 00 b2 cd b7 02 a6 6a 38
       0.0040885326 0.0013463729 -2.4520792e-05 5.5944554e-05
0002b0 f7 15 52 bb 20 4b 13 bb 23 61 50 bb dc fd 2b 3a
       -0.003205655 -0.0022475198 -0.003179618 0.00065609603
0002c0 93 51 b1 3a f3 79 08 bb 6b 53 15 3b c3 05 01 bb
       0.0013528339 -0.002082464 0.0022785317 -0.0019687272
0002d0 ce 6c 20 3b 35 c4 40 bb d6 e4 34 b9 60 7c bd ba
       0.0024478915 -0.0029413824 -0.00017251386 -0.0014456622
0002e0 b9 b0 3a bb 1a b8 45 bb 63 64 4b b9 fe 51 93 3b
       -0.0028486683 -0.0030169548 -0.00019396986 0.004495858
0002f0 06 83 5b ba ce fe c2 ba ad de 77 3a a1 66 da ba
       -0.0008373711 -0.0014876963 0.00094554835 -0.0016662666
000300 e4 91 76 3b 16 12 8a 3b 92 85 e5 ba 8a b9 3e 3b
       0.0037623579 0.004213582 -0.001751112 0.002910229
000310 65 ab 35 bb 6e e4 8c ba 80 cd 38 bb 09 63 02 bb
       -0.0027720567 -0.001074923 -0.002819866 -0.0019895455
000320 d1 a5 b1 3b d2 bc 89 3a 2c cf c4 b8 8f 46 81 3a
       0.005421378 0.0010508543 -9.384597e-05 0.0009862947
000330 8d f3 7f bb c1 3c fa ba 44 f3 67 bb 3e 20 9b 3a
       -0.003905508 -0.0019091592 -0.00353928 0.001183517
000340 ed fe 27 3a 51 81 5b bb 6e 6d d1 3a dd 79 0a bb
       0.00064085313 -0.0033493827 0.0015978047 -0.0021129765
000350 67 8b 65 3b 00 02 47 bb d1 34 90 ba 6c 17 17 bb
       0.0035025717 -0.0030366182 -0.0011002069 -0.0023054732
000360 a2 21 78 bb ba 68 51 bb 3e af 63 ba 82 de a8 3b
       -0.0037861844 -0.003195329 -0.0008685476 0.005153478
000370 5c 38 04 bb 12 ba 46 ba 4f 2f b2 3a d6 75 ba ba
       -0.0020175194 -0.0007580827 0.0013594421 -0.0014225792
000380 36 e8 4d 3a 7e 32 2d 3a c3 a7 8e 37 cb f8 35 3a
       0.00078547315 0.000660695 1.700584e-05 0.0006941675
000390 a7 71 b8 b9 a6 4d 73 b9 8d 1a bc b9 1f b3 84 b9
       -0.00035179892 -0.00023203212 -0.00035877936 -0.00025310458
0003a0 36 5e 60 3a 47 e8 b3 39 59 eb ba b7 55 6c e2 b8
       0.00085589604 0.000343146 -2.228252e-05 -0.00010796698
0003b0 b1 59 33 ba 62 2a 00 ba 46 f0 53 ba ff 69 2b 39
       -0.0006841673 -0.0004889128 -0.0008084815 0.00016347317
0003c0 eb 8f bb 39 99 7b ce b9 52 d7 07 3a be a2 0a ba
       0.00035774647 -0.0003938347 0.00051819265 -0.00052885327
0003d0 5e 0a 04 3a 76 1e 4a ba 27 43 c5 36 1c 8e 8d b9
       0.0005036945 -0.00077102275 5.878875e-06 -0.00026999495
0003e0 46 cb 23 ba c5 7d 2f ba 15 d0 eb b7 4c 30 86 3a
       -0.00062482466 -0.00066944613 -2.8111079e-05 0.0010237782
0003f0 33 8b cd b8 c5 05 01 ba 8b 1f 9a 39 82 89 f5 b9
       -9.8010896e-05 -0.0004921819 0.0002939667 -0.00046832493
