trained_models/0_lag_ppo_InvertedPendulum-v2_eps_0.5_actor.pth (torch, 29858 bytes, 20 tensors)

policy_net.layers.0.weight f4 [32, 4]
00000000: b0d3 00bf 784a 6a3f d340 23be 9b75 8abe
00000010: a3b3 f4bd f584 373f 7c72 a23b 8eca d23e
00000020: c88e 0cbf 9653 123f 3161 ebbc c003 9b3d
00000030: 9b90 2a3f 10ec 473c f9c4 c33d a044 b03e
00000040: e027 07bf e1cf f83e 46d8 3ebe 6bd2 153f
00000050: e151 a13d b56c b9bf 2323 c83b 67a5 f9be
00000060: 91ac 78bd b248 67bf 58a5 003d 985e 1a3f
00000070: 8567 8ebe d0f4 be3f e5fb bd3e 4201 923e
00000080: c7b0 cc3e 8ca5 09bf 38fe 9a3e 80b4 b13d
00000090: 5f6b 1e3f 64ce 1cbf 0035 213e 333c 0dbf
000000a0: 3eb7 183e 139c 9fbf 39bb 1b3b 329e eabe
000000b0: 1deb 90be 81aa abbf f974 853e f4b4 e33d
000000c0: e0ef 043e c2aa 933f 8fc1 943e 9cf1 4abe
000000d0: d1c9 29be 0519 e83e 864c ac3b 6719 2b3c
000000e0: b681 18bf 4dd6 963f 507e 943d 3eb0 253f
000000f0: 7cc9 163e 38b1 793f d931 803e a6e9 b13e
00000100: 036a 10bf 9192 9a3f c6dd ccbe c9df 3f3f
00000110: fb09 eb3e e328 38bf c9d0 e0be c4d9 0cbe
00000120: 5e3d d73e bbac 87bf 2f09 123f 4ca4 55be
00000130: 880f 983e 2200 92bf edda afbd a1f2 7e3d
00000140: 697e 423d 7413 91bf ad1a 063f bb97 01be
00000150: 681f a83d eacb 933f 25db d0be 1c3c f53e
00000160: a7e1 77be 68ce 55bf 3dd1 a13d dc7f bdbe
00000170: 0c49 25bf b744 cfbf bf14 8ebd 7071 e0be
00000180: fa1b aabe a583 a6bd 4f0c 0bbf b65f 183d
00000190: a82d 593f 1ff6 8d3f f0b5 6f3e 6788 ca3d
000001a0: b4f0 893e 0862 993f 9447 aebe b98e d6be
000001b0: aa57 ccbd b475 9a3f d5b3 4abe 6222 d4be
000001c0: 3c8a f33d ba3a 573f 5989 0fbf 0678 0a3f
000001d0: 94f7 053f 2cb3 7b3f 4e4f 0d3f 5489 823e
000001e0: bb67 afbd 978b 913f 217d e4bd fee8 e7be
000001f0: 31e2 b6bf bac1 8fbf dab4 24bf 707c 0abf
-0.5032301 0.9151988 -0.15942697 -0.2704285 -0.119483255 0.7168725 0.0049574953 0.41170162
-0.54905367 0.5715879 -0.028732868 0.07569075 0.666269 0.012202278 0.09559054 0.34427357
-0.5279522 0.485961 -0.1863719 0.585242 0.07876945 -1.44863 0.0061077042 -0.48759004
-0.060711447 -0.903453 0.031407684 0.6030059 -0.27813354 1.4918461 0.37106243 0.28516585
0.3997862 -0.5376823 0.3027208 0.08677006 0.61882585 -0.6125243 0.15742874 -0.5516998
0.14913651 -1.2469505 0.0023762716 -0.45823818 -0.28304377 -1.3411409 0.26065806 0.111184984
0.1298213 1.1536486 0.29053923 -0.19818729 -0.16580893 0.45331588 0.0052581457 0.010443068
-0.59572923 1.178415 0.07250655 0.6472205 0.14725298 0.9753604 0.2503803 0.34748572
-0.5641176 1.2075979 -0.4001295 0.74950844 0.45906052 -0.7193739 -0.4390929 -0.13754946
0.42039007 -1.0599588 0.57045263 -0.20863456 0.2969935 -1.140629 -0.08586679 0.062243108
0.047483835 -1.1334062 0.52384454 -0.12655537 0.08209115 1.1546605 -0.40792194 0.47897422
-0.24207173 -0.83518076 0.07901237 -0.3701161 -0.64564586 -1.6192845 -0.06937551 -0.43836546
-0.3322447 -0.08130578 -0.54315656 0.037200652 0.8483529 1.1090735 0.23409247 0.09889298
0.26941454 1.1983042 -0.34038985 -0.41905764 -0.09977658 1.206717 -0.19795163 -0.41432482
0.118916005 0.84073985 -0.5606895 0.5408939 0.523309 0.9832027 0.55199134 0.25495398
-0.08564707 1.1370724 -0.11156679 -0.45294946 -1.4287778 -1.1230996 -0.6433846 -0.54096127

policy_net.layers.0.bias f4 [32]
00000000: 7e21 053d 9f3e 543e 7839 493e 2f42 8abe
00000010: c006 a63e 7b99 083e d0a0 d7be 668e b63c
00000020: a33e 68bd c30c a6be 7b0b bdbe 7407 77be
00000030: e247 6c3e 6d5b adbe 1bc7 e3bd 4552 7c3b
00000040: 0ea7 c63e 1d22 ed3e c6b6 833d 6156 863e
00000050: 0b21 8bbd fa45 b4be 6bba 3abe d611 a93d
00000060: 426f 86bc 813f 98be d8fc a83d 10ee ad3c
00000070: 4172 22be c596 143e 21be 963e 4fae bfbd
0.032502644 0.20727013 0.19650829 -0.2700362 0.32427025 0.13339798 -0.42114878 0.022284698
-0.05670036 -0.3243161 -0.3692282 -0.24123937 0.23074296 -0.33858815 -0.11121961 0.0038501185
0.38799328 0.4631509 0.06431346 0.26237777 -0.06793412 -0.35209638 -0.18235175 0.08255355
-0.016410474 -0.2973595 0.08251351 0.021231681 -0.15863897 0.14510639 0.29441932 -0.093594186

policy_net.layers.2.weight f4 [32, 32]
00000000: c489 20be d04d 45bd 071f 41bc 599a 77bd
00000010: 85f0 653d 8d0c 0bbd 79f6 2d3e acb2 cabd
00000020: f9f2 043e 140a 89bc 978c 22ba 5518 13be
00000030: 81cd d1bc 2e45 d53d 3b01 1b3e 07de 5b3e
00000040: d8a8 90bd cc10 c1bc c665 cf3d 963a 94bb
00000050: b26c 19bd 121a b2bd f61a f23d 7fbd 633d
00000060: 2036 6abd f10c 8bbd 118e a53d 080f 35bd
00000070: 74c9 62bd 27c2 25be abdb 94bc b643 313c
00000080: 638f 983e ef51 52bd 4461 7d3d 8ce4 20be
00000090: a59c 993c 0c3d f7bd 5e91 18be f78b ad3e
000000a0: eebd 69be d6a7 e63c b6f8 f5bc e8b6 2dbe
000000b0: 0db9 873d 48dd 933c b0c7 2a3e 76c0 7fbc
000000c0: e069 1f3e 352e 5d3d 9074 0fbe 0fe2 e0bd
000000d0: 8cdf 55be 287a 1c3e 159e a33d 4708 683b
000000e0: f580 e7bd 0649 043c c78c ca3c 1fdd 9a3e
000000f0: 30cf 97bb 913f 30bc ed22 9cbd a0e8 19be
00000100: d8d6 f43d 2494 053e 75f5 f4bd aaa4 04be
00000110: ac76 e43d d711 bf3d 75af dfbd 9ac3 823d
00000120: 75c0 9c3d 0f79 94bb 7420 ec3d e2c1 0e3d
00000130: 7370 8abd c67d dfbd b309 bbbd c1da cabd
00000140: 1c14 dfbb 57d9 13bc ae1a dbbc a118 3e3c
00000150: 247e 09bd 2d6d a8bc 8029 18be 23be 503d
00000160: 64cd 8ebd befd 24be f41e 833e 757c 733d
00000170: fcba d7bc 8307 473d d75f 0f3e 09aa a73c
00000180: 4748 8c3e d0be d73a f805 3b3d ac71 d93d
00000190: d6a3 033e b302 213d 762e 0ebd 9be9 c83d
000001a0: 3f23 723d f2a1 ab3d 2895 37be f18d 413d
000001b0: 9fe5 96bd 3c83 183e d17e df3d cdb5 ebbd
000001c0: 5a1a b6bd 2f56 cfbd 6c39 48be 8e19 c5bd
000001d0: 99d8 da3c 1598 05bd 6923 0c3e 62ec 13be
000001e0: 472a 89bc 9485 b7bd e120 423e 707d 233e
000001f0: acf9 14be 40d8 ca3d 9c7c fb3d a072 58be
00000200: 8582 aebd fe08 b43c e8cd 963d 8b9d 063d
00000210: d6fa e63d 29e2 9c3d fc2f 293d bd95 61be
00000220: dbea eb3d dc6c df3d bcab 0bbe c698 ed3c
00000230: c1e8 13be 777f 99bd aad5 233e 6ac5 07be
00000240: dd8d 30bd 59b0 4e3c e62c dc3d 5ba9 adbd
00000250: f981 073e fac5 883b 137d e6bd 70b8 d6bc
00000260: 64af 613d 63bf 543d edbb 943d befa 1e3d
00000270: f798 1dbe 1be3 103e e327 47be 804b 453e
00000280: 1959 f73d 4e4d 783d f3e7 aa3d de5b 49be
00000290: 85df b4bd 3621 5e3c a3fa 33be 508e aa3e
000002a0: 3d3a 1abe c031 05bd 1170 62bd d28b acbd
000002b0: b8c0 f0bd b13d 373e dc97 033e a8ac 6c3d
000002c0: 70b6 a5bc 22c5 bcbd b690 97bd 9d42 64be
000002d0: 5acb a6bd 18e0 babd d768 26be 5134 af3d
000002e0: 4413 cdbc 3aa9 17be 8a61 c13d ab74 213e
000002f0: 8d4f 533d 3458 fe3d c9c5 92bd b547 96be
00000300: 2426 e3bd 2b60 6bbe 96ee 1fbe 1727 9fbc
00000310: 74e0 7cbe ade5 553e b84e 0ebe 606a 14bf
00000320: 2d54 903c 76a3 163e e458 8c3e b3ab 0d3e
00000330: ca03 263d b610 23be b529 cabe 0a75 2dbe
00000340: b717 95be 115e 8d3d 39f7 d63e 9d7a 523e
00000350: 3ddd bc3e e440 31be 46e2 543e 90c8 f03e
00000360: 41e3 69be 293d 69bd a323 87bd 3755 49be
00000370: b7f9 bebe 1705 54bb ca84 65bd ee43 103e
00000380: db4b 823e 75ea 97ba 0a9b 75bd bf24 99bc
00000390: 7d4f 223e e40f 3abe 9ab4 0c3e e390 e03d
000003a0: 1d22 f73c 1490 8a3c 95a5 4abc 68e1 833d
000003b0: ba00 b4bd 4462 e8bd 2a70 143d aa72 e93c
000003c0: 807a 553e 3d28 563d 6352 70be 19e7 62bd
000003d0: e638 e9bd 2362 4d3e a31d 19be f87b 2dbe
000003e0: 607b 66bd 4eb3 083d 6a86 0fbc c6ae 7abc
000003f0: 6e13 823c 698a 543e d077 78bd 7ff1 bbbe
-0.15677553 -0.04816991 -0.011787183 -0.06044993 0.05613758 -0.033947516 0.16988553 -0.0989736
0.12983312 -0.016728438 -0.0006200759 -0.1436475 -0.025610687 0.104135856 0.15137188 0.21471415
-0.070634544 -0.02356758 0.101268336 -0.0045235856 -0.037457176 -0.08696379 0.11821549 0.05560064
-0.057180524 -0.06789578 0.08083738 -0.044203788 -0.055367902 -0.16187344 -0.018171152 0.010819366
0.29796895 -0.05134767 0.061860338 -0.15712184 0.018751452 -0.12072191 -0.14899203 0.33895847
-0.22826359 0.028156202 -0.030025821 -0.16964304 0.066270925 0.018049851 0.16677737 -0.015609851
0.15567732 0.053999145 -0.14009309 -0.10980617 -0.20886058 0.15280974 0.07989136 0.0035405324
-0.113038935 0.008074051 0.024725331 0.30246827 -0.004632853 -0.010757343 -0.07623849 -0.15030146
0.11955041 0.13044792 -0.1196088 -0.1295344 0.11155447 0.093295746 -0.10922138 0.06384964
0.07653896 -0.004531033 0.115296274 0.03485287 -0.06759729 -0.10912661 -0.09132709 -0.09905005
-0.006807817 -0.009023986 -0.02674612 0.011602552 -0.033567563 -0.020559872 -0.14859581 0.05096258
-0.06972769 -0.1611242 0.25609553 0.059444863 -0.026334278 0.048591148 0.14001404 0.020466821
0.27398893 0.0016460065 0.04565999 0.10617384 0.12855467 0.039309215 -0.034712277 0.09810182
0.059115645 0.08380498 -0.17927992 0.047254506 -0.073680155 0.14893812 0.1091286 -0.11509285
-0.08891745 -0.1012386 -0.19553155 -0.09624015 0.02671461 -0.03261574 0.13685383 -0.14445642
-0.016743792 -0.08961025 0.18957855 0.1596582 -0.14548367 0.09904528 0.12279627 -0.21137476
-0.085209884 0.021976944 0.07363492 0.03286509 0.11278312 0.07660324 0.041305527 -0.22029777
0.115194045 0.10909435 -0.1363973 0.029003512 -0.14444257 -0.07495015 0.15999475 -0.13258901
-0.04310404 0.012615287 0.10750751 -0.084795676 0.13233174 0.0041739913 -0.11254325 -0.026210994
0.055098906 0.051940333 0.072624065 0.038813345 -0.15390383 0.14149134 -0.1944881 0.19267082
0.12077541 0.0606206 0.08345022 -0.19663951 -0.088316955 0.013557723 -0.17576079 0.333117
-0.15061279 -0.03251815 -0.055282656 -0.08425106 -0.11755508 0.17894627 0.12850899 0.057781845
-0.020228595 -0.092172876 -0.07400648 -0.22291036 -0.08144255 -0.09124774 -0.1625093 0.085549004
-0.0250336 -0.14810649 0.09442432 0.15767162 0.051589537 0.12419167 -0.07166631 -0.29351583
-0.11091259 -0.22985904 -0.15618357 -0.01942782 -0.24694997 0.20888396 -0.13897216 -0.57974815
0.017618263 0.14710793 0.27411568 0.1383503 0.040530957 -0.15924343 -0.39484945 -0.16939178
-0.29119655 0.06902707 0.4198549 0.20554586 0.3688754 -0.1730991 0.20789441 0.47028017
-0.22840597 -0.056943092 -0.06598594 -0.19661413 -0.37299892 -0.0032351667 -0.05603484 0.14088413
0.25448498 -0.0011590259 -0.05996231 -0.01869428 0.15850635 -0.18170124 0.13740769 0.10965135
0.030167634 0.016914405 -0.012368579 0.06439477 -0.08789201 -0.11346868 0.03623978 0.028497059
0.20847511 0.052284468 -0.23468928 -0.055396173 -0.11387806 0.20056967 -0.14952712 -0.16941822
-0.056270003 0.033374123 -0.008760074 -0.015300458 0.015878405 0.20755924 -0.060661137 -0.36707684

policy_net.layers.2.bias f4 [32]
00000000: a591 b13d 10b9 d8bd 0a1e 1fbe 2804 77bc
00000010: a27f 3f3d 0508 1fbe 8ee4 22be 8cf1 063e
00000020: 451a 183e 2c9a eebd cdd2 82bd f843 c63d
00000030: 3ba2 33bd 4054 a63d d610 7d3c 6954 cdbc
00000040: f191 e1bc 2cb6 e3bc abd2 a33c 2544 42bd
00000050: 7f8b 06be 06c9 2abc defa 19be 3d4f 0fbe
00000060: ed70 673d b9cb 35bd bb75 a4bd f8b6 003e
00000070: d4a0 ebbc 3f48 073e b8f5 44bd c57f 91bd
0.086703576 -0.10582173 -0.15538803 -0.0150766745 0.04675258 -0.15530403 -0.15907499 0.1317808
0.14853771 -0.116505 -0.06387863 0.09680933 -0.043855887 0.08121538 0.0154459085 -0.025064664
-0.02753541 -0.027796827 0.019997915 -0.04742827 -0.13139151 -0.010423904 -0.15037104 -0.13995071
0.05650418 -0.04438374 -0.08030268 0.12569797 -0.028763212 0.13211153 -0.0480859 -0.07104448

policy_net.mean_layer.0.weight f4 [1, 32]
00000000: 5e27 a0ba bda7 463e 494f bd3c f547 513d
00000010: cc11 43ba 54a2 4e3e adf4 abbe d303 ce3d
00000020: 2d5f bbbb 01e5 b33d 22ad 823d 26f2 fa3d
00000030: 70a4 7c3d 7fc7 83bc a018 0abe e249 11bb
00000040: 78da 4fbe e046 10be c711 d738 ab18 c83a
00000050: cc4a 113e 460e 063e 088a 9e3c c982 d23c
00000060: b74c 133e 2980 b1bb 334e 813d 29c8 88bb
00000070: 8954 d4be 0747 823d 6fcc 91bb 4ac1 2a3b
-0.0012218764 0.19399925 0.023109095 0.051094014 -0.00074413116 0.20179111 -0.3358511 0.10059323
-0.005718133 0.087839134 0.06380679 0.122532174 0.061680257 -0.016086338 -0.13485956 -0.0022169282
-0.20298183 -0.14089537 0.0001025531 0.0015266141 0.14188689 0.13091382 0.019352928 0.025697129
0.14384733 -0.005416889 0.063137434 -0.0041742516 -0.41470745 0.06361204 -0.004449419 0.002605515

critic.critic_net.layers.0.weight f4 [32, 4]
00000000: a425 3840 40fb 75bf 7fea a5be 2b71 a7be
00000010: 0ecb b1be 5b7e adbf 51ef f9bf 511d f23d
00000020: 9a1d 10bf 4e6b 1b3f e017 32bf 9746 13bf
00000030: 2990 4f3e 4aba 94bf 2cf4 24bf aee2 39bd
00000040: fd6d 30c0 0b9d 923e 6e0e 46bf dc20 6b3f
00000050: 0df7 94bd 34a6 8a3f 257e a1bd 41f4 41bd
00000060: 4403 153f 2686 3bbe ab56 8e3f 1a34 b6be
00000070: 60bb 6bbf 1235 2ebd d884 4bbf e9c3 9dbe
00000080: e178 ebbe 889c a73f 5b72 06c0 d68c a43e
00000090: 7451 a23e ab78 a73f d210 7bc0 11ae 703e
000000a0: 49c4 29c0 d468 84be 241b 553e 5ed2 f1bc
000000b0: 98cb 69be 03b6 213f 22ae 4f3f 9414 033f
000000c0: 3f1a fb3e ebf9 1540 e536 1e3f 4bfb b63e
000000d0: d0ba a73e d443 ddbe a400 32bf a8fd 5c3e
000000e0: a678 ff3e 82d8 f33f bcc9 09bf ac65 5c3e
000000f0: b7e0 4a3f 7b72 893f f17f 8a3f a60f 263f
00000100: 0673 a23f c8bc db3f 1cb6 0c3f ad28 b13e
00000110: bf61 893f d25a c23f e439 e6bf d5e8 e1bc
00000120: 8235 74bd 1525 0b3f 89a0 a73d 3eea c23c
00000130: 946d a23f c314 ed3f 5362 433f 33c8 d23e
00000140: dcf6 c73f 6713 1140 8ef4 31bf 66f5 53bd
00000150: 738b 9040 761f 67be 0ebc 973d c80a dc3e
00000160: 3425 35bf 93a2 83bf 4218 3dc0 ec73 843f
00000170: 5e6b f6bc ac27 52bf 2d93 edbf 977f 66bf
00000180: 0c4c 823d b51f 23be 7504 7b3c 3734 2e3d
00000190: 4c65 84bd 8ae5 17bc 30af 15bc 6d17 8abb
000001a0: cf4b ed3f b98f 19bf 554e 6dbe f9a1 96be
000001b0: 5274 30c0 af9a a83f 2b15 0b3e f92c 17bf
000001c0: a168 83be 8d7b 11c0 faa5 73be c210 6c3f
000001d0: 92d9 e7bf 681f 593f 10bc c4be e407 f83e
000001e0: 57e0 76be 852e b6bc a855 ed3e 3aba 31bc
000001f0: 2390 333d 03da 753f 1921 073f 8167 a3bd
2.8772974 -0.960865 -0.3240547 -0.32703528 -0.3472523 -1.3554186 -1.9526159 0.11821998
-0.5629517 0.6071061 -0.6956768 -0.57529587 0.20269836 -1.1619351 -0.64435077 -0.045382194
-2.7567132 0.2863544 -0.7736577 0.91847014 -0.07273684 1.0831971 -0.07885388 -0.04735208
0.5820811 -0.18312892 1.1120199 -0.35586625 -0.92082787 -0.04253108 -0.7949958 -0.3081353
-0.4599066 1.3094645 -2.1007297 0.321387 0.3170277 1.30837 -3.9229016 0.23503901
-2.6526053 -0.25861228 0.20811135 -0.029519256 -0.22831571 0.6316835 0.8112508 0.51203275
0.49043462 2.3433788 0.6180251 0.35738596 0.32759714 -0.4321581 -0.6953223 0.21581137
0.49896735 1.9050448 -0.5382345 0.2152316 0.7924914 1.0738062 1.0820295 0.6486763
1.2691352 1.7166986 0.54965377 0.34601346 1.0732955 1.5183966 -1.7986417 -0.027576843
-0.05962134 0.5435346 0.081849165 0.023793336 1.268969 1.8521961 0.76321906 0.41168365
1.562221 2.2668092 -0.69513786 -0.051747702 4.5170226 -0.22570595 0.074089155 0.42976975
-0.7075989 -1.0283989 -2.9546056 1.0347877 -0.030080494 -0.82091784 -1.856054 -0.90038437
0.06362161 -0.15930064 0.015320887 0.042530265 -0.06464633 -0.009271035 -0.009136006 -0.0042142184
1.853876 -0.5998493 -0.23174413 -0.2942045 -2.7570996 1.3172206 0.13582294 -0.59053
-0.25665763 -2.273166 -0.23793784 0.9221307 -1.8113272 0.8481355 -0.3842473 0.4844352
-0.24109016 -0.02223898 0.46354413 -0.0108476225 0.04383863 0.96035784 0.5278488 -0.07978726

critic.critic_net.layers.0.bias f4 [32]
00000000: cc69 ed3d 19b3 41bd 67b8 46be 896d a03e
00000010: 2ac3 16be 82dd 0f3d 5b43 2f3e 3fe0 d1be
00000020: 97ed 8f3d c1fb 193e b97b c73b 9885 82be
00000030: f1bb 2a3e 905d f03e 3fea 58bb 4b79 d03e
00000040: 90a5 e5be e323 88be 8745 c03e da5e f8be
00000050: fccd 0d3f ab2d 903d 0159 4fbe 711b 303f
00000060: 3eb5 fd3e b4e7 d5be 9549 853e 868d 3ebe
00000070: 65fa 043d 1c87 603e bd57 dabe fd9b c93d
0.11592445 -0.04728994 -0.19406281 0.3133357 -0.14722887 0.035123356 0.17115538 -0.409914
0.070277385 0.15037443 0.006087747 -0.2549255 0.16673256 0.46946383 -0.0033098606 0.4071754
-0.44852877 -0.2658988 0.37553045 -0.48509866 0.5539243 0.070399605 -0.20248796 0.6879187
0.4955234 -0.41778338 0.260327 -0.18608674 0.032465357 0.2192654 -0.42645064 0.098442055

critic.critic_net.layers.2.weight f4 [32, 32]
00000000: 8db5 313e dcc9 ef3d d9d8 34be 420d 963e
00000010: 9b94 853e dbef 4f3d 3eb3 013e a5c8 d5bd
00000020: 5ad2 213e 3c59 c43b 61cd f3bd 499b 79bd
00000030: 9b34 3cbe 99ed 893e a61e 5bbe 52f1 d0be
00000040: d6cb 0c3e 55b4 88bd 6a38 f53d 0d8a ae3d
00000050: 4b0e 723d 5931 14be 3fb1 bb3d a230 69bd
00000060: 173c 603e f81c ccbe 3163 8d3e bc71 13be
00000070: 9244 103d b335 d3bd 49cd f3bd d2c9 7d3d
00000080: 897b 4a3d 31eb 043e 74ac 04be 209a 3a3e
00000090: d5ba 703e 4f4b 31be 86dd 9c3d c4c1 1f3e
000000a0: 7673 3b3d fc73 af3d e257 213e 1eb5 4fbe
000000b0: bf47 29bc b432 5d3e f609 63be 568d f0be
000000c0: 167b 913d fad1 cc3d d0f2 bc3e 7096 8e3e
000000d0: bec2 b3bc b269 86bd b25b 2a3d 3a94 12be
000000e0: 6693 ab3e 8e0b 76be 2311 4c3e d136 61be
000000f0: 8b90 92bd 1344 2ebe 0105 8cbe 4d0e 2e3e
00000100: 54e0 28bf 37a9 15be 0003 a53f 9d12 f3bd
00000110: 6d23 273f 394d 223f 0d01 89be f6ad 2d3f
00000120: b104 8a3e 4200 f03d 6b0d a13e 463b 03be
00000130: 62db bc3c c743 26bd a64c 123f bb77 61bf
00000140: 5b87 21be 0f7c 883e 9d87 7f3e bea2 11bc
00000150: 9343 a23d fe4a 23bf f056 183e fc2e 9b3d
00000160: c012 78bd 5ac8 aabb ee0a cbbe 46ee 1b3f
00000170: 795a 08bf ae52 863e e187 0e3e bb30 8e3e
00000180: 2916 873c 6544 873b efcd 62be e873 e5bd
00000190: 75d6 193c 8dbb 1fbe 7254 fe3d 693b 5f3d
000001a0: e7c9 e83d 7e7a 31bd 7b10 093e 5599 dabb
000001b0: c650 2c3e caeb 783c af87 67be 9045 bf3e
000001c0: 12b9 e9bd dae3 82be fe57 a9be f4ab adbd
000001d0: 2b02 943e a9cc ac3c 7940 f9bd 1632 5e3e
000001e0: 398d 6ebe 2278 8c3e 6f13 c8bd bb23 6b3c
000001f0: b01a c53c 24bf 9f3d 50b1 1a3e 7d22 b4bd
00000200: a682 933e 0ac9 ba3c 6ec1 f1be 3abd 693e
00000210: 6a43 c8be eca4 07be f7fe ac3e af23 ebbe
00000220: ad45 f8bd 442e 05be 23e1 05bf 9f5b 16be
00000230: 1d1b d63e 52cc 083e ae72 213c 6a2e b03e
00000240: 0ebf 0b3e 7202 50be 8152 aa3e ac4e 843e
00000250: ff7c 523d cada 233f 0740 adbd afd1 5abe
00000260: d764 993e 8e36 ecbd b120 803e 3ef2 8ebe
00000270: f2fd f73d ba28 67bd 9a3c ecbd 6eb7 a03d
00000280: c121 d13f 199e 8c3e db5a 16bf 5acf 783e
00000290: 05b9 8dbf 6b51 c8be 9b20 dd3e 45cb 03bf
000002a0: 9267 90be 2a12 bcbc e2bb e3bf 578a 96be
000002b0: 86e8 9a3d 749f b73d f380 6fbd 08d4 3dbd
000002c0: 2970 8d3e fb2c d43e 83cc 923d ef5e 3b3e
000002d0: 6e46 623e a006 ef3f 7bb7 83be 98ab 0cbe
000002e0: c41f 823e a6b3 8dbe 6320 1d3f 5d6f 5ebf
000002f0: 276d b0bc 6bda 2dbf afa7 023d e044 6dbd
00000300: e745 55bf a872 2bbf 8292 873e be0f 8ebe
00000310: 76e5 24bc db3d d23e a946 2fbd aa44 cdbb
00000320: 6f93 863d 173e c33e 6c44 30be 852a 063f
00000330: fa10 9b3f cf99 02be 3dd9 943f 2628 833e
00000340: 62a4 613f e547 bf3e 3a59 7ebd 558d 843f
00000350: 04cd 10be 7598 c6be f75e 90be b838 57bf
00000360: 5c20 95bd 4e72 2e3e effc eebe 3158 e53e
00000370: ebab 36bf 5988 80bd d0d2 073e b523 a83e
00000380: b690 1f3d 97b4 943d 90ab dfba 2eb2 b93d
00000390: b76c aabd 7b50 e9bc 2f91 2fbe 5979 c8bd
000003a0: 8af2 483d fefc 5bbd 2d10 5f3d ed1a 9e3d
000003b0: 0603 f1ba f782 25be cfda a0bd c1bd 523e
000003c0: ac83 0ebe 4492 adbb 8f08 2bbe 821f 1fbe
000003d0: 789b 923e 9700 1cbe 592b 28be 9136 203e
000003e0: 0db1 92bd 888e 923e 2e02 47bd 1395 3ebd
000003f0: f4b7 da3d f34e a93d d153 323d 5bdf 80bb
0.17354412 0.117084235 -0.17660846 0.2930699 0.2608994 0.050765853 0.12666032 -0.104386605
0.15802899 0.005992083 -0.11904407 -0.060939107 -0.18379442 0.26939085 -0.2139841 -0.40809113
0.13749632 -0.066750206 0.11973651 0.08522425 0.059095662 -0.1447195 0.091646664 -0.056931145
0.21897922 -0.3986585 0.2761474 -0.14398855 0.035221644 -0.10312977 -0.119043894 0.06196005
0.04943422 0.12980343 -0.1295641 0.18222857 0.23508771 -0.17313884 0.0765944 0.1560126
0.04576441 0.08567044 0.15756181 -0.20283934 -0.010332047 0.21601373 -0.22171769 -0.4698283
0.07103555 0.10000987 0.36904 0.2784915 -0.021943446 -0.065631285 0.041591354 -0.14314356
0.33510894 -0.24027845 0.19928412 -0.21993567 -0.07156476 -0.17018156 -0.27347568 0.16997643
-0.659673 -0.14615332 1.289154 -0.118687846 0.6528843 0.6339908 -0.26758614 0.6784357
0.26956704 0.11718799 0.3145555 -0.1281558 0.023053829 -0.04059198 0.57148206 -0.8807332
-0.1577429 0.2665715 0.24954076 -0.008888898 0.07923045 -0.63786304 0.14876914 0.07577321
-0.060564756 -0.005211872 -0.39656776 0.6091045 -0.5326305 0.26234955 0.13919021 0.27771553
0.016490059 0.0041280263 -0.2214887 -0.11203748 0.009389509 -0.15598889 0.124184504 0.054500017
0.11366635 -0.04332971 0.13385193 -0.0066711106 0.16827688 0.015192935 -0.22610353 0.3735776
-0.114122525 -0.25564462 -0.33074945 -0.08480063 0.28907904 0.021093683 -0.121705 0.21698794
-0.2329606 0.27435404 -0.09769332 0.0143517805 0.024060577 0.07800129 0.15106702 -0.087956406
0.28810614 0.022800941 -0.47217888 0.2282609 -0.39113933 -0.13246506 0.33788273 -0.45925662
-0.121226646 -0.1300593 -0.52296656 -0.14683388 0.4181756 0.13359192 0.009854002 0.3441041
0.136471 -0.20313433 0.3326607 0.25841272 0.051388737 0.6400572 -0.08459478 -0.2136905
0.29959747 -0.11533843 0.25024942 -0.2791919 0.12108983 -0.056435324 -0.11534996 0.078474864
1.6338426 0.2746437 -0.58732384 0.24297848 -1.1072088 -0.39124617 0.43188938 -0.5148204
-0.28204018 -0.02295788 -1.7791712 -0.2940242 0.075638816 0.0896596 -0.058472585 -0.046344787
0.27624634 0.41440567 0.07167914 0.18297933 0.2209718 1.8673897 -0.25725922 -0.13737333
0.2541486 -0.27676123 0.61377543 -0.86888677 -0.021536423 -0.67911404 0.031898197 -0.057927012
-0.8330979 -0.66971827 0.26478964 -0.27746385 -0.010064473 0.41062817 -0.042791996 -0.006264289
0.065710895 0.38133308 -0.17213601 0.5240863 1.2114556 -0.12753986 1.1628796 0.25616568
0.88141453 0.3735954 -0.06209681 1.0355631 -0.14140707 -0.3878819 -0.28197452 -0.8407092
-0.07281563 0.17035791 -0.46677348 0.44793847 -0.71356076 -0.06276006 0.13264012 0.32839742
0.038956366 0.07261007 -0.0017064679 0.09067188 -0.08321517 -0.028480759 -0.17145227 -0.0978877
0.04905943 -0.05370807 0.054458786 0.077199794 -0.0018387742 -0.1616324 -0.078542344 0.20580198
-0.13917416 -0.0052969772 -0.16702484 -0.15539363 0.28634238 -0.152346 -0.16422786 0.15645815
-0.07162676 0.28624368 -0.048586063 -0.046528887 0.106796175 0.082670115 0.043536965 -0.003932876

critic.critic_net.layers.2.bias f4 [32]
00000000: 549b c53e ced4 b93e 7e6a 54bd d4cf e0be
00000010: 4b1b c33e 2e20 3cbb a2e4 97bd 6bde 4ebe
00000020: ce37 a13e 283b d6bd 55a5 cbbe be2a 293e
00000030: 63b2 d1be cd13 923d 0513 f3bd cff8 ef3b
00000040: d3c2 5c3d a19f 253e 71a2 153e 34e7 17be
00000050: fb55 d0bb 6bc8 14be 7906 86be 0b88 d43c
00000060: 44b5 b8be aedf d4be f51b 7fbe 022e 17be
00000070: 271a 853e a6b1 72be a435 113e 024c c13e
0.38595068 0.3629517 -0.05185937 -0.4390856 0.3810676 -0.0028705704 -0.07416655 -0.20202033
0.31487888 -0.10460502 -0.39774576 0.16520211 -0.4095641 0.07132683 -0.11868862 0.0073233615
0.053896736 0.16174175 0.14612748 -0.1483429 -0.006357906 -0.14529578 -0.26176813 0.025943777
-0.36075795 -0.41576904 -0.24913009 -0.14763644 0.25996515 -0.2370058 0.14180619 0.37753302

critic.critic_net.layers.4.weight f4 [1, 32]
00000000: fb41 82be dd18 41be dac3 9ebe cc9f c83e
00000010: df31 c2be 8f0f dcbe 7527 94be 532d 4c3c
00000020: 0a5b adbe 65ab eb3e 1979 8d3e 7568 a8be
00000030: 11f9 e53e bfc3 babe 5a56 b4be d7a2 cd3b
00000040: 1122 39be b397 503c 0d29 afbc 6492 ae3e
00000050: 0da7 a8be 222b b8be 73dc 6e3e 9097 43be
00000060: f0de 843e fae2 f63e 5012 a83e 4107 9abb
00000070: 2205 14be 67d3 1cbf 7f70 c1be 612f 37be
-0.25440964 -0.18857141 -0.31008798 0.39184415 -0.37928674 -0.4298062 -0.28936353 0.012461978
-0.3385852 0.460292 0.27631453 -0.32892194 0.44916585 -0.36477467 -0.3522213 0.0062755155
-0.18079402 0.01273148 -0.02138188 0.34096062 -0.3293995 -0.35970408 0.23326282 -0.19100785
0.25951338 0.48220044 0.3282647 -0.0047005718 -0.14455083 -0.61260074 -0.3778114 -0.17889167

exp_avg f4 [32, 4]
00000000: 1c96 2b3b 8790 2536 468c 2d39 6360 003b
00000010: 01af 6239 1435 f9b7 9b0d 29ba d3f0 d3b9
00000020: bb10 8d3a 6756 c5b7 6a34 bbb9 1263 3a3a
00000030: 7081 f4b9 b94a 83b7 1a44 88b9 0c76 34ba
00000040: 2b04 e939 e530 0cb8 aa24 4eb9 7d11 a539
00000050: c4aa 0cbb 9b40 b938 9980 c83a b24d 8239
00000060: d121 8bba ef84 5c38 33d5 053a c5ea c3b9
00000070: b8f9 d43b 2b38 59b9 32e7 58bb fdf4 e33a
00000080: 07eb eeba c855 97b7 8229 02b9 85bf ceba
00000090: 4cff 1aba 02e8 6c37 3e8e 7139 ba20 fdb9
000000a0: 04c1 edba 7ecb ae38 8ae7 9f39 0607 6fba
000000b0: 5181 f2ba 1e6d d238 d91c 063a fd39 9cb9
000000c0: 2e89 663a 9664 4ab8 91cb 54ba cf4d ca38
000000d0: 6523 7f3a 6335 9f36 69fc cbb8 8926 fd39
000000e0: 7211 053b 4c50 62b8 0a11 c8ba 9a00 103a
000000f0: 98f5 8439 060b 9ab8 f248 8eba b742 97ba
00000100: 0a91 673a 571a 84b8 41b7 10ba 1631 f039
00000110: 7765 dfba 9cf6 6eb7 6e58 6639 f67c a4b9
00000120: 5397 04bb 19de 4638 de8c c83a fd00 c1ba
00000130: 0381 43bb d92b a0b7 cf96 b339 7562 98ba
00000140: 2a7a 37bb 078f e938 a201 023b aba5 7bba
00000150: 66b9 3b3a 751a 15b8 f3f6 9bba eeaa 07b9
00000160: bf50 97ba 69fe 5638 52a7 b139 2592 9a37
00000170: e47f a6ba 1d56 2939 41d6 323b e5d0 1d3b
00000180: 2729 e939 1cb8 8a37 1f82 5738 86fd 3b3a
00000190: f000 5ab9 293d 09b8 fde2 14ba ad80 52ba
000001a0: f855 483b 0798 8eb8 e007 7cba 8570 823a
000001b0: de13 7e3b 0d44 fcb8 62b3 94ba 318f 9a3a
000001c0: 203f 1f3a 4c6a 92b8 164a e4ba 93c1 1cba
000001d0: 2d58 713a a644 82b8 03f1 aaba 86c2 eeb9
000001e0: 1ad3 503a 6319 8bb8 7dd4 c4b9 3857 29b9
000001f0: 6d8b b4ba cbf6 6d39 1852 683b eb1b 283b
0.0026182001 2.4671042e-06 0.00016550822 0.00195887 0.00021618234 -2.970783e-05 -0.0006448866 -0.00040424484
0.0010762432 -2.3524464e-05 -0.0003570647 0.00071100995 -0.00046635745 -1.5651212e-05 -0.0002599068 -0.00068840454
0.00044444329 -3.3424138e-05 -0.0001965935 0.00031484282 -0.002146409 8.833521e-05 0.0015297114 0.0002485342
-0.0010614936 5.257589e-05 0.00051053165 -0.00037368215 0.0064994954 -0.00020715657 -0.0033096788 0.0017391738
-0.0018228003 -1.8040548e-05 -0.00012413229 -0.001577363 -0.0005912676 1.4120715e-05 0.0002303654 -0.00048280304
-0.0018139188 8.33487e-05 0.00030499353 -0.0009118173 -0.0018501674 0.00010033905 0.0005115993 -0.00029797843
0.0008794245 -4.825423e-05 -0.0008117492 9.6466036e-05 0.0009732752 4.7447843e-06 -9.7268094e-05 0.0004828463
0.0020304588 -5.395738e-05 -0.0015263867 0.00054932537 0.00025359984 -7.3453455e-05 -0.001085548 -0.0011540268
0.0008833563 -6.299157e-05 -0.0005520471 0.0004581294 -0.0017043789 -1.4243324e-05 0.00021967452 -0.0003137362
-0.0020231798 4.7413723e-05 0.0015300771 -0.0014725026 -0.0029831536 -1.9093904e-05 0.00034253902 -0.0011626022
-0.00279964 0.00011136947 0.00198374 -0.00095995766 0.00071611104 -3.554901e-05 -0.0011899158 -0.0001293828
-0.001154445 5.1258514e-05 0.00033884734 1.8426284e-05 -0.0012702909 0.00016149176 0.002728835 0.002408081
0.00044471884 1.6536615e-05 5.138118e-05 0.0007171262 -0.0002079045 -3.2720305e-05 -0.0005679576 -0.00080300384
0.003056882 -6.799405e-05 -0.00096142106 0.0009951746 0.0038769166 -0.00012028972 -0.0011344964 0.0011791942
0.0006074775 -6.981622e-05 -0.0017417099 -0.00059797725 0.00092065596 -6.21167e-05 -0.0013041798 -0.0004553983
0.0007966027 -6.632765e-05 -0.0003754235 -0.00016149587 -0.0013774462 0.00022694019 0.0035449322 0.0025651406

exp_avg_sq f4 [32, 4]
00000000: 3806 c039 084c 8036 6372 a039 be0a 7339
00000010: c0c3 4737 9e88 7a34 4d2e 7837 a884 e036
00000020: 107c 4438 8408 1e35 1900 4338 2512 2738
00000030: b77e 3237 202b c533 0811 0537 ea53 ef36
00000040: 3cc0 a137 e891 0734 f9f3 8237 0228 8536
00000050: c686 aa39 0f2b af36 7e18 c739 af31 5339
00000060: 6acf 3838 d443 7035 0b4e 6138 7524 4838
00000070: e3ad e43a ab99 d337 0c42 dc3a b671 a63a
00000080: 9035 fa38 73b0 9135 6d28 a638 d818 ca38
00000090: e652 b637 d511 9934 5625 b037 2020 4e37
000000a0: dcf3 2539 be94 eb35 b428 1239 53c5 ae38
000000b0: 61d9 0439 9799 ee35 b5d4 0c39 920c d338
000000c0: 3c16 f337 6cda 5435 e9f4 3c38 40c7 4238
000000d0: effd 2538 db2e 9d34 d494 e837 4c16 8437
000000e0: 2677 4739 e2dc 3d36 263f 5f39 86fa c438
000000f0: 7d79 9937 fc6f 5935 51a1 3038 fd8d ee37
00000100: cdbe 8c38 8619 5b35 ae4b 9138 0755 fc37
00000110: d402 db38 6049 b835 22de d738 d901 a538
00000120: 8750 5f39 a4d6 0d36 4749 fe38 bc52 cb38
00000130: adc9 b639 af46 8336 33fc 9b39 dc68 8639
00000140: d49d cc39 fb45 a336 3c77 9a39 510f 8239
00000150: eee7 4f38 6faf 5435 b78d 4738 6d02 e637
00000160: ea4e 9a38 6d20 6435 7b27 9238 780e ff37
00000170: 349c 8e39 b379 0837 b526 143a ba5a 9e39
00000180: 49b6 9337 d1e6 e533 da14 9936 b2f3 a836
00000190: 668c 5835 d306 c233 bc47 8136 85d6 8136
000001a0: b6e7 b039 9a76 ad36 9261 bd39 5136 8d39
000001b0: 2235 393a 1a1b 2537 960b 3c3a 5cad fc39
000001c0: c56d a338 6c3b b135 2773 8d38 0672 1738
000001d0: 143e 3438 6f54 d035 838c 9e38 3058 9738
000001e0: 8212 2138 0019 2a35 4b1f 4038 41f1 dc37
000001f0: caf7 2c39 2569 4e37 95d7 1e3a 02bb 083a
0.00036625727 3.8235485e-06 0.00030602803 0.00023178288 1.1906901e-05 2.3332765e-07 1.4792732e-05 6.6911634e-06
4.6845584e-05 5.887198e-07 4.6491714e-05 3.98328e-05 1.063913e-05 9.181372e-08 7.931383e-06 7.132524e-06
1.9282212e-05 1.2625935e-07 1.5610816e-05 3.9683664e-06 0.0003252534 5.220419e-06 0.00037974486 0.00020141037
4.4062188e-05 8.950567e-07 5.3716863e-05 4.771767e-05 0.0017446842 2.5224717e-05 0.0016804351 0.0012698683
0.00011930906 1.0854695e-06 7.923027e-05 9.636738e-05 2.1734693e-05 2.8511445e-07 2.099822e-05 1.22860365e-05
0.00015826471 1.7552154e-06 0.00013938808 8.333721e-05 0.00012669481 1.7777082e-06 0.0001343068 0.000100636054
2.8978211e-05 7.9294e-07 4.5050783e-05 4.643877e-05 3.957556e-05 2.927762e-07 2.7725859e-05 1.5746009e-05
0.00019022505 2.8291765e-06 0.00021290462 9.392672e-05 1.8295594e-05 8.100176e-07 4.2111908e-05 2.843793e-05
6.7112596e-05 8.1621e-07 6.928235e-05 3.0080335e-05 0.000104432605 1.3730423e-06 0.00010293374 7.868157e-05
0.00021296936 2.1135575e-06 0.00012125313 9.695205e-05 0.00034864005 3.912333e-06 0.00029751807 0.00025636598
0.00039027503 4.8659253e-06 0.00029462005 0.00024806944 4.9568647e-05 7.9231444e-07 4.757728e-05 2.7419266e-05
7.357991e-05 8.4983805e-07 6.969176e-05 3.0405106e-05 0.0002720073 8.134567e-06 0.000565152 0.00030203705
1.7608649e-05 1.0705629e-07 4.5621828e-06 5.03516e-06 8.0670577e-07 9.03507e-08 3.8528506e-06 3.869473e-06
0.00033741974 5.169609e-06 0.00036121585 0.00026934085 0.00070651073 9.8410765e-06 0.00071733573 0.00048194348
7.792892e-05 1.3204822e-06 6.744853e-05 3.6107398e-05 4.297316e-05 1.5521781e-06 7.5601994e-05 7.216667e-05
3.8402628e-05 6.3366315e-07 4.580551e-05 2.6338386e-05 0.00016495507 1.2303038e-05 0.0006059346 0.00052158546

exp_avg f4 [32]
00000000: 6ef8 45bc 4dbf 4cbb 9f23 b3bb 6058 b93a
00000010: 3196 43bb 1763 763c e496 a63b e0e0 0abd
00000020: c2f7 d83b 709a 5a3b 607b 133c a5d1 193c
00000030: 1ca9 aebb f406 84bb abd4 4bbc e170 abbb
00000040: 059b ccbb 42b9 013c f72f 3d3c ca65 573c
00000050: 166e 843c 751b cabb d0e1 d53b 2f3f 943c
00000060: b376 98ba 39f1 a0ba fa6b 6ebc d61f aabc
00000070: 3239 00bc 0470 ecbb aaa7 a2bb 24ad 903c
-0.012083156 -0.0031241954 -0.005466893 0.0014140718 -0.002984416 0.015038273 0.0050839055 -0.033905864
0.006621332 0.0033356212 0.009001583 0.009388362 -0.005330218 -0.004029149 -0.012440841 -0.005231962
-0.0062440657 0.007917704 0.01154708 0.013146827 0.016165774 -0.006167824 0.006527163 0.018096535
-0.0011632055 -0.0012278921 -0.014552111 -0.020767134 -0.007826136 -0.0072155017 -0.004963835 0.017660685

exp_avg_sq f4 [32]
00000000: 84eb 703b 8e09 bb39 73c9 333a d4eb 5838
00000010: 9841 3939 7483 eb3b 535b 833a 58b1 073d
00000020: 6c9a 813a c52d b039 79c5 123b 5cb0 1f3b
00000030: 1ba4 863a 9e08 b739 ac9b 773b f195 a13a
00000040: 1442 8f3a 119e d43a 5fb7 253b 9996 923b
00000050: d5fc cf3b 14e6 903a 0df0 9a3a 3d5a 483c
00000060: 799e 4638 78e2 1139 097c d53b edb8 483c
00000070: db8d fd3a ad5f 093b bd52 5b3a 6dd1 823c
0.0036761472 0.00035674538 0.00068583264 5.1718045e-05 0.0001766741 0.0071873013 0.0010021724 0.033128113
0.000988794 0.00033603437 0.0022395535 0.0024366593 0.0010272296 0.000349109 0.0037781997 0.0012328011
0.0010929727 0.0016221424 0.00252863 0.004473519 0.0063472786 0.0011054897 0.0011820808 0.012228546
4.7354468e-05 0.00013912644 0.0065150303 0.012251121 0.0019344644 0.0020961568 0.0008366516 0.015969003

exp_avg f4 [32, 32]
00000000: b275 2537 670e 1837 0550 9437 5461 c5b7
00000010: 52c8 9c37 83c9 2b37 9345 c0b7 a58c 8236
00000020: 912c 10b7 e660 a9b7 9b54 8db7 ac31 e6b6
00000030: cb8b 3f37 7b6e 78b7 4cf3 26b6 aac7 99b6
00000040: 5fdd a537 6c64 8c37 f22a 1636 b85c 1737
00000050: adf0 dbb4 74eb d2b7 eff2 25b6 beda 8437
00000060: c4b7 0236 1cf3 dcb7 a361 8335 1562 8b36
00000070: 703b 94b7 3ad8 fab4 cedb 9737 4ca6 1a37
00000080: 168e c7ba 5f84 c5ba 0226 2fbb 4d04 6d3b
00000090: 9de9 3bbb 66f0 cfba b8e6 833b 6571 17ba
000000a0: 9db8 ac3a 435f 493b b865 3a3b c69a cd3a
000000b0: b77a 0abb 2b87 253b 4736 283a 75d5 1d3a
000000c0: 905f 4ebb 74ec 45bb 57b9 b6b9 68de c9ba
000000d0: 946d 9e39 a15d 803b 96bc 2e3a a1a4 0abb
000000e0: 6caf 5db9 44e8 7a3b de15 22ba ec47 66ba
000000f0: 6dd0 2c3b 8ce7 7cb9 6773 50bb 6fae 88ba
00000100: a54f 26b9 e7c5 34b9 46ba 9ab9 4ddf cb39
00000110: 8883 b0b9 4437 2ab9 eeca d239 47b0 75b8
00000120: 7571 1a39 0641 bb39 7a52 a439 3d58 2039
00000130: 9bcf 53b9 45c0 8d39 7aee 3438 2ee4 9038
00000140: 8b00 c3b9 e83b abb9 07ff d5b7 6e72 35b9
00000150: 584d 1a38 5b03 d839 aaa1 9938 177b 7bb9
00000160: 39ec 25b8 a63c e339 c33c 25b8 c5dd 99b8
00000170: 1d95 8c39 eef8 d8b6 00f5 a6b9 c2fb 02b9
00000180: 6537 d9b9 eabe cab9 10f6 3bba fd10 7e3a
00000190: ab27 4cba 652b ddb9 5815 833a e05b ffb8
000001a0: ec30 c439 3f4f 5a3a fd86 3d3a b0ae bf39
000001b0: 9d34 ffb9 e38e 283a 0f0d 1039 b874 4f39
000001c0: 84cb 5eba a95f 4cba 3cc8 53b8 34d1 d2b9
000001d0: 1560 bb38 5e06 843a 6261 1639 a69b 22ba
000001e0: 9abb ebb8 23ae 8b3a 0749 00b9 90a4 5db9
000001f0: 0438 2f3a 492a d537 d9d2 50ba a8f4 c7b9
00000200: 6117 b836 bda7 9636 a291 2237 9f08 82b7
00000210: 76b8 1d37 b0d7 2037 02df 93b7 3883 86b4
00000220: 0129 96b6 43b4 27b7 13e9 21b7 69d0 c0b6
00000230: 5deb 1137 2c81 43b7 88f0 c4b6 6327 8eb6
00000240: fd9c 2137 def5 6c37 1590 8a36 d651 0737
00000250: 65a0 3c35 b091 9eb7 93be a1b5 3b53 3c37
00000260: b3c0 ce33 97b5 88b7 fac4 2436 72c2 5336
00000270: a15e 5eb7 031a f033 1308 6037 a085 c136
00000280: 012f d8ba b19b caba 891b 3abb 677a 7b3b
00000290: a29e 49bb d772 d9ba ca95 833b bd39 06ba
000002a0: b16a c13a 7f92 573b 47b6 3d3b 1849 c53a
000002b0: 00e3 02bb cb2d 283b c46b 0f3a 7a4e 453a
000002c0: 2421 5dbb 8f5b 4bbb a1e1 65b9 fdd1 cfba
000002d0: e1c6 bd39 3b4a 833b 44a2 1c3a c5d2 1dbb
000002e0: 0018 d5b9 2f02 893b e43c 0bba 3fb0 63ba
000002f0: 7c4f 2e3b 38cd 1338 19cb 51bb 7e2b bdba
00000300: 4e3b 583a 0ed9 473b 5404 5b3b e8af 78bb
00000310: 430a 993b a2e4 a93a aba0 a3bb b7dd e83a
00000320: 768a 43ba 07a9 9ebb 954d a6bb 21ef 1bbb
00000330: 97b4 663b 1642 84bb 5219 3bb8 247e 133a
00000340: 74cb a83b bffc 8a3b a1df af3a 3aad 2e3b
00000350: 06c2 d3b5 7587 a6bb d603 06bb 79e3 a83a
00000360: 174e 74ba 1b90 84bb 8e53 a837 5bdb b338
00000370: 1151 50bb a4b3 243b c110 713b 8c4a edba
00000380: 41ca 05ba 94f5 5fba 18f6 95ba 204c b53a
00000390: 6fa3 c7ba f368 ecb9 c47a c03a 0ef5 9fb9
000003a0: 8dbf 0c3a badd ce3a 4f1d bd3a db7e 3e3a
000003b0: 89a0 52ba 5bc3 943a 9e78 86b7 4da7 fe38
000003c0: 413f e5ba eee0 b8ba b648 03b8 0659 48ba
000003d0: d3bf 8e39 8078 bd3a 5996 023a 45cd 3aba
000003e0: 512e 1ab9 8753 cf3a 19ce 04b9 a685 43b9
000003f0: 74ad 553a 97ff 46b9 1924 99ba ed6e 77b9
9.8621695e-06 9.063259e-06 1.7680237e-05 -2.3529552e-05 1.868993e-05 1.0239312e-05 -2.2920582e-05 3.890675e-06
-8.593445e-06 -2.0191492e-05 -1.6847907e-05 -6.8603167e-06 1.1417035e-05 -1.4807675e-05 -2.4877545e-06 -4.5829993e-06
1.9772617e-05 1.6736063e-05 2.237674e-06 9.021889e-06 -4.0967043e-07 -2.5143592e-05 -2.4728322e-06 1.5837486e-05
1.9478475e-06 -2.633925e-05 9.788677e-07 4.153941e-06 -1.7670653e-05 -4.6723454e-07 1.8102957e-05 9.217834e-06
-0.001522484 -0.0015069357 -0.0026725535 0.0036165894 -0.002867318 -0.0015864491 0.0040253066 -0.000577709
0.0013177578 0.0030726946 0.0028441977 0.0015686385 -0.0021130273 0.0025257568 0.00064167794 0.0006020882
-0.0031490065 -0.0030200751 -0.00034851834 -0.0015401365 0.0003021775 0.0039174114 0.0006665675 -0.0021155255
-0.00021141552 0.0038285414 -0.0006183068 -0.0008784521 0.0026369349 -0.0002411885 -0.0031807066 -0.0010427962
-0.00015860664 -0.00017239862 -0.00029511953 0.0003888555 -0.00033667334 -0.00016233051 0.00040205516 -5.8576723e-05
0.0001472885 0.00035715866 0.00031341967 0.0001529166 -0.00020199867 0.00027036868 4.3137443e-05 6.908957e-05
-0.00037193703 -0.00032660295 -2.5510335e-05 -0.00017304134 3.6788493e-05 0.0004120123 7.325721e-05 -0.0002398308
-3.9559065e-05 0.00043342 -3.9395654e-05 -7.336916e-05 0.0002681398 -6.466281e-06 -0.00031844527 -0.00012491553
-0.00041430737 -0.00038670684 -0.000717015 0.00096918625 -0.00077878934 -0.00042184736 0.0010000868 -0.000121764606
0.00037420483 0.00083278486 0.00072298927 0.0003656051 -0.0004867659 0.0006429983 0.00013737775 0.0001978454
-0.0008498954 -0.0007796237 -5.0492803e-05 -0.0004021019 8.9347515e-05 0.0010072698 0.00014341393 -0.0006203003
-0.00011240617 0.0010656755 -0.00012234236 -0.00021137507 0.0006684067 2.541127e-05 -0.0007965989 -0.0003813852
5.486349e-06 4.4898757e-06 9.68986e-06 -1.5501222e-05 9.400877e-06 9.586962e-06 -1.7627612e-05 -2.505492e-07
-4.475122e-06 -9.995946e-06 -9.650615e-06 -5.746308e-06 8.697473e-06 -1.1652981e-05 -5.8692567e-06 -4.236515e-06
9.6328995e-06 1.4123942e-05 4.129494e-06 8.065681e-06 7.026886e-07 -1.8902909e-05 -1.2050899e-06 1.1225052e-05
9.627674e-08 -1.6297023e-05 2.455256e-06 3.1554632e-06 -1.3254264e-05 1.11806024e-07 1.335332e-05 5.767404e-06
-0.00164935 -0.0015457777 -0.002839776 0.0038372518 -0.0030764719 -0.0016590011 0.004015659 -0.0005120298
0.0014756528 0.0032893715 0.0028947757 0.0015051691 -0.0019971728 0.002566206 0.00054710754 0.00075266475
-0.0033741677 -0.0031029915 -0.00021923195 -0.0015855428 0.00036197065 0.0040066517 0.0005975107 -0.0024081927
-0.00040644407 0.0041811685 -0.00053115026 -0.00086856255 0.002659767 3.5238656e-05 -0.0032011925 -0.0014432517
0.0008248583 0.0030494365 0.0033419328 -0.0037946645 0.0046704127 0.0012961815 -0.0049935183 0.0017766271
-0.0007459292 -0.004841927 -0.0050751665 -0.0023793655 0.0035202855 -0.0040361984 -4.4607856e-05 0.00056264014
0.0051512066 0.0042415555 0.0013418087 0.0026653544 -1.5777193e-06 -0.0050820657 -0.0020449064 0.0012885175
-0.00093194976 -0.004045499 2.0066069e-05 8.576243e-05 -0.00317866 0.0025131488 0.0036783668 -0.0018103882
-0.00051036855 -0.0008543369 -0.001144114 0.0013831891 -0.0015231202 -0.0004509162 0.0014685025 -0.00030509423
0.00053691195 0.0015782632 0.001442829 0.0007266828 -0.0008034786 0.0011349724 -1.6030212e-05 0.00012142826
-0.0017490165 -0.001410512 -3.130055e-05 -0.000764266 0.0002722727 0.0014455467 0.000498151 -0.00071259245
-0.00014703839 0.001581774 -0.00012665278 -0.00018646437 0.00081511517 -0.00018977966 -0.0011683732 -0.00023597079

exp_avg_sq f4 [32, 32]
00000000: b252 2d32 2502 0733 725f f932 a15c 5433
00000010: 9bb4 7f33 bdde 8c32 11b5 b333 76c2 0f32
00000020: 3d14 1632 a73d 8433 2b74 8b33 6e00 0433
00000030: 091d 1933 987a 7d33 27c5 b232 614a 0d32
00000040: 2906 a633 9ae4 b433 f9af be32 0b9f 0533
00000050: 2c92 4832 e4c3 8833 724f c732 4625 a732
00000060: 4210 c932 9219 6f33 d669 3132 ba02 f331
00000070: cf47 fa32 653c f432 c87a 4a33 8e7a 4b33
00000080: 349b 6438 17c6 eb38 d890 0239 7a62 5d39
00000090: ca78 8539 bd6a 9c38 c648 c139 33a5 0f38
000000a0: 943f 4038 db84 8c39 d4c9 8f39 7a1a fc38
000000b0: cb48 1339 bf16 7639 b556 c838 de55 0c38
000000c0: 58b3 b339 d1e9 c139 36d1 ba38 1042 1039
000000d0: c48b 3b38 c058 9f39 1859 b338 960b e438
000000e0: dd4e 8a38 e956 8639 f9e4 3a38 bfda ee37
000000f0: da3b 1339 857b 0839 ae75 5739 2b84 8839
00000100: b1f8 c535 3062 3e36 c60a 6036 e64d b436
00000110: a43a dc36 c66d e135 6ba8 1337 0240 6135
00000120: 4c64 af35 7098 ea36 160c e536 1231 4736
00000130: 1128 6536 3686 c436 882a 1d36 0a69 5835
00000140: 26f9 1337 a518 1837 b2ce 2136 725c 6536
00000150: e22b a135 7037 f136 eec8 0c36 985a 3a36
00000160: 6aec ff35 4060 e236 6897 8a35 970f 2a35
00000170: 1582 5936 376d 6336 4a2d a436 b130 ea36
00000180: 4527 bb36 8906 2837 f152 4637 b775 a437
00000190: ef00 c337 2ee4 db36 2276 0738 d3a4 5436
000001a0: 9e5c a036 e476 ce37 e5a8 cb37 021d 3137
000001b0: 6355 5237 3f54 ac37 e69f 1837 d2c2 4f36
000001c0: 57f0 0238 0bd3 0638 c50e 1737 999f 4937
000001d0: 0551 9236 252b e137 fba6 fd36 541a 3037
000001e0: 2f53 e036 ea23 ca37 b0b3 8436 2883 2c36
000001f0: 8cf0 5437 eca1 5137 99f6 9737 a351 da37
00000200: 5009 8d33 93d8 0934 50dd 2234 90e2 8a34
00000210: 5b60 9734 22b7 b033 d0b7 d134 f793 1c33
00000220: 5645 6d33 a6bf a334 aefd 9834 e5de 0d34
00000230: 209a 1f34 bb13 8e34 96fd d333 8131 3433
00000240: b4d0 c934 2132 d134 51f4 d033 c704 1934
00000250: 79b5 5e33 6e49 a434 9e04 c733 de75 0834
00000260: d051 cd33 4934 a534 b216 5433 d0c9 1333
00000270: c636 1534 2317 0f34 1ee9 7134 35ef 9334
00000280: 3c3e 8938 1090 0039 cf36 1739 d26d 7939
00000290: 26ac 9539 6162 a238 7d50 ce39 b941 1d38
000002a0: 6b1d 6e38 7d53 9e39 0e31 9d39 9f6c 0639
000002b0: 5881 1f39 2543 8339 72bf dc38 1b14 1838
000002c0: 25f5 c839 a8fb cc39 6d2f de38 80d1 1839
000002d0: 8b2e 5c38 0c3c ab39 29c6 bf38 9d41 0239
000002e0: 67ae a438 e14d 9939 5c79 4338 3f8f fd37
000002f0: 62e6 1f39 fe59 1c39 1d60 6739 802a a139
00000300: 9004 ba38 7130 3d39 2895 6639 7fa1 c239
00000310: a761 d439 83f8 e938 467f 3c3a 1136 5538
00000320: 9879 a038 7ce7 e339 90c7 003a cb5e 7439
00000330: c584 9639 ee67 f939 9ec8 1539 7361 2f38
00000340: 1a9f 0b3a 9bea 403a 0d43 2839 c136 9539
00000350: 1b2a 7b38 8982 1e3a 90a3 1339 a6b7 3339
00000360: 765c 0039 1925 ef39 f8bf 8838 a16b ed37
00000370: 92e8 7739 d542 8a39 abea c439 d82b 013a
00000380: c78c 7337 87fe de37 0742 1238 846d 6a38
00000390: 3234 8938 8c45 8237 b613 c338 3452 0537
000003a0: d434 6837 c59f 9238 7c26 9038 8afa fe37
000003b0: d4b9 1638 9c4f 7c38 43db bb37 45c9 d736
000003c0: 6fcd b738 f857 c538 71b6 d737 510c 1338
000003d0: 8416 4e37 a317 a138 c90b 9c37 c1b9 df37
000003e0: 42e3 a337 f672 9438 b90e 2337 a954 a536
000003f0: 61d9 0938 d6d3 1038 a898 5638 ff8d 9538
1.0088728e-08 3.1434087e-08 2.9030819e-08 4.9444342e-08 5.9536074e-08 1.6399435e-08 8.368273e-08 8.367911e-09
8.735751e-09 6.1579435e-08 6.493823e-08 3.0734036e-08 3.5649496e-08 5.901765e-08 2.0811582e-08 8.224192e-09
7.731098e-08 8.4234856e-08 2.2198934e-08 3.1111124e-08 1.1674768e-08 6.368626e-08 2.3202777e-08 1.9458309e-08
2.3406873e-08 5.566978e-08 1.032682e-08 7.0725408e-09 2.9136485e-08 2.8432803e-08 4.714346e-08 4.7376084e-08
5.450398e-05 0.0001124257 0.00012451725 0.00021112888 0.00025457732 7.458541e-05 0.0003686605 3.424771e-05
4.583558e-05 0.00026801866 0.0002742546 0.00012021228 0.0001404613 0.00023468862 9.5528936e-05 3.345857e-05
0.00034275162 0.00036986035 8.90814e-05 0.0001375752 4.471444e-05 0.00030392967 8.55198e-05 0.00010874045
6.595042e-05 0.00025623225 4.4559103e-05 2.8473673e-05 0.00014041309 0.00013015985 0.00020547837 0.00026038414
1.4750023e-06 2.836936e-06 3.3384872e-06 5.3734866e-06 6.5633376e-06 1.6795755e-06 8.801096e-06 8.3912175e-07
1.3067706e-06 6.9914895e-06 6.826139e-06 2.9681873e-06 3.414698e-06 5.8568794e-06 2.341958e-06 8.061912e-07
8.819892e-06 9.065644e-06 2.4111182e-06 3.417747e-06 1.2008206e-06 7.1888135e-06 2.0978582e-06 2.7768892e-06
1.9067786e-06 6.74653e-06 1.0325866e-06 6.335262e-07 3.2411237e-06 3.3889207e-06 4.892853e-06 6.979412e-06
5.577606e-06 1.0015102e-05 1.1821031e-05 1.9605139e-05 2.3246246e-05 6.553272e-06 3.2296528e-05 3.1686402e-06
4.7791536e-06 2.4612476e-05 2.4278133e-05 1.0556776e-05 1.2536856e-05 2.0543228e-05 9.097135e-06 3.0958804e-06
3.121825e-05 3.214464e-05 9.00374e-06 1.2017693e-05 4.360571e-06 2.684218e-05 7.5594266e-06 1.04965475e-05
6.685404e-06 2.4097e-05 3.954825e-06 2.570634e-06 1.2692191e-05 1.2495071e-05 1.8115434e-05 2.602564e-05
6.567518e-08 1.2837909e-07 1.5167939e-07 2.586935e-07 2.819605e-07 8.22895e-08 3.9063025e-07 3.6456154e-08
5.5243923e-08 3.0500559e-07 2.8496783e-07 1.3212737e-07 1.4864099e-07 2.6463917e-07 9.87158e-08 4.195454e-08
3.759102e-07 3.8965757e-07 9.730196e-08 1.4250973e-07 5.185345e-08 3.0600808e-07 9.2674995e-08 1.2708867e-07
9.560938e-08 3.0771687e-07 4.9380738e-08 3.4409652e-08 1.3896633e-07 1.332633e-07 2.2529682e-07 2.755493e-07
6.544261e-05 0.00012260699 0.000144209 0.00023787402 0.00028547755 7.7430865e-05 0.0003935135 3.7492926e-05
5.677102e-05 0.00030198312 0.00029981922 0.000128197 0.00015211606 0.00025036294 0.00010526077 3.625835e-05
0.0003832962 0.0003909741 0.00010594619 0.00014573894 5.2495434e-05 0.000326604 9.1445e-05 0.00012422209
7.852614e-05 0.00029240458 4.6604648e-05 3.0226654e-05 0.00015249246 0.00014910844 0.00022065682 0.00030739978
8.870021e-05 0.0001804249 0.00021990074 0.00037122887 0.00040508548 0.00011156595 0.0007190596 5.083351e-05
7.652043e-05 0.00043469283 0.00049125496 0.00023304966 0.0002870915 0.00047570415 0.00014284483 4.1814008e-05
0.0005326137 0.00073591777 0.00016046707 0.0002846029 5.9882277e-05 0.0006046673 0.00014079944 0.00017139185
0.00012241476 0.00045613272 6.520742e-05 2.830272e-05 0.00023642395 0.00026371205 0.00037558874 0.00049274927
1.4516706e-05 2.6582986e-05 3.4870605e-05 5.5891942e-05 6.542391e-05 1.5529593e-05 9.301996e-05 7.946557e-06
1.3840578e-05 6.991582e-05 6.873623e-05 3.0395826e-05 3.5935853e-05 6.0155624e-05 2.2394239e-05 6.43093e-06
8.764385e-05 9.4100775e-05 2.5714953e-05 3.5059e-05 1.2283799e-05 7.681481e-05 1.8602137e-05 2.667017e-05
1.953694e-05 7.078603e-05 9.718985e-06 4.927239e-06 3.2865795e-05 3.4529563e-05 5.1163748e-05 7.1313225e-05

exp_avg f4 [32]
00000000: 2797 5938 8996 0ebc cfe8 73ba eff1 11bb
00000010: 1920 1e38 65bc 11bc 04a5 593c 9a62 7cbb
00000020: 618e 8239 f6a9 7ebb 75dd 33bb 998a 5fbb
00000030: 0595 2ebb d5a3 373a ddcd bc3b 3396 d738
00000040: 7c46 043c f553 ca3b b877 be36 4c19 90b8
00000050: be19 c7bb b42a c2bb 408e 5fba f7e9 91ba
00000060: faaf c7bb c31e 7839 9a88 36bb f40f 4839
00000070: edce 143c 1ba1 32bb e965 4839 e604 dfb8
5.1877603e-05 -0.008702883 -0.00093044055 -0.0022269448 3.770003e-05 -0.008895014 0.013283972 -0.003851092
0.00024901613 -0.0038858629 -0.002744523 -0.003410971 -0.0026639116 0.0007005309 0.0057618455 0.00010279976
0.008073445 0.0061745592 5.6763784e-06 -6.871167e-05 -0.0060760668 -0.0059255008 -0.0008527972 -0.0011132349
-0.006093976 0.00023662583 -0.0027852417 0.0001907943 0.009082538 -0.002725667 0.00019111451 -0.00010634381

exp_avg_sq f4 [32]
00000000: 95b6 ef34 f00e 093b f7f2 5538 9232 4039
00000010: 913b 0d36 45c1 133b a2bd 873b 7fa3 0d3a
00000020: 426e d235 1f43 e639 e957 8d39 fbee 103a
00000030: 7ab7 9339 bd08 6438 b728 8c3a 77db 2736
00000040: ed03 043b 0919 993a abed 6c36 56ec bf34
00000050: 5833 8d3a 10cd 703a 7c62 a338 eb63 7838
00000060: 4dea a03a 2b7a f836 4003 8239 64aa c036
00000070: 5482 a13b accb 8139 acaa 1c37 91bf 8c36
4.4650065e-07 0.0020913444 5.1009436e-05 0.00018329386 2.104531e-06 0.0022545618 0.004142479 0.0005403086
1.5678309e-06 0.00043919028 0.00026959114 0.0005528775 0.00028174726 5.4367574e-05 0.0010693286 2.5012685e-06
0.0020143942 0.0011680435 3.5305081e-06 3.574848e-07 0.0010772748 0.000918583 7.79079e-05 5.9220863e-05
0.0012276858 7.405198e-06 0.00024797954 5.741882e-06 0.0049288664 0.00024756545 9.338062e-06 4.1946264e-06

exp_avg f4 [1, 32]
00000000: 8458 dfb9 829d a8bb bb2d edbb bfdf 45ba
00000010: 5e6c 84b8 4c5e 98ba 58ce 013c 5833 e6b9
00000020: dd78 743a f085 21bb 3308 96bb 0d60 a4bb
00000030: cc46 66bb bf8c 26ba 578e 0c3c bd1a 433a
00000040: 1a41 1abb 03b8 903b d083 26bb b929 1b3a
00000050: 1285 30bc 3f99 84bb 6ad0 f5b8 c905 583b
00000060: 3b7e 0dbc a40d fd3a deb2 173b fec3 9a39
00000070: b1c5 c5bb 005c 6ebb 2363 1d3a d943 4dba
-0.00042599824 -0.0051457295 -0.0072381175 -0.00075482944 -6.3144354e-05 -0.0011624782 0.007922731 -0.00043907273
0.00093258714 -0.0024646483 -0.004578614 -0.005016333 -0.0035137413 -0.000635337 0.008578858 0.0007442644
-0.0023537339 0.004416467 -0.0025408156 0.0005918998 -0.010773914 -0.0040465887 -0.000117213305 0.0032962433
-0.008636053 0.0019306433 0.0023147385 0.00029519195 -0.0060355295 -0.0036370754 0.0006003847 -0.00078302395

exp_avg_sq f4 [1, 32]
00000000: 6baf 1239 a9f9 e23a 3720 bc3a 3311 a539
00000010: 7af6 0439 4e7f 393a d8f1 233c 65e8 563b
00000020: 0783 b738 8001 ff3a a037 0c3a c5f6 1c3c
00000030: 7713 823a 9d29 3e3a aeb5 c33a cff6 2a39
00000040: 8471 643b f852 cc3a 52a8 613a 1c66 a937
00000050: 47bf 4b3b 2117 163b 2c71 e939 6e9c b83a
00000060: ff24 b13a 73cf 593a 98ba bc3a 4fba 0d3a
00000070: 70c3 6a3c f117 0e3b ec3e ba38 7f0e 013a
0.00013988993 0.0017316836 0.0014352862 0.00031484067 0.0001268032 0.000707616 0.0100063905 0.0032792327
8.750526e-05 0.0019455403 0.0005348865 0.009580319 0.0009924014 0.00072541257 0.0014931464 0.00016304407
0.00348577 0.0015588691 0.00086081505 2.0193918e-05 0.0031089352 0.002290197 0.00044525543 0.0014084706
0.0013515054 0.00083088054 0.0014398871 0.0005406485 0.0143288225 0.002168175 8.880891e-05 0.00049231196
