trained_models/0_lag_ppo_InvertedPendulum-v2_eps_0.5_critic.pth (torch, 21585 bytes, 15 tensors)

critic_net.layers.0.weight f4 [32, 4]
000000 a4 25 38 40 40 fb 75 bf 7f ea a5 be 2b 71 a7 be
       2.8772974 -0.960865 -0.3240547 -0.32703528
000010 0e cb b1 be 5b 7e ad bf 51 ef f9 bf 51 1d f2 3d
       -0.3472523 -1.3554186 -1.9526159 0.11821998
000020 9a 1d 10 bf 4e 6b 1b 3f e0 17 32 bf 97 46 13 bf
       -0.5629517 0.6071061 -0.6956768 -0.57529587
000030 29 90 4f 3e 4a ba 94 bf 2c f4 24 bf ae e2 39 bd
       0.20269836 -1.1619351 -0.64435077 -0.045382194
000040 fd 6d 30 c0 0b 9d 92 3e 6e 0e 46 bf dc 20 6b 3f
       -2.7567132 0.2863544 -0.7736577 0.91847014
000050 0d f7 94 bd 34 a6 8a 3f 25 7e a1 bd 41 f4 41 bd
       -0.07273684 1.0831971 -0.07885388 -0.04735208
000060 44 03 15 3f 26 86 3b be ab 56 8e 3f 1a 34 b6 be
       0.5820811 -0.18312892 1.1120199 -0.35586625
000070 60 bb 6b bf 12 35 2e bd d8 84 4b bf e9 c3 9d be
       -0.92082787 -0.04253108 -0.7949958 -0.3081353
000080 e1 78 eb be 88 9c a7 3f 5b 72 06 c0 d6 8c a4 3e
       -0.4599066 1.3094645 -2.1007297 0.321387
000090 74 51 a2 3e ab 78 a7 3f d2 10 7b c0 11 ae 70 3e
       0.3170277 1.30837 -3.9229016 0.23503901
0000a0 49 c4 29 c0 d4 68 84 be 24 1b 55 3e 5e d2 f1 bc
       -2.6526053 -0.25861228 0.20811135 -0.029519256
0000b0 98 cb 69 be 03 b6 21 3f 22 ae 4f 3f 94 14 03 3f
       -0.22831571 0.6316835 0.8112508 0.51203275
0000c0 3f 1a fb 3e eb f9 15 40 e5 36 1e 3f 4b fb b6 3e
       0.49043462 2.3433788 0.6180251 0.35738596
0000d0 d0 ba a7 3e d4 43 dd be a4 00 32 bf a8 fd 5c 3e
       0.32759714 -0.4321581 -0.6953223 0.21581137
0000e0 a6 78 ff 3e 82 d8 f3 3f bc c9 09 bf ac 65 5c 3e
       0.49896735 1.9050448 -0.5382345 0.2152316
0000f0 b7 e0 4a 3f 7b 72 89 3f f1 7f 8a 3f a6 0f 26 3f
       0.7924914 1.0738062 1.0820295 0.6486763
000100 06 73 a2 3f c8 bc db 3f 1c b6 0c 3f ad 28 b1 3e
       1.2691352 1.7166986 0.54965377 0.34601346
000110 bf 61 89 3f d2 5a c2 3f e4 39 e6 bf d5 e8 e1 bc
       1.0732955 1.5183966 -1.7986417 -0.027576843
000120 82 35 74 bd 15 25 0b 3f 89 a0 a7 3d 3e ea c2 3c
       -0.05962134 0.5435346 0.081849165 0.023793336
000130 94 6d a2 3f c3 14 ed 3f 53 62 43 3f 33 c8 d2 3e
       1.268969 1.8521961 0.76321906 0.41168365
000140 dc f6 c7 3f 67 13 11 40 8e f4 31 bf 66 f5 53 bd
       1.562221 2.2668092 -0.69513786 -0.051747702
000150 73 8b 90 40 76 1f 67 be 0e bc 97 3d c8 0a dc 3e
       4.5170226 -0.22570595 0.074089155 0.42976975
000160 34 25 35 bf 93 a2 83 bf 42 18 3d c0 ec 73 84 3f
       -0.7075989 -1.0283989 -2.9546056 1.0347877
000170 5e 6b f6 bc ac 27 52 bf 2d 93 ed bf 97 7f 66 bf
       -0.030080494 -0.82091784 -1.856054 -0.90038437
000180 0c 4c 82 3d b5 1f 23 be 75 04 7b 3c 37 34 2e 3d
       0.06362161 -0.15930064 0.015320887 0.042530265
000190 4c 65 84 bd 8a e5 17 bc 30 af 15 bc 6d 17 8a bb
       -0.06464633 -0.009271035 -0.009136006 -0.0042142184
0001a0 cf 4b ed 3f b9 8f 19 bf 55 4e 6d be f9 a1 96 be
       1.853876 -0.5998493 -0.23174413 -0.2942045
0001b0 52 74 30 c0 af 9a a8 3f 2b 15 0b 3e f9 2c 17 bf
       -2.7570996 1.3172206 0.13582294 -0.59053
0001c0 a1 68 83 be 8d 7b 11 c0 fa a5 73 be c2 10 6c 3f
       -0.25665763 -2.273166 -0.23793784 0.9221307
0001d0 92 d9 e7 bf 68 1f 59 3f 10 bc c4 be e4 07 f8 3e
       -1.8113272 0.8481355 -0.3842473 0.4844352
0001e0 57 e0 76 be 85 2e b6 bc a8 55 ed 3e 3a ba 31 bc
       -0.24109016 -0.02223898 0.46354413 -0.0108476225
0001f0 23 90 33 3d 03 da 75 3f 19 21 07 3f 81 67 a3 bd
       0.04383863 0.96035784 0.5278488 -0.07978726

critic_net.layers.0.bias f4 [32]
000000 cc 69 ed 3d 19 b3 41 bd 67 b8 46 be 89 6d a0 3e
       0.11592445 -0.04728994 -0.19406281 0.3133357
000010 2a c3 16 be 82 dd 0f 3d 5b 43 2f 3e 3f e0 d1 be
       -0.14722887 0.035123356 0.17115538 -0.409914
000020 97 ed 8f 3d c1 fb 19 3e b9 7b c7 3b 98 85 82 be
       0.070277385 0.15037443 0.006087747 -0.2549255
000030 f1 bb 2a 3e 90 5d f0 3e 3f ea 58 bb 4b 79 d0 3e
       0.16673256 0.46946383 -0.0033098606 0.4071754
000040 90 a5 e5 be e3 23 88 be 87 45 c0 3e da 5e f8 be
       -0.44852877 -0.2658988 0.37553045 -0.48509866
000050 fc cd 0d 3f ab 2d 90 3d 01 59 4f be 71 1b 30 3f
       0.5539243 0.070399605 -0.20248796 0.6879187
000060 3e b5 fd 3e b4 e7 d5 be 95 49 85 3e 86 8d 3e be
       0.4955234 -0.41778338 0.260327 -0.18608674
000070 65 fa 04 3d 1c 87 60 3e bd 57 da be fd 9b c9 3d
       0.032465357 0.2192654 -0.42645064 0.098442055

critic_net.layers.2.weight f4 [32, 32]
000000 8d b5 31 3e dc c9 ef 3d d9 d8 34 be 42 0d 96 3e
       0.17354412 0.117084235 -0.17660846 0.2930699
000010 9b 94 85 3e db ef 4f 3d 3e b3 01 3e a5 c8 d5 bd
       0.2608994 0.050765853 0.12666032 -0.104386605
000020 5a d2 21 3e 3c 59 c4 3b 61 cd f3 bd 49 9b 79 bd
       0.15802899 0.005992083 -0.11904407 -0.060939107
000030 9b 34 3c be 99 ed 89 3e a6 1e 5b be 52 f1 d0 be
       -0.18379442 0.26939085 -0.2139841 -0.40809113
000040 d6 cb 0c 3e 55 b4 88 bd 6a 38 f5 3d 0d 8a ae 3d
       0.13749632 -0.066750206 0.11973651 0.08522425
000050 4b 0e 72 3d 59 31 14 be 3f b1 bb 3d a2 30 69 bd
       0.059095662 -0.1447195 0.091646664 -0.056931145
000060 17 3c 60 3e f8 1c cc be 31 63 8d 3e bc 71 13 be
       0.21897922 -0.3986585 0.2761474 -0.14398855
000070 92 44 10 3d b3 35 d3 bd 49 cd f3 bd d2 c9 7d 3d
       0.035221644 -0.10312977 -0.119043894 0.06196005
000080 89 7b 4a 3d 31 eb 04 3e 74 ac 04 be 20 9a 3a 3e
       0.04943422 0.12980343 -0.1295641 0.18222857
000090 d5 ba 70 3e 4f 4b 31 be 86 dd 9c 3d c4 c1 1f 3e
       0.23508771 -0.17313884 0.0765944 0.1560126
0000a0 76 73 3b 3d fc 73 af 3d e2 57 21 3e 1e b5 4f be
       0.04576441 0.08567044 0.15756181 -0.20283934
0000b0 bf 47 29 bc b4 32 5d 3e f6 09 63 be 56 8d f0 be
       -0.010332047 0.21601373 -0.22171769 -0.4698283
0000c0 16 7b 91 3d fa d1 cc 3d d0 f2 bc 3e 70 96 8e 3e
       0.07103555 0.10000987 0.36904 0.2784915
0000d0 be c2 b3 bc b2 69 86 bd b2 5b 2a 3d 3a 94 12 be
       -0.021943446 -0.065631285 0.041591354 -0.14314356
0000e0 66 93 ab 3e 8e 0b 76 be 23 11 4c 3e d1 36 61 be
       0.33510894 -0.24027845 0.19928412 -0.21993567
0000f0 8b 90 92 bd 13 44 2e be 01 05 8c be 4d 0e 2e 3e
       -0.07156476 -0.17018156 -0.27347568 0.16997643
000100 54 e0 28 bf 37 a9 15 be 00 03 a5 3f 9d 12 f3 bd
       -0.659673 -0.14615332 1.289154 -0.118687846
000110 6d 23 27 3f 39 4d 22 3f 0d 01 89 be f6 ad 2d 3f
       0.6528843 0.6339908 -0.26758614 0.6784357
000120 b1 04 8a 3e 42 00 f0 3d 6b 0d a1 3e 46 3b 03 be
       0.26956704 0.11718799 0.3145555 -0.1281558
000130 62 db bc 3c c7 43 26 bd a6 4c 12 3f bb 77 61 bf
       0.023053829 -0.04059198 0.57148206 -0.8807332
000140 5b 87 21 be 0f 7c 88 3e 9d 87 7f 3e be a2 11 bc
       -0.1577429 0.2665715 0.24954076 -0.008888898
000150 93 43 a2 3d fe 4a 23 bf f0 56 18 3e fc 2e 9b 3d
       0.07923045 -0.63786304 0.14876914 0.07577321
000160 c0 12 78 bd 5a c8 aa bb ee 0a cb be 46 ee 1b 3f
       -0.060564756 -0.005211872 -0.39656776 0.6091045
000170 79 5a 08 bf ae 52 86 3e e1 87 0e 3e bb 30 8e 3e
       -0.5326305 0.26234955 0.13919021 0.27771553
000180 29 16 87 3c 65 44 87 3b ef cd 62 be e8 73 e5 bd
       0.016490059 0.0041280263 -0.2214887 -0.11203748
000190 75 d6 19 3c 8d bb 1f be 72 54 fe 3d 69 3b 5f 3d
       0.009389509 -0.15598889 0.124184504 0.054500017
0001a0 e7 c9 e8 3d 7e 7a 31 bd 7b 10 09 3e 55 99 da bb
       0.11366635 -0.04332971 0.13385193 -0.0066711106
0001b0 c6 50 2c 3e ca eb 78 3c af 87 67 be 90 45 bf 3e
       0.16827688 0.015192935 -0.22610353 0.3735776
0001c0 12 b9 e9 bd da e3 82 be fe 57 a9 be f4 ab ad bd
       -0.114122525 -0.25564462 -0.33074945 -0.08480063
0001d0 2b 02 94 3e a9 cc ac 3c 79 40 f9 bd 16 32 5e 3e
       0.28907904 0.021093683 -0.121705 0.21698794
0001e0 39 8d 6e be 22 78 8c 3e 6f 13 c8 bd bb 23 6b 3c
       -0.2329606 0.27435404 -0.09769332 0.0143517805
0001f0 b0 1a c5 3c 24 bf 9f 3d 50 b1 1a 3e 7d 22 b4 bd
       0.024060577 0.07800129 0.15106702 -0.087956406
000200 a6 82 93 3e 0a c9 ba 3c 6e c1 f1 be 3a bd 69 3e
       0.28810614 0.022800941 -0.47217888 0.2282609
000210 6a 43 c8 be ec a4 07 be f7 fe ac 3e af 23 eb be
       -0.39113933 -0.13246506 0.33788273 -0.45925662
000220 ad 45 f8 bd 44 2e 05 be 23 e1 05 bf 9f 5b 16 be
       -0.121226646 -0.1300593 -0.52296656 -0.14683388
000230 1d 1b d6 3e 52 cc 08 3e ae 72 21 3c 6a 2e b0 3e
       0.4181756 0.13359192 0.009854002 0.3441041
000240 0e bf 0b 3e 72 02 50 be 81 52 aa 3e ac 4e 84 3e
       0.136471 -0.20313433 0.3326607 0.25841272
000250 ff 7c 52 3d ca da 23 3f 07 40 ad bd af d1 5a be
       0.051388737 0.6400572 -0.08459478 -0.2136905
000260 d7 64 99 3e 8e 36 ec bd b1 20 80 3e 3e f2 8e be
       0.29959747 -0.11533843 0.25024942 -0.2791919
000270 f2 fd f7 3d ba 28 67 bd 9a 3c ec bd 6e b7 a0 3d
       0.12108983 -0.056435324 -0.11534996 0.078474864
000280 c1 21 d1 3f 19 9e 8c 3e db 5a 16 bf 5a cf 78 3e
       1.6338426 0.2746437 -0.58732384 0.24297848
000290 05 b9 8d bf 6b 51 c8 be 9b 20 dd 3e 45 cb 03 bf
       -1.1072088 -0.39124617 0.43188938 -0.5148204
0002a0 92 67 90 be 2a 12 bc bc e2 bb e3 bf 57 8a 96 be
       -0.28204018 -0.02295788 -1.7791712 -0.2940242
0002b0 86 e8 9a 3d 74 9f b7 3d f3 80 6f bd 08 d4 3d bd
       0.075638816 0.0896596 -0.058472585 -0.046344787
0002c0 29 70 8d 3e fb 2c d4 3e 83 cc 92 3d ef 5e 3b 3e
       0.27624634 0.41440567 0.07167914 0.18297933
0002d0 6e 46 62 3e a0 06 ef 3f 7b b7 83 be 98 ab 0c be
       0.2209718 1.8673897 -0.25725922 -0.13737333
0002e0 c4 1f 82 3e a6 b3 8d be 63 20 1d 3f 5d 6f 5e bf
       0.2541486 -0.27676123 0.61377543 -0.86888677
0002f0 27 6d b0 bc 6b da 2d bf af a7 02 3d e0 44 6d bd
       -0.021536423 -0.67911404 0.031898197 -0.057927012
000300 e7 45 55 bf a8 72 2b bf 82 92 87 3e be 0f 8e be
       -0.8330979 -0.66971827 0.26478964 -0.27746385
000310 76 e5 24 bc db 3d d2 3e a9 46 2f bd aa 44 cd bb
       -0.010064473 0.41062817 -0.042791996 -0.006264289
000320 6f 93 86 3d 17 3e c3 3e 6c 44 30 be 85 2a 06 3f
       0.065710895 0.38133308 -0.17213601 0.5240863
000330 fa 10 9b 3f cf 99 02 be 3d d9 94 3f 26 28 83 3e
       1.2114556 -0.12753986 1.1628796 0.25616568
000340 62 a4 61 3f e5 47 bf 3e 3a 59 7e bd 55 8d 84 3f
       0.88141453 0.3735954 -0.06209681 1.0355631
000350 04 cd 10 be 75 98 c6 be f7 5e 90 be b8 38 57 bf
       -0.14140707 -0.3878819 -0.28197452 -0.8407092
000360 5c 20 95 bd 4e 72 2e 3e ef fc ee be 31 58 e5 3e
       -0.07281563 0.17035791 -0.46677348 0.44793847
000370 eb ab 36 bf 59 88 80 bd d0 d2 07 3e b5 23 a8 3e
       -0.71356076 -0.06276006 0.13264012 0.32839742
000380 b6 90 1f 3d 97 b4 94 3d 90 ab df ba 2e b2 b9 3d
       0.038956366 0.07261007 -0.0017064679 0.09067188
000390 b7 6c aa bd 7b 50 e9 bc 2f 91 2f be 59 79 c8 bd
       -0.08321517 -0.028480759 -0.17145227 -0.0978877
0003a0 8a f2 48 3d fe fc 5b bd 2d 10 5f 3d ed 1a 9e 3d
       0.04905943 -0.05370807 0.054458786 0.077199794
0003b0 06 03 f1 ba f7 82 25 be cf da a0 bd c1 bd 52 3e
       -0.0018387742 -0.1616324 -0.078542344 0.20580198
0003c0 ac 83 0e be 44 92 ad bb 8f 08 2b be 82 1f 1f be
       -0.13917416 -0.0052969772 -0.16702484 -0.15539363
0003d0 78 9b 92 3e 97 00 1c be 59 2b 28 be 91 36 20 3e
       0.28634238 -0.152346 -0.16422786 0.15645815
0003e0 0d b1 92 bd 88 8e 92 3e 2e 02 47 bd 13 95 3e bd
       -0.07162676 0.28624368 -0.048586063 -0.046528887
0003f0 f4 b7 da 3d f3 4e a9 3d d1 53 32 3d 5b df 80 bb
       0.106796175 0.082670115 0.043536965 -0.003932876

critic_net.layers.2.bias f4 [32]
000000 54 9b c5 3e ce d4 b9 3e 7e 6a 54 bd d4 cf e0 be
       0.38595068 0.3629517 -0.05185937 -0.4390856
000010 4b 1b c3 3e 2e 20 3c bb a2 e4 97 bd 6b de 4e be
       0.3810676 -0.0028705704 -0.07416655 -0.20202033
000020 ce 37 a1 3e 28 3b d6 bd 55 a5 cb be be 2a 29 3e
       0.31487888 -0.10460502 -0.39774576 0.16520211
000030 63 b2 d1 be cd 13 92 3d 05 13 f3 bd cf f8 ef 3b
       -0.4095641 0.07132683 -0.11868862 0.0073233615
000040 d3 c2 5c 3d a1 9f 25 3e 71 a2 15 3e 34 e7 17 be
       0.053896736 0.16174175 0.14612748 -0.1483429
000050 fb 55 d0 bb 6b c8 14 be 79 06 86 be 0b 88 d4 3c
       -0.006357906 -0.14529578 -0.26176813 0.025943777
000060 44 b5 b8 be ae df d4 be f5 1b 7f be 02 2e 17 be
       -0.36075795 -0.41576904 -0.24913009 -0.14763644
000070 27 1a 85 3e a6 b1 72 be a4 35 11 3e 02 4c c1 3e
       0.25996515 -0.2370058 0.14180619 0.37753302

critic_net.layers.4.weight f4 [1, 32]
000000 fb 41 82 be dd 18 41 be da c3 9e be cc 9f c8 3e
       -0.25440964 -0.18857141 -0.31008798 0.39184415
000010 df 31 c2 be 8f 0f dc be 75 27 94 be 53 2d 4c 3c
       -0.37928674 -0.4298062 -0.28936353 0.012461978
000020 0a 5b ad be 65 ab eb 3e 19 79 8d 3e 75 68 a8 be
       -0.3385852 0.460292 0.27631453 -0.32892194
000030 11 f9 e5 3e bf c3 ba be 5a 56 b4 be d7 a2 cd 3b
       0.44916585 -0.36477467 -0.3522213 0.0062755155
000040 11 22 39 be b3 97 50 3c 0d 29 af bc 64 92 ae 3e
       -0.18079402 0.01273148 -0.02138188 0.34096062
000050 0d a7 a8 be 22 2b b8 be 73 dc 6e 3e 90 97 43 be
       -0.3293995 -0.35970408 0.23326282 -0.19100785
000060 f0 de 84 3e fa e2 f6 3e 50 12 a8 3e 41 07 9a bb
       0.25951338 0.48220044 0.3282647 -0.0047005718
000070 22 05 14 be 67 d3 1c bf 7f 70 c1 be 61 2f 37 be
       -0.14455083 -0.61260074 -0.3778114 -0.17889167

exp_avg f4 [32, 4]
000000 44 df 69 b8 e0 24 a1 37 55 73 f8 ba ed f6 6f 3a
       -5.575946e-05 1.9209867e-05 -0.001895527 0.0009153921
000010 0f 5e 8d ba 00 0a bc b8 c1 5e 6b b8 a1 0e fd b9
       -0.0010785478 -8.966401e-05 -5.6116613e-05 -0.0004826682
000020 b3 70 1e ba 7c fe 8e 38 ec 3d 9b b9 15 9e 9f 3a
       -0.0006044015 6.818489e-05 -0.0002961004 0.001217785
000030 d6 ea d4 ba f3 2f f5 37 51 01 7b b9 b8 87 e1 3a
       -0.0016244303 2.9228604e-05 -0.00023937716 0.0017206585
000040 fc 07 9b b9 c4 37 25 b8 97 62 09 3a 62 3c 80 39
       -0.00029569853 -3.9391e-05 0.0005240826 0.0002445905
000050 42 5f 2d b9 2b 32 e4 b7 0d d1 f8 39 18 71 bd 3a
       -0.00016534052 -2.720308e-05 0.00047458 0.001445326
000060 49 9b d9 39 90 55 ba 38 b2 4e bc b9 41 9b cd 39
       0.00041505162 8.8851084e-05 -0.00035916787 0.0003921632
000070 58 3c 37 ba f4 e1 1f b8 70 84 df b8 37 b2 99 37
       -0.0006989888 -3.811899e-05 -0.00010658137 1.8322009e-05
000080 1f b4 6c b8 8a 39 2a b9 65 6f b3 39 19 6c c8 b9
       -5.6434536e-05 -0.00016233898 0.00034224536 -0.00038227512
000090 f2 6d c3 b9 44 ce a0 b9 05 48 2e 3a 67 05 09 bb
       -0.00037275214 -0.00030671258 0.0006648305 -0.002090776
0000a0 15 79 07 39 6f 6b e4 b8 09 78 fa 3a 0a c7 93 ba
       0.0001291971 -0.00010891898 0.001910926 -0.0011274528
0000b0 67 33 28 3a 8f 21 3a b7 21 44 42 39 ca 3e 5b ba
       0.0006416351 -1.1094277e-05 0.00018526662 -0.00083635433
0000c0 a6 1d 28 3b b9 da f5 b8 fa ac 00 3b 56 f0 c6 ba
       0.0025652437 -0.00011723251 0.0019634352 -0.0015177827
0000d0 5f db 81 ba 89 72 21 34 89 70 6e 38 74 a5 38 3a
       -0.0009907297 1.5035961e-07 5.684843e-05 0.00070436974
0000e0 48 7b c8 3a 43 6c 2f b9 1f 06 61 39 1f b5 07 ba
       0.001529553 -0.00016729631 0.00021459952 -0.00051768305
0000f0 01 4d aa 3b 8c 2d 6b b9 5f 29 19 3b 57 ac 9b bb
       0.005197168 -0.00022428314 0.0023370606 -0.004750769
000100 ed 24 52 3a bc 0d f0 38 a3 eb 81 ba 86 fe 0a 3b
       0.00080163666 0.0001144665 -0.0009912144 0.0021208837
000110 57 c5 75 3a af 74 d6 b8 08 84 0b b9 33 37 cc 3a
       0.0009375414 -0.00010226049 -0.00013305258 0.0015580415
000120 06 53 d4 ba d2 3d fa 38 aa ce b0 b9 a6 9f 6a 3b
       -0.0016199059 0.00011932444 -0.00033723313 0.0035800724
000130 2b 2a 7e 3a 17 06 bb 38 4e ab cd ba 70 28 56 3b
       0.00096956146 8.917989e-05 -0.0015691312 0.0032677911
000140 0b dd 2f 3b ec 18 37 b9 5d 2d 97 3a 72 e1 81 bb
       0.0026834633 -0.00017461524 0.0011533905 -0.0039636428
000150 d3 c2 80 38 c1 eb aa b8 d8 0a e4 ba 32 db 4c 39
       6.1398045e-05 -8.150144e-05 -0.0017398251 0.00019536613
000160 42 4a 17 ba b4 52 08 b8 33 cf 8d 39 9c 36 59 ba
       -0.0005771258 -3.250195e-05 0.0002704799 -0.00082860305
000170 6a 0c f3 3a ca 1b ac b8 39 96 b5 b9 ab 82 3a bb
       0.0018543128 -8.206775e-05 -0.00034634935 -0.0028459232
000180 61 7d df ba 9a 68 04 39 a4 b1 96 b8 f3 eb 20 3b
       -0.0017050916 0.00012627468 -7.1856455e-05 0.00245547
000190 ca 44 0d 3b 6d b8 00 b9 51 8d 1e 39 5d bc 81 bb
       0.0021555894 -0.00012275735 0.00015120699 -0.003959222
0001a0 c5 9a 2a b9 94 bc e6 37 fa 0e a3 37 7f 03 02 3a
       -0.0001627012 2.750595e-05 1.9438088e-05 0.00049596274
0001b0 ea 50 fd 38 99 92 9f 37 cb 68 29 3a b1 00 4a ba
       0.000120790515 1.9022542e-05 0.0006462454 -0.00077057915
0001c0 9e 04 01 bb d8 e0 73 38 b5 e8 23 b9 b5 91 8c ba
       -0.001968659 5.8145117e-05 -0.00015631581 -0.0010724576
0001d0 1b 3c 96 39 ea d4 03 b9 23 9f 6a 3a 4a 67 b4 ba
       0.00028655012 -0.0001257245 0.0008950105 -0.0013763693
0001e0 33 3a bc 3a 8b 7c 40 b8 79 e6 ab b9 d0 7e df ba
       0.0014360606 -4.5892357e-05 -0.00032787377 -0.0017051343
0001f0 43 ca c4 b9 37 2f af 38 4a 18 0a b9 3c fb 12 3b
       -0.0003753473 8.353445e-05 -0.00013169754 0.002242758

exp_avg_sq f4 [32, 4]
000000 91 14 85 36 22 08 e8 34 f4 50 44 38 ff d0 1d 38
       3.966103e-06 4.3219285e-07 4.6805435e-05 3.762636e-05
000010 f4 50 ec 37 10 03 df 34 14 a2 56 36 2e 53 ca 37
       2.8171089e-05 4.1539215e-07 3.1982827e-06 2.411901e-05
000020 e6 78 0f 38 d2 4a 86 35 7f 83 77 38 5e 07 a0 38
       3.4206452e-05 1.0005554e-06 5.9011854e-05 7.630767e-05
000030 2b 8d 98 38 8e ee 6b 35 5c e4 ec 37 8b d8 4d 38
       7.2742194e-05 8.7891465e-07 2.823973e-05 4.907748e-05
000040 c0 4d 89 36 02 cd fc 34 6f 88 ab 37 c0 c9 b4 37
       4.0919695e-06 4.708782e-07 2.044832e-05 2.155162e-05
000050 8e db 04 38 1f 85 71 35 90 f7 4e 38 56 5b 75 38
       3.167573e-05 8.9973213e-07 4.9344788e-05 5.8497615e-05
000060 af 74 e7 36 8d b9 98 33 2c 6e 85 36 b4 ff 79 36
       6.8979202e-06 7.111803e-08 3.9765346e-06 3.725273e-06
000070 17 88 d6 37 fc e6 8f 34 e6 89 28 37 bc 76 be 37
       2.557416e-05 2.680389e-07 1.0045687e-05 2.2705055e-05
000080 e7 9e fd 36 5d 53 76 34 c8 76 ae 35 c0 0b 38 37
       7.5584862e-06 2.2940863e-07 1.299858e-06 1.096999e-05
000090 82 6a 6f 38 b1 1a 73 35 4f 17 5d 36 12 98 7d 38
       5.7081234e-05 9.0563395e-07 3.2945134e-06 6.0461527e-05
0000a0 7c cd ed 35 8b 12 57 35 a8 25 12 38 df 26 23 38
       1.771768e-06 8.0120725e-07 3.4844183e-05 3.889843e-05
0000b0 0c 60 09 37 11 69 40 34 d2 b7 08 37 8b 38 66 37
       8.188199e-06 1.7919616e-07 8.149031e-06 1.3722233e-05
0000c0 f0 33 86 39 4e 52 39 36 ad ff c5 38 ef ca ca 38
       0.00025597168 2.7615056e-06 9.441315e-05 9.66991e-05
0000d0 b7 e9 65 37 57 5c 88 34 fc 86 c7 36 35 39 64 37
       1.370388e-05 2.539916e-07 5.9463764e-06 1.3603179e-05
0000e0 24 a6 83 38 87 82 9b 35 ee d4 b5 37 f6 22 ee 37
       6.277513e-05 1.1586388e-06 2.1676035e-05 2.838809e-05
0000f0 46 5a 1e 3a 6e 8e 12 37 66 a2 d1 39 8d db 0a 3a
       0.00060406735 8.73544e-06 0.00039984583 0.0005296998
000100 a3 12 38 38 72 91 c4 35 03 0b fe 38 a0 0c ae 38
       4.3886375e-05 1.4645468e-06 0.00012113715 8.299318e-05
000110 d3 ee 06 38 1e cf a7 35 e4 e9 b5 37 72 4a 73 38
       3.2170512e-05 1.2502749e-06 2.1685795e-05 5.8005047e-05
000120 e8 91 08 39 dd b0 2d 36 f7 ef 1c 39 f9 3e 2e 39
       0.00013024325 2.5881957e-06 0.00014966713 0.00016617392
000130 86 e0 fa 38 f1 d8 84 36 8a 0a 82 39 48 23 59 39
       0.0001196275 3.959162e-06 0.00024803384 0.00020707876
000140 c4 d3 66 39 5e fa 69 36 1c d8 38 39 d5 6f 33 39
       0.00022013398 3.4865438e-06 0.00017628114 0.00017112431
000150 78 1e 0d 35 ff 93 af 34 aa cf f2 37 68 d3 85 37
       5.257093e-07 3.2703971e-07 2.894535e-05 1.595328e-05
000160 74 3b 43 37 b9 1e 2d 34 d5 0b a1 35 ff ad 07 37
       1.1636748e-05 1.6123057e-07 1.1998878e-06 8.087139e-06
000170 69 a6 55 39 e3 f3 80 36 6e 3e 80 39 18 7e 6d 39
       0.00020375256 3.8430894e-06 0.00024460576 0.00022649055
000180 7f 69 b9 38 c0 6a d4 35 73 20 ab 38 53 63 c5 38
       8.8411376e-05 1.5826299e-06 8.1599595e-05 9.4121926e-05
000190 d8 43 43 39 bf 3b 5a 36 24 bf 38 39 b6 fc 50 39
       0.00018621923 3.2519308e-06 0.00017618813 0.00019930568
0001a0 61 18 e5 35 00 14 91 33 ae eb e0 36 b4 84 be 36
       1.7068925e-06 6.755727e-08 6.703157e-06 5.67789e-06
0001b0 eb 86 0c 36 28 c4 37 34 2f b7 ca 36 73 bf ed 36
       2.0940158e-06 1.7114564e-07 6.0413945e-06 7.085438e-06
0001c0 60 29 80 38 83 f4 c6 35 48 75 42 38 5f ba 1e 38
       6.111222e-05 1.4823312e-06 4.636243e-05 3.7843707e-05
0001d0 6e 71 9f 37 0f 0f 5f 35 df c5 1f 38 8c 89 3f 38
       1.9007097e-05 8.3095887e-07 3.8092836e-05 4.566605e-05
0001e0 01 55 51 38 86 eb 65 35 95 c4 43 38 e6 46 58 38
       4.990865e-05 8.565188e-07 4.6674704e-05 5.1564442e-05
0001f0 ef fb 10 38 3e 7d 83 35 bc e3 34 38 d8 a8 7b 38
       3.4566907e-05 9.796711e-07 4.312744e-05 6.000031e-05

exp_avg f4 [32]
000000 fe 14 71 bb 65 72 bf ba 0b fe eb 3b a3 3f 32 3c
       -0.0036786194 -0.0014606236 0.007201915 0.01087943
000010 db f9 10 3c 9f 9b 3c 3c c1 45 4c 3a 8f 4b 07 3b
       0.008848633 0.011511712 0.00077923766 0.0020644402
000020 95 7d 93 38 07 d0 b5 bb c5 60 4d 3b fc 68 9d bb
       7.032898e-05 -0.0055484804 0.0031338197 -0.004803775
000030 b5 e7 51 bb 84 3c d2 3b df f1 b4 3b 80 ac fc bc
       -0.0032028977 0.0064159054 0.0055219973 -0.030843973
000040 72 34 3d 3c a3 67 01 3c 14 c5 b1 3c b1 cf a0 3c
       0.0115481485 0.007898244 0.02170042 0.019630285
000050 b4 37 8e bc dd 13 c2 bb bd 41 d2 ba eb 9e ae bc
       -0.017360546 -0.005922778 -0.001604132 -0.021316012
000060 12 f7 8a 3c 50 b6 c6 bc 67 bb bd 39 2e 10 78 b9
       0.016963515 -0.024256855 0.00036188515 -0.0002365715
000070 d5 d1 02 bc 5a 83 fa bb a0 63 54 bc c0 29 6b 3c
       -0.007984598 -0.007645053 -0.012963206 0.014353216

exp_avg_sq f4 [32]
000000 98 8e 0e 3a 75 4f 9c 39 ce 91 ce 3a 96 69 e1 3a
       0.0005438118 0.0002981384 0.0015760006 0.0017197605
000010 e3 e8 8a 3a 4a 9a e2 3a 33 da b3 38 84 8c b8 39
       0.001059797 0.0017288413 8.576028e-05 0.00035199907
000020 97 13 0e 39 95 8e 56 3a 9c e9 09 3a f6 00 da 39
       0.00013549473 0.00081846985 0.0005260946 0.00041580916
000030 4d e3 ee 3a 85 8b 15 3a c0 01 41 3a 54 a5 7c 3c
       0.00182257 0.0005704689 0.00073626265 0.015420277
000040 d5 19 0d 3b a3 bb d2 3a 1c 15 b0 3b 8e 5b cb 3b
       0.002153029 0.0016077649 0.00537361 0.0062059825
000050 49 53 a8 3b 43 c5 ce 39 17 c4 0c 39 f2 41 c8 3b
       0.0051368815 0.00039438353 0.0001342449 0.006111377
000060 31 bd 55 3b e5 7d e1 3b 3e e5 d0 38 3c dc 80 39
       0.0032613988 0.006881463 9.9609126e-05 0.0002457815
000070 9f 7a de 3a bf 1c b3 3a 92 9f fc 3a b6 5b 06 3b
       0.00169738 0.0013665183 0.001927363 0.0020501441

exp_avg f4 [32, 32]
000000 2b 73 88 ba 5b f3 25 b8 9a b3 1e ba 7a 5c 5e 3a
       -0.0010410299 -3.9565708e-05 -0.00060539844 0.0008482408
000010 88 5f 86 3a 44 c1 88 39 4a 99 68 39 2b 97 85 ba
       0.0010251859 0.00026083936 0.00022182349 -0.0010192146
000020 03 a6 12 3a e0 08 e4 39 d9 19 87 3a fa e4 ea b9
       0.00055941957 0.0004349416 0.0010307386 -0.0004480256
000030 d7 ae 25 3a d9 88 bb 3a 25 2f 1f b9 d2 22 a3 3a
       0.00063203037 0.0014307752 -0.00015180984 0.001244629
000040 fc d6 ea ba 71 46 a0 ba 78 44 cb 3a ad a7 f3 ba
       -0.0017916854 -0.0012228024 0.0015508076 -0.00185894
000050 e2 81 60 3a 2b 05 64 ba d1 42 56 b9 38 6f f3 3a
       0.0008564276 -0.000869828 -0.00020433521 0.0018572574
000060 7e 96 ee 3a 2f 6e cc ba 00 15 af b9 4d 6a 9d 39
       0.0018202809 -0.0015596802 -0.00033394247 0.00030024574
000070 a3 f9 d5 39 05 24 ec 3a 79 41 b1 ba e6 b9 f4 39
       0.0004081252 0.0018016106 -0.0013523541 0.00046677812
000080 6f 89 22 ba 46 68 ec b6 66 81 3f ba ea 81 70 3a
       -0.0006200289 -7.045487e-06 -0.00073053536 0.0009174632
000090 67 c8 39 3a a2 0e 54 39 f3 26 84 39 ad a8 97 ba
       0.0007087052 0.00020223347 0.0002520602 -0.0011570655
0000a0 39 03 0d 3a 45 51 12 3a 5b d7 25 3a e6 43 03 ba
       0.00053792034 0.0005581568 0.0006326341 -0.0005007371
0000b0 9a ea 2d 3a 3b 42 c4 3a eb 1f 37 b8 18 7a b0 3a
       0.00066343846 0.0014973351 -4.3660326e-05 0.0013464121
0000c0 3c 2d cb ba 89 6e 86 ba 0c 93 be 3a ad 7b d4 ba
       -0.0015501152 -0.0010256331 0.0014539673 -0.0016211175
0000d0 95 20 92 3a fb 46 d6 b9 9c df e7 b8 c7 e7 e7 3a
       0.0011148626 -0.00040870145 -0.00011056589 0.0017692976
0000e0 8b 56 e6 3a 7d 15 c5 ba 2e 0c 81 36 cc 15 08 b9
       0.0017573399 -0.0015036311 3.8459175e-06 -0.0001297809
0000f0 db c7 f5 39 1b 0e c2 3a 63 cc b3 ba 2d 31 d2 39
       0.00046878945 0.0014805229 -0.0013717528 0.0004009096
000100 06 91 ee b9 b6 43 98 39 61 10 38 ba 87 d4 73 3a
       -0.00045502948 0.00029042148 -0.00070214836 0.00093013834
000110 6a c1 8d 3a b2 c4 59 39 69 39 35 b9 8e a4 8c ba
       0.0010815088 0.00020768007 -0.00017282892 -0.0010730193
000120 1d 34 89 3a 10 b8 ab 3a b5 6d e5 39 f1 da 03 ba
       0.0010467801 0.001310112 0.00043760022 -0.0005029878
000130 c8 b4 33 3a cd 27 cb 3a cb 30 b2 39 c4 4e ae 3a
       0.00068552466 0.0015499532 0.0003398716 0.001329862
000140 54 77 b2 ba 58 37 ff b9 a3 0e 9e 3a 70 cb bd ba
       -0.0013615885 -0.00048678624 0.0012058805 -0.0014480185
000150 0e 6b ba 3a 02 0a 78 b9 1c 0f f0 39 dc 29 cd 3a
       0.0014222579 -0.00023654851 0.00045787625 0.0015652734
000160 25 f0 c1 3a ed 99 a5 ba 9d 35 2f 39 72 98 d4 b9
       0.00147963 -0.0012634374 0.00016709273 -0.00040549372
000170 97 a5 51 3a a6 4f ca 3a b9 c9 ae ba fd 6f 46 39
       0.0007997392 0.0015435114 -0.0013335265 0.0001892447
000180 c7 0b 76 3a c1 38 9f b9 c7 7d 16 3b c3 d7 47 bb
       0.000938591 -0.00030369128 0.0022963153 -0.0030493594
000190 68 8c d0 ba 59 d0 fd b9 9d 93 2d ba 32 05 6d 3b
       -0.0015910985 -0.00048411152 -0.00066214224 0.0036166427
0001a0 e3 d5 eb ba 0a 50 11 bb 76 85 90 ba d2 63 eb 3a
       -0.001799282 -0.002217295 -0.0011026103 0.0017958826
0001b0 fe 5f f8 ba b5 4b 9c bb cd 2d 1f b9 b1 45 84 bb
       -0.0018949506 -0.004769767 -0.00015180484 -0.004036628
0001c0 f0 4a 8d 3b fc 3c 25 3b cb 6b 87 bb 9f 63 95 3b
       0.0043119118 0.0025213351 -0.004132723 0.004558995
0001d0 7f d0 82 bb 2e 66 db 39 5a f7 45 b8 36 74 b0 bb
       -0.00399214 0.00041847065 -4.7198824e-05 -0.005384947
0001e0 ff 5d a8 bb ff e4 8f 3b 5c c8 52 ba 28 3d 9c 3a
       -0.0051381583 0.004391312 -0.000804072 0.0011920081
0001f0 53 fd d0 ba 18 7f 79 bb 0d 82 8b 3b c1 42 79 ba
       -0.0015944637 -0.0038070139 0.0042574466 -0.00095085433
000200 df ae c4 ba d9 60 66 39 c0 d5 16 ba 7d ae 9b 3a
       -0.0015005729 0.00021970588 -0.0005753897 0.0011877563
000210 fc 32 08 3b 41 0f b6 39 a8 c9 5a b9 5e dc 93 ba
       0.0020782342 0.0003472511 -0.00020865223 -0.0011280885
000220 b5 f2 96 3a 01 8e 5d 3a b9 8b c2 3a 5d c7 41 ba
       0.0011516424 0.0008451641 0.0014842666 -0.0007392073
000230 1e 43 3d 3a 57 17 fa 3a 3d 45 20 39 73 98 bb 3a
       0.0007219779 0.0019080442 0.00015284582 0.0014312401
000240 0b 3d 19 bb 69 6f 9d ba b9 99 e3 3a 15 7b 20 bb
       -0.0023382332 -0.0012011352 0.0017364539 -0.0024487425
000250 80 5b be 3a 42 5e e6 ba ac 4e 8f 39 9f c9 11 3b
       0.0014523119 -0.0017575698 0.000273337 0.002224542
000260 88 88 07 3b c3 8c e8 ba 26 69 ac b9 5b bd 26 3a
       0.0020680744 -0.0017742146 -0.00032884738 0.00063606136
000270 82 6f 50 3a 50 ef 25 3b 65 f6 e5 ba f9 9c b6 39
       0.0007951186 0.0025319643 -0.0017544745 0.000348307
000280 c4 8c 5b 39 cc 0c 51 3a 01 06 44 ba e3 85 87 3a
       0.00020937907 0.0007974624 -0.00074777013 0.0010339584
000290 4a 79 87 3a 83 81 52 39 81 52 0c ba af 1e 84 ba
       0.001033583 0.00020075408 -0.000535287 -0.0010079945
0002a0 77 20 c7 3a 35 98 04 3b 04 4f 9d b9 df fe 12 ba
       0.001519217 0.0020232324 -0.00030004245 -0.0005607437
0002b0 00 19 42 3a c6 c5 db 3a 10 68 42 3a e2 d9 a8 3a
       0.0007404238 0.0016767315 0.0007416019 0.0012882317
0002c0 50 36 74 ba c5 7c 8e 39 ce be 89 3a e3 39 89 ba
       -0.00093159545 0.0002717731 0.0010509135 -0.0010469522
0002d0 03 96 ef 3a e3 38 60 3a 22 be a5 3a 56 74 d3 3a
       0.001827896 0.00085533987 0.0012645165 0.0016132693
0002e0 83 0e ae 3a 25 51 94 ba 52 fb 18 3a 3f da a9 ba
       0.0013279471 -0.0011315687 0.00058357895 -0.0012958719
0002f0 48 d7 86 3a c5 83 a7 3a e5 8e b2 ba 16 2b 3d b7
       0.0010287547 0.0012780359 -0.0013622908 -1.127531e-05
000300 7e 05 04 b9 65 67 2f ba eb c9 c4 b9 49 32 be 39
       -0.00012590547 -0.0006691127 -0.00037534474 0.0003627709
000310 ba 7e 99 37 6e f4 df 38 fc da 08 3a 94 27 41 ba
       1.8298033e-05 0.00010678997 0.00052206195 -0.00073682633
000320 79 30 d2 b9 8d 45 53 ba 9d 8c 06 39 f5 0c 76 b9
       -0.00040090436 -0.0008059375 0.00012831618 -0.00023465215
000330 e7 ac da 39 28 24 22 3a 9b 88 de b8 cb 68 5b 3a
       0.00041709022 0.0006185197 -0.0001061123 0.00083698024
000340 f4 af 35 ba cb 70 42 ba a1 2b 3e 3a bb 0c 40 ba
       -0.0006930821 -0.000741732 0.0007254426 -0.0007326116
000350 1d 02 27 3a a3 30 6f b9 4a 11 80 ba 19 89 3e 3a
       0.00063708593 -0.00022810935 -0.0009770778 0.0007268354
000360 5f ee 60 3a f8 7b 42 ba 25 02 2f 39 b0 72 7f b8
       0.0008580442 -0.00074189855 0.000166901 -6.090355e-05
000370 8d 4a 6d b6 00 3f 12 3a ce 15 24 ba 01 16 b1 39
       -3.5359146e-06 0.0005578846 -0.00062593527 0.00033776465
000380 e5 8e 52 37 52 07 08 b8 9e d3 c1 38 a8 57 1c b9
       1.2550246e-05 -3.2431744e-05 9.242374e-05 -0.00014909974
000390 8a f1 6c b8 5d 4d ad b7 c2 31 a8 b7 65 44 21 39
       -5.6491735e-05 -2.0659232e-05 -2.0050331e-05 0.00015379635
0003a0 7f 7a c3 b8 93 37 fd b8 6d 0b ef b7 1c a3 cd 38
       -9.321141e-05 -0.000120743316 -2.849634e-05 9.805543e-05
0003b0 5c a8 99 b8 32 96 6a b9 8b 0f 96 b7 b8 a9 2c b9
       -7.326968e-05 -0.00022371931 -1.7888631e-05 -0.00016466423
0003c0 be 4f 4c 39 f3 66 b4 38 53 93 3c b9 16 67 5a 39
       0.00019484662 8.6022446e-05 -0.0001798396 0.00020828503
0003d0 ae 9b 4c b9 00 b2 21 b6 e2 b5 70 b7 cd e2 86 b9
       -0.00019512951 -2.409448e-06 -1.4347463e-05 -0.0002572745
0003e0 15 a6 6e b9 ef 11 4c 39 1b 60 74 b8 e2 fd 8f 38
       -0.00022759319 0.00019461637 -5.826364e-05 6.866061e-05
0003f0 77 8b 97 b8 41 1b 23 b9 e8 f1 4f 39 97 e5 04 b8
       -7.2262184e-05 -0.00015555044 0.00019831175 -3.1685075e-05

exp_avg_sq f4 [32, 32]
000000 82 72 ff 37 21 1e d7 37 6b 96 90 37 63 16 a4 37
       3.045169e-05 2.5644027e-05 1.7236182e-05 1.9560748e-05
000010 20 35 39 38 bd d4 de 35 b6 e6 d5 37 a8 4d 3f 38
       4.4156914e-05 1.6602204e-06 2.5499012e-05 4.561027e-05
000020 e0 6e f1 37 35 f7 30 38 fe ca f4 37 c9 e1 8a 37
       2.8781069e-05 4.21919e-05 2.9181592e-05 1.6556021e-05
000030 9f ad 76 37 0f 2a 2f 38 55 6c b4 36 5f 53 52 38
       1.4703167e-05 4.176242e-05 5.3770295e-06 5.0145547e-05
000040 6c cc 6a 38 59 78 52 38 9a 4f 1b 38 fc eb 7b 38
       5.598033e-05 5.0179984e-05 3.7029014e-05 6.006284e-05
000050 98 35 6f 38 39 1a 2e 38 8d f2 65 38 fb a8 9f 38
       5.7031953e-05 4.1509255e-05 5.4823748e-05 7.613186e-05
000060 48 0b 6b 38 4b 55 2a 38 26 6d f9 37 e9 37 0e 38
       5.6038873e-05 4.0610594e-05 2.973394e-05 3.390751e-05
000070 96 16 f0 36 29 f4 09 38 f7 29 1b 38 61 f7 04 37
       7.1551867e-06 3.2890737e-05 3.6993963e-05 7.9254105e-06
000080 ce 20 a6 37 9f 26 88 37 3f ce 44 37 a6 5d 7c 37
       1.9804018e-05 1.6230448e-05 1.1730531e-05 1.5042175e-05
000090 eb b4 ee 37 48 a4 87 35 7c 1a 8b 37 52 4b 06 38
       2.8456057e-05 1.0106096e-06 1.6582424e-05 3.2018237e-05
0000a0 77 f1 9b 37 2d 0f ea 37 6f ce 97 37 37 41 4f 37
       1.858988e-05 2.790204e-05 1.809673e-05 1.23533455e-05
0000b0 df 90 23 37 dc 33 04 38 a9 8f 61 36 83 15 12 38
       9.7492875e-06 3.151955e-05 3.3611234e-06 3.4829147e-05
0000c0 0a 1e 20 38 5a b3 04 38 56 62 da 37 c9 84 2d 38
       3.817495e-05 3.1638287e-05 2.6033416e-05 4.137008e-05
0000d0 2c f7 32 38 f4 c0 df 37 83 20 15 38 a3 54 69 38
       4.2668704e-05 2.6673522e-05 3.5554647e-05 5.5630353e-05
0000e0 80 0f 28 38 fe c8 f4 37 46 bd af 37 29 43 bd 37
       4.0068757e-05 2.9180661e-05 2.0949763e-05 2.256183e-05
0000f0 b8 d9 a3 36 8a 6f b1 37 b7 54 e7 37 e6 10 a9 36
       4.8831243e-06 2.1151984e-05 2.7576794e-05 5.0385597e-06
000100 99 10 f7 36 d2 f2 92 37 2a 4a 3e 36 20 58 c9 37
       7.363106e-06 1.7517628e-05 2.8355375e-06 2.4002104e-05
000110 2f 18 3a 37 6b 23 9e 35 2d 71 05 37 21 c8 47 37
       1.1092095e-05 1.1782225e-06 7.9537685e-06 1.190792e-05
000120 50 9f f2 37 f9 70 4c 38 d6 11 9c 36 f5 f9 c5 37
       2.8922834e-05 4.8742604e-05 4.6512387e-06 2.3600625e-05
000130 9a 53 6c 36 fc c0 3a 38 61 92 2f 36 99 12 6c 37
       3.5215403e-06 4.4525586e-05 2.6162236e-06 1.4071026e-05
000140 54 af 39 38 91 6d 88 37 dc ad be 37 ed 80 5a 38
       4.4270724e-05 1.6263484e-05 2.2730725e-05 5.209532e-05
000150 01 67 5b 38 76 5e 0b 37 1a b8 09 38 c6 e9 b3 38
       5.23096e-05 8.307039e-06 3.2834803e-05 8.578929e-05
000160 fa b8 18 38 63 2b de 37 2d 2b 7f 37 44 08 16 37
       3.6411897e-05 2.6484666e-05 1.5209237e-05 8.942621e-06
000170 54 3a f7 36 70 db 96 37 2f 4a 13 38 96 c0 36 36
       7.367964e-06 1.7983577e-05 3.511662e-05 2.7232213e-06
000180 de ad 1e 39 f1 80 e3 38 65 2b a8 38 61 f7 10 39
       0.00015132825 0.00010848221 8.018947e-05 0.00013825066
000190 bc 2f 57 39 d7 23 0a 37 be 4e dc 38 be bd 67 39
       0.0002052178 8.233786e-06 0.00010505084 0.00022100561
0001a0 50 57 1b 39 1a 64 61 39 6e 7d 0e 39 05 d8 ed 38
       0.00014814478 0.00021494963 0.00013588901 0.000113412774
0001b0 e5 81 84 38 2e cb 92 39 8e eb bb 37 2a be 79 39
       6.318445e-05 0.0002799867 2.2401826e-05 0.00023817332
0001c0 75 b2 a5 39 3f c8 50 39 46 e3 4f 39 9c 40 b6 39
       0.00031604213 0.00019911023 0.00019825724 0.00034761883
0001d0 5d d4 b7 39 26 03 56 39 de 25 77 39 24 64 fe 39
       0.00035062703 0.00020409803 0.00023569862 0.00048521266
0001e0 4b ef a2 39 5d 25 6d 39 18 05 2d 39 64 d7 38 39
       0.00031077335 0.00022616 0.00016500463 0.00017627847
0001f0 69 d9 1a 38 d6 f5 35 39 90 40 76 39 be d3 fa 37
       3.691894e-05 0.00017353086 0.0002348444 2.9900923e-05
000200 1b 7d 92 37 39 71 07 38 56 68 97 36 20 51 11 38
       1.7462813e-05 3.2291955e-05 4.512297e-06 3.4646248e-05
000210 74 c1 a8 37 61 a5 d8 35 85 b9 38 37 7d 92 50 37
       2.0117244e-05 1.6141386e-06 1.1010449e-05 1.2431873e-05
000220 ee 82 4d 38 b8 28 9f 38 ab df 83 37 4b b2 04 38
       4.8997746e-05 7.589295e-05 1.572057e-05 3.16373e-05
000230 a0 cf 98 36 99 67 83 38 6b 85 a0 36 e6 cb 8b 37
       4.5541237e-06 6.265863e-05 4.7839035e-06 1.6665039e-05
000240 93 dc 8a 38 92 bc 09 38 26 74 f3 37 72 98 a0 38
       6.621438e-05 3.2838965e-05 2.9021943e-05 7.65779e-05
000250 63 4f 81 38 a5 07 dc 37 7f 45 53 38 a2 fb e7 38
       6.165986e-05 2.6229603e-05 5.0371043e-05 0.000110618086
000260 a9 84 43 38 3f af 0d 38 2f ca a1 37 00 70 99 37
       4.6615172e-05 3.378023e-05 1.9286845e-05 1.8291175e-05
000270 46 4d 0e 37 bd b6 11 38 1b ba 46 38 44 9a 88 36
       8.481851e-06 3.4740882e-05 4.7380203e-05 4.0710747e-06
000280 f9 4e ef 36 fc 91 f0 37 c8 e7 37 37 c1 73 23 38
       7.1319487e-06 2.8678209e-05 1.0961616e-05 3.8970033e-05
000290 6b 99 9d 37 e5 73 04 36 9e 98 9b 37 53 c6 13 38
       1.87873e-05 1.9736992e-06 1.8548508e-05 3.5232235e-05
0002a0 e4 c1 39 38 71 54 8f 38 b6 0a 34 36 9d ad 16 38
       4.4288012e-05 6.8345e-05 2.6828325e-06 3.5924477e-05
0002b0 a3 82 34 37 62 a8 9f 38 f7 ce 93 36 26 1f 35 38
       1.0759252e-05 7.6130746e-05 4.4050353e-06 4.3182772e-05
0002c0 0e 62 8f 38 bc 2a 09 38 53 1a 35 38 dc 95 a6 38
       6.8370355e-05 3.2703145e-05 4.317828e-05 7.94341e-05
0002d0 04 cb c7 38 16 22 8b 36 86 9f 66 38 93 5a 0a 39
       9.526874e-05 4.146491e-06 5.498484e-05 0.00013194447
0002e0 57 ef 8f 38 8a 9a 50 38 f8 81 e1 37 36 68 70 37
       6.863352e-05 4.973499e-05 2.6882612e-05 1.4329378e-05
0002f0 23 54 38 37 5a de e1 37 36 3e 80 38 b5 af d0 36
       1.0986844e-05 2.692563e-05 6.115103e-05 6.219338e-06
000300 53 9e 2e 37 22 f2 50 37 75 36 01 37 fd 28 63 36
       1.0408071e-05 1.2454142e-05 7.701678e-06 3.3849494e-06
000310 33 a8 8a 37 db ad db 34 61 e1 41 37 2b ca 9b 37
       1.6529206e-05 4.0918425e-07 1.1556172e-05 1.8571582e-05
000320 d6 a8 2d 37 0b 27 a2 37 2c 92 1b 37 2e 34 3f 36
       1.0350914e-05 1.9330086e-05 9.272753e-06 2.849159e-06
000330 e1 4a f9 36 ef 4d 12 37 6e fe 0b 36 a3 c7 b2 37
       7.4294953e-06 8.7204235e-06 2.0860712e-06 2.1312217e-05
000340 df 79 04 37 25 b4 8b 37 32 da 21 37 86 46 06 37
       7.896188e-06 1.6653978e-05 9.64715e-06 8.003442e-06
000350 d7 ee 9b 37 6a bc 67 37 a1 86 db 37 34 d3 46 37
       1.8588658e-05 1.38125415e-05 2.6169526e-05 1.1850894e-05
000360 83 7c 73 37 52 43 31 37 f2 81 30 37 e4 64 48 37
       1.4512919e-05 1.0565696e-05 1.0520673e-05 1.1944419e-05
000370 db 12 42 36 3d 93 f4 36 94 53 0d 37 31 5f 67 36
       2.8919228e-06 7.2889075e-06 8.4237145e-06 3.447709e-06
000380 70 09 83 36 01 91 48 36 0d 6c 00 36 60 02 83 36
       3.905203e-06 2.9886726e-06 1.913638e-06 3.9043807e-06
000390 94 84 b3 36 32 37 8a 34 9c bd 2b 36 2f cf a9 36
       5.35005e-06 2.5744663e-07 2.5591353e-06 5.060712e-06
0003a0 dd 0e 93 36 5b 4b d2 36 0e 1e 70 36 55 0c 5e 36
       4.3826717e-06 6.2672602e-06 3.578028e-06 3.3087756e-06
0003b0 16 01 c4 35 e0 60 03 37 d9 7a 19 35 60 59 ba 36
       1.4603454e-06 7.830764e-06 5.717571e-07 5.5536366e-06
0003c0 99 36 10 37 71 4f a4 36 9b 3d a6 36 dc dd 1f 37
       8.595781e-06 4.896829e-06 4.9543573e-06 9.528794e-06
0003d0 20 33 18 37 8f 03 b4 36 86 a8 cb 36 c6 71 5f 37
       9.0718095e-06 5.3648323e-06 6.06949e-06 1.3318326e-05
0003e0 de b0 03 37 7a b9 bb 36 44 e0 93 36 61 e3 9d 36
       7.849389e-06 5.5946266e-06 4.4070493e-06 4.705435e-06
0003f0 e6 04 85 35 e8 d5 a0 36 6f ad d1 36 8c 76 44 35
       9.910698e-07 4.7932735e-06 6.2488757e-06 7.31882e-07

exp_avg f4 [32]
000000 72 ce 82 3b e8 2e 7a 3b 55 49 51 3b 1e 92 35 bc
       0.0039918954 0.003817493 0.0031934578 -0.0110822
000010 e9 fa 94 3b 3a 91 38 3b 38 94 f7 3a 1d 91 00 ba
       0.0045465124 0.0028162734 0.0018888777 -0.0004904436
000020 11 94 15 3c 3d ab 5d bb bb 81 c6 bb 22 54 b4 3b
       0.00912954 -0.003382399 -0.0060579455 0.0055031935
000030 e9 cc 2b bc 42 a3 69 3b fb f9 84 3b 7f 65 95 b9
       -0.010485866 0.0035650288 0.0040581203 -0.00028495115
000040 cb 58 30 3b f9 93 d6 b9 e2 c1 53 3a f0 8c c1 bb
       0.0026908393 -0.0004092751 0.0008077902 -0.0059066936
000050 57 62 b5 3b 4d 3e 4e 3a e7 da d5 bb 53 5a 8e 3b
       0.0055354047 0.000786756 -0.0065263393 0.0043442636
000060 f1 9c d6 bb cb c3 58 bc d5 41 1d bc 5b 69 22 39
       -0.0065494706 -0.013230274 -0.009598215 0.00015488772
000070 83 05 94 3b 87 46 10 3b c0 b2 8a 3b b5 f3 51 3b
       0.0045172586 0.0022014694 0.0042327344 0.003203613

exp_avg_sq f4 [32]
000000 6c c1 92 39 e7 f4 4f 39 2b 50 41 39 90 e5 c9 3a
       0.000279914 0.00019832292 0.00018435779 0.0015403498
000010 c7 d6 78 39 78 b4 b5 39 4e db 95 38 d0 72 26 38
       0.00023731134 0.0003465747 7.145722e-05 3.968441e-05
000020 37 b5 8d 3a 2a 3b c1 39 c5 6e cf 39 5b 2f b8 39
       0.0010811453 0.0003685591 0.00039564646 0.00035130497
000030 43 03 c4 3a e2 fb 57 39 c9 2c d4 39 41 0d 63 36
       0.0014954585 0.00020597831 0.0004046916 3.383335e-06
000040 8d 62 08 39 1e e1 c0 36 bf 18 dc 37 4f 0f 09 3a
       0.00013006684 5.748253e-06 2.6237567e-05 0.00052284164
000050 d4 50 f5 39 74 ea c6 38 06 5e f3 39 45 3f 76 39
       0.00046790263 9.485046e-05 0.00046418625 0.00023483958
000060 ef 77 0e 3a 64 51 0e 3b 9b c4 8c 3a 7e 50 3b 36
       0.00054347416 0.0021715993 0.0010739745 2.7912024e-06
000070 04 a2 97 39 77 cb ac 39 4e 6a cc 39 69 a0 1b 39
       0.00028921675 0.0003295799 0.00038989115 0.0001484171

exp_avg f4 [1, 32]
000000 a1 24 ac bc 2f 58 9a bc e4 6b a6 3b 75 de 2c 3c
       -0.02101356 -0.018840877 0.0050787795 0.010551085
000010 f2 0a 56 bc 8e 91 12 bc f2 5d e4 3c b2 de 03 3b
       -0.013064133 -0.008945836 0.027876828 0.002012175
000020 4e 44 0d 3a 25 71 b2 3c 7f f2 27 3c 87 2e 23 3c
       0.00053889013 0.021782467 0.010250687 0.009959823
000030 b0 d3 5c 3c d0 c1 d1 3c 95 10 bb 3c ef b4 a7 3a
       0.013478205 0.025605112 0.022835055 0.0012795011
000040 f3 ac 70 3c 63 11 35 3a a6 c2 93 bb 07 d8 df 3b
       0.014689672 0.0006907193 -0.004509288 0.0068311724
000050 f4 fb 91 3c 95 46 e6 3c ce 44 f1 b8 80 c2 35 3c
       0.017820336 0.028109828 -0.000115045914 0.011093736
000060 06 e9 78 3c 44 5c 31 3c 71 2f 27 3c f0 a6 05 38
       0.015192276 0.0108252205 0.010204182 3.1865144e-05
000070 a6 74 03 bc a0 72 0c 3d 78 c7 55 3b 11 a0 b1 bc
       -0.008023417 0.034289002 0.0032620113 -0.02168277

exp_avg_sq f4 [1, 32]
000000 90 c0 89 3b 90 0f 4d 3b c3 50 cb 3b 7a 51 36 3a
       0.0042038634 0.0031289794 0.006204696 0.000695489
000010 74 1f db 3b 0d 7d c3 3b 28 f3 07 3c 99 fb 57 38
       0.006687099 0.005965835 0.008297719 5.1494313e-05
000020 08 c9 5a 3a ca e3 c5 3b e8 0f 65 3b a2 6e 52 3b
       0.0008345996 0.0060391175 0.0034952108 0.00321094
000030 9b 74 0b 3b 7c 8e fc 3b 33 1a a8 3b f4 70 03 38
       0.002127922 0.007707415 0.0051300763 3.133803e-05
000040 91 1c 4f 3b 70 2e e2 38 5b bb 20 39 5f 79 4e 3b
       0.003160272 0.000107851694 0.00015328584 0.0031505448
000050 fa d4 9c 3b 37 3b 14 3c 22 ee eb 3a 3e 02 29 3b
       0.004786131 0.009047321 0.0018000046 0.002578869
000060 e0 ed b9 3a 45 39 84 3a 71 d1 c5 39 72 08 38 38
       0.0014185272 0.0010087868 0.00037730814 4.3876884e-05
000070 64 23 b8 39 24 cb 12 3c b7 a7 a2 3b 77 6b 6f 3b
       0.00035121583 0.008959565 0.004963841 0.003653256
