trained_models/0_lag_ppo_InvertedPendulum-v2_eps_0.0_actor.pth (torch, 29858 bytes, 20 tensors)

policy_net.layers.0.weight f4 [32, 4]
0	0x3f5b3fe5	0.8564437
1	0x3f95050d	1.1642166
2	0x3f1864d5	0.5952886
3	0x3e10bb53	0.14133959
4	0x3ea5cd34	0.3238312
5	0xbf6c88f8	-0.923965
6	0xbe0d0a05	-0.13773353
7	0xbe9ed44c	-0.31021345
8	0xb9d23b7e	-0.00040098646
9	0xbf0b9721	-0.5452748
10	0x3e454cce	0.1926758
11	0xbe93337f	-0.28750226
12	0x3e9bc645	0.30424705
13	0x3f800f1a	1.0004609
14	0xbeaf2a28	-0.3421185
15	0xbc988223	-0.018616742
16	0x3f7e641f	0.9937152
17	0x3f47733c	0.7791021
18	0x3f001d9c	0.5004518
19	0x3dc2b2aa	0.09506734
20	0x3e29f8ac	0.16598767
21	0xbf9fd920	-1.2488136
22	0xbe46a364	-0.19398266
23	0xbec57399	-0.38564757
24	0xbeea103d	-0.45715514
25	0x3e21e29a	0.15809098
26	0x3f060080	0.5234451
27	0x3dd77f3e	0.105223164
28	0xbec49462	-0.38394457
29	0xbf9c35d3	-1.2203926
30	0x3cb4dcff	0.022078035
31	0xbe9a5000	-0.3013916
32	0x3f0b6655	0.5445302
33	0xbf21d336	-0.6321291
34	0x3e33a006	0.17541513
35	0xbe994825	-0.29937854
36	0x3e3d4597	0.18483578
37	0xbef64be4	-0.48104775
38	0xbdaf70ce	-0.08566438
39	0xbeab1155	-0.3341166
40	0xbee417a2	-0.4454928
41	0x3f775888	0.9661946
42	0xbc7590a1	-0.0149880955
43	0xbe9165e5	-0.28398052
44	0xbef2edf3	-0.47447166
45	0x3f8a7a3c	1.0818553
46	0x3d561f73	0.052276086
47	0xbea4ff84	-0.32226193
48	0x3e86c06a	0.26318675
49	0xbf4d5c65	-0.8021911
50	0xbf15a4ed	-0.5845478
51	0xbe918e6f	-0.2842898
52	0xbea6fbce	-0.32613987
53	0x3f12be15	0.5732129
54	0x3eab5440	0.33462715
55	0x3e289f21	0.16466953
56	0xbf396df3	-0.72433394
57	0xbfa968cd	-1.3235108
58	0xbdc6806c	-0.09692463
59	0xbea49d13	-0.32151088
60	0x3e1873ad	0.14887877
61	0xbe8d802f	-0.2763686
62	0xbf2143e7	-0.62994236
63	0xbebdeabf	-0.3709316
64	0x3f9e5dab	1.2372335
65	0x3f85d744	1.0456319
66	0x3e824f78	0.25451255
67	0xbe06d668	-0.13167727
68	0xbec67ff3	-0.38769493
69	0x3e950385	0.29104248
70	0x3e869e7e	0.26292795
71	0x3ea28e77	0.31749317
72	0xbf65492c	-0.89564776
73	0xbf21f6d3	-0.6326725
74	0xbd31a2b0	-0.04336804
75	0x3d612b1b	0.05497275
76	0x3fa26a87	1.268876
77	0x3f85640f	1.042116
78	0x3ed7ce06	0.4214937
79	0x3c802401	0.015642168
80	0xbeb11dc4	-0.34593022
81	0x3f8bf7b5	1.0934969
82	0x3e482b37	0.19547735
83	0xbcdd21a3	-0.026993578
84	0x3e2fd88d	0.17172451
85	0xbf72b34c	-0.94804835
86	0xbe885d6d	-0.26633778
87	0xbe3876de	-0.18014094
88	0x3f126ff0	0.57202053
89	0xbe4f358c	-0.2023527
90	0x3e27f97c	0.16403764
91	0xbec611e3	-0.3868552
92	0xbf2ba3f6	-0.6704706
93	0xbe1c17f2	-0.1524351
94	0xbefc1f5f	-0.49242684
95	0xbdd32add	-0.1031091
96	0xbdf073f8	-0.11740869
97	0x3f247d0f	0.64253324
98	0x3e7024ed	0.23451586
99	0x3f13123f	0.57449716
100	0x3f006b8c	0.50164104
101	0x3f6921b7	0.9106707
102	0xbd3f49ad	-0.046701122
103	0xbbb8121f	-0.0056173946
104	0xbd731826	-0.0593492
105	0xbeb5b298	-0.3548782
106	0xbf123c7b	-0.57123536
107	0xbefd15e0	-0.49430752
108	0xbe949e29	-0.29026917
109	0x3f801eba	1.0009377
110	0x3e990e8e	0.29893917
111	0xbcb02f3d	-0.0215069
112	0x3e0cc2ad	0.13746138
113	0x3f9158b5	1.1355196
114	0xbd6e1f7b	-0.05813549
115	0x3d7204fd	0.05908679
116	0x3f83bb9e	1.0291631
117	0x3f76b032	0.963626
118	0x3f550181	0.8320542
119	0x3edb7f7a	0.42870694
120	0xbd0fd86b	-0.0351185
121	0xbf1e9f71	-0.6196204
122	0xbf126111	-0.5717936
123	0xbe2470b1	-0.16058613
124	0x3ebf15a7	0.37321207
125	0xbf7d46ca	-0.9893614
126	0xbdce3184	-0.10068038
127	0x3e6c2aba	0.23063174

policy_net.layers.0.bias f4 [32]
0	0x3d5d6aa5	0.054056782
1	0x3e63993e	0.22226426
2	0xbe07ff5c	-0.13281006
3	0x3c23c007	0.009994513
4	0xbddbc061	-0.10730053
5	0x3cc83b67	0.024442388
6	0xbd3183fc	-0.04333876
7	0xbdbabb39	-0.09117741
8	0x3e5b7316	0.2143062
9	0xbdcf5711	-0.101240285
10	0x3db8f4d1	0.0903107
11	0x3baf7672	0.005354696
12	0x3db01130	0.08597028
13	0xbed051bb	-0.40687355
14	0xbe03027b	-0.12793915
15	0x3e06096a	0.13089529
16	0xbe74cf09	-0.23907103
17	0xbea142e5	-0.3149635
18	0x3e487bc1	0.19578458
19	0x3dc00272	0.093754664
20	0x3e435f7b	0.19079392
21	0xbe874f6f	-0.2642779
22	0xbe8b77c9	-0.27239826
23	0x3e0a1f78	0.13488567
24	0x3ec22ded	0.37925664
25	0x3d20e3cb	0.03927974
26	0x3d87de14	0.06634155
27	0x3e488a07	0.19583903
28	0xbeaf2153	-0.34205112
29	0x3e463c10	0.1935885
30	0x3da11da3	0.07866981
31	0x3ec1fd29	0.37888458

policy_net.layers.2.weight f4 [32, 32]
0	0x3bc2f4f4	0.005949611
1	0x3d0b73f9	0.034046147
2	0x3e0446ec	0.1291768
3	0xbd362303	-0.044466984
4	0xbe070ad6	-0.13187727
5	0x3e8143cf	0.25247046
6	0xb6e51c19	-6.828003e-06
7	0x3da0f324	0.078588754
8	0xbddd6ad6	-0.10811393
9	0x3d3e1d49	0.046414647
10	0xbd6c09eb	-0.057626646
11	0xbe8ea376	-0.27859086
12	0x3e1d5f93	0.1536849
13	0xbe2db705	-0.16964348
14	0xbd6aef54	-0.057357147
15	0xbd162304	-0.036654487
16	0x3c1ba5b8	0.00949996
17	0xbdefee4a	-0.11715372
18	0xbd9a95cc	-0.07548103
19	0xbe07f23d	-0.13276
20	0xbe501bae	-0.20323059
21	0xbd107adc	-0.035273418
22	0x3e1ad1bf	0.15119074
23	0x3d0fbf7e	0.03509473
24	0xbe3369c4	-0.17520815
25	0x3dcce459	0.10004491
26	0xbe00b499	-0.12568893
27	0x3d458d93	0.04823072
28	0xbe6a0162	-0.2285209
29	0xbdfb4ac9	-0.122701235
30	0xbba29ca8	-0.0049625225
31	0x3e38f8a8	0.18063605
32	0xbd98c07e	-0.0745859
33	0xbe402c4c	-0.18766898
34	0x3debc7f2	0.11512746
35	0xbe17ce7c	-0.14824861
36	0x3b3bbafb	0.0028645385
37	0x3bea6ecc	0.0071543213
38	0xbd3ba20b	-0.045808833
39	0xbd3f9fce	-0.04678326
40	0x3bb478e4	0.0055075753
41	0x3e04263b	0.12905209
42	0x3d7cb931	0.06170005
43	0x3b8823b9	0.004154649
44	0xbdd053cc	-0.10172233
45	0x3d83dc79	0.06438536
46	0xbde87010	-0.11349499
47	0x3da9da3c	0.08293578
48	0x3d35c574	0.04437776
49	0xbc58bee6	-0.0132291075
50	0xbc68b64a	-0.014203617
51	0x3d8ec1ad	0.069705345
52	0x3e6b8d91	0.23003222
53	0xbdd775f3	-0.10520544
54	0xbe22f421	-0.1591344
55	0xbdf013d6	-0.117225334
56	0xbc68407f	-0.014175533
57	0xbde19753	-0.11015191
58	0xbe037e31	-0.12841107
59	0x3d922eeb	0.07137855
60	0x3d73ba5d	0.0595039
61	0x3e0c450a	0.13698211
62	0xbe89c01b	-0.26904377
63	0x3d849034	0.06472817
64	0xbe1a4433	-0.15065078
65	0x3decb792	0.11558451
66	0xbd6afdf9	-0.057371113
67	0xbd41dc19	-0.047329042
68	0xbdf94545	-0.12171415
69	0x3e41b21c	0.189156
70	0x3d5180da	0.051148273
71	0x3b998fa9	0.004686315
72	0x3cf46063	0.029831117
73	0x3e70c86f	0.2351396
74	0xbe5cb128	-0.21551955
75	0x39370d35	0.0001745716
76	0x3e6b3df0	0.22972846
77	0xbe103583	-0.14082913
78	0x3e2255ee	0.15853092
79	0xbdd236fa	-0.10264392
80	0x3e2c3eab	0.16820781
81	0x3ccd61f6	0.025071125
82	0x3cee73ec	0.02910801
83	0x3a119f14	0.00055550155
84	0xbea01b2a	-0.31270725
85	0x3e0549a1	0.13016368
86	0xbd4e3015	-0.050338823
87	0x3debc12c	0.11511454
88	0xbd796600	-0.06088829
89	0x3d2e5e1b	0.042570215
90	0x3d215d9a	0.039395906
91	0xbd0ec114	-0.034852102
92	0xbdf2bf9c	-0.11852953
93	0xbe45ea00	-0.19327545
94	0x3d744056	0.059631668
95	0x3cabddba	0.02097975
96	0xbd0c1e3f	-0.034208532
97	0xbe108df8	-0.14116657
98	0x3d4729bf	0.048623797
99	0xbdd0916f	-0.10183989
100	0xbdb02522	-0.086008325
101	0xbe93424a	-0.28761512
102	0x3e192876	0.14956841
103	0xbe581802	-0.21102908
104	0xbe39b690	-0.18136048
105	0x3dbbc9f1	0.09169377
106	0x3dce040e	0.10059367
107	0x3d549b4f	0.051905926
108	0xbe89b4cc	-0.2689575
109	0x3a71310d	0.00092007295
110	0x3d59e027	0.053192284
111	0x3dfb2757	0.12263363
112	0x3dc3af54	0.095549256
113	0x3e092b76	0.13395485
114	0x3d561dfe	0.052274697
115	0x3e01ee42	0.12688544
116	0x3dbe8c50	0.09304106
117	0xbe5f9abd	-0.21836372
118	0x3c6a5dd9	0.014304602
119	0x3d1d19e6	0.038354777
120	0x3dfefa6e	0.124501094
121	0xbb5852da	-0.0033008368
122	0x3c9ed01a	0.01938634
123	0xbca1b173	-0.019737935
124	0x3e11e4fa	0.14247504
125	0x3dfd4a6e	0.12367712
126	0xbe3ffc83	-0.1874867
127	0xbce4b70c	-0.027919315
128	0x3db2efc3	0.08737137
129	0xbe582d2b	-0.2111098
130	0xbe4795d2	-0.19490746
131	0x3e0ab6ed	0.13546343
132	0x3e45e1e4	0.19324452
133	0xbe00cd94	-0.12578422
134	0x3dc23dde	0.094844565
135	0xbe90c0be	-0.2827205
136	0xbd9c9634	-0.076458365
137	0xbd2bd400	-0.041950226
138	0x3d5ed39e	0.054401033
139	0x3e31ed3b	0.17375652
140	0xbebe7186	-0.37195987
141	0x3e3d2d36	0.18474278
142	0xbe629a5f	-0.221292
143	0xbc101fc9	-0.008796641
144	0xbd328fa3	-0.043594014
145	0x3d8b86bd	0.06812809
146	0xbddc1c3f	-0.10747575
147	0x3dcd6846	0.10029654
148	0xbd0fdcdc	-0.035122737
149	0x3c6e220c	0.014534485
150	0x3d8f2a4a	0.06990488
151	0xbe12c730	-0.14333797
152	0x3e01de80	0.12682533
153	0x3c8ff43b	0.017572513
154	0xbcdf2385	-0.027238617
155	0x3e5ffb57	0.21873222
156	0x3dfa2120	0.12213349
157	0x3df50179	0.119631715
158	0xbdf54d4f	-0.11977636
159	0xbbf49a19	-0.007464659
160	0xbdc65096	-0.09683339
161	0xbe43d1f6	-0.19123062
162	0x3e04d450	0.12971616
163	0x3bbc2c41	0.00574258
164	0xbdab6008	-0.08367926
165	0xbd6287cf	-0.0553053
166	0x3c0e993c	0.008703526
167	0xbd1823ef	-0.037143644
168	0xbb9044ea	-0.0044027464
169	0x3ddaa221	0.10675455
170	0x3ccccd9c	0.025000386
171	0x3dc85458	0.09781712
172	0xbe770d84	-0.2412625
173	0x3dad01b0	0.084475875
174	0xbdc99b5f	-0.09844088
175	0xbd41320f	-0.04716688
176	0xbdcf8c87	-0.10134225
177	0xbd73b217	-0.05949601
178	0x3d84930b	0.06473359
179	0x3e15ec07	0.14640819
180	0x3d049375	0.03236719
181	0xbdd05bec	-0.10173783
182	0x3d616fda	0.05503831
183	0x3dee7515	0.116434254
184	0x3d8c6522	0.06855227
185	0xbdb0f737	-0.086409025
186	0xbd828860	-0.06373668
187	0x3e12b85f	0.14328144
188	0x3d4a4311	0.049380366
189	0x3e1ef0eb	0.1552159
190	0x3dae3c4d	0.08507595
191	0xbe1e8fc7	-0.15484534
192	0x3c8d769c	0.017268471
193	0xbe1340b9	-0.14380158
194	0x3e2900ea	0.16504255
195	0xbcdfe982	-0.027333025
196	0xbdabb951	-0.08384956
197	0xbeb3fa84	-0.35152066
198	0xbc5d7888	-0.013517506
199	0x3d3f6c8a	0.04673437
200	0xbe46f7ee	-0.19430515
201	0xbdcb85c5	-0.09937624
202	0x3df5398f	0.11973869
203	0x3e62b67f	0.22139929
204	0xbdef7d59	-0.1169383
205	0x3d97f45f	0.07419657
206	0xbe51e4b2	-0.20497397
207	0xbe58d9d5	-0.21176846
208	0xbdb04d8e	-0.086085424
209	0x3d817f52	0.063231125
210	0x3d45c130	0.04827994
211	0xbd9abef3	-0.07555952
212	0x3d0776dd	0.03307234
213	0xbd897120	-0.0671103
214	0xbd03dc8d	-0.032192755
215	0x3dd4152b	0.103556
216	0x3d8290c1	0.06375266
217	0x3d7555c2	0.05989624
218	0x3d153908	0.036431342
219	0x3dbc5037	0.09194987
220	0x3e77f978	0.24216259
221	0x3e3ec2dd	0.18629022
222	0xbd7d4d82	-0.061841495
223	0x3c975b2a	0.018476088
224	0xbbf4c628	-0.007469911
225	0xbc9c4046	-0.019073617
226	0xbdb23b71	-0.08702744
227	0xbdbff862	-0.09373547
228	0xbde75cc1	-0.11296988
229	0x3e35a1bf	0.17737482
230	0xbe28ea5f	-0.16495655
231	0xbdbd3021	-0.092376955
232	0x3d02e58b	0.03195719
233	0x3d66a77b	0.056312066
234	0xbc782f20	-0.015147954
235	0xbe30b4cf	-0.17256473
236	0x3eb4aaeb	0.3528665
237	0x3d967ffa	0.07348628
238	0x3e1fcbe7	0.15605126
239	0x3e41d4dd	0.18928857
240	0x3e17e758	0.14834344
241	0x3db0d2b7	0.08633941
242	0xbdefff17	-0.117185764
243	0xbe516027	-0.20446835
244	0xbe4ff08f	-0.2030661
245	0xbc07ec06	-0.0082960185
246	0xbd43717f	-0.04771566
247	0x3dca0f52	0.09866203
248	0x3d0017f3	0.03127284
249	0xbd01a458	-0.03165087
250	0x3c3e4d0c	0.011615049
251	0xbe54f1f8	-0.20795429
252	0xbe214efe	-0.1575279
253	0xbce70555	-0.028200785
254	0xbdaff5b0	-0.08591783
255	0x3bbb7838	0.0057211183

policy_net.layers.2.bias f4 [32]
0	0xbde518f4	-0.111864
1	0x3c4860e6	0.012230134
2	0x3dd97117	0.10617273
3	0x3ddf9895	0.109177746
4	0x3dd6340e	0.104591474
5	0x3b85a1c3	0.0040781214
6	0x3e003a59	0.12522258
7	0x3c5c1d9b	0.013434793
8	0xbdf00cbd	-0.1172118
9	0xbde5ebfa	-0.112266496
10	0x3e067dc4	0.13133913
11	0x3d396fae	0.04527252
12	0x3d787738	0.06066057
13	0xbce1367e	-0.027491804
14	0x3e0349e6	0.12821159
15	0xbdb2eca7	-0.08736544
16	0xbd1ca4ac	-0.03824298
17	0xbdb4e871	-0.08833397
18	0xbe179c32	-0.14805678
19	0x3dc9ff6c	0.09863171
20	0x3de32efc	0.11092946
21	0x3d56676a	0.052344717
22	0x3dedad68	0.1160534
23	0x3caf1128	0.021370485
24	0xbe043846	-0.12912092
25	0xbd126964	-0.03574504
26	0xbddab627	-0.10679274
27	0xbdebeec9	-0.11520154
28	0xbe06b06b	-0.13153236
29	0x3d8e3fdc	0.06945774
30	0x3e0232e9	0.12714733
31	0x3e04ad81	0.12956811

policy_net.mean_layer.0.weight f4 [1, 32]
0	0xbdc5874c	-0.096449465
1	0x3d051e6f	0.032499727
2	0xbd22a6c6	-0.03970983
3	0x3d9b17c8	0.07572895
4	0x3e5ab8c5	0.21359546
5	0x3c15e176	0.009147992
6	0x3d2e1ee9	0.042509947
7	0xbdb3a333	-0.08771362
8	0x3b23437d	0.0024912052
9	0x3de92e2e	0.11385761
10	0x3e0be1eb	0.136604
11	0xbdde62e3	-0.10858705
12	0xbd8d0e77	-0.068875246
13	0xbeadaa56	-0.33919019
14	0x3e464dbe	0.19365594
15	0x3ae57f43	0.001750924
16	0x3e7de1c9	0.24793161
17	0x3e1f1a96	0.15537485
18	0x3cc99319	0.024606274
19	0xbd7f49d6	-0.062326275
20	0x3ea85929	0.32880524
21	0xbb3efacb	-0.0029141183
22	0xbe6daa12	-0.23209408
23	0x3ddbb40e	0.10727702
24	0x3e290505	0.16505821
25	0xbd9c1287	-0.07620721
26	0x3e1294bf	0.14314555
27	0x3dfa78c2	0.12230064
28	0x39d0c179	0.00039817
29	0x3e6204c6	0.22072133
30	0x3d0bb58b	0.03410868
31	0xbc663cf2	-0.014052616

critic.critic_net.layers.0.weight f4 [32, 4]
0	0xbf96569c	-1.1745181
1	0xbf5a13f9	-0.85186726
2	0xbd9ee456	-0.077583954
3	0xbe83dae6	-0.25752944
4	0xbda761f0	-0.08172977
5	0xbdb03b9b	-0.08605119
6	0x3ca0a351	0.019609125
7	0x3e1f76dc	0.15572685
8	0xbf79e2c3	-0.97611636
9	0xbf4d500b	-0.8020026
10	0xbf2328cf	-0.63734144
11	0xbe96f5ad	-0.2948431
12	0xbe5936fa	-0.21212378
13	0xbf995ae8	-1.1980867
14	0x3e12103f	0.1426401
15	0xbea79119	-0.32727888
16	0xbfe69942	-1.801552
17	0xbf7aef44	-0.9802134
18	0x3ed800d7	0.4218814
19	0x3ed5076d	0.41607228
20	0x3fc2fabc	1.5232768
21	0xbf1725d8	-0.5904212
22	0x3e8c8e8f	0.27452514
23	0xbcfcafb4	-0.0308455
24	0xbf35c443	-0.71002597
25	0xbfdb4206	-1.7129524
26	0xbe7e6819	-0.24844398
27	0xbc231cfc	-0.009955641
28	0x3fbbb3d7	1.4664258
29	0x3ea2d571	0.31803468
30	0xbe57d869	-0.21078648
31	0x3da0c526	0.07850103
32	0x3e0f9191	0.14020373
33	0x3f8e72f7	1.1128834
34	0xbf0102db	-0.5039498
35	0x3eb39a08	0.35078454
36	0xbf5b712f	-0.8571958
37	0xbf9eee62	-1.2416499
38	0xbf2e3889	-0.68055016
39	0xbe9b21d1	-0.30299237
40	0xbdb6bab0	-0.089223266
41	0xbe798bbf	-0.24369715
42	0x3e06ab52	0.13151291
43	0xbe947239	-0.28993395
44	0x3eacad41	0.33725932
45	0x3efb67f3	0.49102744
46	0xbda46130	-0.080263495
47	0xbe5e4ba7	-0.21708547
48	0x3f87c691	1.0607473
49	0x3f9ab9ba	1.2087929
50	0x3e9b2493	0.3030134
51	0x3ec1bc0f	0.3783879
52	0xbf48c3c1	-0.78423697
53	0xbf2233f4	-0.63360524
54	0x3b765421	0.0037586766
55	0xbeedc0f7	-0.46436283
56	0xbf4775ee	-0.7791432
57	0x3fc12e52	1.5092261
58	0xbef6dea6	-0.48216742
59	0x3ddb975c	0.10722229
60	0xbcb7b100	-0.022423267
61	0xbfb8b761	-1.4430963
62	0xbee6ea39	-0.45100573
63	0xbed3e474	-0.41385233
64	0x3e7d4519	0.2473339
65	0x3f1dabab	0.6159007
66	0x3e832209	0.25611904
67	0x3cb9c19e	0.022675332
68	0x3e847c13	0.2587591
69	0x3e7f91e9	0.24958004
70	0xbe29a0f6	-0.16565308
71	0xbed6e6a8	-0.41972852
72	0xbfd671c0	-1.6753464
73	0xbe96bc1c	-0.2944039
74	0x3ef91b2c	0.48653543
75	0x3de84272	0.113407984
76	0xbe59c361	-0.21265937
77	0xbe4fa71e	-0.20278594
78	0xbda1a50a	-0.07892807
79	0xbcb0561a	-0.021525431
80	0x3f9ea7bb	1.2394937
81	0x3f9d1dc0	1.2274704
82	0x3e6a3c7d	0.22874637
83	0x3e8f0b9c	0.27938545
84	0x3fc2af66	1.5209777
85	0xbfb80697	-1.4377011
86	0xbec7c667	-0.39018556
87	0xbe9e9e76	-0.3098027
88	0xbf66fafd	-0.9022673
89	0xbf957e7b	-1.1679224
90	0xbf252efc	-0.6452482
91	0x3c89595e	0.016766246
92	0xbf6832d4	-0.9070256
93	0xbfaa8994	-1.3323236
94	0xbf0f3bf2	-0.55950844
95	0xbe43c391	-0.19117571
96	0xbf9d9463	-1.2310909
97	0xbfbb3700	-1.462616
98	0xbf5485db	-0.8301675
99	0xbdbfba4b	-0.093617044
100	0xbe3a4599	-0.18190612
101	0xbec6a909	-0.3880084
102	0xbdfb754a	-0.122782305
103	0x3d2fc86a	0.04291574
104	0x3f487edd	0.7831858
105	0x3f3e14d4	0.7425053
106	0x3e16f1bc	0.14740652
107	0xbcae1d53	-0.021254217
108	0x3ce56fb3	0.028007364
109	0x3fb4d1f2	1.412657
110	0x3dff2f5e	0.124602064
111	0x3f19eda7	0.60128254
112	0x3f67eb2d	0.90593225
113	0x3f8fed55	1.1244303
114	0x3e0ce7d8	0.13760316
115	0x3ca34550	0.019930512
116	0xbe61b19b	-0.22040407
117	0xbf83b03c	-1.0288157
118	0x3e38a68a	0.1803228
119	0xbf0ac6c0	-0.5420952
120	0xbec76de1	-0.38951018
121	0xbefd1399	-0.49429014
122	0x3e3b5cf7	0.18297182
123	0x3e8644ba	0.2622431
124	0xbe5ad4fb	-0.21370308
125	0xbeb72a00	-0.3577423
126	0xbd815e9c	-0.063168734
127	0x3ca53859	0.02016847

critic.critic_net.layers.0.bias f4 [32]
0	0x3e9a96b9	0.30193117
1	0x3f16b720	0.58873177
2	0x3e5d6152	0.21619156
3	0x3eca1022	0.39465433
4	0x3d1f45fd	0.038885105
5	0x3f08155e	0.53157604
6	0x3ebb233b	0.36550316
7	0x3e5801aa	0.21094385
8	0x3f121ab9	0.57072026
9	0xbe421736	-0.18954167
10	0xbec4b1be	-0.38416857
11	0x3f28c599	0.6592651
12	0xbeb7f47b	-0.3592871
13	0xbf1350d8	-0.5754523
14	0xbee57e11	-0.44822744
15	0x3ef48296	0.4775588
16	0x3f35acd2	0.7096683
17	0xbf22fbcb	-0.63665456
18	0xbdd022cc	-0.10162887
19	0xbf256202	-0.64602673
20	0xbeaa94b8	-0.33316588
21	0xbf088673	-0.53330153
22	0xbe46ae13	-0.19402342
23	0xbe23910a	-0.15973297
24	0x3edbb0bf	0.42908284
25	0xbf302791	-0.68810374
26	0x3e9ba974	0.3040272
27	0x3eff0077	0.49805042
28	0xbe8479fc	-0.25874317
29	0x3f0da510	0.5532999
30	0xbf15b34c	-0.5847671
31	0xbf329a67	-0.6976685

critic.critic_net.layers.2.weight f4 [32, 32]
0	0xbd8faeb1	-0.070157416
1	0xbe937618	-0.28801036
2	0xbd02691d	-0.031838525
3	0xbe840b67	-0.2578995
4	0x3eff3389	0.49844006
5	0xbe95c8c8	-0.29254746
6	0xbe4aade0	-0.1979289
7	0xbf3899b3	-0.72109526
8	0xbcefb57e	-0.029261347
9	0x3e46750f	0.19380592
10	0x3e4f9fec	0.20275849
11	0xbe8e4a0f	-0.27790877
12	0x3e360677	0.17775904
13	0x3e8edaa0	0.27901173
14	0x3cbee7fe	0.023303982
15	0xbe868c3a	-0.2627886
16	0xbe886034	-0.26635897
17	0x3d1f684b	0.03891782
18	0x3f7a568b	0.97788304
19	0x3e966ecb	0.29381403
20	0xbd87b730	-0.06626737
21	0xbe4a3ac6	-0.19748983
22	0x3e4d1108	0.20026028
23	0x3edfa108	0.43677545
24	0xbb929f92	-0.0044745887
25	0x3ec77461	0.38955978
26	0xbf0682ca	-0.5254332
27	0x3e2a9ccb	0.16661374
28	0xbe075344	-0.13215357
29	0xbe20293c	-0.1564073
30	0x3edf3c97	0.43600914
31	0x3d7ecf85	0.062209625
32	0x3e10c129	0.14136185
33	0xbe527ee8	-0.20556223
34	0x3dd43bf2	0.10362996
35	0x3e666d8d	0.22502728
36	0x3e65fac6	0.22458944
37	0xbce76bc8	-0.028249636
38	0x3d2e4137	0.042542662
39	0xbcf27b32	-0.02959976
40	0x3e55638e	0.20838758
41	0x3e1cf957	0.1532949
42	0x3cae95d6	0.021311682
43	0xbe879f06	-0.26488513
44	0xbd0148aa	-0.03156344
45	0xbd3a8ff1	-0.04554743
46	0xbe66e0b8	-0.22546661
47	0xbdbc017d	-0.09179971
48	0xbe49feed	-0.19726153
49	0xbd287bbb	-0.041133624
50	0xbd947b38	-0.072500646
51	0x3dd698b2	0.10478343
52	0xbec3ce55	-0.38243356
53	0xbe322c06	-0.17399606
54	0x3e04b878	0.12960994
55	0x3df4227a	0.119206384
56	0x3daa1d6e	0.083063945
57	0x3e0044eb	0.1252629
58	0xbd0642b5	-0.03277846
59	0x3df294ad	0.11844764
60	0xbd9420a4	-0.07232788
61	0x3e1353fd	0.14387508
62	0x3e05aa3a	0.13053218
63	0x3dee2088	0.116272986
64	0x3d8d7105	0.069063224
65	0xbe622a32	-0.22086409
66	0x3b3f2e74	0.0029171975
67	0xbd8e9370	-0.06961715
68	0x3d96ff4d	0.073729135
69	0x3d950374	0.07276049
70	0xbe2e5682	-0.17025188
71	0xbe642c21	-0.22282459
72	0xbdb62f99	-0.08895797
73	0x3dfc9e31	0.1233486
74	0x3eb3158e	0.34977382
75	0xbec1755b	-0.37784848
76	0x3e2a8fbd	0.16656394
77	0x3e6608c3	0.2246428
78	0x3de26c17	0.11055773
79	0x3d17bbc8	0.037044317
80	0xbea894f1	-0.32926133
81	0x3ecb8715	0.39751497
82	0xbdc80fe9	-0.097686596
83	0x3eb68190	0.35645723
84	0xbe32410a	-0.17407623
85	0xbd839543	-0.06424954
86	0x3b708fba	0.0036706761
87	0x3ce78158	0.028259918
88	0xbe064aef	-0.13114522
89	0x3da42792	0.0801536
90	0xbe852258	-0.26002765
91	0xbc2e7f9f	-0.010650544
92	0xbd6a2b38	-0.057170123
93	0x3d4d2679	0.05008552
94	0x3e03f153	0.12885027
95	0x3e20279d	0.15640111
96	0x3e4e9d78	0.20177257
97	0x3d166cc9	0.03672484
98	0x3eee2291	0.46510747
99	0xbd43d844	-0.04781367
100	0x3f99ffed	1.2031227
101	0xbefd411e	-0.49463743
102	0xbda86eb9	-0.08224244
103	0xbfb875d7	-1.4410962
104	0xbee8e86b	-0.4548982
105	0x3fd3c431	1.6544248
106	0xbb9a37bb	-0.0047063506
107	0xbebf4f03	-0.3736497
108	0xbe98bf0b	-0.29833254
109	0x3f0b5c98	0.5443816
110	0x3e70fa8e	0.23533079
111	0xbdb81d49	-0.08989961
112	0xbf03bc6f	-0.514594
113	0x3e10ead5	0.14152081
114	0x3f9d54b7	1.2291478
115	0x3ea615ab	0.32438406
116	0xbe90083c	-0.28131282
117	0xbc02cb96	-0.007983109
118	0x3f67126c	0.90262485
119	0x3fbdd911	1.4831868
120	0x3edf6375	0.43630567
121	0x3e91dd5c	0.28489196
122	0xbf53c9a1	-0.82729536
123	0xbed2b18a	-0.41151077
124	0xbe3c58e6	-0.18393287
125	0xbd95b155	-0.07309214
126	0x3eae2f6a	0.3402055
127	0x3ecd8770	0.40142393
128	0x3cb13404	0.021631248
129	0xbe35e729	-0.17763962
130	0x3e187f6a	0.14892355
131	0xbc190280	-0.009338975
132	0xbd7b1879	-0.061302636
133	0x3e3bccec	0.1833989
134	0xbd0c980d	-0.034324694
135	0xbe13c60e	-0.1443102
136	0xbe2828f9	-0.1642188
137	0x3e0d0371	0.13770844
138	0x3e714f23	0.23565345
139	0xbcd1d08e	-0.025612142
140	0xbb20ec90	-0.0024555065
141	0x3e4df429	0.20112671
142	0x3e1ed35e	0.15510318
143	0xbe514686	-0.20437059
144	0xbe8fa485	-0.28055206
145	0x3e533002	0.20623782
146	0xbaf69514	-0.0018812739
147	0xbabcfe3d	-0.0014419031
148	0xbc8aec6a	-0.016958434
149	0xbdb4ec71	-0.0883416
150	0x3d9c9f1a	0.07647534
151	0x3db502b5	0.08838407
152	0xbd4605f7	-0.048345532
153	0x3e763219	0.24042548
154	0xbe301907	-0.17197047
155	0xbe41acb1	-0.18913533
156	0x3db21006	0.086944625
157	0x3d583098	0.052780718
158	0x3e822266	0.2541687
159	0x3e49fe50	0.19725919
160	0xbedc4cee	-0.43027443
161	0xbd1c1e19	-0.03811464
162	0xbf2e0f04	-0.6799166
163	0xbe900258	-0.28126788
164	0xbd966f99	-0.07345504
165	0xbe42f1d7	-0.19037567
166	0xbf0d64a3	-0.55231684
167	0xbe010591	-0.1259978
168	0xbee78c91	-0.4522443
169	0xbeccda8c	-0.40010488
170	0x3e64c6e8	0.22341502
171	0xbe03e200	-0.12879181
172	0x3f3c66b4	0.7359421
173	0x3de3285a	0.11091681
174	0x3e0ae60d	0.1356432
175	0xbeffaaea	-0.49935085
176	0xbe090fed	-0.13384981
177	0xbc5c73b6	-0.013455322
178	0x3ca16070	0.019699305
179	0x3d4cbeee	0.049986772
180	0x3f3c95de	0.7366618
181	0x3e78e6aa	0.24306741
182	0xbe867767	-0.26262972
183	0xbefb97e3	-0.49139318
184	0xbf43ac08	-0.76434374
185	0x3db788d0	0.08961642
186	0xbc545299	-0.012959146
187	0xbe4909a7	-0.19632588
188	0x3ec44862	0.38336474
189	0xbedd63c7	-0.43240187
190	0x3e382ac2	0.17985061
191	0x3e49a33c	0.19691175
192	0xbddc7a73	-0.10765543
193	0xbe4e9120	-0.20172548
194	0xbc04dfec	-0.008110028
195	0xbed01e93	-0.40648326
196	0x3f23fc25	0.6405662
197	0xbec3b1d6	-0.38221616
198	0x3e3394a2	0.17537168
199	0x3c651105	0.013981109
200	0x3d61f0ca	0.055161275
201	0x3e6965d0	0.22792745
202	0xbd73d0e8	-0.0595254
203	0xbe381087	-0.17975055
204	0x3e1add00	0.15123367
205	0xbe418978	-0.18900096
206	0x3e1191b6	0.1421574
207	0xbeaca693	-0.33720836
208	0xbe880f6d	-0.2657427
209	0x3dd50bfd	0.10402677
210	0xbaf7b837	-0.0018899505
211	0x3e05cd56	0.1306661
212	0x3e43067d	0.19045444
213	0xbea7a676	-0.32744187
214	0x3f21d4a7	0.63215107
215	0x3ea3b531	0.31974176
216	0x3d966578	0.073435724
217	0x3e8a5d50	0.27024317
218	0xbe66d8dc	-0.22543663
219	0x3e997687	0.29973242
220	0xbe818482	-0.25296408
221	0xbed6972d	-0.41912213
222	0x3eea9e92	0.45824105
223	0x3e9770e6	0.29578322
224	0xbc1e74d7	-0.0096714115
225	0x3e41e940	0.18936634
226	0xbe0bfeb2	-0.13671377
227	0xbc8312d5	-0.01600019
228	0xbd8f11ab	-0.06985792
229	0x3eca6b35	0.39534917
230	0x3d2a20a4	0.041535035
231	0x3e5ec7e3	0.21755938
232	0x3e5295fc	0.20565027
233	0xbf3cad49	-0.7370191
234	0xbe1712ed	-0.14753313
235	0x3e858470	0.26077604
236	0xbb987f60	-0.004653856
237	0xbeddb45d	-0.4330167
238	0xbec37a62	-0.38179308
239	0x3e12311f	0.1427655
240	0x3e4e0844	0.2012034
241	0x3d8af68c	0.06785306
242	0xbcb077f6	-0.021541577
243	0xbe881f1d	-0.26586238
244	0x3e312115	0.17297776
245	0xbeecf5dc	-0.46281326
246	0xbe3b2a1c	-0.18277782
247	0xbf348f97	-0.705316
248	0x3dca5d01	0.0988102
249	0xbeacab39	-0.33724383
250	0x3efb43ca	0.49075156
251	0x3effb5ae	0.49943298
252	0x3d123492	0.035694666
253	0x3e86a1c2	0.26295286
254	0xbd6a535e	-0.05720841
255	0xbe08d110	-0.13361001

critic.critic_net.layers.2.bias f4 [32]
0	0xbe02263f	-0.12709902
1	0x3d0d4281	0.03448725
2	0xbe8dbb0c	-0.27681768
3	0x3b65b1c7	0.003504859
4	0xbe99781c	-0.2997445
5	0xbcb55414	-0.022134818
6	0xbe8f2328	-0.2795651
7	0x3df16d45	0.1178842
8	0x3e157add	0.1459765
9	0xbe947e4a	-0.290026
10	0xbe8f673f	-0.28008458
11	0x3ed22aef	0.4104838
12	0x3d8cad3f	0.068689816
13	0x3dcc3a71	0.09972084
14	0x3e6dd0d1	0.23224188
15	0x3ed5bc05	0.4174501
16	0x3e5e57a7	0.21713124
17	0x3ebe5b09	0.3717883
18	0xbe0ede38	-0.13951957
19	0x3e3092dc	0.17243522
20	0x3eb229d2	0.3479753
21	0x3dd7b1d8	0.10531968
22	0xbed1315e	-0.40857977
23	0x3e9102a5	0.2832233
24	0x3ea8f72e	0.33001083
25	0x3ebacbbd	0.36483565
26	0xbeb0a20a	-0.34498626
27	0xbe3dd0d0	-0.18536687
28	0xbe232b80	-0.15934563
29	0x3edb44ae	0.42825836
30	0x3dbacdd3	0.09121289
31	0x3e83cbdd	0.25741473

critic.critic_net.layers.4.weight f4 [1, 32]
0	0xbe905aad	-0.2819418
1	0xbcc17eee	-0.023620095
2	0x3e8b8746	0.27251643
3	0xbf0bf1ff	-0.5466613
4	0x3d802cff	0.06258582
5	0xbef80110	-0.4843831
6	0x3e6a4ea8	0.22881567
7	0x3e8f1a52	0.27949768
8	0xbec5d59e	-0.3863954
9	0xbe98bfe9	-0.29833916
10	0x3e293c2a	0.16526857
11	0xbeaca520	-0.3371973
12	0x3e966224	0.2937175
13	0x3e768f08	0.24078
14	0x3d87e708	0.066358626
15	0xbe881121	-0.26575568
16	0x3eb68ed2	0.35655838
17	0xbeac0043	-0.3359395
18	0x3e437eb4	0.19091302
19	0x3eec402b	0.46142706
20	0x3e77744b	0.24165456
21	0x3ed695cc	0.4191116
22	0x3e547fc3	0.20751862
23	0xbe85f8b5	-0.2616631
24	0xbe4ac67a	-0.19802275
25	0xbe68736e	-0.22700283
26	0x3e7f1a27	0.2491232
27	0x3d873cfc	0.06603429
28	0x3e148b7d	0.14506336
29	0xbe6f3222	-0.23358968
30	0x3e7764bd	0.24159522
31	0xbe3baa7e	-0.18326756

exp_avg f4 [32, 4]
0	0xb9999ff8	-0.0002930162
1	0x39db4933	0.00041825473
2	0xbb472dec	-0.0030392362
3	0x3b9c3305	0.004766824
4	0x398bf3fd	0.0002669393
5	0xb9c5a4b1	-0.00037697473
6	0x3b44b201	0.0030013325
7	0xbb9cb4fc	-0.004782317
8	0x38a620e5	7.921624e-05
9	0xb9091e13	-0.00013076542
10	0x3a410820	0.00073635764
11	0xba8d4b31	-0.0010779855
12	0xb99b7e6f	-0.00029658104
13	0x39df386b	0.0004257591
14	0xbb4c3c54	-0.0031163888
15	0x3ba0921a	0.004900229
16	0xb946d80f	-0.0001896324
17	0x3991b349	0.00027790133
18	0xbafe4314	-0.0019398653
19	0x3b441878	0.002992181
20	0x39ca40c2	0.0003857669
21	0xba173657	-0.000576829
22	0x3b837701	0.004011989
23	0xbbcce08c	-0.006252354
24	0xb8c2b214	-9.2838105e-05
25	0x390b7e53	0.00013303132
26	0xba8247cf	-0.0009939614
27	0x3accccc9	0.0015624996
28	0x399d52ec	0.00030007155
29	0xb9f1fa1b	-0.00046153445
30	0x3b4105f4	0.0029453011
31	0xbb9232e4	-0.004461633
32	0x381d07ab	3.743886e-05
33	0xb880a8e4	-6.134974e-05
34	0x3a054ab8	0.00050846813
35	0xba574d84	-0.000821315
36	0x3901518c	0.00012332777
37	0xb9471968	-0.00018987583
38	0x3a9bbe0c	0.00118822
39	0xbaef0334	-0.0018235208
40	0xb8d8ffe4	-0.00010347346
41	0x392a4c21	0.00016240824
42	0xbaaa190e	-0.0012977438
43	0x3b07c5c6	0.0020717247
44	0xb8f5d78e	-0.000117226606
45	0x39504ff7	0.00019866215
46	0xbac31ab7	-0.0014885281
47	0x3b187e2c	0.0023268564
48	0x3a14e7be	0.0005680284
49	0xba518e19	-0.00079938915
50	0x3bc1eef4	0.005918378
51	0xbc18c211	-0.009323613
52	0xb8f53396	-0.00011692119
53	0x39298dbf	0.000161699
54	0xba9a0aba	-0.0011752464
55	0x3af11389	0.0018392663
56	0x39be6df7	0.00036321554
57	0xba103553	-0.000550111
58	0x3b67b3c7	0.0035354958
59	0xbbb0b539	-0.005392697
60	0x38a4739d	7.841664e-05
61	0xb8ef13d0	-0.000114000984
62	0x3a64b9e0	0.00087252073
63	0xbab5979b	-0.0013854386
64	0xb9072a10	-0.00012890273
65	0x394fcf28	0.0001981823
66	0xba946ef2	-0.0011324568
67	0x3ad874dd	0.001651432
68	0xb8fd9e5f	-0.00012093479
69	0x3934b7c3	0.00017234594
70	0xbabe97c3	-0.0014541078
71	0x3b19a85b	0.0023446295
72	0x387e7e78	6.0676102e-05
73	0xb8bcdb3f	-9.005376e-05
74	0x3a2a1ecd	0.0006489575
75	0xba8456a8	-0.0010096626
76	0xb9d9bfa6	-0.00041532255
77	0x3a1b9290	0.000593462
78	0xbb8cef05	-0.0043009543
79	0x3bdd937e	0.006761967
80	0xb9827466	-0.00024882256
81	0x39c2c71e	0.00037150917
82	0xbb488ddd	-0.0030602135
83	0x3ba26288	0.0049555935
84	0x3938a842	0.00017610288
85	0xb9874560	-0.00025800895
86	0x3aef94e0	0.0018278621
87	0xbb3dc719	-0.0028957783
88	0x377d1793	1.5085464e-05
89	0xb7e416e9	-2.7190386e-05
90	0x38cc179a	9.731874e-05
91	0xb90cfc13	-0.00013445345
92	0x38c58730	9.418873e-05
93	0xb9130d2c	-0.0001402392
94	0x3a803344	0.0009780903
95	0xbac439b3	-0.0014970809
96	0xb8d515aa	-0.00010160667
97	0x39317d79	0.00016926778
98	0xba1e570b	-0.0006040192
99	0x3a4b6b8f	0.0007759863
100	0xb8101e10	-3.4360273e-05
101	0x38447633	4.6840123e-05
102	0xb9ac4960	-0.00032861065
103	0x3a032080	0.00050020963
104	0x396bcbbf	0.00022487248
105	0xb9afa0e4	-0.00033498474
106	0x3b25d4d1	0.002530385
107	0xbb836f38	-0.004011061
108	0xb9450a49	-0.00018791216
109	0x39955da9	0.00028489277
110	0xbb192142	-0.002336577
111	0x3b787acb	0.0037914987
112	0xb991ed1f	-0.00027833224
113	0x39c52a63	0.0003760635
114	0xbb3eb4d0	-0.0029099472
115	0x3b982e78	0.0046442114
116	0xba05a3a2	-0.00050979306
117	0x3a3848db	0.0007029899
118	0xbba26d53	-0.00495688
119	0x3c00eb3b	0.007868583
120	0x395e25bc	0.00021185627
121	0xb99e4c74	-0.0003019307
122	0x3b0f91ab	0.0021906893
123	0xbb604465	-0.0034220454
124	0x38913599	6.924122e-05
125	0xb8df178a	-0.00010637853
126	0x3a0e39e3	0.0005425496
127	0xba4ada7e	-0.00077382463

exp_avg_sq f4 [32, 4]
0	0x374fa63b	1.2376865e-05
1	0x362e5416	2.5976965e-06
2	0x39320322	0.0001697657
3	0x3a29448c	0.00064570527
4	0x37df7bdf	2.6641354e-05
5	0x3637d44a	2.7392693e-06
6	0x393a9b0f	0.00017796106
7	0x3a2e504c	0.00066495384
8	0x364eb7c9	3.080337e-06
9	0x34ae3df5	3.2455105e-07
10	0x379d6942	1.8764873e-05
11	0x3892ffb0	7.009448e-05
12	0x382ba4c5	4.092303e-05
13	0x369a7d8e	4.604174e-06
14	0x39963299	0.00028647928
15	0x3a8b8000	0.0010643005
16	0x36d7ba95	6.4292203e-06
17	0x35acd8fb	1.2878148e-06
18	0x38ad3769	8.259604e-05
19	0x39a3d1eb	0.00031246184
20	0x3851552a	4.99088e-05
21	0x36ca230a	6.024148e-06
22	0x39c4ad85	0.00037513315
23	0x3ab85240	0.0014062598
24	0x35d987eb	1.6207317e-06
25	0x3448750c	1.8669033e-07
26	0x37580e95	1.2877998e-05
27	0x3850686b	4.968831e-05
28	0x37ddb0c2	2.6427562e-05
29	0x3685a87c	3.983323e-06
30	0x397d3ed1	0.00024151361
31	0x3a6dea4e	0.00090757466
32	0x363afbdd	2.7862764e-06
33	0x3416dd0b	1.4050254e-07
34	0x370e4565	8.480017e-06
35	0x38024e0d	3.1067106e-05
36	0x36ca3f0d	6.027409e-06
37	0x352149a8	6.008436e-07
38	0x3819ac5d	3.663857e-05
39	0x39100bb6	0.00013737273
40	0x3701290a	7.698554e-06
41	0x351e0035	5.885989e-07
42	0x381b54c0	3.703381e-05
43	0x3910b6e1	0.00013801038
44	0x37821e30	1.5511265e-05
45	0x3587e792	1.012568e-06
46	0x3881b7e3	6.185451e-05
47	0x396f8f4e	0.00022846201
48	0x38b00331	8.3929284e-05
49	0x37314165	1.0565248e-05
50	0x3a35679d	0.00069200416
51	0x3b2ac20f	0.002605561
52	0x3687235c	4.02743e-06
53	0x34eaae17	4.3712564e-07
54	0x37ef87e5	2.8554301e-05
55	0x38dfffca	0.00010681113
56	0x38186705	3.633557e-05
57	0x36b83a4c	5.490414e-06
58	0x39b0acb8	0.0003369802
59	0x3aa60a10	0.0012667794
60	0x356561ed	8.545165e-07
61	0x341d3109	1.4639603e-07
62	0x3725e239	9.887438e-06
63	0x381eb9f3	3.7843314e-05
64	0x36a3b8b5	4.8792813e-06
65	0x355e7aed	8.2880325e-07
66	0x3851fe73	5.0066457e-05
67	0x39441d91	0.00018703031
68	0x36c76a19	5.9430135e-06
69	0x351d47d1	5.8591564e-07
70	0x3821a7e9	3.854177e-05
71	0x3916ee85	0.0001439397
72	0x35a47bec	1.2255018e-06
73	0x3457479d	2.0049488e-07
74	0x374e8a59	1.2310768e-05
75	0x384025eb	4.581168e-05
76	0x380fd564	3.4292592e-05
77	0x36c7d53e	5.955487e-06
78	0x39c972a2	0.00038423116
79	0x3abe0141	0.0014496223
80	0x37c5e63f	2.3591447e-05
81	0x36337edd	2.6746923e-06
82	0x3935a068	0.00017321261
83	0x3a2a90cf	0.00065065635
84	0x371b58da	9.259407e-06
85	0x359ecd82	1.1831728e-06
86	0x389c59b1	7.455366e-05
87	0x39930fe7	0.00028049873
88	0x351449cb	5.524168e-07
89	0x3219b58a	8.947049e-09
90	0x34e54e02	4.2711332e-07
91	0x35ccf560	1.5270598e-06
92	0x35d3f7e4	1.5792871e-06
93	0x34acc0c5	3.2177755e-07
94	0x37ab726b	2.0438069e-05
95	0x38a26e0e	7.745261e-05
96	0x367c1db0	3.7568207e-06
97	0x34eb5a81	4.383801e-07
98	0x37d2a722	2.5111778e-05
99	0x38c5907e	9.420606e-05
100	0x34f66205	4.589239e-07
101	0x33aa0546	7.917201e-08
102	0x36a4a8cd	4.907232e-06
103	0x3798be0e	1.8208313e-05
104	0x371f69b6	9.501751e-06
105	0x35e09270	1.673192e-06
106	0x38e283b0	0.000108010485
107	0x39d5e768	0.00040798937
108	0x375e0c62	1.3235114e-05
109	0x35cc83c1	1.523753e-06
110	0x38cd6c88	9.795377e-05
111	0x39c1347b	0.0003685093
112	0x37c23266	2.315007e-05
113	0x362afac2	2.5477934e-06
114	0x39307a6b	0.00016830272
115	0x3a24d3ec	0.00062876823
116	0x384564e9	4.706244e-05
117	0x36fdb16b	7.5606417e-06
118	0x3a00e198	0.00049164286
119	0x3af2f41a	0.0018535883
120	0x36f32697	7.246457e-06
121	0x35ad3295	1.2904226e-06
122	0x38b3634c	8.5538806e-05
123	0x39aa95ba	0.00032536482
124	0x3670d82a	3.588861e-06
125	0x34891b2e	2.5538014e-07
126	0x37819c9c	1.5450925e-05
127	0x386dfb5d	5.6739304e-05

exp_avg f4 [32]
0	0xbc3ed2eb	-0.011646966
1	0x3c2fd5c8	0.010732122
2	0x3b93aeb9	0.0045069125
3	0xbc4a1594	-0.012334246
4	0xbc07f8cb	-0.008299063
5	0x3c910281	0.01770139
6	0xbb79d530	-0.0038121454
7	0x3c6fa80c	0.014627468
8	0x3b090648	0.0020908285
9	0x3bc37daf	0.0059659104
10	0xbba19c35	-0.0049319514
11	0xbbd51531	-0.0065027704
12	0x3cb7f76d	0.022456849
13	0xbb9442a0	-0.004524544
14	0x3c8a9156	0.016915005
15	0x3b5adcfc	0.0033395877
16	0xbbcfef11	-0.0063456376
17	0xbba24a11	-0.004952677
18	0x3b2cf3de	0.0026390473
19	0xbc86c525	-0.016451428
20	0xbc30bf48	-0.0107877925
21	0x3bf68705	0.00752342
22	0x3a8c1762	0.0010688121
23	0x3b8d0f69	0.0043048155
24	0xbbbf1360	-0.005831167
25	0xbaa0ef55	-0.0012278358
26	0x3c244b2c	0.010027688
27	0xbc0961f1	-0.008385167
28	0xbc2266b7	-0.009912184
29	0xbc97e3e8	-0.018541291
30	0x3c0bff58	0.008544765
31	0x3b59525a	0.0033160658

exp_avg_sq f4 [32]
0	0x3c1a34cc	0.009412002
1	0x3c27fe77	0.01025354
2	0x3a9ee7e9	0.0012123558
3	0x3c8f94f8	0.017527089
4	0x3b9c3a92	0.0047677243
5	0x3cb611ae	0.022225227
6	0x3a26f9f5	0.0006369644
7	0x3c722069	0.014778235
8	0x3a0df531	0.00054152595
9	0x3b0fe9d1	0.0021959434
10	0x3b0dfe03	0.0021666295
11	0x3b79826d	0.0038072125
12	0x3d198ec0	0.037489653
13	0x3ad6400d	0.0016345993
14	0x3ca58002	0.02020264
15	0x3a03e871	0.000503189
16	0x3b4f461a	0.0031627477
17	0x3b0f2120	0.0021839812
18	0x3a4873d7	0.0007646656
19	0x3cb1e307	0.0217147
20	0x3c1f877d	0.009736893
21	0x3b8c973d	0.00429049
22	0x37f1e593	2.8836343e-05
23	0x3a9a6236	0.0011778537
24	0x3ad030b3	0.0015883654
25	0x39a61d50	0.00031683827
26	0x3bc4cb9a	0.0060057165
27	0x3bb4bd07	0.005515698
28	0x3c1c4d27	0.009539879
29	0x3cdfcc55	0.027319113
30	0x3b98f1a9	0.00466748
31	0x3a80dcb6	0.0009831402

exp_avg f4 [32, 32]
0	0x3998b7c5	0.00029128618
1	0x3a56203f	0.0008168257
2	0x38c713a7	9.49272e-05
3	0xb97b3770	-0.00023957877
4	0xb8679401	-5.521253e-05
5	0x39dfa3b9	0.00042655857
6	0x3888a95b	6.51653e-05
7	0x39299731	0.00016173419
8	0x3a7dd099	0.00096822676
9	0x38a79d5d	7.992492e-05
10	0x39c1e900	0.00036985427
11	0x39735ee3	0.00023209634
12	0x3957a68a	0.00020566038
13	0xba6c3ece	-0.0009012044
14	0x37a2a9c4	1.9390958e-05
15	0x39a5b928	0.00031609205
16	0xb9a6fe57	-0.00031851485
17	0xba697f4f	-0.0008907215
18	0x39c2a18c	0.00037122925
19	0x39e28696	0.00043206353
20	0x39f18220	0.00046064053
21	0xb9fc6dcd	-0.00048146994
22	0xb961cb53	-0.00021533416
23	0x38cfa964	9.902081e-05
24	0x3a054e1d	0.0005085187
25	0x375ad377	1.3043048e-05
26	0x39a92b99	0.00032266675
27	0x3a0dd65e	0.00054106663
28	0xba70c582	-0.00091847044
29	0x3a002a94	0.0004889157
30	0x3847b642	4.7615038e-05
31	0x3a3a82cb	0.00071148266
32	0xb8cb964c	-9.707789e-05
33	0xb98d3fe8	-0.0002694123
34	0xb80f9e71	-3.4241417e-05
35	0x38a97d8f	8.081935e-05
36	0x3781bb2d	1.5465159e-05
37	0xb9156f12	-0.00014251124
38	0xb7bd489a	-2.2564363e-05
39	0xb869fce8	-5.5787066e-05
40	0xb9a8108c	-0.00032055785
41	0xb7f0a47a	-2.868682e-05
42	0xb8fd675b	-0.000120832316
43	0xb89ff0a8	-7.6265365e-05
44	0xb88cc74e	-6.7128436e-05
45	0x399a2615	0.00029401542
46	0xb70f94c7	-8.558104e-06
47	0xb8d76843	-0.00010271419
48	0x38d4bc93	0.000101440724
49	0x39991ee1	0.0002920544
50	0xb8fb6d2c	-0.000119889475
51	0xb9169794	-0.00014361582
52	0xb91ce500	-0.00014962628
53	0x39233123	0.00015563196
54	0x388c9ab8	6.704539e-05
55	0xb7f80a5a	-2.9568724e-05
56	0xb92bc39e	-0.00016380704
57	0xb66d2b84	-3.5341081e-06
58	0xb8de3a70	-0.0001059667
59	0xb939344b	-0.00017662456
60	0x399de460	0.00030115526
61	0xb928eb8d	-0.00016109478
62	0xb76d9bdd	-1.4162591e-05
63	0xb9733d07	-0.0002319702
64	0x39033dd6	0.00012516169
65	0x39b6b9a0	0.00034852047
66	0x3830c95e	4.2149208e-05
67	0xb8d71874	-0.00010256554
68	0xb7bcf15d	-2.252374e-05
69	0x393f66fd	0.00018253546
70	0x37f1027f	2.8730601e-05
71	0x3892d8cd	7.002205e-05
72	0x39d8e4c0	0.00041369162
73	0x381369e2	3.5146142e-05
74	0x392687c5	0.00015881572
75	0x38d2e35c	0.00010055929
76	0x38b6bb3c	8.7133114e-05
77	0xb9c91c7b	-0.00038358927
78	0x3719a219	9.157252e-06
79	0x390d0f82	0.00013452585
80	0xb90cb809	-0.00013419999
81	0xb9c7236b	-0.00037982626
82	0x39255340	0.00015766639
83	0x3942268f	0.00018515646
84	0x394e918f	0.00019699916
85	0xb95736fb	-0.0002052448
86	0xb8bb8a65	-8.942633e-05
87	0x382d684f	4.134356e-05
88	0x39610a79	0.00021461573
89	0x36be43dd	5.6703416e-06
90	0x3910a730	0.00013795192
91	0x3972a940	0.00023141969
92	0xb9cd270e	-0.00039129745
93	0x395acf11	0.00020867238
94	0x37a27efa	1.9371033e-05
95	0x399e09f5	0.00030143527
96	0xb96c8acf	-0.00022558424
97	0xba287974	-0.00064267893
98	0xb880951d	-6.13129e-05
99	0x3940a0b3	0.00018370412
100	0x3857d493	5.145797e-05
101	0xb9ac7040	-0.0003289003
102	0xb83d5e84	-4.5149136e-05
103	0xb8f4be4d	-0.00011670273
104	0xba4682e4	-0.0007572605
105	0xb85c9198	-5.2587682e-05
106	0xb9960546	-0.00028614159
107	0xb935deae	-0.0001734446
108	0xb92d4c67	-0.00016527028
109	0x3a3cf6d9	0.0007208414
110	0xb6a23883	-4.834555e-06
111	0xb983fca6	-0.00025174505
112	0x398a7d71	0.00026414872
113	0x3a38d801	0.000705123
114	0xb99d4414	-0.00029996096
115	0xb9b07c20	-0.00033661816
116	0xb9bf0d68	-0.00036440347
117	0x39cb0dac	0.00038729364
118	0x39443d54	0.00018714863
119	0xb8b4faa0	-8.6297514e-05
120	0xb9dbbdfe	-0.0004191249
121	0xb74718e2	-1.1867118e-05
122	0xb9837f38	-0.00025081052
123	0xb9df922d	-0.00042642784
124	0x3a3f634f	0.000730087
125	0xb9cc38ac	-0.00038952136
126	0xb8381df7	-4.3896925e-05
127	0xba172cfa	-0.0005766895
128	0xba289a4b	-0.0006431683
129	0xbaece444	-0.00180734
130	0xb931f419	-0.00016970969
131	0x3a07abee	0.0005175461
132	0x3912f6de	0.0001401561
133	0xba714286	-0.0009203333
134	0xb909e812	-0.00013151791
135	0xb9a9b953	-0.0003237227
136	0xbb0bd17e	-0.0021334584
137	0xb916a9d2	-0.00014368378
138	0xba538f14	-0.00080703315
139	0xba0044fa	-0.0004893091
140	0xb9f06550	-0.0004585185
141	0x3b04f186	0.002028556
142	0xb6f66a09	-7.3437154e-06
143	0xba3840df	-0.00070287095
144	0x3a42bf38	0.00074290065
145	0x3b0208db	0.0019841704
146	0xba5d6dc4	-0.00084468373
147	0xba7a10ff	-0.0009539276
148	0xba87283c	-0.0010311673
149	0x3a8fcd10	0.0010971148
150	0x3a0b8605	0.00053223997
151	0xb97b8509	-0.00023986785
152	0xba9c002d	-0.0011901908
153	0xb8146709	-3.538191e-05
154	0xba3758eb	-0.0006994146
155	0xba9e2141	-0.0012064354
156	0x3b06c097	0.002056157
157	0xba913db3	-0.001108101
158	0xb8f74977	-0.00011791562
159	0xbad50d49	-0.001625457
160	0xb7ed35f7	-2.8277731e-05
161	0xb8a737aa	-7.973549e-05
162	0xb759016f	-1.2934542e-05
163	0x37cf2b93	2.4696614e-05
164	0x365ba88f	3.2731657e-06
165	0xb8396326	-4.4199776e-05
166	0xb6e1f93f	-6.7345386e-06
167	0xb79ef523	-1.8949218e-05
168	0xb8c7817b	-9.513177e-05
169	0xb737d784	-1.0957829e-05
170	0xb8130775	-3.5054476e-05
171	0xb7be7e4b	-2.2708575e-05
172	0xb7ab09b7	-2.0389312e-05
173	0x38b1ad44	8.472291e-05
174	0xb6a7a9b7	-4.9967452e-06
175	0xb7fed7fc	-3.0379735e-05
176	0x37e2c62d	2.7033582e-05
177	0x38b2c23f	8.5238826e-05
178	0xb80c1b9b	-3.340431e-05
179	0xb831f955	-4.2432297e-05
180	0xb8307b7b	-4.207667e-05
181	0x3834056d	4.2920397e-05
182	0x3780975f	1.5329277e-05
183	0xb6ee15ca	-7.0954893e-06
184	0xb834bd2f	-4.3091535e-05
185	0xb50728a4	-5.035056e-07
186	0xb8074c87	-3.225778e-05
187	0xb8528d0e	-5.019927e-05
188	0x38b71cc3	8.731477e-05
189	0xb83f334d	-4.5585726e-05
190	0xb6846c79	-3.9465344e-06
191	0xb889754a	-6.554516e-05
192	0xb901877c	-0.0001235287
193	0xb9be9a3b	-0.00036354535
194	0xb7a7b512	-1.9992269e-05
195	0x38ce1b08	9.8278804e-05
196	0x382167fb	3.848223e-05
197	0xb93b23b1	-0.00017847006
198	0xb79f986d	-1.9025256e-05
199	0xb8640b5e	-5.4370023e-05
200	0xb9dde2ac	-0.00042321288
201	0xb79a1ca2	-1.8371564e-05
202	0xb9256194	-0.00015771977
203	0xb8bb3b94	-8.927952e-05
204	0xb8cbeb59	-9.723631e-05
205	0x39dcc67f	0.0004210956
206	0x3710c08c	8.6279e-06
207	0xb9194d43	-0.0001462
208	0x392cac51	0.00016467391
209	0x39d3d30d	0.000404023
210	0xb93b8a23	-0.0001788517
211	0xb943953a	-0.0001865224
212	0xb95b8648	-0.00020935491
213	0x39704e6d	0.000229174
214	0x390372a8	0.00012535846
215	0xb87645db	-5.871603e-05
216	0xb98726dc	-0.0002577816
217	0xb71194a8	-8.677285e-06
218	0xb911d861	-0.00013908885
219	0xb97ec21f	-0.00024295643
220	0x39dce51c	0.0004213237
221	0xb96c2097	-0.00022518855
222	0xb8060223	-3.195008e-05
223	0xb9b47144	-0.00034416665
224	0x398a1fb0	0.0002634502
225	0x3a3ff9ea	0.0007323312
226	0x38b99a4c	8.8502275e-05
227	0xb9642aa8	-0.00021759665
228	0xb843ad5f	-4.6653087e-05
229	0x39c91a8d	0.0003835749
230	0x3881a333	6.1815976e-05
231	0x391af7b2	0.00014778858
232	0x3a641d1a	0.0008701846
233	0x389a5ea1	7.360918e-05
234	0x39ae7138	0.0003327222
235	0x395c7ae3	0.00021026614
236	0x393e79a9	0.00018165134
237	0xba52dc18	-0.0008043661
238	0x37a75e17	1.9951765e-05
239	0x39931c4d	0.0002805911
240	0xb9944212	-0.00028277986
241	0xba50ec04	-0.00079697394
242	0x39adcdd0	0.00033150474
243	0x39cbe06e	0.0003888639
244	0x39d8a119	0.00041318758
245	0xb9e1b053	-0.00043046716
246	0xb9471d85	-0.00018989116
247	0x38b38d8b	8.5617496e-05
248	0x39edb33e	0.00045337708
249	0x3732d028	1.0658092e-05
250	0x39971cb5	0.00028822353
251	0x39fecab0	0.0004859767
252	0xba579e0d	-0.00082251505
253	0x39e65e5b	0.0004393932
254	0x382542e1	3.940135e-05
255	0x3a263fc7	0.0006341901

exp_avg_sq f4 [32, 32]
0	0x368d0b2b	4.2034276e-06
1	0x37f0775f	2.8665816e-05
2	0x375f1959	1.32977375e-05
3	0x35b651ce	1.3583865e-06
4	0x36d91c82	6.4704227e-06
5	0x367aa506	3.734896e-06
6	0x3675a8c4	3.660608e-06
7	0x370c95b8	8.379509e-06
8	0x38039de5	3.1379885e-05
9	0x36fde084	7.5661246e-06
10	0x36a9388b	5.043175e-06
11	0x36943d00	4.417845e-06
12	0x36a44834	4.8959864e-06
13	0x38aa17a0	8.110632e-05
14	0x375fdbde	1.3343028e-05
15	0x373fb47c	1.1426509e-05
16	0x37e8fa53	2.7773121e-05
17	0x385a5fd8	5.206451e-05
18	0x378f9893	1.7117976e-05
19	0x37289a3d	1.0049492e-05
20	0x37860082	1.5974281e-05
21	0x3808968e	3.256514e-05
22	0x382e4206	4.1546322e-05
23	0x371c432e	9.313966e-06
24	0x388f713a	6.8398615e-05
25	0x365193aa	3.1229379e-06
26	0x368c185b	4.1751605e-06
27	0x378fb0ce	1.712926e-05
28	0x38681ef8	5.5341952e-05
29	0x37cbff25	2.4318297e-05
30	0x36960a09	4.4715166e-06
31	0x389e5b44	7.551027e-05
32	0x34b907e9	3.446469e-07
33	0x36250587	2.4590133e-06
34	0x35a17f35	1.2032457e-06
35	0x34039c48	1.225718e-07
36	0x3521f282	6.033007e-07
37	0x34b7ee0f	3.4259617e-07
38	0x34a66b4f	3.0997987e-07
39	0x354867a1	7.4656606e-07
40	0x3633e988	2.6809012e-06
41	0x353a3642	6.9369355e-07
42	0x34f65bac	4.588777e-07
43	0x34d93546	4.045816e-07
44	0x34e0d878	4.1880753e-07
45	0x36eae7d5	7.0007322e-06
46	0x359a99bf	1.151864e-06
47	0x35836747	9.790318e-07
48	0x36299b13	2.5273227e-06
49	0x3695d91f	4.4658223e-06
50	0x35d157d0	1.559727e-06
51	0x355c9a5b	8.2181003e-07
52	0x35bd0b0a	1.408481e-06
53	0x363f7118	2.8527047e-06
54	0x367919a0	3.7118807e-06
55	0x3565cb35	8.5604853e-07
56	0x36ca4c7f	6.0289744e-06
57	0x348a110e	2.5716912e-07
58	0x34c6b678	3.7013137e-07
59	0x35ca0ade	1.5053336e-06
60	0x36a17138	4.8113543e-06
61	0x3608f02e	2.0405382e-06
62	0x34d3fd0b	3.9485926e-07
63	0x36dba66d	6.546083e-06
64	0x351d0017	5.848719e-07
65	0x368eb3af	4.2528477e-06
66	0x3609943d	2.0500877e-06
67	0x345c1255	2.0495766e-07
68	0x3581beff	9.666836e-07
69	0x3517cbee	5.654864e-07
70	0x350fa642	5.351359e-07
71	0x35abfdb2	1.2814328e-06
72	0x369b3a79	4.626167e-06
73	0x359d3806	1.1713717e-06
74	0x354b04b6	7.563025e-07
75	0x35342980	6.7115616e-07
76	0x3542de68	7.2594275e-07
77	0x374bbbe5	1.21434905e-05
78	0x36069e8c	2.0059842e-06
79	0x35e1538a	1.6788119e-06
80	0x368d74b7	4.215715e-06
81	0x370206be	7.750174e-06
82	0x362eae7e	2.6029588e-06
83	0x35be96be	1.4199975e-06
84	0x36215d30	2.4045112e-06
85	0x36a4e2cb	4.913983e-06
86	0x36d4ecb2	6.3456473e-06
87	0x35bf7125	1.4263538e-06
88	0x372e6931	1.03957e-05
89	0x34da0b17	4.0613733e-07
90	0x3526944c	6.205562e-07
91	0x362cc496	2.5744425e-06
92	0x370b1d86	8.29192e-06
93	0x367064a7	3.5821374e-06
94	0x3535e080	6.7754445e-07
95	0x373ea657	1.13636115e-05
96	0x3623225e	2.4308897e-06
97	0x379153e5	1.7324413e-05
98	0x37061908	7.99285e-06
99	0x35585fdc	8.0605764e-07
100	0x36833137	3.9098336e-06
101	0x3617ba4e	2.2609197e-06
102	0x360f8786	2.1387546e-06
103	0x36a7743f	4.9905207e-06
104	0x379e84c0	1.8896884e-05
105	0x3698f118	4.55802e-06
106	0x364f5027	3.0892058e-06
107	0x363233c2	2.6554194e-06
108	0x3645aca3	2.9455775e-06
109	0x384d2e5d	4.8918988e-05
110	0x3704a9b3	7.907324e-06
111	0x36e53fa3	6.83214e-06
112	0x378d7f6b	1.6867843e-05
113	0x3803bed8	3.141057e-05
114	0x372f4c7f	1.04486235e-05
115	0x36c4728b	5.8545897e-06
116	0x3722fa09	9.714168e-06
117	0x37a52964	1.9688807e-05
118	0x37d20ce4	2.5039953e-05
119	0x36be1cdd	5.6658014e-06
120	0x382d1ff0	4.127616e-05
121	0x35e956d5	1.7385124e-06
122	0x362a0a05	2.5337806e-06
123	0x372ed0c5	1.0419816e-05
124	0x380cb059	3.3542838e-05
125	0x3772204a	1.4431842e-05
126	0x3634aed1	2.6923847e-06
127	0x383e9219	4.5435594e-05
128	0x37844c43	1.5771138e-05
129	0x3903dcd4	0.00012575398
130	0x3878e450	5.934044e-05
131	0x36beb628	5.683647e-06
132	0x37e8906a	2.7723803e-05
133	0x378878db	1.6268741e-05
134	0x37793014	1.4852751e-05
135	0x38191045	3.6493195e-05
136	0x390e2282	0.0001355503
137	0x380e3cc0	3.3912016e-05
138	0x37b87b0d	2.199181e-05
139	0x379e7561	1.8889727e-05
140	0x37b41952	2.1469463e-05
141	0x39bbf485	0.000358496
142	0x3870151f	5.724013e-05
143	0x384c6c0b	4.8738013e-05
144	0x3901df9e	0.00012385703
145	0x396fd373	0.00022871587
146	0x38a29e1f	7.754214e-05
147	0x3824c20b	3.9281364e-05
148	0x38951c5a	7.1101545e-05
149	0x3917f183	0.00014490452
150	0x3942a125	0.00018561313
151	0x3830f03f	4.2185417e-05
152	0x39a0604b	0.00030589322
153	0x3726bc38	9.938194e-06
154	0x3797fac0	1.8117367e-05
155	0x389fd406	7.621203e-05
156	0x39810128	0.0002460566
157	0x38d8b86d	0.000103340346
158	0x37a6c71b	1.9881458e-05
159	0x39af5553	0.00033442173
160	0x33ce389d	9.6029204e-08
161	0x34eb7b56	4.38619e-07
162	0x3469038a	2.1701103e-07
163	0x32de0716	2.5847424e-08
164	0x341df609	1.4711271e-07
165	0x338623f1	6.246399e-08
166	0x33922181	6.804749e-08
167	0x34164dba	1.3998115e-07
168	0x35060b9b	4.993578e-07
169	0x340993d1	1.2812895e-07
170	0x33cf121d	9.6424834e-08
171	0x33af1d58	8.15441e-08
172	0x339c097c	7.266041e-08
173	0x35a81290	1.2522378e-06
174	0x346d1f8c	2.2083822e-07
175	0x3452bf3a	1.9627342e-07
176	0x350955fb	5.1161595e-07
177	0x3557b253	8.035324e-07
178	0x349f3de9	2.9661103e-07
179	0x3456db7c	2.0010151e-07
180	0x34911cbb	2.702926e-07
181	0x350e02e1	5.290331e-07
182	0x3537c688	6.8461713e-07
183	0x342df63a	1.6201457e-07
184	0x359175e2	1.083765e-06
185	0x33e637a2	1.0720329e-07
186	0x33950477	6.939165e-08
187	0x3499135c	2.8512557e-07
188	0x3567bd21	8.6329425e-07
189	0x34d6760a	3.994649e-07
190	0x339526f4	6.945439e-08
191	0x359c7a08	1.1658421e-06
192	0x35525ec4	7.8369e-07
193	0x36ad30c0	5.161477e-06
194	0x361e43e4	2.3583352e-06
195	0x34830658	2.4405267e-07
196	0x35a1d910	1.2058608e-06
197	0x3532563d	6.643566e-07
198	0x35316a50	6.6092343e-07
199	0x35c7a066	1.4873337e-06
200	0x36be0b71	5.663773e-06
201	0x35b466be	1.3440947e-06
202	0x357ddccc	9.4571146e-07
203	0x35589dba	8.069579e-07
204	0x356ac610	8.746001e-07
205	0x37744d2e	1.4561503e-05
206	0x361f823f	2.376866e-06
207	0x360ab83d	2.0670843e-06
208	0x36a9e0ca	5.0627614e-06
209	0x371d3cdf	9.372102e-06
210	0x364f68ad	3.0906333e-06
211	0x35f6d8d6	1.8391536e-06
212	0x3643c084	2.9169323e-06
213	0x36c51b90	5.874266e-06
214	0x36f8cba2	7.414682e-06
215	0x35dfac04	1.6664858e-06
216	0x374d6ea0	1.2244709e-05
217	0x3525e132	6.179499e-07
218	0x354b69c6	7.5777314e-07
219	0x3651b9f7	3.1251673e-06
220	0x37279125	9.98777e-06
221	0x36925d4b	4.362e-06
222	0x3555421e	7.9444897e-07
223	0x37626b3d	1.3495618e-05
224	0x364c4604	3.0439123e-06
225	0x37b4c41b	2.154899e-05
226	0x372ce403	1.0305087e-05
227	0x358be747	1.0423618e-06
228	0x36aa1be1	5.0696403e-06
229	0x36429017	2.8992124e-06
230	0x3635eda2	2.7109422e-06
231	0x36d7b5f7	6.428683e-06
232	0x37c51b34	2.3496897e-05
233	0x36c64a2c	5.9094946e-06
234	0x3681f1cd	3.872649e-06
235	0x3663bbb1	3.3934887e-06
236	0x3676b095	3.675964e-06
237	0x38808640	6.1285216e-05
238	0x3728d69a	1.0063546e-05
239	0x370f9838	8.558905e-06
240	0x37b51c23	2.1589984e-05
241	0x382446e9	3.9166687e-05
242	0x375f3249	1.3303544e-05
243	0x36f4f160	7.2998664e-06
244	0x374c9471	1.2193909e-05
245	0x37d03105	2.4818359e-05
246	0x3806452d	3.2012515e-05
247	0x36f43be5	7.2787393e-06
248	0x385b8dbe	5.2345677e-05
249	0x36160640	2.235538e-06
250	0x36550b8d	3.1746197e-06
251	0x375ae3ad	1.30468225e-05
252	0x383009db	4.197085e-05
253	0x379780c0	1.8060557e-05
254	0x36655ba3	3.4176999e-06
255	0x3870102d	5.7235524e-05

exp_avg f4 [32]
0	0x3b146d7f	0.0022648273
1	0xba41657a	-0.0007377487
2	0x3a7ce2eb	0.00096468505
3	0xbaed6e54	-0.0018114545
4	0xbba75f19	-0.005107772
5	0xb95c9da5	-0.00021039562
6	0xba8ac811	-0.0010588189
7	0x3b04a47f	0.002023965
8	0xb860f1f8	-5.3631113e-05
9	0xbb26600a	-0.0025386834
10	0xbb6a3c6a	-0.0035741576
11	0x3b29de15	0.0025919725
12	0x3ad66529	0.0016357052
13	0x3bf905e2	0.0075995782
14	0xbb962a21	-0.004582659
15	0xb87bc9d2	-6.0031023e-05
16	0xbbc14981	-0.005898655
17	0xbb76be06	-0.0037649884
18	0xba1da11d	-0.00060130825
19	0x3abfc0db	0.0014629619
20	0xbbf48046	-0.0074615804
21	0x388fc4bb	6.855415e-05
22	0x3bb0952e	0.0053888774
23	0xbb2859c1	-0.0025688263
24	0xbb6f4ad6	-0.0036513112
25	0x3af2d125	0.0018525465
26	0xbb60a880	-0.0034280121
27	0xbb3f9fc3	-0.0029239513
28	0xb486553d	-2.5021464e-07
29	0xbbb10334	-0.005401993
30	0xba50f45d	-0.0007970983
31	0x39b97c00	0.00035378337

exp_avg_sq f4 [32]
0	0x3a03de3e	0.000503037
1	0x3837858a	4.3754968e-05
2	0x389ec17d	7.570067e-05
3	0x399fa21c	0.00030447624
4	0x3b1305ca	0.002243387
5	0x370242e8	7.764182e-06
6	0x38bdaefe	9.044817e-05
7	0x39c83e29	0.00038193286
8	0x34584660	2.014217e-07
9	0x3a2172c6	0.0006158765
10	0x3a77f5bf	0.0009458921
11	0x3a1f954e	0.0006087617
12	0x390fcf8a	0.00013714857
13	0x3bb3d026	0.0054874597
14	0x3af27038	0.0018496579
15	0x35a35a1e	1.2170674e-06
16	0x3b2710c8	0.002549218
17	0x3aa34391	0.001245605
18	0x383eb1bd	4.546506e-05
19	0x3967319f	0.00022048362
20	0x3ba3b33e	0.0049957326
21	0x34933e16	2.7426057e-07
22	0x3b32e5ad	0.0027297542
23	0x3a293e40	0.00064561144
24	0x3aaac870	0.0013029706
25	0x39be3c73	0.00036284662
26	0x3a8e0698	0.0010835705
27	0x3a63e422	0.0008693357
28	0x3601bbb6	1.933176e-06
29	0x3b0dc749	0.0021633676
30	0x3866557a	5.491588e-05
31	0x36162c01	2.2377355e-06
