trained_models/15_lag_ppo_InvertedPendulum-v2_eps_0.0_actor.pth (torch, 234044 bytes, 44 tensors)

policy_net.lstm.weight_ih_l0 f4 [128, 4]
00000000: 6428 e43c 1746 63bf 0113 60bd 94b2 093d
00000010: 4e4a 64be 888d 7abe 7e21 41bc 2160 5fbd
00000020: 6989 643d 3ba1 66bf 7ee0 8abe 7c15 a0bc
00000030: 697d a0bd ac4e 44bf 5f14 173e c928 55bc
00000040: 3064 15be 31e9 37bf 3078 c63d 7f12 1a3e
00000050: 5ebc 923e 9e41 8d3e eeed 983d 9bf2 ad3e
00000060: 214b 95bd 8c58 30bf 7f9f 513d c1a9 9cbd
00000070: 7ed4 d1bd 5b9e ba3e 2856 25be 9fa2 e73e
00000080: 2ba1 593e 4de3 443f 95c6 5fbd d942 ff3c
00000090: aa46 503e c291 ab3e bb47 d1bc 89ff 683e
000000a0: 0af7 833e 15d7 2abe 1b11 c43c 1686 6e3e
000000b0: 2309 d3bc b5af c63e 8bf1 a23e 4d15 d2bc
000000c0: 8edc f1bd 0881 7fbf 76b5 01be f980 1cbe
000000d0: ebc7 603c 4474 50bf 984b 82bd 46c9 4cbe
000000e0: 3468 f5bd 56ad b5be 7255 ddbe 027a ac3e
000000f0: 839d b03d 7b82 3c3f bb60 5dbe 0c84 bb3d
00000100: f47c 0cbe 3f9d 5abf f414 0dbc 38bd 483c
00000110: 6bfb ed3d 2d8b 73be ea45 29be 8ee2 103d
00000120: 0914 903c a63f 093f 5a9f adbc 985f 963e
00000130: e84f 71be e18e 8bbf 1fca 09be 8720 05bd
00000140: ec77 a63d db48 6bbf a92f 4fbd 7c7f dcbd
00000150: 9453 04bd a9bb 343f 7ef1 19be ee71 c03e
00000160: 9375 413e 7b1b a63e 0c1f fe3d 458a 893e
00000170: 4dda 5f3e 2075 6fbe 04af 6c3e 08e0 e03d
00000180: 3506 b5bc 4509 453f 5ac7 e03d 7581 fc3e
00000190: 64be c73d 75db 4a3f 1ce2 d63c 06b1 b03e
000001a0: 8161 20be f13d 743f cc17 87bd 868e 723e
000001b0: 8386 6fbc 4db7 a83e 7fc2 1dbe ec2e cd3e
000001c0: 6ec8 223e 6bbd 913e 0ccf c5be 07e0 5d3d
000001d0: e868 8b3e 5e20 823f 4e0f b6bd d6f3 d33e
000001e0: 468a 633e af5e eebd 0989 dd3c 72f9 8f3d
000001f0: 21b4 26be 9b68 71bf c202 10be cf38 ba3b
00000200: e614 163e 7e49 8cbf ff8a 57be eab3 25be
00000210: ac7c 743d 545d 42be c9b1 19be 7a5b 42be
00000220: 9240 2ebb c478 70bf 03cc 503d 0094 5f3e
00000230: 6c6c 4cbe cf44 89bf 3c59 acbd 3481 3ebe
00000240: bafa 11be cff3 72bf f9a1 89be f03b d03d
00000250: dc09 803e d4ab a23e e37c 3b3e 63fd b43d
00000260: f36a ea3c e843 8abf 6e5e d5bd c23c 99be
00000270: fc2b 4f3e 006d 703f 12f8 6a3e c847 e4bc
00000280: 1598 0f3d 955f 4a3f fc1c 393e 15c6 b5bb
00000290: 341c 6f3e 8cfa 293f 8ad6 0f3c 6581 8d3d
000002a0: 22e6 633e 8ae6 6f3e d78a 8a3d 590f b23d
000002b0: 825c c9bc 9b94 583e 9329 2a3e fe80 60bd
000002c0: 8680 b83d 159c 56bf ecb4 f4bd 281f 44bd
000002d0: 652d f13d 6753 52bf ae87 e6bd 468d 20bc
000002e0: de23 7d3c f049 433e e4d1 3f3e c52a 843d
000002f0: f7c5 533e 625d 673f a2fa 90bd 22e1 9f3e
00000300: cd20 2b3e c825 79bf 4e6c 04be 8b0a d2b9
00000310: 981c c7bd 2a6a dcbe 0c9e 8fbc c49e 9fbd
00000320: b61f 9abd 6f7e 4a3f e7b8 523e 3ee0 073e
00000330: 2581 15be 4ce7 79bf fa9f 92be 0a74 1bbe
00000340: 6fca 5bbe 923f 70bf 7c97 93be add5 d5bc
00000350: 878f 9bbd c15d 713f 60c8 9a3d 6c58 a83a
00000360: f26e 2d3e 73cd fa3e d752 243e 6fa6 a3bd
00000370: 1e13 c33d 6994 933e 8e31 ce3d 08ca ee3d
00000380: 29c1 67bd 05b5 793f 91f0 103e be40 003d
00000390: 9ce6 62bd 1b74 3c3f f374 56bd a96b 36bc
000003a0: 8294 173e 7d0c 7b3f d7e9 123e 9898 32bb
000003b0: a0cf fe3d 32fa 5f3f fcfa 7c3d d237 073e
000003c0: 5f36 7b3d 0e36 cfbd ea19 9abd 1cbd 1bbe
000003d0: 6848 d73d 1a56 8e3f b058 ebbd 4f72 153e
000003e0: 72e9 e03d 3cd1 b3be 1a67 67be a2bd 8dbd
000003f0: 4529 d0bd 5f3f 77bf 81f1 c7bd ae19 be3d
0.027851291 -0.88778824 -0.054705624 0.03361757 -0.2229397 -0.24468052 -0.01178777 -0.054535035
0.055795107 -0.9008977 -0.271244 -0.019541495 -0.0783642 -0.76682544 0.14753865 -0.013010212
-0.14589 -0.71840197 0.09690893 0.15046118 0.28659338 0.27589124 0.074672565 0.33974156
-0.0728972 -0.6888511 0.051177498 -0.076495655 -0.10245608 0.3644894 -0.16146147 0.45241258
0.21252887 0.76909333 -0.054632742 0.031159805 0.20339456 0.33509642 -0.025546899 0.22753729
0.25774413 -0.1668361 0.023933938 0.23293337 -0.025761193 0.3880593 0.31824908 -0.025644923
-0.118096456 -0.9980626 -0.12666878 -0.15283574 0.013719539 -0.8142741 -0.063620746 -0.19998655
-0.11982766 -0.35483807 -0.43229252 0.33686835 0.08623793 0.736366 -0.21618931 0.09156045
-0.13719541 -0.8539619 -0.008610953 0.0122521445 0.1162022 -0.2378356 -0.16530576 0.03537231
0.017587679 0.53612745 -0.021194149 0.29369807 -0.23565638 -1.0902978 -0.1345601 -0.032501724
0.08128342 -0.91908044 -0.05058256 -0.10766503 -0.03230627 0.70598847 -0.15033528 0.3758692
0.18892507 0.3244284 0.124082655 0.26863304 0.21860619 -0.23384523 0.23113638 0.109802306
-0.022097686 0.7696727 0.10975523 0.49317518 0.09753111 0.79241115 0.026230864 0.34510058
-0.15662195 0.95407015 -0.06596336 0.23687181 -0.014619472 0.32952347 -0.15406226 0.4007486
0.1589677 0.28464827 -0.38634527 0.054168727 0.27228475 1.0166128 -0.08889638 0.4139697
0.22220716 -0.11639153 0.027042883 0.0703 -0.16279651 -0.9430024 -0.14063552 0.0056830416
0.1465641 -1.0959928 -0.21049117 -0.16181913 0.05968921 -0.18980914 -0.15009226 -0.18980208
-0.002658878 -0.93934274 0.05097581 0.21833801 -0.19963235 -1.0724124 -0.084154576 -0.18603975
-0.14255801 -0.9490327 -0.26881388 0.10167682 0.25007522 0.3177172 0.18309359 0.08837392
0.02861545 -1.0801973 -0.10418402 -0.29929167 0.20231622 0.9391632 0.22946194 -0.02786626
0.035057146 0.79052097 0.18077463 -0.005547295 0.23350602 0.6639793 0.008779177 0.06909446
0.22255757 0.23427787 0.06764763 0.086943336 -0.024580244 0.21150438 0.16617422 -0.054810517
0.09008889 -0.8383191 -0.119485706 -0.047881275 0.117762364 -0.8215851 -0.112563476 -0.009799307
0.015450446 0.19071174 0.1873241 0.0645347 0.20680986 0.90376866 -0.070790544 0.3122645
0.16711731 -0.97323275 -0.1293194 -0.00040062176 -0.09722251 -0.43049747 -0.017531417 -0.07793954
-0.0752558 0.7909917 0.20578347 0.13269135 -0.14600046 -0.97618556 -0.28637677 -0.15180984
-0.21463941 -0.93847 -0.2882651 -0.026102865 -0.07595735 0.9428368 0.0755775 0.0012843735
0.16936854 0.4898487 0.16047226 -0.07990729 0.09525131 0.28824165 0.100680456 0.11659628
-0.056580696 0.9754184 0.14154269 0.031311743 -0.055395707 0.7361466 -0.052357625 -0.011134067
0.14802745 0.9806593 0.14347015 -0.0027251597 0.12441945 0.8749114 0.061762795 0.13204888
0.06133115 -0.10117732 -0.07524474 -0.15208858 0.10511857 1.1120026 -0.11491525 0.14594387
0.10982026 -0.3512057 -0.22597924 -0.06920935 -0.101641215 -0.9658107 -0.0976286 0.09282242

policy_net.lstm.weight_hh_l0 f4 [128, 32]
00000000: fe18 47be 1cb9 533d 81f6 8abe d87d 943c
00000010: ae98 873e a9e9 043d 48c4 803d a8b7 39bd
00000020: 9952 c3bd ca56 893e 2f66 703e 7d70 dbbd
00000030: b744 883e f4af 863c 77ae a83e 0ac5 e6bb
00000040: 84e5 94bc 4bef 61bd 65f4 993d 1974 33be
00000050: 2864 44be 90ed f3bd 6542 c5bc 0e1f 9e3d
00000060: 7972 d63a 2a45 9c3e 5394 9a3e c6e0 d03c
00000070: ddbe 48be 659f 84be c4bf 033e 336c 873d
00000080: ea28 6dbd f141 60be 5605 94be bb18 c73c
00000090: e1b0 e73d 9722 413e 17ab aa3e 0bd0 f8bd
000000a0: 13ce 01be f6fa 953c bbb6 3f3e e43c 0fbd
000000b0: e287 943d 596a debd 74d6 253e 402c 97bc
000000c0: 492e 8b3d c383 babb 96ac 2abe 01e2 94be
000000d0: b42f b3be 3141 97be 0bb4 90bc 2389 993d
000000e0: 5268 9ebb ea56 e23d 1af1 b93e f3f6 1f3c
000000f0: 62f2 8cbd ec4f e33a 7872 133e 56d2 043e
00000100: 6860 30bd c588 adbd e130 743d ce81 7f3d
00000110: 32cf 4c3d 0102 3f3d 2c37 f43b 4229 203c
00000120: 1912 35be 9b45 c63d c33f 523d f89b eebb
00000130: 8fde ed3d f607 083e a7d2 273e 8bd2 7d3d
00000140: f66a c8bd 6988 d2bd dee1 163e bc36 6d3d
00000150: 6e77 a6bd 8b61 fcbd 236a 4f3d 159a e0bd
00000160: 922e 863d 2a5e 583e 00bb 05bd 6549 09bc
00000170: 8a62 86bd dfdf 2bbe a993 353c 3885 77bd
00000180: 60a3 d2bd c403 443e 1542 3ebd 1950 c73d
00000190: cc84 fa3c 8fe3 0b3e 9bdb e93d d23c 2abe
000001a0: e3a0 253c 4237 94bd 3027 4f3e 708d a1bd
000001b0: 9c9e b3bb e8d8 42bd ab98 ee3d f65a 2b3d
000001c0: 80fb 33be a0cd b23c 184c b0ba 0d4e 8ebd
000001d0: 97e9 19bc 43de 2fbe b0b8 02be 3083 7cbc
000001e0: 5e51 7d3d e64e 8f3d 4f81 203d aaca 8ebc
000001f0: 8ab3 1abd e08c 36be 501d 4b3d 9a6b d23d
00000200: cc47 2cbd 4332 bfbd ff42 f83d cb80 febd
00000210: f4ec fbbd 64e3 3d3e 0a05 46be 91a7 0fbe
00000220: 9020 f5bd 1d3d 653d 4c20 993e 7d3a f8bd
00000230: 0144 f2bd e780 913d 325a 7cbd 18c5 723d
00000240: 908c 8fbd 6323 793e 5eb8 203d 29bf bdbc
00000250: a6ec 0b3e 3981 75bc 8791 04be b27a b63c
00000260: 3959 593e f2e0 4b3e 9fbc 3e3c 0db2 9fbc
00000270: 359d f83d 1c5c 4a3d a3be 4abe 1fd6 a13b
00000280: 525e 313c f0ed 933d 8c98 7a3d 2beb 17be
00000290: d7ae c3bd a654 1fbe cffb 083e b442 a6bb
000002a0: 615d 153e c71d 25bc 0474 d43d e428 92bd
000002b0: fb50 273e 05f0 0abe 161a 4fbe 47e0 963d
000002c0: d80a 04be e7ac 34bd 03b5 b5bc d011 14bd
000002d0: 22c3 113e 21fd d63d d074 02be e5ce 293e
000002e0: 3cf7 a5bd d444 2abe 3445 f3bc b577 5d3d
000002f0: 60eb 3abd 39c3 903d a30b 203e 62f7 09be
00000300: 95a9 20be 27e8 c53d 55d1 05be 8b15 803d
00000310: 6d6e c33c 1f7c 643e 3680 06bd 2914 82be
00000320: dbda 4dbe 7897 5ebd c855 453e c76a 20b6
00000330: 523f c43d 04fa e3bb 8391 9f3d c9ac 403d
00000340: fa1e 873e c91a 273e 2177 30be 46b1 fcbd
00000350: fc1e 56be b426 5abe aabf 8ebd 9809 9d3d
00000360: df3d 903d 1c58 9cbb 81bc 3d3e 269e 0f3d
00000370: 1e29 22be 0957 063c 75f0 53bd 9cca 563d
00000380: 0511 2cbe b998 ba3d 0799 d73d 49dc b73d
00000390: 8cc5 ec3d 7580 293e c4a1 533e 4c19 b13c
000003a0: 2dbf 0abe b188 d7bd b463 53bd c103 b8bd
000003b0: 941c 093e 0fe3 5ebe 256e acbd 7c2a 72be
000003c0: 7045 843c 29d8 363e 3a0d 51bd 8a93 bfbd
000003d0: 553e 77be 5c21 acbd c9ae 17bd 087a adbc
000003e0: cf4e a43d c6b4 4e3e 64b8 50bd 6c91 2ebd
000003f0: 9e99 d73d 670a 35be e146 9cbd ef9d 23bd
-0.19443128 0.051690206 -0.27141193 0.018126413 0.26483673 0.0324494 0.06287438 -0.045341164
-0.09537239 0.26824027 0.2347648 -0.10714815 0.26614925 0.016441323 0.32945606 -0.007042532
-0.018175848 -0.05515985 0.07517318 -0.17524756 -0.19178832 -0.11910546 -0.024079511 0.07720767
0.001636102 0.30521518 0.30191287 0.025497805 -0.19604059 -0.25902858 0.12866122 0.06612434
-0.057900347 -0.21900155 -0.2891032 0.024303785 0.11313034 0.18860851 0.33333656 -0.12149056
-0.12676267 0.018308144 0.1872205 -0.03497018 0.0725248 -0.10860128 0.16195089 -0.018453717
0.067959376 -0.0056919768 -0.16667399 -0.29078677 -0.34997332 -0.29541925 -0.017663976 0.0749686
-0.0048342133 0.11051734 0.36316758 0.009763467 -0.06882168 0.0017342544 0.14399135 0.12970862
-0.04306069 -0.08473352 0.059616927 0.06237965 0.050002284 0.04663277 0.007452866 0.009775462
-0.17682685 0.09681245 0.05133034 -0.0072817765 0.11614715 0.13284287 0.16388951 0.061968368
-0.09786026 -0.102799244 0.14734599 0.057913527 -0.08128248 -0.12323292 0.05063833 -0.10966889
0.06551851 0.2112967 -0.03264904 -0.008379315 -0.065617636 -0.16784619 0.011082568 -0.06042978
-0.102850676 0.19142061 -0.04644974 0.09732074 0.0305809 0.13661025 0.114188395 -0.16624764
0.010109159 -0.07237102 0.20229793 -0.07888305 -0.005481554 -0.04757014 0.11650213 0.041834794
-0.17576408 0.021826565 -0.0013450412 -0.06948481 -0.009394071 -0.1717463 -0.12765765 -0.015412137
0.061845176 0.069974706 0.03918582 -0.017430622 -0.037768878 -0.17827177 0.0495885 0.102744296
-0.04206066 -0.093357585 0.121221535 -0.12426909 -0.123010546 0.18543774 -0.1933786 -0.14028765
-0.119691014 0.055966485 0.29907453 -0.12120531 -0.11829377 0.07104664 -0.061609454 0.059269994
-0.07009232 0.24329905 0.039238326 -0.023162441 0.13664493 -0.014984422 -0.1294614 0.022275303
0.21225442 0.19910029 0.01164165 -0.01949408 0.1213936 0.04940425 -0.19799285 0.0049388553
0.01082571 0.07223117 0.061180636 -0.14835803 -0.095548324 -0.15559635 0.13377307 -0.0050738696
0.14586402 -0.0100779 0.10373691 -0.071367055 0.16339485 -0.13568123 -0.20224795 0.07366996
-0.12894762 -0.044110205 -0.02218104 -0.0361498 0.14234594 0.10497499 -0.12739873 0.1658283
-0.08103797 -0.16627818 -0.029696085 0.05406924 -0.045634627 0.07068486 0.15629439 -0.13473275
-0.1568969 0.0966342 -0.13068135 0.06254109 0.023856366 0.22312973 -0.032837115 -0.25406006
-0.20103018 -0.05434367 0.19271004 -2.390401e-06 0.0958239 -0.0069572944 0.07791426 0.04703978
0.2639082 0.16318811 -0.17232944 -0.123385 -0.20910257 -0.21303827 -0.06970151 0.076678455
0.07043051 -0.0047712456 0.1852894 0.03506293 -0.15835997 0.008199462 -0.05174299 0.052439317
-0.16803367 0.09111161 0.105272345 0.08977563 0.115611166 0.16552909 0.20667177 0.021618508
-0.1354949 -0.10524119 -0.051608756 -0.08985091 0.13389808 -0.21766303 -0.08419446 -0.23649019
0.016146392 0.17855896 -0.051038004 -0.09354313 -0.24144872 -0.084048 -0.037031922 -0.021176353
0.08022844 0.20186147 -0.0509571 -0.042619154 0.10527347 -0.1767975 -0.076307066 -0.03994554

policy_net.lstm.bias_ih_l0 f4 [128]
00000000: 0504 a63e 8993 a53e 60d2 603e add5 05be
00000010: 6f3d 813e 2ff1 e8bc 91a9 313e 024b 443e
00000020: 1b37 84bc 4073 dc3d 4033 9c3b 33f3 aa3e
00000030: 5197 923e e0ce 653d b802 d63e 334e 1a3e
00000040: 06f5 803e cd1e fe3e 5629 753a 617c 37bd
00000050: 20db 83bd 4f61 843e 9539 0e3e 3257 443e
00000060: 30cf 22bc 50ab d53d 8efd 333c 546b 993e
00000070: 615a 2abd 00f6 453e 54a6 673e 089d da3c
00000080: 4df5 a33d 5d1e 1f3d e7f7 143d 4c1e 5f3d
00000090: 13b8 ecbd 35cc 3fbe a271 cbbd cdf8 d6bd
000000a0: 8389 573d 02c5 903d 5c8f 6abe 922b 5f3c
000000b0: 213d 27bd d64f 853d 8a1b 61be d60f d33d
000000c0: 8e23 27bd 13cd 6bbd 3b6b 3dbe 8e11 e4bd
000000d0: 2e15 24be 77fb 96bd 11c3 83be 657a d0bd
000000e0: 3e73 c4bd c6ab 75be d342 ec3b 40f7 e8bd
000000f0: 4d14 8abd 6b61 0ebe ee1b 8b3d bf08 adbd
00000100: da58 14be 4bbf 17bd d9fd 0fbe c49b b73d
00000110: be62 913d 4378 7cbd 5dc4 333d 58ed a73d
00000120: f068 c4bc d9f2 d3bc 396a 46ba 4c29 10be
00000130: 335a d63d 13df b1bc af7a 82bb e521 a0bc
00000140: 6a74 2abd de80 9a3d d022 79bc a2e9 d9bd
00000150: 2ee7 7d3d 2219 823d 4f1f 1e3d 68bd b2bc
00000160: 743d 953b d3c7 813d 4556 fa3d 2337 473c
00000170: ea12 09bd 2d8b 93bd e56d 093e f131 b13d
00000180: b260 2b3e 7ada a43e 5800 2f3e cf99 543e
00000190: 50ce 30bd 3131 bebd f617 1e3e b30b 843d
000001a0: 996c aebc df23 263e e433 943e 5afa e23d
000001b0: a633 cb3e f848 9f3d d5c3 c93e a463 38bd
000001c0: 59d4 7d3e 19a2 063f 8c58 2b3e 4295 0e3e
000001d0: 73a5 ff3d 93e1 2b3d 03f4 d13d a1c9 de3e
000001e0: 18af 4b3e 7f3f 87bd becb e33d 06e9 223e
000001f0: a8b7 0b3e 7c68 0c3d be59 863e e414 983d
0.32424942 0.32339123 0.21955252 -0.13069792 0.25242183 -0.028435318 0.1734984 0.19169238
-0.016139558 0.1076417 0.0047668517 0.3338867 0.2863107 0.056105494 0.4179895 0.15068893
0.25186938 0.49632874 0.0009352168 -0.04479635 -0.06438279 0.2585549 0.13889153 0.19173887
-0.009937093 0.10433066 0.010985745 0.29964697 -0.0415901 0.19332123 0.22622043 0.026686206
0.08005772 0.038847316 0.03636923 0.054472253 -0.11558547 -0.18730243 -0.09933783 -0.10496674
0.052621376 0.07068826 -0.2290625 0.013621228 -0.04082978 0.06509368 -0.21983162 0.10305755
-0.040805392 -0.05756862 -0.18497936 -0.11136161 -0.16023704 -0.07372182 -0.2573476 -0.10179595
-0.09592293 -0.23991308 0.0072101145 -0.11375284 -0.06742153 -0.1390435 0.067924365 -0.08448934
-0.14487019 -0.037047666 -0.14061679 0.08965257 0.07098912 -0.061638128 0.04388844 0.081995666
-0.02397582 -0.025872635 -0.0007568929 -0.14078254 0.10466423 -0.021712815 -0.00398191 -0.019547412
-0.041614927 0.07544111 -0.015206054 -0.10640265 0.06198805 0.0635245 0.038604077 -0.021818832
0.004554445 0.063369416 0.12223486 0.012159142 -0.033465303 -0.0720428 0.13420828 0.08652104
0.16736105 0.32197934 0.17089975 0.20761798 -0.043165505 -0.09286726 0.15438828 0.06447544
-0.021292018 0.16224621 0.2894584 0.11082907 0.39687842 0.077775896 0.3940722 -0.0450169
0.24788035 0.5259109 0.16732997 0.13924125 0.12482729 0.04196317 0.1025162 0.43513206
0.19891012 -0.06603908 0.11122845 0.15909204 0.13644278 0.03427933 0.26240343 0.074258596

policy_net.lstm.bias_hh_l0 f4 [128]
00000000: 5674 c73e f60e e13e 4c43 40bd 73dd 1b3e
00000010: 215e 8dbd d2be c8bd 569b 093e 783a c03d
00000020: 3afa a7bd 079d 2a3e c350 073e ba29 8e3e
00000030: 6404 273e ffde f03d 3654 a83e 8d66 8abd
00000040: 4cc7 5f3d 409b 0a3f 4130 973b 8155 f03d
00000050: 060a 8bbd b25f 5e3e 8d99 223e 8ffa d43e
00000060: d93f 693e 7eb9 27be 8cea ac3c 6c85 893e
00000070: 11b3 aa3d 40e2 3c3d 80cc 5c3e 0b27 8d3d
00000080: 08ad 55be 6f7f 6a3c 7363 40be 026e ac3c
00000090: abed 74be 6944 943d 4a75 c6bc 1a45 ef3d
000000a0: 0c88 c9bd c2ee 7fbd d2a2 02be 3cab 98bd
000000b0: 35ae 203d 7d44 3abe f90a 8cbe 6f0f 323d
000000c0: 746a 48be 9041 6ebe 0321 26be 789e d2bd
000000d0: fce7 65be ea2d 393c 8463 d3bd a7c5 0ebe
000000e0: f060 dfbd 6b1c fdba f04f 5abe 7ddd 7abd
000000f0: 63cb d8bc 54cd 5bbe ffe3 10be 4db2 1cbe
00000100: bba4 ac3d 12ba 973d 4eaa 973d 90f3 293a
00000110: de5a 26bd d9cc cf3d a42f c83d 7fd0 e1bd
00000120: 824e 96bd 4397 993c fbae b3bc be6f ee3d
00000130: ed0d c3bb 7de8 8abd 68b0 f23c c869 80bd
00000140: 8de7 0d3e 10d4 a9bd a96c ea3b ac8d 993c
00000150: 7e73 16be 8dfc cbbd 3858 8abd d0f8 b43d
00000160: 6a9e 8a3d 5b1c c63d c962 be3d 5d34 31bd
00000170: 1df8 82bd 1b73 abbd 5ba3 05be b173 3b3d
00000180: 4d43 333e 2d40 d63e 5a68 78bd fa87 fb3b
00000190: 1bda c3bd c9cc 1a3c d356 ac3c fc87 c73d
000001a0: f0f1 93bd 6fc2 603e 1ef2 3abc abac 823e
000001b0: fc4b bd3e 90f5 623e 0f2b db3e 7d9f 5fbd
000001c0: 2e6a d8bc ec93 1a3f 9011 7a3e 7211 f2bd
000001d0: 5d2c 77bd 5364 353e cec0 223e b389 883e
000001e0: 5990 1a3e e8c1 673d 32fd fb3d 0f53 303e
000001f0: 3c9b 81bd d61e 053e 4dd6 7b3e 3ad0 1ebd
0.38955945 0.43956727 -0.04693918 0.15221195 -0.06902719 -0.09802021 0.13438162 0.09386152
-0.08202024 0.16661464 0.13214402 0.2776621 0.16310269 0.11761283 0.32876748 -0.06757841
0.054633424 0.5414314 0.0046139066 0.117350586 -0.06789021 0.21716192 0.15878887 0.4159741
0.22778262 -0.16379353 0.021107934 0.26859605 0.083349355 0.046114206 0.21562386 0.068922125
-0.20866787 0.014312609 -0.18787937 0.02104855 -0.23918788 0.07239611 -0.02422585 0.11683102
-0.09840402 -0.062483557 -0.12757424 -0.07454535 0.039228637 -0.18190189 -0.2735212 0.04347175
-0.19571859 -0.23267198 -0.1622353 -0.10284132 -0.22451776 0.011302451 -0.103217155 -0.13942586
-0.10907161 -0.0019310837 -0.21319556 -0.061246384 -0.02646417 -0.21465045 -0.14149474 -0.15302391
0.08429857 0.07408537 0.0740553 0.0006483132 -0.040614 0.101464935 0.09774712 -0.110260956
-0.07339193 0.018748885 -0.021934023 0.11642407 -0.005952588 -0.06782625 0.029625133 -0.06270176
0.13857861 -0.08292401 0.0071540666 0.018744312 -0.14692494 -0.099602796 -0.06755108 0.0883652
0.06768496 0.09673377 0.092961855 -0.04326283 -0.0639498 -0.08371564 -0.13050596 0.04576463
0.17506142 0.41845837 -0.060646392 0.007676122 -0.09563085 0.009448239 0.021037495 0.09742734
-0.0722388 0.2194917 -0.011410264 0.2552236 0.36972034 0.22163987 0.4280629 -0.05459546
-0.026417818 0.6038196 0.24420762 -0.11819734 -0.060345042 0.17714052 0.15893862 0.26667556
0.15094127 0.056581408 0.123041525 0.17219184 -0.06328437 0.13000044 0.24593468 -0.0387728

policy_net.lstm.weight_ih_l1 f4 [128, 32]
00000000: 33e0 c33e ddcb b93e ff39 4e3d 5410 a4be
00000010: eeb4 1bbe 8791 5b3e cba7 75be dd69 683b
00000020: 1988 fdbc 5cf1 ac3e f969 883e 94ca 2b3c
00000030: ba6f c2be 1315 ed3d 6b2f bd3e 3d45 89be
00000040: 36cc 5839 8e78 df3e db4c 56be fcea d5bc
00000050: 5975 9f3e 87f2 6bbd 2b3b 60be 2716 c9be
00000060: 6bd5 ef3d 4f00 c8bd ea1b 8f3d 967a 82be
00000070: 2f45 e23d 7e57 42be 53ca e2bd 0291 a5be
00000080: 2c7b 29bd f3f8 0ebe 0291 123d 303c a93d
00000090: 2dff 3a3e 178e 1f3e 3884 17bb 87f9 083e
000000a0: 9018 febd a52e 0bbd ec77 f1bd c9ba eebd
000000b0: e8a6 183e e95f 833c 6116 fd3d eb34 3abe
000000c0: 82a1 f33d de7d 6dbe a028 b1bd d185 b3bc
000000d0: 13aa 39be ec26 6abc 0303 053e 2397 9f3e
000000e0: 89a1 cebc 51e2 143e 8ac6 5b3e 4571 ddbb
000000f0: 9e29 18bd 4f08 90be 99db babd ea6b 0c3e
00000100: 1604 aebd e94c 75be 11d1 dabd 7e8b 2f3e
00000110: 8a08 813c 85fd dc3c 7e7f 8f3d 21b9 1eb9
00000120: 8b98 9dbe 664d 2fbe d174 b4bd 7ec5 96bc
00000130: 0c8b b73e 272e 45be ea51 353e 65df 9abe
00000140: 19e3 433e ba07 8bbd 0482 433c ab42 e0bd
00000150: a776 93be c77c 51be 0a70 23bd 1252 f63d
00000160: a55d 493d 7500 8a3e 0c87 9e3e 44d2 8c3c
00000170: 1c14 afbe 43c8 24be b1a9 41bb ef6f 3b3d
00000180: 932f 2abd b8f0 15be 490b 0abe 80bc 5f3e
00000190: fd88 b73d e12a 78be b9b1 303e f729 3e3d
000001a0: 9dfe 053e 903e d5be 4a73 5abe 0e72 b7be
000001b0: d13f c83d 8500 93be 9c65 f5bd f58d 0e3e
000001c0: b8c1 403e 78d3 fcbe 6175 a23e 31c2 0bbe
000001d0: abf9 12be edf0 6b3c 2b05 553e ad05 933e
000001e0: bae8 ecbd 15dd f7bd 29b9 d93c d86e 953e
000001f0: c5ab 40be a47c 383e c09d 403e 6f28 8d3e
00000200: 1fe3 c53e d987 013f e79b 90bc bb41 abbd
00000210: f319 bdbe 7c09 293e 6439 b1be 9cf5 0ebb
00000220: 04b9 42be 0189 b43c 7534 2f3e 05e8 5e3e
00000230: 550d aebe 624b ce3d c656 cc3e 7f9f 0bbe
00000240: 1ad8 dbbb 5eae b03e 954a e5bd 5e1a db3d
00000250: cddf 163e 748e 1a3d 5cff 72be 77e7 bcbe
00000260: 674c 7bbd 0d3c 623c c396 7f3d 8032 bfbe
00000270: fe14 9cbd afdf 0fbe d14a 07bf 7b2b b6bd
00000280: 9fbf b03e 4518 cd3e 384c 39be 322e 7dbe
00000290: 058b 30be 79e8 9e3e 3ed1 4ebe 323a c5bd
000002a0: 8f7b 9ebe 7793 e63d 312e d13e 1f80 5e3e
000002b0: 9b9b 8fbe 5ca8 643d 46af 423e df76 77be
000002c0: 09c9 0e3e 2acb a83e 9035 d2b9 af34 bcbd
000002d0: fdfb d2bb 3de6 eabd 2552 3abe 28be b2be
000002e0: 9383 bb3e 2653 8e3d a3bf b23e 9341 1abe
000002f0: 0c58 8abe 5941 2dbe ea24 fbbe 29f6 bf3d
00000300: 5240 86be b80e 99bd feac d6bd 9b7a df3d
00000310: a5be 813d 5b6e fbbd 31f3 203d 1c0a 173e
00000320: d32d fb3d 5d95 e5bd a7ee c8bd 51b0 a53c
00000330: 9413 943d f695 cbbd f8e3 98be fc10 ea3d
00000340: 3b95 83bc 83e3 47be 09dc f0bc 992d 4dbe
00000350: 762e 3dbe 0de9 58bc e089 1a3d fe63 ba3e
00000360: 53d3 65be 5ca5 b3bd 120c 343e e6cf d63e
00000370: de3b 3cbe e3a4 96bd c7b7 973e d929 cb3d
00000380: 5ead 833e f63a c83e 588f 5f3e 3ae9 98be
00000390: a2d8 07be f039 8d3e 040d b6be cdf9 4dbd
000003a0: 7236 36bd fc87 ce3e 5e70 f93e 17bd ba3e
000003b0: 0d1b 21be 3271 0e3e 4649 d73e 99b0 8bbd
000003c0: b384 71be 9c79 b83e 3246 87be b7b1 143e
000003d0: 3181 953e d07e 46bc 68a6 93be d388 a8be
000003e0: d038 99bc e26c 8ebd 9dc9 b0bd d092 0abe
000003f0: b80c d8bd 799c 0fbe cfbf e9be ff3c e9bd
0.38256988 0.36288348 0.050348278 -0.32043707 -0.15205738 0.21442233 -0.23989789 0.003546349
-0.030948685 0.33777893 0.2664335 0.01048531 -0.37975866 0.11576285 0.3695024 -0.26810637
0.0002067544 0.43646663 -0.20927756 -0.026113026 0.31144217 -0.05760434 -0.21897571 -0.39274713
0.11710628 -0.09765684 0.06987746 -0.2548415 0.11048352 -0.18978688 -0.110737465 -0.32337195
-0.04137723 -0.13962154 0.03578282 0.08263433 0.18261404 0.15581547 -0.002311958 0.13376437
-0.12407029 -0.03398003 -0.117904514 -0.1165672 0.1490742 0.016036944 0.12357784 -0.18184249
0.118960395 -0.23192546 -0.08650327 -0.021914395 -0.18131284 -0.014291506 0.1298943 0.31169996
-0.02522351 0.14539458 0.21462455 -0.0067578875 -0.037149064 -0.2813134 -0.09123916 0.13713041
-0.08496873 -0.2395512 -0.106844075 0.17143056 0.015751142 0.026976356 0.07006739 -0.0001513702
-0.30780444 -0.17119369 -0.088113435 -0.018404718 0.35848272 -0.19255887 0.17707029 -0.30248562
0.191296 -0.06788583 0.011932854 -0.10950216 -0.28801462 -0.20457755 -0.03990177 0.120273724
0.049161572 0.26953474 0.30962408 0.017190106 -0.3419503 -0.16092019 -0.0029550607 0.045761045
-0.041549277 -0.14642608 -0.13480867 0.21849251 0.08961675 -0.24235107 0.17255296 0.04642674
0.13085409 -0.41649294 -0.21333042 -0.35829204 0.09777797 -0.28711334 -0.11982271 0.1392134
0.18823898 -0.49380088 0.31730178 -0.13648297 -0.14353053 0.014400703 0.20802753 0.28715268
-0.115678266 -0.12102715 0.026577549 0.2918613 -0.18815525 0.18016297 0.18810177 0.2756991
0.38649842 0.5059791 -0.017652465 -0.083621465 -0.3693386 0.16507524 -0.34614098 -0.0021813875
-0.1901589 0.022037985 0.17109855 0.21768196 -0.33994547 0.10072972 0.39909953 -0.13635062
-0.006709111 0.34508032 -0.11195866 0.106983885 0.1473381 0.03773351 -0.23730224 -0.36895344
-0.06135216 0.013808263 0.062399637 -0.37343216 -0.076211914 -0.14050172 -0.52848536 -0.08895012
0.34521195 0.4005758 -0.18095481 -0.24724653 -0.17240532 0.31036738 -0.20197007 -0.096302405
-0.30953643 0.112585954 0.40855554 0.21728562 -0.28048405 0.055824623 0.19012174 -0.2416644
0.13943876 0.32967502 -0.00040094228 -0.09189736 -0.0064387308 -0.11469696 -0.18195398 -0.34910703
0.3662382 0.06949453 0.34911832 -0.15064077 -0.270203 -0.1691946 -0.490516 0.09373123
-0.26220948 -0.074735105 -0.104822144 0.10912057 0.06335191 -0.12276908 0.039294425 0.1474995
0.122646 -0.112101294 -0.09811144 0.020225676 0.07230297 -0.09940712 -0.29861426 0.11429021
-0.01606237 -0.19520383 -0.029401796 -0.20036925 -0.18474755 -0.013239157 0.037729144 0.36404413
-0.22443895 -0.08771774 0.1758273 0.4195549 -0.18382213 -0.073556684 0.29632398 0.09920091
0.25718206 0.39107484 0.21832025 -0.29865438 -0.13266233 0.27583265 -0.35556805 -0.050287057
-0.044485517 0.40338123 0.48718542 0.3647239 -0.15732975 0.13910368 0.4204809 -0.06820793
-0.23585777 0.3603028 -0.26420742 0.14520918 0.29200128 -0.012115195 -0.28837895 -0.3291689
-0.018703848 -0.069543615 -0.08632205 -0.13532567 -0.10549301 -0.14024533 -0.4565415 -0.11388587

policy_net.lstm.weight_hh_l1 f4 [128, 32]
00000000: abb5 2fbe 3334 20be 97c1 0d3c 279b 783c
00000010: e40e dbbd 6284 623e 1371 d7bd a79b 053e
00000020: b45f 933d 9fb1 02be 9605 c0bd 1531 9e3d
00000030: 8213 373d a6db 9dbc 0add c5bd bd50 0a3e
00000040: 819e 11bc 3f7d abbd 2e9c 48bd ddf5 a63d
00000050: 897f 8b3c f102 883d 8fde a5bd adcf 7fbd
00000060: 63d4 cd3c df08 f6bd 6cf3 3abe ae54 45be
00000070: 79ad 36bd cecd adbd 5557 553e 0175 123e
00000080: 34e7 193d 7de1 ab3d 8b3c fdbd 8b5f da3d
00000090: 222c 8abd 175e b6bd 1435 71be 96c6 5b3d
000000a0: 4bf6 50be 6531 083e c4f5 fabd 42df e7bc
000000b0: 2dd3 07be e1d6 e13d 755e 4abe 9863 61bd
000000c0: cb25 8bbd 1a2e 05bd 47fc 3b3e dba4 6e3d
000000d0: 8e54 1e3d 5617 023d d4f7 113e a0a5 55bd
000000e0: 05b3 e93d 2915 353d 46bf 593d 425a 3d3e
000000f0: 121a 2a3d 8e75 a63d 9469 8dbd 3d5d cdbd
00000100: 939b 4c3e 7dee 49be 13f0 313d ab39 333e
00000110: 6f4b 59bd 962c 1fbe 6304 75be ae22 58be
00000120: a3d6 3abe a9d9 f73d d7ab 723d bd34 2e3e
00000130: 8a9a 0f3d f7ae 15bd 5e9b 983c 5848 19be
00000140: 07f0 09bd 097b de3c d4f4 e33b c870 1abd
00000150: fd61 6fbe 54d6 8b3d 546c 613e 4bbb c93d
00000160: cc5a 7cbe 6c4f 60be ecd3 863e 2e44 35bc
00000170: c0ae d33c 4349 123e 2b8a 42be f837 b9bd
00000180: 2b7a 0f3e 9d58 a73d 69ae 2d3e 0912 fbbd
00000190: 55e5 963d e7aa 66bd 1672 71bd 2b4d c03d
000001a0: 839c 753c 8bea 693d bfe5 b4bd 08ca edbd
000001b0: cf66 fdbc 8fbf 97bd 5856 06bc 11bd 76bd
000001c0: a6a7 65be 1ecd 553d d09d c93d ab7a 2cbe
000001d0: 3ce4 f03d b2ec 13be 4282 a03d 7c4c 5dbe
000001e0: 29a3 e23d e65d 1e3c 0742 3fbd 8b8b 383e
000001f0: 3625 2a3d 939e 123e fcb1 233d 8b4d 2dbe
00000200: 1649 62be fca5 35be b93b 31be a95e a23d
00000210: 82e5 c9bc 7496 e9bb 16f8 cf3d 5ceb 6e3e
00000220: bb79 eebd d5fc 0abe 5a4a cfbb 4a8b 5ebd
00000230: 3ce6 44be f11f eabc 7106 dabd 2323 513e
00000240: e4ba f3bc 3df8 b53d 240c 5cbe 80bf a3bd
00000250: 061b 9ebc f1db 1abe 34ef a43d c99f debc
00000260: 391e 9a3d 13b2 a5bc 6a48 aa3d e1e9 233c
00000270: bc32 31be eca7 e9bc 97d7 9abd 5c97 c33d
00000280: 6833 b8bc bba5 b3bd c705 2abc 3469 46be
00000290: 2523 cc3d de1e 2a3e 0188 96bd d45d b43d
000002a0: 699e 27be 83ea 653d 3f8e b43d 7e6d dabd
000002b0: 7d98 223d ce5e b6bc 29a0 f3bc 48cf 82bd
000002c0: 5ea9 b13d 6c0a e93d 7cf6 1a3d 06f3 40be
000002d0: b380 f2bd c8bb b23d ff10 ee3d 6b2a 603e
000002e0: 842a e2bd 7203 b53d 3073 113d ffa3 d13d
000002f0: 9cc2 71bd 9f82 cc3d da78 863c ec2a d73d
00000300: 6765 95bd 53d4 8d3d 4ad8 a73e 14f0 44be
00000310: 12ca 713e a314 71bd e659 c9bd d579 8b3d
00000320: 18ef 2bbe 1521 2b3e c634 383d 7c7a 2d3d
00000330: a850 d9bd fb44 f03d 343f 22bd f8f3 c43d
00000340: d229 033d f842 7bbd 2d1b 723e a82a b93c
00000350: d0db be3d 2364 2f3e ab41 883e 109c 00be
00000360: 5b3f 4ebe 5095 d9bd f8da ce3d 8d01 253e
00000370: 09ea f3bc bbce 3b3d b176 8f3d 11ce 0f3d
00000380: ecc3 1fbe c268 f2bd 2cd4 5bbe 8fcb 94bc
00000390: 4329 213d f251 fe3d 2e00 473d 3b29 e03d
000003a0: 057b 033d 4645 1cbe c46e 33be 14db 443e
000003b0: 08ea 963d c72e 053e 0297 ebbd d355 843e
000003c0: f9cc ce3d c7ee 3d3e 8304 27be 3160 c43c
000003d0: 4ade 9dbd 5d42 b5bd 9625 28be 7d96 97bd
000003e0: 2f39 d0bd 8797 e43d 36f0 08be 959d 82bd
000003f0: 29ad 19bd 828e d33d 9e99 373d 1049 0d3e
-0.17159145 -0.15644912 0.008652112 0.01517371 -0.106961995 0.22120813 -0.10519614 0.13047658
0.07195988 -0.1276307 -0.093760654 0.077242054 0.04469634 -0.019269776 -0.096613005 0.13507362
-0.008887888 -0.08373498 -0.04897707 0.081523634 0.017028587 0.06641186 -0.0809909 -0.062453914
0.025125688 -0.12013411 -0.1825692 -0.19270584 -0.04459903 -0.0848652 0.20834096 0.14302446
0.037574008 0.08392618 -0.12365063 0.106627546 -0.06746699 -0.08904665 -0.23555404 0.053656183
-0.20406453 0.13300093 -0.12253907 -0.0283047 -0.13264151 0.11027313 -0.19762595 -0.05502662
-0.06794318 -0.03251467 0.18357955 0.058262687 0.038654856 0.031760536 0.14254695 -0.052159905
0.114110984 0.044209633 0.05316093 0.18491462 0.04152877 0.081278905 -0.06904903 -0.100275494
0.19981222 -0.19719882 0.043441843 0.17502467 -0.053050455 -0.15544352 -0.23927455 -0.21106979
-0.1824594 0.12102062 0.05924591 0.17012306 0.03505949 -0.036543813 0.018628772 -0.14969003
-0.033676174 0.027158277 0.006956676 -0.037705213 -0.23377223 0.06827989 0.2201398 0.098501764
-0.24644011 -0.21905297 0.2633356 -0.011063619 0.025840163 0.1428576 -0.1899802 -0.09043878
0.14011447 0.081711985 0.16961063 -0.12259299 0.0736796 -0.05631533 -0.05894669 0.093897186
0.014990929 0.057108443 -0.08832883 -0.116108 -0.030932812 -0.07409584 -0.008199297 -0.0602389
-0.22427234 0.052197568 0.098445535 -0.16843669 0.11762282 -0.14445761 0.07837345 -0.21611208
0.110662766 0.009665942 -0.046693828 0.18021981 0.041539393 0.14318304 0.03996466 -0.16924112
-0.22098193 -0.177391 -0.17307939 0.07928211 -0.02464557 -0.007128531 0.101547405 0.2333197
-0.11644312 -0.1357301 -0.006326002 -0.054332055 -0.19228452 -0.028579684 -0.1064576 0.2042356
-0.029752202 0.08885238 -0.21489006 -0.0799551 -0.019299995 -0.15122963 0.08053437 -0.0271758
0.07525296 -0.020226514 0.08314593 0.010004492 -0.1730451 -0.028522454 -0.07560652 0.09550354
-0.02248545 -0.08771845 -0.010377354 -0.1937607 0.09967641 0.16613337 -0.073501594 0.08806959
-0.16369022 0.05613185 0.08816194 -0.10665415 0.039696205 -0.022262003 -0.029739456 -0.06387192
0.08674882 0.11378941 0.037832722 -0.18842706 -0.11840954 0.08727223 0.116243355 0.21891181
-0.110432655 0.08838548 0.035510242 0.10236358 -0.059023485 0.099858515 0.016415048 0.105062336
-0.072947316 0.06925263 0.32782203 -0.19232208 0.2361224 -0.05885757 -0.098316 0.06810347
-0.16790426 0.16711839 0.044972204 0.04235314 -0.10611087 0.11731907 -0.039611056 0.09616846
0.032022305 -0.061343163 0.23643179 0.022603348 0.0931927 0.17128043 0.266126 -0.12559533
-0.20141356 -0.10624182 0.10100359 0.16113873 -0.029774683 0.04585145 0.070050605 0.03510863
-0.15602082 -0.11836387 -0.21467656 -0.01816347 0.03934599 0.124179736 0.048584156 0.10945364
0.032099742 -0.152608 -0.17522722 0.19224197 0.07368857 0.13006125 -0.11503412 0.2584673
0.10097689 0.18548118 -0.16310315 0.023971649 -0.07708414 -0.088505484 -0.16420588 -0.0740175
-0.10167157 0.11161714 -0.13372883 -0.06377713 -0.037518654 0.103299156 0.044824235 0.13797402

policy_net.lstm.bias_ih_l1 f4 [128]
00000000: 96d2 40bd 4254 683e 3727 be3e 3c1e c93d
00000010: 84a5 b03d 5841 633e 851a 543e f15d 96bb
00000020: 701d 883d 9a85 d5bb 5344 6bbc 8f89 c13e
00000030: dadb 043e 3296 823e d939 8f3d bf90 0b3e
00000040: acbc 22be 6958 333e cd93 ef3e 0990 37bd
00000050: e451 6f3e 580d 433e 13b5 1d3e 2c91 783d
00000060: dc44 073e 7462 ae3d 2b7e 05bd 4d11 bb3e
00000070: b79f 4c3d 8b67 f93d 253b ae3d ba49 583e
00000080: d1dd 943d 10a7 9bbe f2dd a4be 29b7 aebd
00000090: 2909 15be 7867 82be a0b0 3dbe 4f2d 69be
000000a0: 9863 c93d 56ef 9abe 1c4e 9c3d 3088 e03c
000000b0: 82ea febc ee11 95bd 75aa e9bd 0328 7fbd
000000c0: 8aae d2bd 7d63 23be 63c8 56b9 9544 e7bd
000000d0: 87b3 25be a2f7 1cbe bd55 7abe 9cfb 17be
000000e0: a528 9fba e87c aebd 0938 26be e2e3 74bd
000000f0: 9dfe 4cbc 312d 4bbe cec3 b83d ec5d 4b3d
00000100: b5b8 a9b8 e486 873d 45aa a9bd b3fe b1bd
00000110: 049f 173d 094d d2bd 6180 77bd 8884 a7bc
00000120: 6cfe 33be b6e5 d63d 6f24 1a3e 183f bd3d
00000130: 4675 aebd c291 0bbc 7b8e d6bd 2899 e4bd
00000140: b78d fcbd e0e3 ffbd 1985 52bd 9ec6 10be
00000150: 9cbb 0abe c98f 9d3d 926a 273d 4a61 a6bd
00000160: 671e f93d 2d0c 2ebe 4ec4 9d3d b46e cf3d
00000170: 7f61 9c3d b8fa c43d bd8e c3bd 15c8 13be
00000180: 5472 3b3d e8b6 a73e dd29 ce3e 814e 1fbd
00000190: e4d8 d93c 0582 713d 3eb4 1b3e a9e9 0fbe
000001a0: a537 2b3e 3db2 2d3e 0418 22bd 76a5 693e
000001b0: 97e1 903c 30b3 813d a612 5f3e a4bb 203e
000001c0: 69aa 113e 482d a43d ad96 a63e 5522 c1bd
000001d0: 7ca0 803e 7635 513e 27e6 4d3e 924a 0fbe
000001e0: 3172 213e 0d9e 4b3e 9bc8 d03d b848 a63e
000001f0: 4139 86bb e80b ad3d 0e92 9a3d 93d4 733e
-0.04707583 0.22688392 0.37139294 0.0982022 0.086253196 0.22192895 0.20713241 -0.0045888354
0.0664624 -0.0065161707 -0.0143595515 0.3780026 0.12974492 0.25505215 0.069934554 0.13629435
-0.15892285 0.17514195 0.4679245 -0.044815097 0.23371083 0.19048059 0.15401106 0.06068532
0.13209862 0.08514872 -0.032591026 0.36536637 0.049957003 0.121779524 0.08507375 0.21121874
0.072688706 -0.30400896 -0.3220058 -0.08531029 -0.14554276 -0.25469565 -0.18524408 -0.2277119
0.09833449 -0.30260724 0.07632086 0.02740869 -0.031117681 -0.072788104 -0.11409465 -0.062294018
-0.10287197 -0.1595592 -0.0002048328 -0.11292378 -0.16181765 -0.1532884 -0.24446769 -0.14842075
-0.001214285 -0.08519918 -0.16232313 -0.05978764 -0.012511876 -0.19841458 0.09021722 0.049650118
-8.092952e-05 0.06617525 -0.082844295 -0.08691158 0.037016883 -0.102685995 -0.060425166 -0.020448938
-0.17577523 0.10493033 0.15052961 0.0924055 -0.08518462 -0.008518638 -0.10476395 -0.11162025
-0.123317175 -0.124946356 -0.051396463 -0.14138266 -0.1354813 0.076934405 0.040873118 -0.08124025
0.12164002 -0.16996832 0.07703458 0.10128537 0.076357834 0.09618133 -0.095487095 -0.14431794
0.04576333 0.32756734 0.40266314 -0.038893227 0.02659268 0.058961887 0.15205476 -0.14053978
0.16720445 0.16962524 -0.039573684 0.22817025 0.017685695 0.063330054 0.21784458 0.15696579
0.14225163 0.08016449 0.32536831 -0.094303764 0.2512244 0.2043055 0.20107327 -0.1399329
0.15766217 0.1988451 0.101945125 0.32477355 -0.0040961807 0.084495366 0.07547389 0.2381156

policy_net.lstm.bias_hh_l1 f4 [128]
00000000: 07e2 d03d 0a64 353e d802 a13e f59d 7e3e
00000010: 1e1c d03d 7138 8d3e a5d3 303d e1a1 153e
00000020: 263e f23d f76a 383e 02cb 003d 2992 523e
00000030: aa16 003e 91fe f63d 01f6 df3d 2ec9 7d3d
00000040: f793 81bc f8b5 adbc e978 de3e 5e7a 1b3d
00000050: fe1e b93e 99b8 013d 68ac 193e f341 b3bd
00000060: 9796 abbd f17a 363e 564f 72bd 51b2 c23d
00000070: 7ffa 37be 4eee 453e 2229 03bd 581f af3d
00000080: 2a47 1fbe ee11 ebbd 65d6 83bd 0d78 dcbc
00000090: 07b7 c1bd 19a5 debd c59f ffbd 1737 4abe
000000a0: 766f 20be 9690 0cbe 7a7e b2bc b4e4 35be
000000b0: d4ac 2a3d b38a b8bd 368e ca3c 3d42 11bc
000000c0: 9973 eabd 7f9b 3bbe 8294 27be cce1 fcbc
000000d0: 97ae 15bb ac89 c3bd 6a8a 97bd 0a4d 88bd
000000e0: 3cae 193d c48a 4c3d 2485 6cbe 239c 31be
000000f0: 4b50 41bd 94e7 99bc 9bdb 00be 89a0 633d
00000100: bd34 983d 2057 a9bd db1d 903d 55cd b43d
00000110: c076 5a3d aa70 1a3e 737c 04be 4ae4 193c
00000120: ece9 4e3c 9a42 303d 6f53 01be dac4 8ab9
00000130: ff50 ecbc 8aa4 953c 0924 8fbd a4e2 ac3c
00000140: 3a16 10be 5a84 aa3d 5ef9 a03d 9682 633d
00000150: af26 c83c f115 e5bd 3859 b63d d73b b23c
00000160: 5167 cebd d8ab 2a3e ada5 fa3d a689 183c
00000170: aed5 69bd 5f26 f13d bdf8 243d d8d4 253e
00000180: b85c 263a 5e0a 833e 5dcb 113e e33e 033e
00000190: 7dbd bbbc ed3d 693d b93b 123a 8297 0bbd
000001a0: a049 713e 48e0 b63d b561 d63c 2631 b33e
000001b0: ca17 833d 615c 063e 0f65 303e 3abc d0bd
000001c0: 14a5 673d f9d7 e7bd a59e b53e a36d 17be
000001d0: 51b4 9e3e f3a4 633d 19f3 cd3d b48f c2bd
000001e0: 0b87 eebd 3d61 5a3e ade4 743e 36b7 fb3d
000001f0: d93b 2abe a716 d03d 2da5 c0bd d014 5e3e
0.10199361 0.17713943 0.31447482 0.24864943 0.10161613 0.27582124 0.04317059 0.14612533
0.1182826 0.18009554 0.031443603 0.20563568 0.12508646 0.120602734 0.109355934 0.061959438
-0.015817625 -0.021204934 0.43451622 0.037958495 0.36156458 0.031670187 0.15007174 -0.08752813
-0.08378332 0.17820336 -0.059157692 0.095066674 -0.1796665 0.19329187 -0.03202165 0.085509
-0.1555449 -0.11478029 -0.06437377 -0.026912713 -0.09458738 -0.10871334 -0.124816455 -0.19747578
-0.15667519 -0.1372703 -0.021788824 -0.17763025 0.041668728 -0.0901083 0.024726015 -0.00886589
-0.1144783 -0.18321036 -0.16365245 -0.030869387 -0.002283966 -0.09547743 -0.07399447 -0.06655319
0.03751968 0.049937025 -0.23097664 -0.17344718 -0.047195714 -0.018787183 -0.12583773 0.05557302
0.07431934 -0.08268571 0.070369445 0.088282265 0.053335905 0.1508204 -0.12938099 0.009392807
0.0126290135 0.043032266 -0.12629484 -0.00026468077 -0.028847216 0.018266935 -0.06989295 0.021104164
-0.14070979 0.08326025 0.07860063 0.05554446 0.024432508 -0.111858256 0.08903736 0.02175705
-0.100783 0.16667116 0.122386314 0.009310162 -0.057088546 0.11774897 0.040276278 0.16194475
0.00063462136 0.25593847 0.14237733 0.12816958 -0.022917503 0.056943823 0.00055783574 -0.034080036
0.23563242 0.08929497 0.026169637 0.34998435 0.06401022 0.13121177 0.17226051 -0.10192151
0.056553915 -0.113204904 0.354726 -0.14787917 0.30996946 0.05557723 0.10056133 -0.095000654
-0.11646851 0.21326156 0.23915358 0.12290804 -0.16624393 0.101605706 -0.09406505 0.21687627

policy_net.dense1.weight f4 [8, 32]
00000000: 6646 67bd c2c6 8a3d 3b82 893e f046 8fbd
00000010: f321 413e a679 823a 46a8 4e3e aabe 01bd
00000020: 6256 5f3e 54e8 cf3c 32a6 053e 6ae4 b6bd
00000030: f650 723d b292 233e 291f ad3d 9e99 98bd
00000040: 0062 5e3e b188 35be a66a ad3d 2252 2d3e
00000050: 5d54 833e 26ba 7a3e 1f67 083d 5b83 f6bc
00000060: 1393 c03c 2e44 f73d e0e3 303e 8b1a 633e
00000070: f6a2 df3d de2e b63d 49fa f03d fd58 d1bb
00000080: 27a9 523d 890c 92be 32a9 f1bd 571f 2d3e
00000090: 771a abbc 9fb5 9e3e 300b 91be 10e2 ff3d
000000a0: 866c 55be 9983 83be a6aa c8bd 1224 4a3e
000000b0: f154 8bbe 275e cdbe cb62 31be 3188 263d
000000c0: a23a c3bb 4012 623e a6ec a4be b5f5 053e
000000d0: 1f2e b7be 56be 90be 0c4a f0bd d04f 0fbe
000000e0: b5a9 543e 0650 81be 3282 3dbe 7ddb 72bd
000000f0: f699 403d 48b8 55be 3723 3cbe 613b db3e
00000100: 653a 44be 1f02 7bbe 2749 63be 0982 de3d
00000110: 3160 1abd be5c 2d3e 8933 2fbe 7365 323d
00000120: e28f dcbd 6328 88be 1509 26be bd73 8b3e
00000130: 80aa 59bd 7848 80be db47 ffbd 3353 963d
00000140: 0ebd 35be 395a 1b3e bb2e b4be 298c f43d
00000150: 287d 58be dadf ebbd 8d93 19be 1ba2 133e
00000160: 2540 873e f5ed 6fbe a0af 92be 2c3c a1be
00000170: dc07 2f3c 15b9 85be af16 d8bc b025 9c3d
00000180: eccc d5bd d724 a5bd 65e4 5dbd 47e7 37be
00000190: 63e1 50bd a456 053e 3ee2 903d 3947 733e
000001a0: bd44 db3d 4ea9 adbe 9fc9 283d 69dd 6abe
000001b0: 4433 1b3e 75b0 913d 12e8 853d ca76 c23d
000001c0: 9d28 323e cbd6 253e da26 b03d bdbd 3b3e
000001d0: fc80 dbbb 431f 203e f22f 1f3d dd32 013e
000001e0: 4811 423d d141 eb3c 3bef 66be 23b5 3bbc
000001f0: da8b ed3c d9b1 62be 3ae4 5d3d 1f53 6b3d
00000200: 2b6e 2c3e 9bac 31be 0822 07be 2fd7 783e
00000210: e9ec 5a3e 13d5 53be 1a97 423d 5423 0cbe
00000220: 5941 5ebe ead2 9f3e 4a77 963d c871 d53d
00000230: 28df e2bd 884f 293d 508f 973b 27c0 8dbe
00000240: d932 1fbd 229d 42bd a752 2d3e 75e8 e4bc
00000250: eda4 febd 668a 5e3c 4c85 573e 5b03 7ebc
00000260: 8a0d 5cbe e160 67be 391c 093e 7d28 5fbd
00000270: 3f46 d73d 3719 73bd 5fd4 27be 08b0 d3bd
00000280: 119c 97bd 578b 283d a11c b03e 36ea e6bd
00000290: cd98 b33d 0229 0bbe 71fd 323e 7e6b 283e
000002a0: 20b3 373d 15e1 83bd 2c95 e1bd 04d3 9fbe
000002b0: f1f4 08bc d7be 233e eb7d 333e 42ff 83bb
000002c0: 6feb 14bd 3322 be3d 20d4 663e 37bc dfbd
000002d0: a92f 723e 51fc e93d aeb4 723e 9862 7b3c
000002e0: dea6 9b3d e78f dd3d c4cf 6c3e 7f90 6abc
000002f0: 84af aa3d b476 443e 3381 353e 99b3 d63c
00000300: f3f1 4fbe 20a1 81be ca7b a2be f134 223e
00000310: da1a f1bd ec9a 2e3e cd47 9bbd e43a 143e
00000320: 8061 f7bd 32e3 08bd f0c2 cdbd 0a49 1c3e
00000330: c9ca 61bd 51b0 8abe 45b3 1f3c a3c8 083e
00000340: 3534 f3bd c5f6 643e 5bea 06be 7c41 ce3d
00000350: e12b 80be 6309 64be 9415 90be 71b4 6cbe
00000360: 53b1 1fbd f0ed e2bd 6273 69bd 0f91 aabe
00000370: 1c36 903c 2b70 71bd f229 cfbc a335 8c3e
00000380: fad2 d9bd 9762 b83d 0e5b 92bc 2f9d d63d
00000390: a53b 1b3d b6aa 183e d886 82be 8195 483c
000003a0: 428d 85be 3770 673d 6ae1 16be 6f81 c83d
000003b0: 58fc 9bbe 240b 77be 02dd 89be 7b75 7c3e
000003c0: 4fce febd f856 0e3d 3042 19be 7124 b93d
000003d0: 8e2c 1c3d d4a5 313d 3cc6 7dbe db75 3ebb
000003e0: 1a0c 093e 812d d73d c941 c5bd 3995 c1bd
000003f0: 7e20 663e cc45 823d 1413 45bc c1f4 b73e
-0.05646362 0.06776191 0.2685717 -0.06995952 0.18860607 0.0009954467 0.20181379 -0.031675972
0.21810296 0.025379337 0.1305168 -0.08930285 0.05915924 0.15973929 0.08453209 -0.07451175
0.21717072 -0.17727925 0.08467607 0.16925862 0.25650302 0.24485072 0.03330147 -0.030091932
0.02350763 0.12073551 0.17274427 0.22178094 0.10919754 0.08895658 0.11766488 -0.006388782
0.051430847 -0.2852519 -0.117998496 0.16906486 -0.020886643 0.3099794 -0.28328848 0.1249429
-0.2084218 -0.2568634 -0.097981736 0.19740322 -0.27213243 -0.40110895 -0.17322843 0.040657226
-0.0059579173 0.22077274 -0.32211798 0.13082011 -0.35777375 -0.28270215 -0.11732873 -0.1399529
0.20767863 -0.25256366 -0.18506697 -0.05929135 0.04702183 -0.20871079 -0.18372808 0.4281874
-0.19162901 -0.24512528 -0.22195874 0.10864646 -0.03768939 0.1692991 -0.17109503 0.04355378
-0.10769631 -0.26593313 -0.16214402 0.2723674 -0.053141117 -0.2505529 -0.12464877 0.07340088
-0.177479 0.15171136 -0.35191903 0.11940796 -0.21141493 -0.11517306 -0.14997692 0.14417307
0.26416126 -0.23430617 -0.28649616 -0.3149122 0.010683026 -0.2611777 -0.026378004 0.07624376
-0.10439476 -0.08063667 -0.054172892 -0.17959319 -0.050996196 0.13021332 0.07074402 0.23757638
0.1070647 -0.33918232 0.041207906 -0.22936024 0.15156275 0.07113735 0.065384045 0.094953135
0.17398305 0.16195218 0.0860116 0.18334098 -0.0066987257 0.15636925 0.038864084 0.12617059
0.047379762 0.028717907 -0.22552197 -0.011456761 0.02899735 -0.22138156 0.054172732 0.057452317
0.168389 -0.17351 -0.13196576 0.24300836 0.21379437 -0.2068675 0.047507383 -0.13685352
-0.21704616 0.31215602 0.07346971 0.10422093 -0.1107772 0.041335613 0.0046252385 -0.27685663
-0.03886685 -0.047513135 0.1692606 -0.027942875 -0.12433801 0.013582801 0.21046942 -0.01550373
-0.2148954 -0.2259555 0.13389672 -0.054481972 0.10511445 -0.05935022 -0.16389607 -0.1033631
-0.07402814 0.04114851 0.34396842 -0.11275141 0.08769379 -0.13589862 0.17479493 0.16447255
0.04484856 -0.06439415 -0.110147804 -0.3121568 -0.00835918 0.15990768 0.17528503 -0.004028232
-0.03635734 0.09283867 0.22541857 -0.10924571 0.23650993 0.11425079 0.23701736 0.015343331
0.07600187 0.10818463 0.23126131 -0.014316677 0.08334258 0.19185907 0.17725067 0.026208686
-0.2030714 -0.2531824 -0.3173507 0.15840508 -0.117727 0.17051286 -0.07582054 0.1447559
-0.120791435 -0.033419795 -0.10046947 0.15262237 -0.05512503 -0.27087644 0.009747331 0.13357787
-0.11875192 0.2235976 -0.13175337 0.10071084 -0.25033477 -0.22269206 -0.28141463 -0.23115708
-0.03898747 -0.11080539 -0.056994803 -0.33313796 0.017603926 -0.058944862 -0.025288556 0.27384672
-0.10635944 0.090031795 -0.017865684 0.10479199 0.03789868 0.14908871 -0.25493503 0.012242676
-0.26084334 0.0565035 -0.14734426 0.097903125 -0.3046596 -0.24125344 -0.26926428 0.2465419
-0.12441694 0.03475091 -0.14966655 0.09040154 0.03812843 0.043371037 -0.24782652 -0.0029061947
0.13383523 0.10506726 -0.09631688 -0.0945229 0.22473332 0.06360969 -0.012028474 0.3592892

policy_net.dense1.bias f4 [8]
00000000: bca7 b13d be37 58bd 8b22 2b3d deb1 c63d
00000010: bc46 89bd 199d 9b3c 7ec7 a23c c027 83bd
0.08674571 -0.052787535 0.04178099 0.09701894 -0.06702945 0.018995808 0.019870516 -0.06404066

policy_net.dense_out.weight f4 [1, 128]
00000000: 8363 883d 1c67 b5ba 4047 4dbd 913e 433e
00000010: 6106 3ebe e6ae 0a3d c6ed 3f3d 90af ea3d
00000020: 3d38 b23c 90b7 033d f4c8 f4bb a810 27be
00000030: f6ab ab3d 3fb2 963d ffd8 cabc 19a9 3bbc
00000040: 6502 923d f44c ad3d 85ed 57bd 7b01 a4bd
00000050: 92ff f83d 019a 3e3c 587c 3fbd 8513 eb3c
00000060: 56b9 9d3d 517d 3cbd 00b1 463d 72ef 313e
00000070: 096d 4bbe 695d 62ba 86d7 8bbc e4e9 3c3d
00000080: e16a d239 3280 eb3c b76b 7c3b dbe0 b63d
00000090: a2c1 b9bd 7c32 783a d8da b139 fecc 963d
000000a0: 63ad 963d f632 123d a81e 00be 6273 ccbd
000000b0: 040a 033e 4657 a33d 0c55 15bd 0311 7a3d
000000c0: 1255 6b3d 78f1 f8ba 3ac9 583c ae33 9cbd
000000d0: d5c5 d83d 8892 82bd 511a debd 9455 2b3d
000000e0: 6489 8e3d a4f9 47bd 8ac1 58bc db70 c8bd
000000f0: 6e6f b23d 4164 77bc b72e dd3c 239a 463d
00000100: b492 2a3d 406b 63bd 427e 4d3d d0fd 8f3d
00000110: 7782 f8bd c645 113d a5f9 823b eb12 883c
00000120: 3a6c 103d bae3 0e3c 5d3f d9bb 57d0 a9bd
00000130: 59b5 843b 7afc acbc 4f70 0abe ce6d c13c
00000140: bb43 993c 1ff6 afbb 776e a1bd 82a4 ce3d
00000150: 8b39 31be 4ace 22bd 4d6e 0fbd d9e3 bcbc
00000160: d0b1 8bbd 172e 49bd 5187 70bc a031 07bc
00000170: bda8 c7bd aec9 893c f0ec ee3c a151 b23c
00000180: d4ce af3a 3b6e 84bc 9b30 acbd 3cb1 d5bd
00000190: 71cf 923d 929f e0bc b5ae 2cbc 9325 aebd
000001a0: 23cd 0ebe 1a87 32bc eb9d fcbb 93b8 c4bd
000001b0: a58f ba3d 2e42 02be e46d 38bd 1760 9ebc
000001c0: 7ca0 eabc 01d5 8b3d feca 84bd 5e0c 373d
000001d0: 1aca a83b 4df6 a3bd fc16 a8bd f4bc 69bd
000001e0: 1fd0 633e 0a1f 98be 4c00 90be ea51 f53d
000001f0: 6ed2 b83d 56c6 693e fe7f 92be c3b8 82be
0.06659605 -0.0013839933 -0.050116777 0.19066836 -0.18557121 0.033858202 0.046857618 0.11459267
0.021755332 0.03215748 -0.0074702445 -0.16314948 0.08382408 0.073582165 -0.024761675 -0.01145389
0.07129363 0.08461943 -0.05271675 -0.08008095 0.12158121 0.011633397 -0.046749443 0.028695831
0.07701366 -0.04601795 0.048508644 0.17376497 -0.19865812 -0.0008635135 -0.017070543 0.046121493
0.00040133952 0.028747652 0.0038516351 0.089296065 -0.09070136 0.0009467972 0.00033923122 0.07363318
0.0735729 0.03569313 -0.12511694 -0.09982945 0.1279679 0.079756305 -0.03645806 0.06105138
0.057454176 -0.0018992862 0.01323157 -0.076270446 0.105846085 -0.06375605 -0.10844863 0.04182966
0.06959799 -0.04882206 -0.013229737 -0.097871505 0.0871266 -0.015099586 0.026999814 0.04848684
0.041643813 -0.055522203 0.050169237 0.07030833 -0.12134259 0.03546693 0.003997045 0.016610583
0.035259463 0.008721286 -0.006629868 -0.08291691 0.0040499386 -0.021116484 -0.13519405 0.02361193
0.018709054 -0.005369916 -0.078823976 0.10089971 -0.17307107 -0.039747514 -0.0350173 -0.023057865
-0.068210244 -0.04911622 -0.014680699 -0.008251578 -0.09748981 0.016819801 0.029165715 0.02176744
0.001341308 -0.016165843 -0.08407708 -0.104341954 0.071684726 -0.027419839 -0.0105397 -0.085032605
-0.13945441 -0.010896469 -0.007709255 -0.09605517 0.09109429 -0.12720558 -0.045026675 -0.019332929
-0.028640978 0.06827737 -0.0648403 0.04468953 0.0051510455 -0.080059625 -0.08207509 -0.057064965
0.2224736 -0.2971118 -0.28125226 0.119785145 0.09024511 0.22829565 -0.28613275 -0.25531587
