trained_models/15_lag_ppo_InvertedPendulum-v2_eps_0.5_critic.pth (torch, 175156 bytes, 33 tensors)

critic_net.lstm.weight_ih_l0 f4 [128, 4]
00000000: 5deb 08be 8a3c a43e ec34 93be 4cf9 0e3f
00000010: f14b 1f3f e5f1 793f e6d1 163f 6a4a fabd
00000020: 62c1 bfbe 50fa 62bf 2a69 a33d bf03 f3be
00000030: 9b76 32bf abe0 24be 31ee 3fbf 621a bd3f
00000040: 0cd4 bdbe 9deb 9a3f 71bb 42bf 6c4a 033e
00000050: 1ebf 5abe b4fd b6bf 4171 89bd a066 b1bc
00000060: 3f9a 83bc 0d1f 3e3f b652 80be 6647 ec3e
00000070: fb9e d43e 25d2 dcbf c9e1 7f3e 81b4 78bf
00000080: 6076 3f3c 1310 963f 3686 b0bd eabd eabe
00000090: 935b 0cbf a4dc 68bf 0337 03bf 0fe1 1e3f
000000a0: 57a1 113e 48ce 4b3f 845c f7be f6b3 613c
000000b0: aa87 42be 42b8 a8bf 9f48 953e 40e9 d9bd
000000c0: 3b5e f43e abf5 39bf 24c9 afbc 9fbb 1c3e
000000d0: d13c aabe bbab ad3f c7e8 0bbe 1e15 8f3e
000000e0: b4cc bdbe 7758 40bd 67ea 7ebf 66ff 03bf
000000f0: 2711 073d 2d6e c23f 6701 853e 72da 1ebf
00000100: c5d2 8abd 7ad4 4cbf a672 b2be e118 a53e
00000110: 3b3b 153e 8a2a 3dbf d449 973d 4420 51bf
00000120: 5af4 a23d 46af d0bf a052 20be ff7c eebf
00000130: 5afa 86be c062 9abf 43a7 91bc 2f64 1abf
00000140: d886 8abd 389e a03f 2755 84bd 8be9 c0be
00000150: 5e15 23bf 3400 c33e 308b 593f f87e 0c3f
00000160: a130 bdbe 9229 aabe fbf2 50be e48a a0be
00000170: 2abb 20bf aa84 f23f 8a27 f43f 4ba4 e83f
00000180: dd31 3dbf f40a b2bf 2ed1 8cbd 544a 4fbe
00000190: 0c5c abbd 04a9 b0bf 40ae 76bf 2c80 193f
000001a0: d854 2dbf 59ba 79bf 26e7 a5be e17b 32bf
000001b0: 368e 12be b86a a1bf b872 0a3f 4a5e a5be
000001c0: 4865 eb3e 9db9 61bf 66b6 94bf 72a3 4fbf
000001d0: 6132 afbf 866c 88bf 3522 6fbf e976 46bf
000001e0: 51ae 4e3e d5be 523f fa58 cabf 5eaf 4b3e
000001f0: d20a 953e a594 a93f d9d1 46bf cca2 0b3f
00000200: 50c2 fe3e 5c5f da3e 694a fb3e 35d2 dfbd
00000210: b2f8 903e 721d a63f 64b2 e23d 547a 8bbd
00000220: 6f5a 95be 9d54 cfbe 7621 643e 7265 04be
00000230: 60e6 1dbf c9cb 693f a6b8 b33e 27f0 efbd
00000240: 6680 7b3e 3689 f5bd 5089 bf3e 5619 1fbe
00000250: e303 683d ab13 30bf ce63 c6be 2cae 09be
00000260: e48d 46be cb47 7d3f ba60 0bbe 6017 65bd
00000270: 206e d5be d6d5 96bf f722 1bbf 7b8e 043e
00000280: f304 133f e90f bc3f ea31 913e ef32 193e
00000290: fa13 97be 4233 bfbf 79b3 c2bd 7ed1 703e
000002a0: 0c9c 7b3e cf6c 8a3c 1d3a 0c3e 7f29 033e
000002b0: 7396 a8be 3306 8cbf 8957 b43e b2c3 233e
000002c0: 8f35 153e 2af2 533f df95 00be 6200 0a3e
000002d0: 2915 5fbe 4760 a1be a212 46bd fd50 2c3e
000002e0: 1835 f33c 318f 8f3f 3ba4 8bbd f021 a63e
000002f0: 3b6f 133f cf89 ad3f db35 a63e 0c7a ba3c
00000300: 987c 503c 67d7 76bf 54f2 6dbd 08c5 473e
00000310: 6b13 d0be 0524 20bf d0d2 febd 58b8 a4bd
00000320: 8902 0fbf 1e25 0cbf 265d b6be 3900 e3bd
00000330: 1270 0ebd 4608 92bf 0762 c63d 37dc f3bc
00000340: 7bb4 b73e 2849 9b3f b7c1 19bd 6545 bbbd
00000350: 54f7 0fbe 5c74 acbf 6b2c e1be 15dc c43e
00000360: e972 6ebf fafa 913e 41f3 d9be d4ab 623d
00000370: 9957 b7b9 72e4 0abf 7302 49bf 34e3 84bd
00000380: 9f10 1c3d 085c 66bf 8f08 be3c 46d5 16be
00000390: cedc f0be 79cc acbd 8073 26be e8f3 e7bd
000003a0: 2b3e 48bd 435f 86bf 032f 1b3e 163c c9bd
000003b0: d887 3ebe 2daa 8ebf 115e 4b3e 7766 393e
000003c0: 7151 ee3e 4594 7a3f 9d0d e33e 7aaa f13e
000003d0: 350d bdbe f601 dabf 155b 61bf 3d7b 49bd
000003e0: ba59 96bd 08d6 803f d792 58be b5fd 3d3e
000003f0: bb1d 0cbf caaa 43be c9fc 963c 3abe 5fba
-0.13371034 0.32077438 -0.28751314 0.55849147 0.6222525 0.97634727 0.5891403 -0.122212246
-0.37452227 -0.88663197 0.07979043 -0.47463796 -0.6971223 -0.16101329 -0.74972826 1.4773676
-0.3707584 1.2103153 -0.7606726 0.12821358 -0.21361968 -1.4296174 -0.067110546 -0.02165538
-0.016064761 0.7426613 -0.25063103 0.46148223 0.41527542 -1.7251631 0.24988474 -0.9715043
0.011685938 1.1723655 -0.08619349 -0.45848018 -0.5482723 -0.9096167 -0.51255816 0.6206216
0.14221703 0.79611635 -0.4831277 0.013775816 -0.18997064 -1.3181231 0.29156968 -0.10640192
0.47728142 -0.72640485 -0.021458216 0.15305947 -0.33249524 1.3568033 -0.13663016 0.279458
-0.3707024 -0.046959367 -0.9957642 -0.5156158 0.032975342 1.5189873 0.25977632 -0.6205207
-0.06778482 -0.80011714 -0.34853095 0.32245544 0.14573376 -0.73893034 0.073871285 -0.8168986
0.079567626 -1.6303489 -0.15656519 -1.8631896 -0.26362878 -1.2061386 -0.017779952 -0.6030912
-0.06764001 1.2548285 -0.06461554 -0.3767818 -0.6370448 0.38086092 0.8497801 0.5488124
-0.36951163 -0.3323484 -0.2040519 -0.31355965 -0.6278559 1.8946736 1.9074566 1.8175138
-0.7390421 -1.3909593 -0.06875835 -0.20243198 -0.08367166 -1.380158 -0.96359634 0.599612
-0.67707586 -0.9754997 -0.32402915 -0.69720274 -0.14312062 -1.2610693 0.54081297 -0.322985
0.4597571 -0.8817385 -1.1618164 -0.8110877 -1.368725 -1.0658119 -0.9341157 -0.7752519
0.20183684 0.82322437 -1.5808403 0.19891116 0.29109818 1.3248488 -0.7766395 0.54545283
0.49757624 0.42650878 0.49080208 -0.10928766 0.2831474 1.2977736 0.110691816 -0.068104416
-0.29170558 -0.40494242 0.2227839 -0.12929323 -0.6167965 0.91326576 0.35101813 -0.11715727
0.24560699 -0.119890615 0.3740945 -0.15537009 0.05664433 -0.6878001 -0.3874802 -0.13445348
-0.19390064 0.9893767 -0.13611117 -0.055930495 -0.4168558 -1.1784008 -0.6060023 0.12944977
0.57429427 1.4692355 0.28358394 0.14960836 -0.29507428 -1.4937518 -0.09506888 0.23517415
0.24571246 0.016897587 0.13694043 0.12808798 -0.32927284 -1.0939392 0.35223034 0.1599262
0.14571212 0.8279139 -0.12557171 0.13476709 -0.21785416 -0.31518766 -0.048357613 0.1682777
0.029688403 1.1215574 -0.06818434 0.32447767 0.575916 1.3557681 0.32462963 0.022763275
0.012725018 -0.9642243 -0.05809243 0.19508755 -0.40639815 -0.6255496 -0.12442553 -0.08042973
-0.55863243 -0.54744136 -0.35617942 -0.11084027 -0.034774847 -1.1408775 0.09686666 -0.029768093
0.35879883 1.21317 -0.037538256 -0.09144095 -0.14059192 -1.347301 -0.439792 0.3844916
-0.9314409 0.28511792 -0.425684 0.05533965 -0.00034969745 -0.5425483 -0.7851936 -0.06488648
0.03810179 -0.8998418 0.02319744 -0.14729795 -0.4704346 -0.084374376 -0.16254997 -0.11325818
-0.048887413 -1.0497822 0.15154652 -0.098259136 -0.18606508 -1.1145684 0.19860102 0.18105493
0.4654651 0.9788249 0.44346324 0.47200376 -0.3692414 -1.7031848 -0.88029605 -0.049189795
-0.07341333 1.0065317 -0.21149765 0.18553813 -0.54732865 -0.1910812 0.018431084 -0.0008535121

critic_net.lstm.weight_hh_l0 f4 [128, 32]
00000000: bf9d 87be cfc8 ac3e 1904 25bf df75 033e
00000010: edac 1fbe 134a e6be 6ce4 303f 57bc 833e
00000020: 0fb0 0e3f 080b 31bf 7ace b9bd f13f bf3e
00000030: 1e5c 113f 577d e43e 7bc7 0e3f 1cb9 093f
00000040: 70ed 19bf 0c8b e6bd dbb7 ca3d 4b6a 2a3f
00000050: 5c32 00bf c9f5 893e ebe2 863e 9392 593c
00000060: 0c03 10bf 2813 29be c296 183e 9b8b 173f
00000070: d95c bdbe 7628 e7be 6488 f63e 15be 71bd
00000080: 9fbf 83bc 52d5 d13c 8dde 26bb 8a41 d43d
00000090: 96de f7bd 8055 27be 9396 11be f2e7 0abe
000000a0: 2df6 4abe 06cd 4dbe 0026 b73d 9a1b f73c
000000b0: ef2d 8d3d 0abd 3abd 0482 243d db3b 423e
000000c0: 58e1 5ebe caf1 ba3c 6ea7 393e d94c 7dbd
000000d0: bf05 05be d659 0fbd f0cb bb3d 8d97 253e
000000e0: 62bc aabd 2811 4f3d f4d7 d2bd 0533 303e
000000f0: 41b5 a4bd 8180 23bd b448 1f3e 5097 073e
00000100: fbd0 5e3e 3147 303e ac79 be3d 0de9 fbbd
00000110: cd11 0cbc 8962 89be 146f 8b3e bc90 2b3e
00000120: c4c0 923e 1c88 3cbe 6b34 dd3d bd4d 333e
00000130: f4d7 7a3e fae4 783e a3b0 713e 72c8 cabd
00000140: 7a42 543c 176f a23c 39c1 80bd 523b 523e
00000150: 5ddf 5cbe da8d 84bb 1c72 503e 8add 0fbe
00000160: 0d54 63be 54f2 723d 64f1 973d 9cb0 ec3c
00000170: 2bd3 bdbe cb76 b6bd 9305 653d fb6b f5bc
00000180: 7e16 20be 96e5 1b3f e3f0 01bf 5759 813d
00000190: 2621 023d 9609 e8be baa1 293f 177a f83d
000001a0: 10fd ee3e ab14 2ebf 8657 93be cffd 9c3e
000001b0: bd63 c23e d295 0e3f 679c d73e e9a9 ff3e
000001c0: 8126 01bf 9c87 71be c96b d13e a336 1e3f
000001d0: 3658 2cbf a4d5 7a3e dcd2 8d3d da14 613d
000001e0: 66c1 0abe 4371 5e3e 77c2 6f3e 583b 183f
000001f0: b6fc b5be c000 01bf 0644 e23e e068 73be
00000200: cae7 1cbe b9cd a43e b93f e3be c57f a23d
00000210: 4759 4d3d cf14 fabe af05 b33e 7f27 673c
00000220: 45db 813e 7612 02bf 063e 943d 50e2 393f
00000230: 7b1c 563e f0aa cb3e ec28 df3e 529c 9a3e
00000240: 1bf2 64be 76e2 79be 5520 1ebe df08 ab3e
00000250: bab2 e6be af07 77be 21b1 463e c9b0 cc3c
00000260: b919 95be 511a 573e 8005 883d 9e6d 863e
00000270: 8748 aebe f67c 28bd 8884 083f 9eed d8be
00000280: e19b 4c3e 54d7 c43b b7ec 2e3e 978c a6be
00000290: 325c 26be f267 ac3d 6d82 973e dade f43d
000002a0: b2ec 2c3e 8912 76be d784 c33d 448a 263e
000002b0: e54b c93c 3fb9 2a3e b243 ed3c 6ce5 c43e
000002c0: 982c 91be 1acd 3c3e dfbf 393c d158 963e
000002d0: 884b 39be 3e79 923e 9dd7 613e f65d bebe
000002e0: 1c63 d6bc 54e3 dd3c 797d 833e 6aab 8c3c
000002f0: 52c1 7ebe 7674 4c3d 6349 13bd 93f8 ce3d
00000300: dce9 503e 1b76 b73e 3177 26be 0d7e 08be
00000310: dd41 c1bd e8ca bdbd dc0b 603e 6773 933e
00000320: ca29 843e 76cf cabe 66f4 f5bd 0fe3 b73e
00000330: 00cb f53e 9c07 083f ad28 813e e800 cc3e
00000340: 64a2 2dbe de14 13be 5ecf b53e 47e2 983e
00000350: 486c 93be bbe5 e33e 9031 bf3e 5db4 acbe
00000360: fa2d 8bbe 2852 b93d fa2b ce3e 1d87 b33e
00000370: e7b0 89be cb3a 58be aec9 65be 7b50 07be
00000380: 9d59 cc3e c428 363f 440c 48be 8e81 08be
00000390: 44a7 583d 193f 013d 01cd 653e 5b72 bb3e
000003a0: 20ae 1f3f b770 dbbe 92e5 203e 3e3f 363f
000003b0: 34d3 a13e 5ee8 ec3e 5646 113f cb70 f83e
000003c0: 60b7 1abf b7b4 533e 4a47 f13d 6674 eb3e
000003d0: fb7b 1cbf 8b7c 073f d57b 703e f872 85be
000003e0: c053 f1be 3512 b83d 7b46 123f 237f c33e
000003f0: 95fb 04bf adb3 dbbe 15cd a13e e562 a9be
-0.26487538 0.33746955 -0.6445938 0.12837933 -0.1559331 -0.4497839 0.69098544 0.2572963
0.55737394 -0.6915746 -0.090725854 0.3735347 0.56781185 0.44626877 0.55773133 0.5379808
-0.60127926 -0.1125699 0.09898349 0.6656844 -0.5007684 0.26945332 0.26345 0.013279575
-0.5625465 -0.16511214 0.1490126 0.59197396 -0.369849 -0.45148057 0.48150933 -0.059019167
-0.016082583 0.025614414 -0.002546224 0.10364063 -0.12103002 -0.1634121 -0.14217596 -0.13565043
-0.19820471 -0.20097741 0.08942795 0.030164529 0.06893527 -0.045590438 0.040163055 0.18968146
-0.2176565 0.022820372 0.18130276 -0.061840866 -0.12990473 -0.034997784 0.09169757 0.16171093
-0.083367124 0.05055347 -0.10295096 0.17206962 -0.08042384 -0.039917473 0.15555078 0.13241315
0.21759407 0.17214657 0.09300551 -0.1230031 -0.008549166 -0.2683299 0.27233183 0.1675443
0.28662694 -0.18411297 0.108010136 0.17510124 0.24496442 0.24306098 0.23602538 -0.09901513
0.012955302 0.019828362 -0.06286854 0.20530441 -0.21569581 -0.0040452303 0.2035603 -0.14049354
-0.22200032 0.059313133 0.074190885 0.028892808 -0.3707517 -0.08909377 0.05591352 -0.029958716
-0.1563358 0.60897195 -0.5075819 0.06315868 0.031769894 -0.45319813 0.662624 0.12132662
0.46677446 -0.68000287 -0.28777713 0.3066239 0.3796672 0.5569736 0.42111513 0.4993432
-0.5044938 -0.23586887 0.40902546 0.6180212 -0.673221 0.2449556 0.06924984 0.054951526
-0.13550338 0.21722893 0.23414026 0.5946555 -0.35544366 -0.5039177 0.44192523 -0.23770475
-0.15322796 0.32188204 -0.44384554 0.07934526 0.05013397 -0.48844 0.34965274 0.014108538
0.25362602 -0.5080942 0.072383925 0.7261095 0.20909302 0.39778852 0.43585908 0.30197388
-0.22357981 -0.24402794 -0.15442021 0.33405206 -0.45058233 -0.24124025 0.19403507 0.024986641
-0.29121187 0.21006133 0.06641674 0.26255506 -0.3403971 -0.041134797 0.53327227 -0.42368788
0.19981338 0.0060071144 0.17082487 -0.32529137 -0.16246107 0.084182635 0.29591694 0.11956568
0.16887167 -0.24030508 0.095468216 0.16263682 0.024572322 0.16672228 0.028962944 0.38456285
-0.28354335 0.18437615 0.01133725 0.29364637 -0.18095219 0.28608125 0.22054906 -0.37181062
-0.026170306 0.027085938 0.25681666 0.01717158 -0.24878433 0.049915753 -0.03595866 0.101060055
0.2040171 0.35832295 -0.16256405 -0.13329335 -0.094363905 -0.09267217 0.21879524 0.28798983
0.25813133 -0.39611405 -0.12009506 0.3591542 0.4800644 0.5313661 0.25226346 0.3984444
-0.16956478 -0.14363429 0.3550977 0.29860136 -0.2879355 0.44511208 0.373425 -0.33731356
-0.27183515 0.09048873 0.40267926 0.3506402 -0.26892778 -0.21116178 -0.22440216 -0.13214295
0.3991212 0.71155953 -0.19535929 -0.13330671 0.052893892 0.031554315 0.22441484 0.36610684
0.6237507 -0.42859432 0.15712574 0.7119025 0.31606448 0.46271032 0.5674795 0.48523554
-0.6043606 0.20674406 0.117811754 0.45987242 -0.6112668 0.5292441 0.23484738 -0.26064277
-0.4713421 0.08987848 0.57138795 0.38182935 -0.51946384 -0.4291052 0.31601778 -0.33083263

critic_net.lstm.bias_ih_l0 f4 [128]
00000000: b7e2 c93e 8256 513d 0f8e 713d c683 0a3f
00000010: 249e 5f3e 2930 ae3e 795a f53e 0588 3c3f
00000020: e050 c63e aac9 fc3d 77fb 683e 1270 123e
00000030: 72df 8a3e fe16 433e eb89 3ebc 8796 9f3e
00000040: 623c c23d ba74 403f b640 8e3e d196 703e
00000050: c767 293e da42 a73e 6fba 7f3e dad5 1a3e
00000060: f087 bebd fd22 923e a44b 563e c516 0e3e
00000070: 696c ea3e aef8 313e 9eb4 253f edac 233f
00000080: 0437 363d 5926 17be a9c2 133d f49f 75be
00000090: 38e1 8ebe 3bbb 4fbe e912 4abd 6534 923d
000000a0: 1985 a83c 8373 3f3d ad69 90be e800 75be
000000b0: 7aba 6bbe b752 f6bd 725b 6c3d a4c1 fe3d
000000c0: 0c79 f7bd f0e6 6bbe bd23 42be 7ad7 e8bd
000000d0: e34b 7ebe 286c 51be 9412 02be d6d9 acbe
000000e0: f9ad 93be ed2b 87bd 53ab 14be 089f 05bd
000000f0: c4d0 cbbd 31fd 563c e2bd d8bd 097d 8bbd
00000100: bd88 453e 8f94 c8bc 635a 973d ec5c 093d
00000110: 29e0 b53d fad9 6fbd 6168 e93d d843 f33c
00000120: 3667 2b3e db0c 06bd 8255 2fbe b360 bb3d
00000130: f229 a9bd ecbc 0a3e cc2d 153e 5c62 193e
00000140: 5dd0 21be c0b7 2cbe 339d 3a3e dc42 9a3d
00000150: c784 0e3e 31c2 df3d 6784 da3d 097f 04be
00000160: 6095 113e 420b 973d e7b0 a9bd d943 e3bc
00000170: b302 28be 97df 9a3d bcbc e8bd ada7 e33b
00000180: 2837 133f 7680 24bd 8cd7 ec3d 133a 2a3f
00000190: ca14 9c3e e952 173e c819 0b3f 328d 113f
000001a0: 20b2 a33e cbe8 653d bea0 843e 40e4 be3d
000001b0: dbf4 843e b544 463d a5ba aebd 24d6 f33d
000001c0: 4aea e3bd 965d 3c3f 272c 913e 873b 303e
000001d0: 0a34 a23e 0e31 8a3e 0b21 5b3e 7fa9 443e
000001e0: 6022 e13d 7012 493e c8cf b93c 6fb5 353e
000001f0: e912 fa3d b08d 9b3e 56a1 223f 8559 173f
0.39430782 0.05110789 0.05897337 0.5410732 0.2183767 0.34021118 0.47920588 0.7364505
0.38733578 0.12343152 0.22752176 0.14300564 0.271236 0.1905174 -0.011629562 0.3116953
0.09484173 0.7517811 0.27783746 0.23495032 0.16543494 0.3266819 0.24973463 0.1512064
-0.09303272 0.2854232 0.20927292 0.13875873 0.45785835 0.1738002 0.64728725 0.6393574
0.04448606 -0.14760722 0.036074314 -0.23986799 -0.27906203 -0.20286267 -0.04933444 0.071389
0.020571278 0.04674102 -0.28205624 -0.23926127 -0.23020354 -0.12027495 0.057704397 0.12439278
-0.12083635 -0.23037314 -0.18958946 -0.11369224 -0.24833636 -0.20451415 -0.127024 -0.33759946
-0.28843668 -0.06600175 -0.1451848 -0.032622367 -0.09951928 0.013121889 -0.10583092 -0.06810958
0.19290443 -0.0244849 0.07390287 0.033535883 0.08880646 -0.058557488 0.11396862 0.029695436
0.1673859 -0.032727104 -0.17122462 0.09149303 -0.082599536 0.1354863 0.14568251 0.14978927
-0.1580214 -0.1686697 0.18224029 0.07532284 0.13917838 0.10925711 0.10669785 -0.12939085
0.14217138 0.07375194 -0.082856946 -0.027742313 -0.1640728 0.07562178 -0.11364123 0.0069474787
0.57506037 -0.040161572 0.1156455 0.66494864 0.3048461 0.14777721 0.54336214 0.5685607
0.31971836 0.05613021 0.25903887 0.09320879 0.2596806 0.048405368 -0.08531693 0.119060785
-0.111286715 0.735803 0.28353998 0.17210208 0.31680328 0.2699055 0.21399324 0.19205283
0.10992885 0.1963594 0.022682086 0.17744993 0.12210638 0.30381536 0.6352743 0.5912097

critic_net.lstm.bias_hh_l0 f4 [128]
00000000: 602b 0e3f 9a21 853c 850e 523d 6cdd ed3e
00000010: 1fd1 cd3e 019b 703e 717b e13e 574f 063f
00000020: 3ae0 803e 2d22 33bd 804f af3e 15c2 6bbc
00000030: 16f2 cf3d d198 2a3e e0a5 093e 0731 803e
00000040: 96f5 87bd 0bd5 e53e c756 e53e 1b89 7b3e
00000050: d765 2a3e 1ba5 ac3e 8185 113f 6881 413e
00000060: 1fda 97bd a6b8 1e3d d202 9dbc bbc7 b53e
00000070: 5ab2 263e 6444 e73d 1f9d 2a3f 492b 193f
00000080: d57d febc e739 cfbd 3230 00be 1b0e 27be
00000090: ac9b 4bbe 9902 20be 5272 8fbe 6ecc c6bc
000000a0: 9adb 393d 1512 40be c78f fcbd 9d42 51bd
000000b0: ae82 0cbe 1ca3 61be 972a 00be 708d 81bd
000000c0: dc94 42be 7221 3ebe 201c 1cbc a0cb 47be
000000d0: 1695 6bbe 0bb2 af3d bca0 97be 4de5 a2be
000000e0: 6cb5 97be 0136 44be e44a a6bd 66a2 2cbe
000000f0: 5364 78be 95cf 6abe 0932 dfbd f110 80be
00000100: 0fe1 003c 2c5c e43d 8d03 923b c64a 54be
00000110: bac5 51be e071 503e a65f 243b bdfa 933e
00000120: 73b4 a23d 7760 233d f686 aa3d 6d4b fd3d
00000130: 57fc 903c b5ae 823d 2d14 593e 76ac cc3d
00000140: f9bc 53be d3f6 1b3e 6a4d 2d3e 7c8d cdbc
00000150: a5d8 3bbe 256f 993d 4986 93bd e09c 8cbd
00000160: cc9a 8abd 3eaf b4bc bc5d 183e 718a a43d
00000170: a98a f43c c894 093e 9ee9 07be 3afa d7bd
00000180: a0e0 023f cb18 c03c 5119 2d3d f2da 0d3f
00000190: e650 333e 03a4 393e 3161 a83e 8696 053f
000001a0: 81c3 c13e 1491 d5bd 3bcc 7a3e 3613 2c3e
000001b0: 557b 633c 73c2 403c 9260 56bd aa21 893e
000001c0: 0a4a f0bd 9f2e 4f3f 3db7 8b3e 9483 b13d
000001d0: 9c4c e93e 2908 aa3e 5868 e53e 89d4 9c3e
000001e0: 0da4 333d 84ed 893e 348b 063e 2bb4 623e
000001f0: 5bd2 3b3e 5214 223e 1a0d 193f 3bab 333f
0.55534935 0.016251374 0.05128338 0.46457994 0.4019861 0.2349663 0.4403949 0.52464813
0.2517107 -0.043733764 0.3424034 -0.0143895345 0.10153596 0.16659857 0.13442183 0.25037405
-0.06638639 0.448891 0.44792768 0.2456402 0.16640411 0.33719715 0.56844336 0.18897021
-0.0741465 0.038750313 -0.019166384 0.35503945 0.16278973 0.11292341 0.66646 0.5983167
-0.03106586 -0.10118466 -0.12518385 -0.16313975 -0.19883603 -0.15625991 -0.28016907 -0.024267402
0.045375444 -0.18756898 -0.12332111 -0.051088918 -0.13721725 -0.22034878 -0.12516247 -0.06325805
-0.19002098 -0.18567446 -0.00952819 -0.1951127 -0.2300609 0.08578881 -0.29614818 -0.31815568
-0.296306 -0.19161226 -0.08119753 -0.16858825 -0.2425702 -0.22930749 -0.10898215 -0.25012925
0.007866158 0.11150393 0.0044559897 -0.20731649 -0.20485583 0.2035594 0.0025081425 0.28902236
0.07944574 0.039886918 0.08326523 0.12367902 0.01769845 0.06380979 0.21199103 0.09993832
-0.20677556 0.15230875 0.16924062 -0.02509188 -0.18344362 0.07491902 -0.07203347 -0.06865859
-0.067678064 -0.022056218 0.14879507 0.08034218 0.029851275 0.13435662 -0.13272712 -0.10545774
0.51124 0.023449322 0.04226047 0.5541221 0.17511329 0.18128972 0.3288665 0.52182806
0.3784447 -0.10428062 0.2449197 0.16804203 0.013884385 0.01176511 -0.05233819 0.26783496
-0.11732872 0.80930513 0.27288237 0.08667675 0.4556626 0.3320935 0.4480617 0.306309
0.043857623 0.26939023 0.1313904 0.22139041 0.18341963 0.15828064 0.59785616 0.7018315

critic_net.lstm.weight_ih_l1 f4 [128, 32]
00000000: 94c4 c5bd 24c6 c43c 85d3 dcbb 729e e43c
00000010: f980 f9bd 2bdd 6a3e f562 2abd febf 5abb
00000020: ef4f 3e3e e52e d1bd bab4 b2bd f336 0abe
00000030: 4420 2c3e f4b6 263c 50ca a83d 5e9f 953e
00000040: 2674 953d 01d8 423e 99db 65bd 75b9 3bbe
00000050: d90d 0cbe 06c4 6dbd f42a ebbe b9c5 443e
00000060: 37ca 863e b704 e5be 9f3e 1c3c b107 efbd
00000070: fdc6 8fbd a240 183e 70f5 593e 52c4 ba3d
00000080: f78b 88b9 28ea 973d 9d45 43be 5d3b 14bd
00000090: 445f 55be 0abb 98be 5d6d 7d3a 2945 223e
000000a0: fbc4 27be 8eef fc3c b5b7 cc3e 33ef 8e3d
000000b0: 4e9d 703d ae46 0ebd 7a5e a3be 5a07 97be
000000c0: 0adb cc3d 812a 663d b3bc d63d aebf a63d
000000d0: 330c 80bb d34b 6ebd 7f5d b83b 24ad 11be
000000e0: 7e41 4ebe 277e aebc 089c cebd f2d5 74bd
000000f0: 503c fe3c efb3 03be 1179 4e3e 94dd 7f3e
00000100: b25f c63e f0cf fa3e ca87 413e 9acf 57be
00000110: ece0 6bbd 4288 4e3f 6ef8 4d3f d7b3 b8bf
00000120: 25fb cb3e 81a5 d1bc 1c06 f83d dd99 c9bd
00000130: 8ec4 483c 0fb0 6dbf 9c3a 9a3e f1d0 453f
00000140: 8b40 223e 9a9d c43f d607 95bf 5036 37be
00000150: 0cc1 1cbf 78e8 00bf 00b7 c3be 5eb0 c53f
00000160: 5721 c13e 5f90 9fbe 034b 7ebe d9c7 58bc
00000170: 88ae 10bf 0655 4b3f 8390 b13f 4c83 8f3f
00000180: ae88 2dbe 5f70 0ebd d3a7 9ebd 9667 b93e
00000190: fedd d83e 47e4 113e 76a7 8cbd 2e2a babe
000001a0: c883 49be 4933 3c3e c7f5 b7be cb2a f63d
000001b0: 747b c63a cdbf 6d3e 61c5 02bd eb07 6abc
000001c0: 6723 303e f11f a23d ea78 bdbe 0a89 0bbe
000001d0: 0905 8d3e 4095 003f f77e 4c3e d52f 05bf
000001e0: 12ab 373e e9d8 cfbd 72c4 ae3d 49bb 2a3e
000001f0: 32e9 6abe e79b d03d 7e61 47be 6c61 2abe
00000200: bc04 20be af39 dbbd c3ac 8f3d 74a5 a63e
00000210: 86b1 863e 5221 d3bd 1304 6e3c 1b54 60be
00000220: ff29 46be 2de2 163d 29ab 3b3e f568 2dbe
00000230: 3374 c2bd c738 94be b16c 573e 853b 8ebd
00000240: 3f9f b2bd 43a7 c73d 2755 97be 1cea a03d
00000250: 40f2 683d 04e6 adbd b3b9 823d 1e42 533e
00000260: ce18 6c3e 8788 d5bd 1676 f13c 1224 643d
00000270: 5f7b 40bd 8e26 69bd e8f5 1f3e d5f6 973e
00000280: 0dc0 31bf 7893 1cbe f14a b3bd 082d 5f3f
00000290: 7821 e33e 0545 d13c 53ca 3cbe 1db1 3fbf
000002a0: f1c9 7bbe 8b58 f03d 0ea9 cfbe 551e 723d
000002b0: 8af3 21be 01a3 f5bd fa0a 39be 6c6b 05be
000002c0: 589d 28ba 4e08 323e e903 88bf b4fe 0c3e
000002d0: 39f8 a13d bff8 013e e8ed 5f3e bec4 a53e
000002e0: b48d b33d d88b 8b3e 7230 cd3d 520b af3e
000002f0: 0fb0 093d bc9f 3b3f eed8 57be 38ae 86be
00000300: dc25 20bf 8357 edbd 4e40 21bf 1bab 1e3f
00000310: 5b59 873e f041 12bf d72e 01bf f74a a83c
00000320: df81 21bf 5683 c9be eba3 c43c 71cd 533e
00000330: 58bf 0dbd 6ab3 293d 2e9b 3ebf fad2 3bbf
00000340: 2dd8 853d a54c 3ebf fda9 ae3e eaa1 a23e
00000350: 8e4b e63d d703 9abe 9c3f f63e eff1 07be
00000360: d023 e2be a305 1d3f 972f 403e 8f11 7a3e
00000370: 8732 223f 4145 13bf 0084 aabe 6e7d 95be
00000380: 0a39 843e 6fc6 1b3e 5d7c d93e fa62 a3bd
00000390: cb64 17be 4a82 1c3f 95ab 5b3e 9ac5 0bbe
000003a0: d28b 843e 4906 a8bd 7c33 8d3e ee9c 3dbe
000003b0: 556b babc 17db b2be 05b4 f63c 835f 8a3d
000003c0: 2133 8e3d f85a b23e 5089 81be c8d4 31be
000003d0: 3d2c babd 370f 0bbe 7fb4 58be e6e5 063c
000003e0: 5743 433e 15f7 a6be 6da9 53be 02b4 88be
000003f0: e499 5abe f360 2a3e 62b7 643e cdba ef3d
-0.09656635 0.024020262 -0.0067390823 0.027907584 -0.12182803 0.22935931 -0.04159828 -0.0033378596
0.1858518 -0.102140225 -0.08725877 -0.13497524 0.16809183 0.010175455 0.08241713 0.2922315
0.07297544 0.19027711 -0.056117628 -0.18332465 -0.13677157 -0.05804827 -0.45931208 0.1921605
0.26326153 -0.4473016 0.009536414 -0.11671389 -0.07020376 0.14868405 0.21285033 0.091194764
-0.00026044223 0.07417709 -0.19069524 -0.036189426 -0.20837122 -0.298302 0.00096674805 0.15846695
-0.16383736 0.030875947 0.39983907 0.069792174 0.058743767 -0.034735374 -0.31908017 -0.29497796
0.10002716 0.05619288 0.1048521 0.08142029 -0.0039077043 -0.05817778 0.00562638 -0.14226204
-0.20142171 -0.021300389 -0.10088354 -0.059774347 0.031034619 -0.12861608 0.2016337 0.24986869
0.38744885 0.4898677 0.18899456 -0.21075287 -0.05758755 0.8067666 0.804572 -1.4429883
0.39840046 -0.025591614 0.1211054 -0.098438 0.012253894 -0.9284677 0.3012284 0.77271944
0.15844934 1.5360596 -1.1643016 -0.17891812 -0.61232066 -0.5035472 -0.38225555 1.5444448
0.3772075 -0.31164834 -0.24833302 -0.013231241 -0.56516314 0.7942661 1.3872226 1.1211944
-0.1694667 -0.034775134 -0.07746854 0.36211842 0.42356867 0.14247237 -0.06867878 -0.36360306
-0.19679177 0.18378939 -0.359297 0.12019881 0.0015142993 0.23217697 -0.031926516 -0.014284114
0.17201005 0.079162486 -0.37006313 -0.13626495 0.27542904 0.5022774 0.19970308 -0.5202611
0.17936352 -0.10148794 0.08533563 0.16673006 -0.2294052 0.10185986 -0.19470784 -0.16638726
-0.15626806 -0.10704362 0.070153736 0.32548106 0.26307315 -0.1030909 0.014527339 -0.21907084
-0.19351958 0.03683679 0.18327011 -0.16934569 -0.094948195 -0.28949568 0.21037556 -0.06944946
-0.0872178 0.097486995 -0.29557154 0.07857153 0.056871653 -0.084911376 0.063830756 0.2063069
0.23056337 -0.10426431 0.029475253 0.05569846 -0.046992656 -0.056921534 0.1562115 0.29680505
-0.6943367 -0.1529063 -0.08754528 0.8717809 0.44361472 0.025545606 -0.18436556 -0.7487963
-0.24588753 0.11735638 -0.40558666 0.059110958 -0.15815559 -0.11993981 -0.18070593 -0.1302926
-0.00064321375 0.1738598 -1.0626193 0.13769037 0.07908673 0.12692545 0.21868098 0.32376665
0.08767262 0.2725513 0.10019006 0.34188324 0.03361517 0.7329061 -0.21078846 -0.26304793
-0.6255777 -0.11588957 -0.62988746 0.61979836 0.2643536 -0.5713186 -0.50462097 0.020543559
-0.6308879 -0.39358014 0.024003943 0.20683838 -0.034606308 0.04143087 -0.74455535 -0.733688
0.06535373 -0.743357 0.34114066 0.31764156 0.1124488 -0.30081055 0.48095405 -0.13275884
-0.44167948 0.61336726 0.18768154 0.2442076 0.6335835 -0.5752755 -0.33303833 -0.29197258
0.25824767 0.15212415 0.42477694 -0.07977863 -0.14784543 0.61136305 0.21452172 -0.13649598
0.25887924 -0.08204324 0.27578342 -0.18516895 -0.022756258 -0.34932777 0.030115137 0.06756499
0.06943346 0.3483503 -0.25300074 -0.17366326 -0.09090469 -0.13580023 -0.21162604 0.008233523
0.19068657 -0.32610384 -0.206701 -0.26699835 -0.21347767 0.16638546 0.2233558 0.11705551

critic_net.lstm.weight_hh_l1 f4 [128, 32]
00000000: 1538 3fbd bab3 033e 1271 62bd 1c01 823e
00000010: 698b 7fbe f5fb 25bc 72d0 b2bd e94a 19bd
00000020: a05f d1bc 6c7e 6e3e 1df0 7e3d 10e5 b6be
00000030: c05b 053e 8f6b 883e b65f f0bd be5f 263e
00000040: d543 b8bc 707c 87bc 6aa1 9e3d d717 7d3e
00000050: ab66 453e aa36 edbd 5d92 aa3c 566d ae3d
00000060: d83a 2abd 484d e8bd 5a57 06be 916e 793c
00000070: 47b1 a2bd 4f95 3b3e 12cd 3bbd 8056 10be
00000080: ab5b 61be 8b27 653a ea32 67be fed7 fdbd
00000090: c01f 32bd 55e4 61bd 8585 07bd 9bdd eb3d
000000a0: 0f64 dd3d 17c4 91bd c396 a2bd 93b5 393c
000000b0: 2240 a93d 108b 803d fc98 12bd 95b9 32bd
000000c0: 69e5 3d3d 0be1 17bb 75d8 c3bd 97a2 38be
000000d0: 4e52 9bbd 845e 08be a5eb 163d 3ede febd
000000e0: 1d8a 373e 8231 28be 8e80 6fbd e7d7 513e
000000f0: 569b b83d 0153 083d 9c8a ab3d 6d68 1bbe
00000100: 6167 503e d6bc d7bd 01f3 9b3d 48dc f8bd
00000110: 88c6 49bd f81f bebd c350 7fbd 7409 bdbd
00000120: 1f5c 5bbe 4cb6 cd3e 70d4 a33e 60b3 9a3e
00000130: 5d52 313e 9961 82be 66b1 383c dff7 01be
00000140: e18b 43bd 1700 e93d 553a 2a3e 4be6 313e
00000150: 76cf 1d3e 0b7d d13d 6598 e83d 24fc 083e
00000160: 4a97 253e e9b3 89bb 3694 063e f6a7 25bd
00000170: 84ed 383d 9a0d 603e ae3f da3c 249f 8e3d
00000180: aa8b 6a3b da8f 1ebd 698d 0c3c 8940 bfbc
00000190: 4646 96be 7359 95be 9286 24be eb01 c33d
000001a0: bfab d4bd e5d0 523a feca f1bc dc78 2a3e
000001b0: cca3 e5bc 0267 24be 1db3 2f3d b275 95bc
000001c0: 881c 453e 3828 b63e 00be 313e ec9f 0a3e
000001d0: 208d 7d3e 8f19 ad3d b30b c83b 9c4d 0abe
000001e0: 6244 363e 2d27 5f3e 04f0 463e 95e1 dfbc
000001f0: ade7 1cbe a979 193e 9bbd 413e cf61 2fbe
00000200: 32b3 22be 2ddf ff3d 3783 b5bd 8425 28be
00000210: 1cab eebc f4d0 283d 9201 b23d ecea 48be
00000220: 9c15 55be b0d2 11bd eeca 88bd 33b1 823e
00000230: 279d 933a 372e 533c d3f6 48be 8f83 bebd
00000240: 47bc 283e ae81 f43d 54ef 2f3e 3fd6 fdbd
00000250: b2b6 b83c f01d 15bd ec5a 503e a57f 08be
00000260: e1b4 f13d 8653 003d cdc0 6abe eeb8 243e
00000270: 869f 1bbd a857 6d3e 0253 92bd 7f5d 59be
00000280: f881 e2bd ce26 88be e2af 1b3e 41bf 8dbd
00000290: 719c 83be 5c52 2cbe 3262 a63d 343d 393e
000002a0: 7023 afbd d058 953d 8c5b d5bc c788 f83d
000002b0: 42ca 603d ca06 64be 3f27 5dbe 9433 9abe
000002c0: d813 5abd bc34 003e 37f9 4a3d 3a42 49bd
000002d0: 3230 25bd 7ff7 30bc 0f60 7a3e 36f9 62bc
000002e0: 46b0 4f3e ff66 e7bd 4ae9 483e 3b04 aebc
000002f0: 0b5e 20bd dcd3 073e f77c a03d 028c d03d
00000300: 2631 16be 3610 fa3d 27f8 b1be defc afbd
00000310: 38e8 d4bd e331 4e3e d4e7 413d 753c 183d
00000320: 2eb8 10be 41fc 99be 3e72 723d 1115 2b3d
00000330: 9c02 bb3b 1f9b c93d bc8e 25be be77 babd
00000340: 744d 1b3e ab31 663d a8d5 0dbd e11a ec3d
00000350: 770f 8f3e 60d3 23be 2950 303c a0e1 ba3d
00000360: b9b4 363e 21c8 c93d 5197 99bc 4203 c23d
00000370: b2a1 743e 9149 c5bd 4468 a43e b54c 51bd
00000380: 9a7c af3d 16d2 343e 0cc6 8b3e e576 6f3e
00000390: cbab aa3c 3bf5 d53d 8c17 153e 7e35 233e
000003a0: 9fd6 0f3e a2f2 47be a33b fbbd 59c9 fcbd
000003b0: 5f8f 8ebc 17f1 fb3c 0319 dd3d d451 9ebd
000003c0: 9b3d fabd 71e8 933d e298 46bd a5ac 22be
000003d0: 1ce4 83be 6803 2c3e 241b 3fbd 7635 333e
000003e0: 1f0a ccbd 06a2 96be ff88 11be 0a6d a3bc
000003f0: 9cff efbc 77de babd 2d3a f6bd 01a3 e4bd
-0.046684343 0.12861529 -0.055283614 0.2539147 -0.24955525 -0.010130872 -0.08731164 -0.037424956
-0.025558293 0.23290414 0.06224071 -0.35721636 0.13023281 0.2664456 -0.117370054 0.1624746
-0.022493282 -0.016538829 0.07745631 0.24716125 0.19277446 -0.11582692 0.020821745 0.08516948
-0.041560024 -0.11342865 -0.1311926 0.015224115 -0.07943969 0.18318675 -0.045849867 -0.14095497
-0.22007625 0.0008741549 -0.22578016 -0.12394713 -0.04348731 -0.055149395 -0.03308632 0.11516877
0.108101 -0.07117479 -0.07938912 0.011334795 0.082641855 0.06276524 -0.03579043 -0.043634016
0.04636136 -0.0023174908 -0.0956277 -0.18030773 -0.07584058 -0.13317305 0.036845822 -0.12444733
0.1792378 -0.16425136 -0.05847221 0.20492516 0.09014003 0.033282284 0.08376047 -0.15176554
0.20351936 -0.105340645 0.07614709 -0.1215139 -0.0492616 -0.09283441 -0.06233288 -0.09230319
-0.2142186 0.40178144 0.31998014 0.30214977 0.17316575 -0.25465086 0.011272764 -0.12692212
-0.04774082 0.1137697 0.16623814 0.17373006 0.15411171 0.10228928 0.11357192 0.13377434
0.16170993 -0.004202355 0.13142475 -0.040443383 0.045148388 0.21880189 0.026641693 0.069639474
0.0035788813 -0.038711406 0.008578637 -0.023346202 -0.2935049 -0.29169807 -0.1606696 0.0952185
-0.103843205 0.0008041992 -0.02951574 0.16647667 -0.028032206 -0.1605492 0.042895425 -0.018244598
0.19249165 0.3557756 0.17357635 0.13537568 0.24760866 0.084521405 0.0061049103 -0.13506168
0.17799523 0.21792288 0.19427496 -0.027329246 -0.15322752 0.14987816 0.18919985 -0.17127155
-0.1588867 0.12493739 -0.08862918 -0.16420561 -0.029134326 0.0412149 0.08691706 -0.19620866
-0.20809025 -0.035601318 -0.06679331 0.25525817 0.0011262045 0.012889436 -0.19625406 -0.093024366
0.16478072 0.11938797 0.1718114 -0.1239438 0.022548053 -0.036405504 0.20347184 -0.13329943
0.11802078 0.031329654 -0.2292511 0.1608617 -0.03799393 0.2317797 -0.07144739 -0.21227072
-0.11059946 -0.26592106 0.15203813 -0.069212444 -0.25705293 -0.16828293 0.08124198 0.18089753
-0.08551681 0.0729233 -0.02604463 0.12135463 0.054880388 -0.22268215 -0.21597002 -0.30117476
-0.05324158 0.12520117 0.049554076 -0.049135424 -0.040329166 -0.010801195 0.24450706 -0.013853362
0.20282087 -0.11298942 0.19620243 -0.021242252 -0.039152186 0.13264412 0.07836335 0.10182954
-0.14667186 0.12210123 -0.34759638 -0.085931525 -0.10395855 0.20136218 0.04734023 0.03716703
-0.14132759 -0.30075267 0.05919098 0.041768137 0.005707098 0.0984404 -0.1616773 -0.0910487
0.15166265 0.05619971 -0.034627587 0.11528564 0.27941486 -0.15998602 0.010761299 0.09125066
0.17842378 0.09852625 -0.018748911 0.09473278 0.23889807 -0.09633172 0.32110798 -0.051098544
0.08568688 0.17658266 0.27299535 0.23385198 0.02083387 0.104471646 0.14559764 0.15938374
0.14046715 -0.19526151 -0.12267234 -0.123430915 -0.017402349 0.030754609 0.10795786 -0.07730451
-0.122187816 0.07222069 -0.048485644 -0.15886171 -0.2575997 0.16798174 -0.046656743 0.17500862
-0.09962868 -0.2942049 -0.14212416 -0.019949455 -0.029296689 -0.09124463 -0.12022815 -0.11163903

critic_net.lstm.bias_ih_l1 f4 [128]
00000000: bc9f 803e b2ce 7cbe fa07 a63d d0a1 703c
00000010: b019 7cbe 355d bebd f2a0 93be 05c9 4dbd
00000020: 4fd9 983b 1107 fdbd 4f7b 95be c5b9 573b
00000030: af2b 3dbd 6050 3c3e 054c 0b3e d7b5 05be
00000040: 7e5f 13bd 1cd5 4bbd 28a2 153d fedd a53d
00000050: 4c38 84bd a5c2 2b3e 3632 5dbe c9ac 8e3d
00000060: a32d bb3c 97ab c0bd e903 5dbd 2654 febd
00000070: 725f 82be fe7c 3fbd 70ec 56be 2504 2cbe
00000080: ccb6 40bd a692 acbb 41e3 4bbe 9019 95bd
00000090: 3c15 a7bd 2097 b5be e249 c0be 016d cd3b
000000a0: 8e5d bcbd df13 06be 16c9 96be 05cb 4abe
000000b0: 36df 95be 8093 84be 4ed9 64be 595d a1be
000000c0: 9ae1 33be 8dba 5ebc 5f3e 8bbe 5bb5 afbe
000000d0: 1642 97be 360b 79bd d912 95be 40c6 25bd
000000e0: ae77 1fbe f011 a8be 6129 b8be b3d2 fb3c
000000f0: 39a6 dcbd 71af a9be f5e2 a9bd 8135 65be
00000100: 4356 ee3d 092d 1f3c 91ef 5b3e 0183 143d
00000110: bf6a 59bd ae1a ae3d 5456 ce3d 01ed 983c
00000120: dd00 593d 4a0d a93d de2a 5d3d 1709 323d
00000130: 9869 84bd ef89 c5bd 82b3 c4bc 2493 bb3d
00000140: e9ff 77bd a975 bb3d f94b 62bd 496c bc3d
00000150: a5ab 483d 3eed 633e 885a 6abd 392a f13d
00000160: 12c2 873c 34f3 0cbd 622c 843d 05ca f33c
00000170: 6210 90bc 26e8 1f3e eedb 09be b962 953d
00000180: b89b 113e 2be6 b9bc 3cb2 9f3e 6a2b 89bd
00000190: cdb1 253d 8f7c 42be 268f ffbd f148 85bd
000001a0: 2106 7dbe e2a8 a3bd eb15 68be 30e0 2b3e
000001b0: 773c 2bbe 74fc ad3e cfe4 52bd 8978 563d
000001c0: acf5 ef3d 170d 913d 39cb 083e dea9 9d3d
000001d0: 6658 dfbd ebee 983e 1abb 7bbd 5545 0dbe
000001e0: 11d2 753b b6b0 a8b8 e3c5 0dbc ff7d eabd
000001f0: 2d57 65be 1377 9a3c bdbf d9bd 9b0e 88be
0.25121868 -0.24688223 0.0810699 0.014687017 -0.24619174 -0.092951216 -0.2883373 -0.050240535
0.004664577 -0.123548634 -0.2919564 0.0032917124 -0.046184238 0.18390036 0.13603218 -0.13057648
-0.03597974 -0.049763784 0.036531597 0.08098982 -0.0645605 0.1677347 -0.21601185 0.0696655
0.02284891 -0.09407728 -0.053958807 -0.12418394 -0.25463444 -0.04675006 -0.20988631 -0.16798456
-0.04704933 -0.0052665053 -0.19910909 -0.07280266 -0.08158347 -0.35466862 -0.37556368 0.006269098
-0.09197532 -0.13093518 -0.2945029 -0.19804008 -0.2927186 -0.25893784 -0.2234852 -0.3151653
-0.17566529 -0.013594282 -0.27196023 -0.3431805 -0.29542607 -0.060801707 -0.29115942 -0.04047227
-0.15572998 -0.32826185 -0.3596907 0.030740118 -0.10773892 -0.33141664 -0.08295242 -0.22383691
0.11637547 0.009715327 0.21478106 0.036257748 -0.053080317 0.085011825 0.100750595 0.0186677
0.05297934 0.08254488 0.05399596 0.0434657 -0.06465453 -0.09645449 -0.024011377 0.09158924
-0.06054679 0.09153301 -0.055248234 0.09200341 0.048991818 0.2225847 -0.057215244 0.117756315
0.016572032 -0.034411624 0.06453778 0.029759416 -0.017585937 0.15615901 -0.13462803 0.072942205
0.14219558 -0.02269276 0.3119067 -0.06697734 0.040452767 -0.18992828 -0.12478475 -0.06508053
-0.24709369 -0.07991196 -0.22664611 0.1678474 -0.16722284 0.3398167 -0.05148774 0.052361045
0.1171678 0.07082575 0.13358773 0.07698415 -0.109055325 0.2986978 -0.06145773 -0.1379598
0.0037509243 -8.043779e-05 -0.008653137 -0.11449813 -0.22396536 0.018855607 -0.10632274 -0.26573643

critic_net.lstm.bias_hh_l1 f4 [128]
00000000: 3b8e 533e 7b26 1c3c 38c2 b33e e127 fabd
00000010: cbd2 58bc a271 b0bd 73c9 33be 11d6 a3bd
00000020: 3af5 c23c 76c7 4abe 1c47 7abe cca5 853e
00000030: 6d3d 20be c23b 943d d96d f63d 155c 5dbd
00000040: eade b33d b029 893d c798 b6b9 c73b 8f3d
00000050: 2e0a 8bbe fc06 18bd 322a c23d d26f 09bd
00000060: 2d11 26be 666d 22be 7b38 323d b74d fabd
00000070: ce31 3ebe 1496 9e3a 75e9 57bd 1010 61bd
00000080: 5e7e 913e eb8f e03c bfdc aabd 5228 bfbd
00000090: 0a05 69be 9c8d 2cbe 4d6b 8cbe 7e34 82be
000000a0: 7632 563d 4b1e 28be 1c01 8eb9 1539 8dbe
000000b0: 76eb b3be 629c 46be 0c8b 13be 3397 9ebe
000000c0: 8701 2dbe 7dab bfbd 95ac 98be a337 aebb
000000d0: 8fc9 e0bd 4da5 84be 2dea 6ebd e10a 6cbe
000000e0: a1af 7abe 2feb cdbe 343e d2be 56a5 0dbe
000000f0: 889a 99be 23ca 8cbe 2a3d b3be 0bdc 87be
00000100: da2a 9f3e be78 5a3d 1973 36bc 4351 1e3e
00000110: e4a0 223c 53a8 33be 7831 613d 867c d3bd
00000120: 278e 9bbd 3884 8fbd ddd9 d43d 2e41 14bb
00000130: a1e2 12bd 7d2d 5f3d d8c5 1dbe 1070 74bd
00000140: f217 d7bd fb13 153e 5180 02bd a1e3 7c3d
00000150: 6c61 aa3d 4d3d 04bd 2271 6f3d 0059 c9bd
00000160: 6012 efbb 98c2 89bd 1aa4 5dbd dcd2 40bd
00000170: d74e 33bd 0cd4 d63d 494f a33d dadd 22be
00000180: 06ce aa3d 20b3 8dbe e1b5 2c3e 5e78 ecbd
00000190: 6320 05be 08ee 0cbe 7d4d 40be 8216 10be
000001a0: 6c56 773d 27d4 2abe 26da b43c 803a 833e
000001b0: 1c06 043e a91a 523e 7954 b3bc 07c2 7cbc
000001c0: e024 103d 093a 2fbe 028d 323e f141 cb3c
000001d0: c515 e8bd 8ebb 333c c204 fabd b191 9d3d
000001e0: f5a1 8b3d 9c5c 46be 3ca1 0fbd fa29 46bd
000001f0: 3041 0bbe 74bb 0f3e 1e93 09be 66b8 4ebe
0.20659725 0.009530659 0.35109115 -0.122146375 -0.013233851 -0.08615424 -0.17557316 -0.07999814
0.023798574 -0.19802651 -0.24441189 0.26103055 -0.15648432 0.072379604 0.120326705 -0.054042894
0.08782752 0.066974044 -0.00034827573 0.069938235 -0.27156204 -0.037116036 0.09480704 -0.033553906
-0.1621749 -0.15862045 0.043510895 -0.12221854 -0.18573686 0.001209917 -0.052712876 -0.05494696
0.28416723 0.027412375 -0.08342885 -0.09333862 -0.22755828 -0.16850895 -0.27425614 -0.25430673
0.052294217 -0.16417806 -0.00027085177 -0.27582613 -0.3514058 -0.19395593 -0.14408511 -0.3097473
-0.16895114 -0.09358881 -0.2981917 -0.005316691 -0.10975944 -0.25907364 -0.058328796 -0.23051025
-0.2448106 -0.40218493 -0.41063082 -0.13832602 -0.3000071 -0.27497968 -0.35007602 -0.26535067
0.3108738 0.053337805 -0.01113584 0.15460686 0.009926055 -0.1754468 0.054978818 -0.10326485
-0.07595473 -0.070076406 0.103931166 -0.0022621858 -0.03586066 0.05448674 -0.15407503 -0.059677184
-0.10502614 0.14558403 -0.031860653 0.06174052 0.08319363 -0.032285023 0.0584575 -0.098314285
-0.0072958916 -0.06726569 -0.054111578 -0.04707609 -0.04377636 0.104896635 0.07974107 -0.15904942
0.08340077 -0.27675724 0.16866256 -0.11546396 -0.13000636 -0.13762677 -0.1877956 -0.14071086
0.060385153 -0.16682492 0.022076678 0.2563057 0.12892956 0.20517983 -0.021890866 -0.015427119
0.035191417 -0.17111982 0.17436603 0.024811717 -0.11332277 0.0109700095 -0.12207939 0.07693804
0.06818 -0.19371265 -0.035065874 -0.048379876 -0.13599086 0.14036351 -0.13435027 -0.2018753

critic_net.dense1.weight f4 [8, 32]
00000000: a53a 44bd ab05 983c 4f1a 29bf 6e7b 0ebc
00000010: d246 adbd be87 d4bc 4a1b 9cbd 6c89 013e
00000020: 5d3d 8bbd d212 51bc ff43 f63d 2187 5dbe
00000030: 9185 b4be 34ee aa3d 5192 07bd 31d3 753d
00000040: 338e ca3d df77 2bbe ffd9 393e 6408 5f3d
00000050: 96b5 8e3c 39c0 71be 2cbb b73d 2770 423c
00000060: b9f3 07be e9e3 82be 244a b83d eb68 56bd
00000070: 068b 8bbd e7d0 413e fbb2 833d ac23 e43d
00000080: 8998 b83d 28fa 3ebe f26a 93be 6a0c ddbb
00000090: b2ec 8dbc f9a7 65bd db36 a4be b39c 0bbe
000000a0: 056a 963b d86f de3d 4459 b53d c606 97bd
000000b0: 0980 41be a7c8 6f3e ed45 88bd 23b4 e43d
000000c0: 0479 9d3d bd1c b03c 5fcc 513e e959 253e
000000d0: fbf6 fb3d 9986 bbbe 46c1 f2bc 8b04 2cbe
000000e0: 582f 6bbe 5f72 643e 28fb 893c 5789 64be
000000f0: 82de 11be fb35 b93e 4b5b 513e 945f 6d3c
00000100: d963 933d 0371 2c3e f15b 2dbf aac0 183e
00000110: cafb 403c ce3b 2e3e 31cd b0be d27c f63d
00000120: 13d1 013e a4b6 723d 6334 99bd 78ed dbbd
00000130: ee34 33be 4836 903e 81df 7d3d 731b 3f3e
00000140: 1836 b23d a637 2abd cdcd b53e 0e4d bfbd
00000150: 22d8 a2bc b913 abbe 9b0b 20be 39dd 07be
00000160: 1f2d 4dbe beb4 5e3e ab6e 3a3e 4a15 51bd
00000170: 3340 58bd 6daa c93e 3e53 e0bd 2320 88bc
00000180: 3d0d 4fbe 4f6f c73c 75cb f9be ec9b 04bc
00000190: ff09 ca3d 5e4e 6f3d 1da1 d3be 032f b23d
000001a0: da2e 07bd 1681 d63e c63b ac3d 793a 74be
000001b0: 5d5e 9abe 9374 cb3e 43fa 68bd 9479 943e
000001c0: bf8f 2c3e ae29 1e3e 22de 733e c49b 8f3e
000001d0: 95de d53d 9d5d c2be 59d2 05be 7f9b 95be
000001e0: 9d65 c5be 444e 88bd 1a59 bd3d 60ff ad3d
000001f0: dac0 5abd 28a5 dc3e c739 77bd 355f da3b
00000200: 653c 05be 335d db3d 95aa 9a3e 6607 273e
00000210: b69d 5a3c 622f dd3e bb50 9d3d a2d1 123e
00000220: 46d9 f73d 61be 8dbe 5a24 1cbe 93ab 2abc
00000230: 2ca2 febd e32a d53d dd4a 60bd b4e2 12be
00000240: 3cd6 263e 08f1 913d 108b 5a3e ef98 5b3c
00000250: a7cc 053d 1fda 533d 55ab 133e 787a 94bd
00000260: b6db ec3d 89fc 383e a9ec 5ebc 4267 2bbd
00000270: bf4d 923d c7cb e2bd a66e 97bd 046a cd3e
00000280: 9234 29be c62c b73c 5e36 04bf 6e20 6c3e
00000290: 0f11 1bbe c872 9a3d 02af 413d 89e7 49bb
000002a0: 32c4 21be 32bd 233e 3cab 883c c72a 63be
000002b0: 3e30 abbe a158 ad3e 961e bc3d 66a7 5c3d
000002c0: 373e 91bd cbf8 83bd 5acf d23e c90c 023e
000002d0: e849 f43d 5819 b4be 593e eebd 2da8 ecbd
000002e0: 35e5 aebe 0cd8 32be a26f 363e fe04 62bd
000002f0: c009 07be 57f0 443e 21d2 623d d0d2 a93d
00000300: 8adb 483d ccb9 a23d b0f6 903e c70f 3cbe
00000310: 3a26 4f3e f9f5 9ebe 440c c83c 1da6 2ebe
00000320: 5cad cbbc 3707 01bd b3f8 3bbe 2bdc 703d
00000330: a27e e83e eab0 32be 2763 afbd d235 8ebc
00000340: d32e 8c3d ed89 323d 6e6a 18be e210 3ebe
00000350: 2583 4cbd e947 73bd 1f8c 58be 8208 19be
00000360: 2267 a1bc ade8 823e d016 a0be 7c16 ccbd
00000370: 8098 a13c 91e2 95be 6618 973d f32f 3e3e
00000380: c50a 4f3e 1f88 64be 0071 37bf 6b01 edbd
00000390: 8b40 02bd 5371 8d3d 42e5 55be 62cb 9cbe
000003a0: 01b8 c73c 0a6f c93e b308 f03d 9545 90be
000003b0: 4dd0 6fbd da58 b83e 61ce b53d f6ca 8b3d
000003c0: f097 643d 4712 0e3e 5512 c43e b4cb 423e
000003d0: 6fdf e6bd 003b dfbe 664f fbbd 0955 1bbe
000003e0: 6462 7fbe 4d10 103e b6cc bf3d e42b 803d
000003f0: 5fa7 ec3d 9428 6a3e 7b8f bdbd ca2f 0a3e
-0.04790749 0.01855739 -0.6605577 -0.00869642 -0.084607735 -0.025943633 -0.076223925 0.12650079
-0.067988135 -0.012760835 0.12024688 -0.21633579 -0.35258153 0.08346215 -0.033098523 0.06001586
0.098904036 -0.16744946 0.18149565 0.05445136 0.017420571 -0.23608483 0.08971247 0.0118675595
-0.13276567 -0.25564507 0.08998516 -0.05234615 -0.06813626 0.18927346 0.06430622 0.11139616
0.09013469 -0.18650115 -0.2879253 -0.0067458646 -0.01732478 -0.056068394 -0.320731 -0.13633995
0.004590275 0.10861176 0.08854917 -0.07374339 -0.18896498 0.23416387 -0.06653962 0.11167171
0.076890975 0.021498078 0.20488118 0.16147579 0.12302967 -0.36626127 -0.029633176 -0.16798608
-0.22967279 0.22309254 0.016843393 -0.22318016 -0.14245036 0.36173996 0.20444982 0.01448812
0.07196779 0.16839986 -0.67718416 0.14917246 0.011778781 0.17015001 -0.3453155 0.12035526
0.12677412 0.05925621 -0.07480695 -0.10738653 -0.1750066 0.28166413 0.061980728 0.18662815
0.08701724 -0.041556977 0.35508576 -0.09340869 -0.01987845 -0.33413485 -0.15629427 -0.13267983
-0.20036744 0.21748635 0.18206279 -0.051045693 -0.0527956 0.39387837 -0.10953377 -0.016616886
-0.20219894 0.024345068 -0.48788038 -0.008093815 0.09865188 0.058424346 -0.41333857 0.08700373
-0.033003666 0.4189536 0.084098384 -0.2385043 -0.30150118 0.39737377 -0.056879293 0.28999007
0.1685171 0.15445587 0.23815206 0.28048527 0.10442845 -0.37962046 -0.13068523 -0.29220197
-0.38554087 -0.06655553 0.092455104 0.084959745 -0.053406574 0.43094754 -0.060357835 0.0066641816
-0.1301132 0.10711136 0.3020827 0.16311416 0.013343265 0.43200213 0.07681414 0.14337781
0.121019885 -0.2768431 -0.15248242 -0.010416883 -0.124332756 0.104085706 -0.054758895 -0.14344293
0.16292661 0.07126051 0.2134211 0.013403161 0.032665875 0.05172169 0.14420827 -0.072499216
0.11565344 0.18065085 -0.013606229 -0.04184652 0.07143735 -0.11074024 -0.073941514 0.40119946
-0.1652396 0.022360217 -0.5164546 0.23059246 -0.15143226 0.07541424 0.04728604 -0.0030808172
-0.15797499 0.15990141 0.016683213 -0.22184287 -0.33435243 0.3385668 0.09185521 0.05387058
-0.07091945 -0.06443938 0.41173822 0.1270019 0.11928159 -0.35175586 -0.116329856 -0.115555145
-0.34159246 -0.17465228 0.17816022 -0.055180542 -0.13187313 0.19232307 0.055376176 0.082921624
0.049037494 0.07945594 0.28313208 -0.18365394 0.20229426 -0.31047037 0.024419911 -0.17055555
-0.024862938 -0.03150102 -0.1835659 0.05880372 0.45409113 -0.174503 -0.08563834 -0.017359648
0.068448685 0.043588568 -0.1488435 -0.18561128 -0.049929757 -0.05939475 -0.21147202 -0.14944652
-0.019702498 0.25568143 -0.31267405 -0.09965226 0.019726038 -0.2927442 0.073777005 0.18572979
0.20218952 -0.22317551 -0.716568 -0.11572536 -0.031799834 0.069063805 -0.20888236 -0.3062392
0.024379732 0.3934253 0.11720409 -0.28178087 -0.05854826 0.36005288 0.08877254 0.06825821
0.05580896 0.1387416 0.38295236 0.19023019 -0.11273085 -0.435997 -0.122710034 -0.15169157
-0.24939877 0.14068718 0.093652174 0.062583715 0.11555361 0.22867042 -0.09255882 0.13494793

critic_net.dense1.bias f4 [8]
00000000: c880 b23d 530f afbc bb8c 6f3d 0684 f03d
00000010: d77a 7c3a 22d9 d43d 106b abbd 4602 babd
0.08715969 -0.021369612 0.05848382 0.117439315 0.00096313417 0.10392977 -0.0837003 -0.09082465

critic_net.dense_out.weight f4 [1, 128]
00000000: a7e5 67be 8d2d c73d ab4a efbd 2f59 b6bd
00000010: 6216 af3d 3b1e 40bd 1736 073e dca8 feba
00000020: e49a 33be 5e66 2f3d 81cc 0fbe d971 1a3b
00000030: c371 ce3d 5284 e2bd d0fd cc3d 119f 15bd
00000040: 8f5b 5abe e259 a0bc de2d d7bd 6a8c 3abd
00000050: 3ea5 953d 7eb2 9bbd f6cf c23d 7c32 9f3c
00000060: 3cd0 65be c6f9 66bd 33a3 f0bd 3a55 84bd
00000070: cb38 9f3d 3e65 dfbc 6c0a cb3d cea6 84bc
00000080: 04fa 01be 2b50 ef3b 4f34 46be 7f9b d0bd
00000090: b6a9 643d afda bbbd 018e 9a3d 90aa b03c
000000a0: e497 26be 55a5 6ebd 2198 ddbd 8eff acbd
000000b0: 4038 763d 7432 0abd 421f 5d3d 4a02 18bd
000000c0: b9f3 1abe 05b9 7fbc d94c bfbd b91c eebd
000000d0: 5246 843d 0664 bfbd f4f0 6bbc f328 58bd
000000e0: 7344 31be b8b4 96bd a3b9 0abe 8691 93bd
000000f0: 11fb 283d 5e7c c7bd c8ca 683d afdf 90bb
00000100: 9a4e 3cbe e9bf dfbd e373 11be 340b 9dbd
00000110: f5b0 693d 91e3 c5bd dbd4 f23b d60f e3bc
00000120: 0614 31be 9745 acbd 4724 39be 3b6c cfbd
00000130: 14d1 d33c ecad abbd be99 e83c 3a1d 1dbd
00000140: a982 2abe d0ca cfbd 6004 42be f181 19be
00000150: 74a4 363d b19c 19be 2d9e 03bd 2a56 90bd
00000160: 5399 5fbe bc82 d3bd c14c 19be 83e4 43be
00000170: f902 453d e44f c3bd 6817 81bd eca8 e6bd
00000180: 0e62 37be 719e efbd fe47 64be c69e 15be
00000190: 1768 ddb9 3217 0abd 3ca2 df3b a5b1 54be
000001a0: 7d21 f6bd 04cc fabd 4f14 90be 76cf c6bd
000001b0: 8acd 7e3c a024 e5bd a434 dfbc dbfc 4dbe
000001c0: 535a 4fbd 2e42 c1bd 46d1 b2be cb52 2ebe
000001d0: e4bf a83d 7571 28be 67e0 cfbd 9571 35be
000001e0: 2aba 88bd cc08 68be 1545 a9be fa4d c8bd
000001f0: 3daf b23d 4a90 0ebe a2f8 41bd 3c8b 89be
-0.22646199 0.09725485 -0.11684164 -0.08903729 0.08549191 -0.04690383 0.13204227 -0.0019428986
-0.17539555 0.042822234 -0.14042856 0.0023566394 0.10080292 -0.11060394 0.100093484 -0.03652865
-0.2132399 -0.01957411 -0.10506795 -0.045544066 0.07306908 -0.07602404 0.09512322 0.019433253
-0.22442716 -0.056390546 -0.11749878 -0.06461568 0.07774504 -0.027269956 0.09914097 -0.01619282
-0.1269303 0.007303258 -0.19355892 -0.101859085 0.05582591 -0.0917257 0.07546616 0.021565706
-0.16268879 -0.05826314 -0.10820032 -0.08447181 0.060112238 -0.033739522 0.053984888 -0.037111558
-0.15132035 -0.015608077 -0.093408294 -0.11626572 0.06458725 -0.0934525 -0.014400709 -0.052773427
-0.17311268 -0.07358688 -0.13547377 -0.07205491 0.04125506 -0.09740518 0.056834012 -0.0044211964
-0.18389359 -0.10925276 -0.14204364 -0.076681525 0.057053525 -0.096625455 0.0074106283 -0.027717512
-0.17292795 -0.08411711 -0.18080245 -0.10128065 0.025856532 -0.08382782 0.028393622 -0.03835795
-0.16651405 -0.10146105 -0.18946981 -0.14990975 0.04459043 -0.1500118 -0.03213327 -0.070476845
-0.21835832 -0.1032767 -0.14970686 -0.19130139 0.048098538 -0.09536722 -0.063032925 -0.11262688
-0.17908499 -0.11700142 -0.22293088 -0.14611349 -0.00042229958 -0.033713527 0.0068247598 -0.20770891
-0.12018106 -0.12245944 -0.28140494 -0.09707539 0.015551934 -0.11188626 -0.02724678 -0.20115988
-0.05062325 -0.09436451 -0.34925288 -0.1702377 0.08239725 -0.1644953 -0.10150223 -0.1771911
-0.06676133 -0.22659606 -0.33060518 -0.09780498 0.0872483 -0.1392223 -0.047356255 -0.2686404
