trained_models/15_lag_ppo_InvertedPendulum-v2_eps_0.75_critic.pth (torch, 175156 bytes, 33 tensors)

critic_net.lstm.weight_ih_l0 f4 [128, 4]
000000 11 d3 ef 3f c8 16 bd bf d0 78 4b 3f 35 0b f3 be
       1.8736287 -1.4772577 0.7948122 -0.47469488
000010 a4 2f 1e c0 93 66 40 40 fd 86 d0 bf 69 f3 9c bd
       -2.4716578 3.0062606 -1.6291195 -0.07663614
000020 4f 60 dc bf 58 34 8f c0 72 b9 43 c0 37 d5 8f bc
       -1.7216891 -4.4751396 -3.0581937 -0.017557723
000030 d7 3f e7 3f 00 e3 d3 bf c8 71 ad 3f 5b bf 9b 3e
       1.8066357 -1.655365 1.3550348 0.3041943
000040 e9 cb 32 be 8c 02 35 be 02 da b7 3e d0 51 77 bf
       -0.17460598 -0.17676753 0.35908514 -0.9660921
000050 e3 c8 13 40 db 93 72 40 6f 2d 4a 40 b5 2a 6e 3f
       2.3091362 3.7902744 3.159023 0.93033916
000060 91 d8 94 bf f6 91 a2 bf 05 53 ab 3e 02 f4 7a bd
       -1.1628591 -1.2700794 0.33461776 -0.06126786
000070 c2 67 a3 bf 5b eb 81 c0 ae 38 b7 bf b3 71 dd 3d
       -1.2766039 -4.05998 -1.4314172 0.10812702
000080 bb 21 4f 3d b3 1d 10 c0 0c e8 39 3f ab 30 00 3e
       0.050569277 -2.2518127 0.726197 0.12518565
000090 1c c9 1e c0 0f 69 97 c0 5f 61 0e c0 ba ad 04 be
       -2.4810247 -4.7315745 -2.224693 -0.12956896
0000a0 77 23 26 3f 04 05 4e c0 94 54 07 3f be 16 1a 3f
       0.64897865 -3.2190561 0.5286343 0.6019095
0000b0 24 34 92 bf 57 2b 48 c0 74 54 48 3f ba 2e 9e be
       -1.1422162 -3.1276453 0.78253865 -0.30895025
0000c0 41 0a 9e be 9e 8f 89 bf 41 a0 12 3f cd cf 83 bf
       -0.30867198 -1.0746953 0.5727578 -1.0297791
0000d0 d9 f7 07 3f f8 3f e2 bf fb a0 d6 be f8 91 48 be
       0.5311256 -1.7675772 -0.41919693 -0.19586933
0000e0 37 fd 97 3e 51 ff 39 bf bd 8f e3 3e 85 19 06 bf
       0.29685375 -0.72655207 0.444456 -0.5238269
0000f0 2d a5 19 c0 c5 53 9c 3f 57 d9 d2 bf 7e 68 e7 bf
       -2.4007065 1.2213064 -1.6472577 -1.8078763
000100 22 93 21 3c e6 5d 2d bf b9 fa d4 3d be c0 26 bf
       0.009861739 -0.677214 0.10399384 -0.6513785
000110 db 28 01 bf c4 33 5d 40 90 c8 b8 3f 93 65 32 bf
       -0.50452965 3.4562845 1.4436207 -0.6968624
000120 6b 82 89 3e 27 14 1e 40 9d 9c 8c 3f 1d 35 b4 bf
       0.26857314 2.46998 1.0985295 -1.4078709
000130 4f a9 35 bf 5f 7e 2c 3e 91 c1 4f 3e 1c a7 7e 3d
       -0.7096147 0.16845082 0.20288683 0.062171087
000140 28 e9 b1 3c 51 da ac 3f b1 54 bf 3f 96 19 13 bf
       0.021717623 1.3504125 1.4947721 -0.57460916
000150 c4 e8 19 bf 89 9c 0a c0 01 a4 33 bf fe 99 fd be
       -0.601208 -2.1658041 -0.70172125 -0.4953155
000160 b4 22 bb 3f 36 c9 13 c0 ca 7d 95 3f 19 05 fa 3e
       1.4619966 -2.309156 1.1679013 0.48832014
000170 62 84 80 bd 15 cc bd 3d 03 db 23 3f 09 08 a2 bd
       -0.0627525 0.09267441 0.6400606 -0.07911689
000180 d0 9e 7e 3f fd 6a e2 3f 74 d9 43 3f b3 ac 53 3e
       0.9946108 1.76889 0.7650368 0.20671348
000190 aa ec 11 3f d8 7f f2 3f 01 93 66 3f 81 73 d9 3e
       0.57001746 1.8945265 0.9006806 0.42470935
0001a0 5d 59 a8 3e 47 7d 42 3f ad 56 d2 3e c1 7c d5 bf
       0.3288068 0.7597241 0.41081753 -1.6678697
0001b0 83 ef c0 bf eb 07 13 3e 3b a5 cd bf eb 03 05 c0
       -1.5073093 0.14358489 -1.6066049 -2.0783641
0001c0 80 85 cd 3e 45 de 6a bd aa 4a 9a 3d 43 e3 e2 be
       0.40140915 -0.05734088 0.07533772 -0.44314012
0001d0 59 88 0c c0 1c d9 82 c0 eb 02 10 c0 6d 16 19 bf
       -2.195822 -4.0890026 -2.250178 -0.59799844
0001e0 13 8c e7 3e 4a eb 18 be a4 dd ac 3e de 59 0d bf
       0.45224056 -0.14933506 0.33762848 -0.5521525
0001f0 31 fe 35 3f 41 ae c2 3f cb ea 2c 3f f3 f3 77 bf
       0.7109099 1.5209428 0.67545766 -0.9685661
000200 aa d7 af 3e e2 d0 82 3e 7f da ae be 1f 1e 5c 3e
       0.34344226 0.2554999 -0.34151074 0.21495865
000210 c0 d0 a1 bd 22 57 40 be a8 c9 60 bc 19 38 aa be
       -0.07901144 -0.18783239 -0.013719954 -0.33245924
000220 ca 34 93 3e 61 b5 39 3f 48 f9 20 3e 38 c7 04 3f
       0.28751212 0.7254239 0.15720093 0.51866484
000230 25 93 26 bd 3c f0 e3 3d 58 e9 cf be 63 bd 66 3e
       -0.04066767 0.111298054 -0.40607715 0.22533183
000240 97 41 db be 8f 4e 23 bf 03 d9 d6 3e be 54 bc be
       -0.4282348 -0.63791746 0.41962442 -0.36783403
000250 cf 4d b7 be 20 54 4c bf d5 48 c2 be 3b 60 b1 be
       -0.3580155 -0.79815865 -0.3794619 -0.3464373
000260 fe 0e 6c bf 25 b7 c8 3e 0d 8b 36 be 2f de c4 3e
       -0.92210376 0.39202228 -0.17826481 0.38450763
000270 5e 02 4b 3f 9e 1a 84 be 3a 7f 98 3e 64 6e 04 bd
       0.7930049 -0.25801557 0.29784566 -0.03233184
000280 18 f9 63 3e a7 9f 24 3f a5 83 c8 be 7f 98 d6 3e
       0.2226299 0.6430611 -0.39162937 0.4191322
000290 ae f6 b1 3c 07 8a 50 3d a7 b8 8a 3d 10 d0 02 be
       0.021724071 0.050912883 0.06773501 -0.12774682
0002a0 4e 5d 76 be b6 98 88 3e 9b 7e 88 3a a8 13 b4 bd
       -0.2405903 0.2667901 0.0010413708 -0.08792812
0002b0 9d c3 e0 be 62 52 4e 3e 59 44 51 3e ec dc d6 3d
       -0.4389924 0.20148614 0.20436229 0.10491356
0002c0 7e 5d 1e bf 70 62 c3 be 7e 5b b2 3e 4b 0c 1f 3d
       -0.6186141 -0.3816104 0.34835428 0.038830083
0002d0 0b 32 94 3e 81 15 4a 3f ec 57 00 3e f2 02 82 3e
       0.2894443 0.7893906 0.1253354 0.25392872
0002e0 63 ea 0f 3f be 6c df be 2c f3 06 3e 37 a6 96 3e
       0.5621702 -0.4363765 0.131787 0.29423687
0002f0 35 50 42 3d 35 84 c9 bd 67 17 d8 3e fe 95 c7 bd
       0.047439773 -0.098396696 0.42205355 -0.097454056
000300 85 a0 05 bf 7d 39 39 bf eb cc 9e 3e 38 c3 d7 be
       -0.5219806 -0.72353345 0.31015715 -0.42141128
000310 f6 ce 42 be af 5a 92 3f f1 a1 7a be 4f dd d3 3c
       -0.19024262 1.1433924 -0.24475838 0.025862364
000320 f6 4b 8b bd 66 ea 06 bf c7 2d 87 be 75 e7 93 3e
       -0.06801598 -0.52701414 -0.26402113 0.28887525
000330 e1 43 05 bf a7 60 21 3e c5 65 01 be 38 8d d7 3d
       -0.520567 0.15759526 -0.12636478 0.10524982
000340 f7 15 02 3d 8c b4 3a bf 94 42 25 3d f5 06 70 be
       0.03175923 -0.7293174 0.040346697 -0.23440154
000350 c7 99 75 be 3c 78 2c bf 6e a2 f3 3e fc 67 e0 be
       -0.23984443 -0.67370963 0.47584862 -0.43829334
000360 3f ce 59 3e 9e 3a 09 3f 1b 75 b6 be 4f 81 9e 3e
       0.21270083 0.5360507 -0.3563622 0.3095803
000370 31 f6 92 be 27 2f 37 be 5d 58 0a 3e 40 db 0c 3e
       -0.28703454 -0.17889081 0.1351027 0.13755512
000380 9c 30 af 3c b5 88 42 3f 26 91 58 3e 72 3b 42 bf
       0.021385483 0.7598985 0.2114912 -0.75871956
000390 6d a1 a6 be 7f a9 86 3e 4b 36 88 be 89 8f ff be
       -0.32545033 0.2630119 -0.26603922 -0.49914196
0003a0 72 8f 1f bf be ad 84 bf 04 72 21 be 55 cf ff be
       -0.62328255 -1.0365522 -0.1576615 -0.4996287
0003b0 4d 00 2d 3e dd 7f af be 0b 48 f8 3e 36 00 44 bc
       0.16894646 -0.3427724 0.48492464 -0.011962941
0003c0 fb 70 01 3f 0f 80 e6 3e 57 6c 1a 3c be 1b ea bb
       0.5056302 0.45019576 0.009425244 -0.0071444204
0003d0 3f fa d0 3e 32 4e 87 3f a2 bd 30 3f cb b0 d7 3e
       0.40815923 1.0570738 0.69039357 0.4212707
0003e0 af 8e 89 be c8 40 a6 be 57 7e 8f 3e 3f 09 90 be
       -0.2686667 -0.324713 0.28026077 -0.28132054
0003f0 3b 5d 99 3e c9 54 58 3d a1 82 cc bd de 04 09 3f
       0.29953942 0.052815232 -0.09985853 0.5352305

critic_net.lstm.weight_hh_l0 f4 [128, 32]
000000 0e b7 49 3d 91 16 09 be 41 69 c4 3d 5a 61 f1 3d
       0.04924684 -0.13387515 0.09590388 0.117861465
000010 4b 44 48 bb 1c 49 2b 3e f7 12 4e 3c 79 6e 52 bd
       -0.0030558284 0.16727108 0.012577764 -0.051374886
000020 bd bf 86 bb 3e b2 23 3c 2c a4 b2 3e 3a b4 f6 bd
       -0.0041122125 0.009991227 0.34890878 -0.12046094
000030 ec fa 89 be dc 90 40 3e 01 ee 85 bd f7 3e 99 bd
       -0.2694925 0.1880526 -0.06539536 -0.07482713
000040 ba 41 45 be e7 27 43 3c 45 f1 31 be ab 3a b5 bb
       -0.19263354 0.011911369 -0.17377193 -0.0055306754
000050 c1 54 42 be fb c5 98 3e 69 4b e2 bd d5 ce 73 3d
       -0.18977644 0.29838547 -0.110495396 0.059523422
000060 27 b0 1b 3c e2 f2 8a bd 04 96 aa ba 4b e2 a0 bd
       0.009502447 -0.067846075 -0.0013014679 -0.07855662
000070 42 8b 2e be 31 ac 7a bd de 6f 4a be e4 31 9b bd
       -0.1704531 -0.06119937 -0.19769236 -0.07577875
000080 b1 36 b5 3c f3 d6 39 be 75 ef 57 be 78 78 07 be
       0.022120805 -0.18148403 -0.2108744 -0.13229549
000090 46 56 36 3c 2c de 99 3e b9 eb 37 bd c7 f8 3a 3e
       0.011128968 0.30052316 -0.044902537 0.18258964
0000a0 89 2b 8b be f5 50 58 3d 7a 91 1b 3e 38 ed 3f 3d
       -0.27181652 0.05281158 0.15192214 0.04685709
0000b0 d1 a4 3c 3d f9 bf 84 3d bc 25 08 be 10 b1 41 3e
       0.04605562 0.064819284 -0.13295645 0.189152
0000c0 0b bf 03 3e 44 e7 2b be 51 d0 ae be 96 f8 44 be
       0.12865846 -0.1678744 -0.34143308 -0.19235453
0000d0 46 ef 0a be e8 32 11 3e 6b ab 76 be 44 d3 28 be
       -0.13567838 0.14179575 -0.24088828 -0.16486841
0000e0 43 01 60 be da 6f 11 bd 22 3d b7 bc 60 45 20 be
       -0.21875481 -0.03550706 -0.022368018 -0.15651464
0000f0 f0 c8 4b bd 26 f9 0c bd a0 d0 8c bd 7e d6 f1 bd
       -0.049752176 -0.034417294 -0.068757296 -0.11808489
000100 7d 97 c3 3d ed 71 5d 3e 81 a2 8d be 24 e1 3f be
       0.095503785 0.2162549 -0.27663043 -0.18738228
000110 f4 77 b1 bd 83 e7 5b bd 6a 61 94 be 5c fd 85 3d
       -0.08665457 -0.053687584 -0.2898057 0.06542465
000120 2f e5 8c 3e ee b0 09 3e b4 ff 05 3e 89 d9 84 3d
       0.27518603 0.134464 0.13085824 0.06486804
000130 4e ee e6 3d 7b 9c 9c 3e da 6b b9 3d 12 18 1b 3e
       0.11275922 0.30588135 0.09053774 0.15145901
000140 c1 88 04 be bf 6f ec 3e 57 3d 9d be b6 ff 6d 3c
       -0.12942792 0.46179006 -0.3071086 0.014526298
000150 b8 f0 86 be 49 73 07 3e d4 e0 8e 3d 9d f3 94 3e
       -0.2635553 0.13227572 0.06976476 0.29092112
000160 f5 fd 7c 3e aa 41 32 be be 0d 4d 3e 3f 78 29 be
       0.24706252 -0.17407861 0.20024773 -0.16549776
000170 bf 77 de be d8 23 80 3e 4f 8d 0f be 38 be 1c 3e
       -0.43450734 0.25027347 -0.14018749 0.15306938
000180 eb ae be bd aa f9 f4 3d d6 4c 34 be c6 78 56 bd
       -0.09310707 0.11961682 -0.17607436 -0.052361272
000190 2d 3e bb be 59 56 43 be 4c ab c2 bd e8 c5 57 be
       -0.36570874 -0.19075908 -0.095053285 -0.21071589
0001a0 5d 26 f2 bc 80 5f b2 3d ba d0 7a 3c 6f 7b e6 3d
       -0.029559309 0.087096214 0.015308553 0.11254012
0001b0 36 39 35 bd 2d e9 9b 3e ad 2b 21 3d ac 8d b5 bd
       -0.044244014 0.30451337 0.039348293 -0.088649124
0001c0 b3 1b 48 bc 8a 74 18 3e b3 cc 4e bd 90 a8 31 be
       -0.012213635 0.14888206 -0.050488185 -0.17349458
0001d0 23 c8 67 be 11 b5 0c 3d e3 e6 4b 3e f8 82 13 3e
       -0.2263494 0.034352366 0.19912295 0.1440543
0001e0 23 dc b0 3d e5 ac 5d be b0 2a 61 3e 80 06 75 be
       0.08635738 -0.21647985 0.2198894 -0.23928261
0001f0 d1 77 9b bd 74 19 84 3e 43 b3 21 be b7 f3 16 3d
       -0.075912125 0.2580067 -0.15791039 0.03685352
000200 e3 4d a8 bd cd fe e7 3c d5 c8 5c be 60 08 a4 3d
       -0.08217981 0.02831974 -0.21560986 0.0800941
000210 0b 89 ba 3d 8c dc 8f 3e 7f 72 f4 3d 74 47 99 3d
       0.0910817 0.2809795 0.11935901 0.07484332
000220 09 6a 27 3e 87 ec 9c bd 02 dc 81 3d de cc bf be
       0.16349043 -0.076623015 0.06340791 -0.3746099
000230 9b a4 c9 bc 06 1e c1 bd bb 28 91 3d 35 6b a3 3d
       -0.024614623 -0.09429555 0.07087847 0.079794325
000240 b0 40 11 3e e3 4e 05 bd 55 a5 26 be 66 e3 92 bd
       0.14184833 -0.032545935 -0.16274007 -0.07172279
000250 22 0d 35 3e 87 40 64 be f1 c5 18 3e 01 cd 6f bc
       0.17680791 -0.2229024 0.14919259 -0.014636279
000260 6a 93 48 bd ef ff 80 3e dd fb db bd 13 df 22 be
       -0.04896871 0.25195262 -0.107413985 -0.15905409
000270 45 3c 3c 3e e8 eb bc bd f9 92 62 bd 8d 1b 91 3e
       0.18382366 -0.09224683 -0.055315945 0.28341332
000280 8a a8 01 be 84 da 01 bd d5 ca f7 bc 30 0a 9e bd
       -0.12661949 -0.031702533 -0.030248085 -0.07716787
000290 bd 17 96 bd 86 57 0f 3e 23 78 94 3d 42 9b 5d 3d
       -0.073287465 0.13998231 0.07249477 0.054103144
0002a0 5b 54 09 bd 03 71 ca bd 6d 50 18 3e 0a f7 1e 3e
       -0.033527713 -0.098848365 0.1487443 0.15523925
0002b0 92 f5 50 be c6 75 27 3e be 7f 45 3e df fa 12 3e
       -0.20406178 0.16353521 0.19287011 0.14353512
0002c0 2f b4 1d bd 34 38 06 3d f2 bb cf 3b a8 b5 14 be
       -0.038501915 0.032768443 0.0063395435 -0.14522421
0002d0 7f cb 61 be 13 17 54 3e 27 a3 e2 3d 85 d8 91 3d
       -0.22050284 0.20711927 0.11066275 0.07121376
0002e0 53 8b 70 3e 7a 60 6f be b1 cb ef 3d 68 e1 9b be
       0.23490648 -0.23376647 0.11708773 -0.3044541
0002f0 4c 88 65 be 12 de e0 3d 5a a1 96 bd 2f fa cd bd
       -0.22415274 0.109798566 -0.07354994 -0.10057484
000300 e3 c8 3b 3e 32 d0 eb bd 6d 0a e8 bc 84 a7 09 bd
       0.18338351 -0.115143195 -0.028325284 -0.03360702
000310 1c 6f 81 3d 08 2a 39 3e b2 45 0c be 68 a2 87 3d
       0.063200206 0.1808244 -0.13698462 0.066227734
000320 63 34 ef 3d 70 fe 66 3d 6f c6 be 3e c7 c7 87 3c
       0.11679914 0.056394994 0.37260768 0.016574753
000330 fe d8 43 3d 62 cc 52 bd df ab 98 bd 13 65 d1 3d
       0.04781436 -0.051464446 -0.07454657 0.102243565
000340 c3 98 06 be 40 d2 df 3d 0f a8 6f be b3 a7 6c bd
       -0.13144211 0.10928774 -0.23403953 -0.057777118
000350 5b 2e 20 bd c3 cc 08 3e 21 58 c4 bc a7 4f 98 bd
       -0.039106708 0.1335936 -0.023967804 -0.074370675
000360 71 98 53 3c 1b ad 5c be 68 84 19 be 6e c7 48 be
       0.012914763 -0.2155041 -0.14991915 -0.19607326
000370 fa 62 a8 3d 8b 7c 10 3e 65 92 ae 3d ed 1b 2e 3c
       0.08222003 0.1411001 0.08524016 0.010626775
000380 0a 44 af bd 60 a5 b6 3e 28 54 05 3d 23 b6 d6 3d
       -0.08557899 0.35673046 0.03255096 0.104839586
000390 0e 38 6e be 21 86 2c 3d 28 ca de be 37 33 0d bd
       -0.2326357 0.042120103 -0.43513608 -0.03447267
0003a0 2b 0c 46 3e 3d 54 d6 bd 09 7c 02 bc bf c5 03 3e
       0.19340579 -0.10465286 -0.007964143 0.12868403
0003b0 2b 90 76 be 26 49 94 3e 9d c7 0e 3d 9f be bf be
       -0.24078433 0.28962058 0.034858335 -0.3745012
0003c0 5d ad 6c be 05 91 96 3e e7 fa 0d be 4e 0d 14 3e
       -0.23113008 0.29407516 -0.13865243 0.144582
0003d0 4b 2d 7e be 8c 87 f4 3d 0a 43 bb bd d1 54 4f 3e
       -0.24821965 0.11939916 -0.09143646 0.20247199
0003e0 79 c6 98 3e 8f 40 9a be 8e 64 6e 3d 4d e6 b0 be
       0.29838923 -0.3012738 0.058201365 -0.34550706
0003f0 13 ea 23 be ac e0 7d 3e 89 0a 86 be b3 97 bf 3d
       -0.16007261 0.24792737 -0.26179913 0.09355106

critic_net.lstm.bias_ih_l0 f4 [128]
000000 a5 26 d3 3d 96 96 bb bd 49 9d 0a 3e f9 b4 70 3d
       0.10310105 -0.09159581 0.13536562 0.05876634
000010 bf 72 b3 3d bf 4c 8e 3e d2 23 f8 3c 3c 70 1f 3f
       0.087621205 0.27792928 0.030290518 0.6228063
000020 87 f3 5d 3e 61 25 b8 3d 47 9e 7c 3e e6 29 92 3f
       0.2167493 0.089915045 0.24669753 1.1419036
000030 19 71 d4 3e 98 53 91 bd 58 07 1f 3f a3 40 c9 3d
       0.41492537 -0.07096022 0.6212058 0.098267816
000040 81 e8 38 3e 4b 87 38 3e 43 be d5 3e be af 1b be
       0.18057443 0.1802036 0.4174672 -0.15203759
000050 bd 85 f1 3d 28 21 50 3f ec 5e 49 3e 3d 71 e1 bd
       0.11793087 0.8130059 0.19665116 -0.110079266
000060 78 f6 d7 3e b4 39 ba 3e 94 02 24 3f db 95 e5 3d
       0.42180228 0.3637215 0.64066434 0.11210223
000070 45 48 ec bc 80 25 80 3d f1 7e 31 3d e5 be 8f 3e
       -0.028843055 0.062571526 0.04333395 0.28075328
000080 e5 3a 5f bd db 12 9c bc e4 b6 ea bd 1d 77 17 be
       -0.054499526 -0.01905196 -0.11460665 -0.14791532
000090 be a2 07 be 0f dc 02 be bc df 07 be 62 4e 81 bd
       -0.13245675 -0.12779258 -0.13268942 -0.063137785
0000a0 80 d4 e5 bd a8 3c 7b bd f2 fe 84 be 55 aa a3 be
       -0.11222172 -0.061337143 -0.25975758 -0.3196589
0000b0 f9 68 a5 be ea b8 d8 bd ad 1b 86 bd 8a b9 fc bd
       -0.3230665 -0.105821446 -0.065482475 -0.12340076
0000c0 2e c8 15 be 0c 26 b9 3c 1d a2 a6 be a0 d9 07 be
       -0.14627144 0.02260115 -0.32545558 -0.13266611
0000d0 a8 7d 28 be 09 ee aa bd 80 22 b5 bd f3 96 98 bd
       -0.16454184 -0.08346183 -0.08844471 -0.07450666
0000e0 7b 7d 51 be bf 82 dc be d0 da 3a be 9d c6 03 be
       -0.20458023 -0.430685 -0.18247533 -0.12868734
0000f0 81 14 21 bd d8 6b fe 3b e4 0e 86 be 9a 4d dd 3b
       -0.039326195 0.007764321 -0.26183236 0.0067536356
000100 e5 f5 d7 bc 90 57 ca bd f3 30 fe bd 43 44 0a 3d
       -0.026362369 -0.098799825 -0.1241168 0.033756506
000110 f0 a4 89 bd c3 d1 9c bd cf 5d 2b 3d 53 e8 db 3d
       -0.067209125 -0.076571964 0.04183751 0.10737672
000120 04 f3 0f 3d 98 06 99 bd 2c 5a 3a be a1 ad c7 3d
       0.035143867 -0.07471961 -0.1819846 0.09749914
000130 a3 3d 22 bc 73 4c 21 3e 10 22 f3 3c 96 08 35 bd
       -0.009902391 0.1575182 0.029679328 -0.04419764
000140 ac 10 b2 bd f0 cb ca bd 98 38 23 3e 51 5e 00 3d
       -0.08694586 -0.09902179 0.15939558 0.031339947
000150 b7 78 0d 3d 8d 3d 96 bd 8b 27 92 3d 88 f7 0a 3e
       0.03453895 -0.07335959 0.071364485 0.13570988
000160 41 22 be 3d 3c d6 1c bc fa a2 12 be b7 31 ad bc
       0.09283877 -0.009572562 -0.14319983 -0.02114187
000170 4f df d0 bd d5 09 e0 3d d1 4a 92 bd b9 ee 01 bc
       -0.10198843 0.10939375 -0.07143176 -0.007930451
000180 49 fe 97 bc 4b 5a fe 3d 48 de 94 3e 01 61 78 3e
       -0.01855387 0.12419566 0.29075837 0.24255754
000190 88 d8 06 bd 1c e6 58 3e 32 28 95 3e 83 7d c9 3e
       -0.032921344 0.2118153 0.2913223 0.3935357
0001a0 b2 3d 21 3e 3c a9 47 3e 89 f1 89 3e c6 30 7a 3f
       0.15746191 0.19498152 0.2694209 0.9773067
0001b0 19 3f 18 3f f7 cd 59 3d 7b ad 27 3f be 8c 89 3d
       0.5947128 0.05317494 0.65499085 0.067162976
0001c0 c8 c7 7c 3c a3 8e 69 3e f7 54 c4 3e 8a b6 2a be
       0.015428491 0.22808318 0.38346073 -0.16671196
0001d0 2f 40 aa 3d f9 d8 3b 3f 58 ef 86 3e a7 f8 c2 3c
       0.08313023 0.7337795 0.2635448 0.023800207
0001e0 82 f2 dc 3e 26 98 7f 3e c6 c3 71 3f 62 51 88 3e
       0.4315377 0.24960384 0.9443935 0.2662459
0001f0 72 e4 67 be db 3f f6 3c 7b 82 aa bd f5 7b 90 3e
       -0.22645739 0.030059746 -0.083256684 0.28219572

critic_net.lstm.bias_hh_l0 f4 [128]
000000 7f 6e df 3d ba 0a b1 3d 36 00 30 3e bb 75 ae 3e
       0.10909747 0.08644624 0.1718758 0.34074196
000010 2b c4 98 bb 25 5a a6 3e ea 8e cd bc e0 9e 0f 3f
       -0.004662057 0.3249065 -0.02509256 0.561018
000020 54 4d 19 bd 4c b4 ad 3e 9a 16 80 3e 24 33 79 3f
       -0.03742726 0.33926618 0.25017244 0.9734366
000030 a3 f4 04 3f 8a e0 c1 3d b8 da 3d 3f 42 0f 55 3e
       0.51935786 0.094666556 0.74161863 0.20806602
000040 31 1b bf 3c 5a 04 25 bd cc 75 c2 3e a6 36 1a be
       0.023328396 -0.040287353 0.37980497 -0.15059909
000050 8e 98 b0 3b b9 9a 4f 3f ce 98 3c 3e 1e 60 b7 bd
       0.0053892797 0.81095463 0.18417665 -0.0895388
000060 fc 65 a7 3e 08 a2 03 3f b5 9b 62 3f 08 2b 96 3e
       0.32694995 0.51419115 0.8851884 0.29329705
000070 7d 88 12 3d dd 3d 91 3e d6 b4 f7 bc 7c 64 01 3f
       0.035774697 0.2836751 -0.030237596 0.5054395
000080 e0 06 85 be 34 b8 5d be b5 17 6d be b3 e1 55 be
       -0.25981808 -0.21652299 -0.23153575 -0.20886879
000090 62 f6 ab be 48 bc ac bc df a1 4e be 31 07 69 be
       -0.33586413 -0.021085873 -0.20178936 -0.2275665
0000a0 ae ae 56 be 33 a1 ce bd fb b2 33 be f1 a3 d1 be
       -0.20965073 -0.1008934 -0.17548744 -0.4094539
0000b0 36 67 08 be 47 d8 65 bd d8 b3 50 be 78 d1 b0 be
       -0.13320622 -0.05611446 -0.20381105 -0.34534812
0000c0 d9 d7 5a 3d 08 f6 ce bd 04 53 e0 be 61 71 47 bd
       0.053428505 -0.101055205 -0.43813336 -0.04869211
0000d0 25 2a 80 b8 68 a1 99 be b6 1c 24 3d 81 68 d1 3d
       -6.111366e-05 -0.30005956 0.040066443 0.10225011
0000e0 c3 6c 9d be 05 17 92 be 16 71 d9 be 99 d3 eb bd
       -0.3074704 -0.28533188 -0.4246909 -0.115149684
0000f0 e6 1e 8f 3c b9 c6 8b bc 17 4f 96 bd 4a 94 50 be
       0.017470788 -0.017062532 -0.07339304 -0.20369068
000100 ac a0 2f 3b 6b 5d b8 3d 81 b9 b4 3b 2c d0 c1 3b
       0.0026798649 0.09002193 0.005515278 0.0059147086
000110 02 c9 94 3d ca 97 1f 3d 68 0e 81 3c 90 ce 0d bd
       0.07264902 0.038963117 0.01575394 -0.03462082
000120 72 ec c0 3d b8 17 e3 3d 7f 70 f4 3d 11 34 b4 bd
       0.09420098 0.11088508 0.119355194 -0.087989934
000130 2b 2c 26 bd 6c 86 12 3e 0b c1 86 bd 0e ad ed 3d
       -0.040569466 0.1430909 -0.06579789 0.11605273
000140 f3 b5 4e 3d 63 fb 0b 3e be 0a ec bd 3c a3 eb bc
       0.05046649 0.13670115 -0.115254864 -0.02876436
000150 30 c8 8f bd 40 24 9d 3d 87 25 42 3d 62 d1 97 bc
       -0.070206046 0.0767293 0.04739907 -0.018532459
000160 0a 4a ee 3d 55 36 a6 3d b8 20 1b 3e 18 28 c6 3b
       0.116352156 0.08115832 0.151492 0.00604726
000170 89 4d ee bd d3 a0 cd 3d ad 9e 95 bd 9f 65 a3 3a
       -0.116358824 0.100404404 -0.07305656 0.0012466199
000180 c3 49 dc 3d 3b 24 d8 3d 43 8c 7c 3e 36 b8 3e 3e
       0.107562564 0.105537854 0.2466288 0.18624958
000190 fe fb 43 be f2 9a 82 3e a9 79 88 3e 90 5f 15 3f
       -0.19139096 0.2550884 0.2665532 0.5834894
0001a0 12 07 9a 3d bf 4f 85 3e 7b a2 5e 3e dd 8c 76 3f
       0.0752088 0.26037404 0.21741669 0.9630869
0001b0 06 0f c4 3e 1f 2e 13 be fb d8 25 3f 72 f0 2a 3d
       0.38292712 -0.14373063 0.6478421 0.041733213
0001c0 09 fa 3b 3d ca 50 11 bd 4d 07 11 3f ce 79 a9 be
       0.04589275 -0.035477437 0.56651765 -0.33100742
0001d0 cf d9 5f 3d 1b f9 62 3f 77 99 99 3d a5 79 75 be
       0.054651078 0.88661355 0.07499974 -0.23972185
0001e0 3d ab 56 3e eb 84 cc 3e c5 41 67 3f bc 86 d3 3d
       0.2096376 0.39945158 0.9033473 0.10328433
0001f0 41 27 7f be 21 7d 84 3e 70 a7 87 bd 0f e7 04 3f
       -0.24917318 0.25876716 -0.06623733 0.5191507

critic_net.lstm.weight_ih_l1 f4 [128, 32]
000000 b6 60 45 3e 69 73 be be 55 3b 95 3c 68 90 a2 3e
       0.19275174 -0.37197426 0.018216768 0.31750798
000010 0d 95 4e be c4 39 2e bf 7c 09 83 3d 6d 07 a5 be
       -0.20174046 -0.68056893 0.063982934 -0.32232228
000020 18 32 86 be 69 29 56 3c 7f c2 a7 3e 5f b4 9f 3d
       -0.26210093 0.013071396 0.32765576 0.07798075
000030 71 d5 76 bd 4d 19 27 3d 68 05 57 be c9 df fc 3e
       -0.060262147 0.040795613 -0.20998156 0.49389485
000040 7c fc 7c bd 3e c5 fb bd 66 d1 d2 3e 9d ef 96 3d
       -0.061764225 -0.1229348 0.41175383 0.07369921
000050 8d d1 e2 3c b6 2b 03 bd f8 f7 87 be c8 04 84 ba
       0.027687812 -0.032024108 -0.26556373 -0.0010072226
000060 e5 cb 7a 3d 65 df 76 be 22 b3 df 3e 5c 1a ef 3e
       0.061229605 -0.24108656 0.43691355 0.46699798
000070 b1 dd d4 3d 5e a8 bc 3d 3e 40 ad bd 0d 94 5e be
       0.10393847 0.09211801 -0.08459519 -0.21736164
000080 da 68 35 bc d0 b4 cb bc 6e c8 89 be 5d 92 3d 3d
       -0.011072362 -0.024866492 -0.26910728 0.04628216
000090 ff 85 53 be 24 55 af 3e 59 16 5d 3d 1a 7d 9a bd
       -0.20656584 0.34244645 0.05397639 -0.075433925
0000a0 db 16 1e be d4 be 57 3e 0a f6 49 3e af 26 dc 3e
       -0.15438406 0.21068889 0.19722763 0.42998263
0000b0 db 24 17 3e f2 09 d5 3d 1a 40 c2 3c 10 57 a5 3c
       0.14760153 0.104022875 0.023712207 0.020183116
0000c0 bc 56 24 be b4 12 3f 3e 6b 54 4c 3d 3d 57 c2 bd
       -0.16048712 0.18659478 0.049885195 -0.09489296
0000d0 2c 2e 50 3d 9d 9a 8b be b5 e8 4a be f2 b4 6f bd
       0.050825283 -0.27266398 -0.19815333 -0.058522172
0000e0 d7 47 0c 3e 2b b1 cb bd 8f ee 5e be b4 ba f4 3d
       0.1369928 -0.099459015 -0.2177069 0.11949673
0000f0 05 07 13 be f4 ba bf 3d 84 84 d8 bd 28 3c 0b be
       -0.14358146 0.0936183 -0.1057215 -0.13597167
000100 db 41 1d be d4 0a e6 3e fd 21 a9 be 0c cc 69 3e
       -0.15357153 0.44930136 -0.33033744 0.22831744
000110 32 a5 86 3c 31 7c 00 3f e5 9a 06 3c 3d 28 e3 3d
       0.016436193 0.501895 0.008215641 0.11091659
000120 62 58 eb 3d 60 28 97 bd 4c 5f 4b 3e e0 38 46 bc
       0.11491467 -0.07380748 0.19860572 -0.012098521
000130 82 cd d7 3e e6 9f 61 3b 36 02 82 3e d4 10 6a be
       0.42148978 0.0034427582 0.25392312 -0.22857982
000140 04 ec c9 bd 70 c2 cf 3e d0 1f bf be 26 b7 58 3d
       -0.098594695 0.40578032 -0.3732896 0.05290904
000150 70 57 8a 3c 83 38 85 bd 6e ab 80 be 27 7f ed 3a
       0.016887397 -0.065049194 -0.2513079 0.0018119559
000160 e8 a7 bf 3d e0 c5 c4 bd 92 a1 04 bf f6 31 2b be
       0.093581975 -0.09608054 -0.51809037 -0.16718277
000170 cf 03 8b be fc 67 bb bc 57 d7 0a 3e 6b 95 ab 3e
       -0.27151343 -0.022876732 0.13558708 0.33512434
000180 36 b8 2d 3e bf 0f 87 bf f0 a5 d8 3d 51 a2 9f 3e
       0.16964802 -1.055168 0.10578525 0.31178525
000190 0f 96 99 be 4d f1 5c bf d0 08 c7 3e 32 29 6c bf
       -0.29997298 -0.86305696 0.3887391 -0.9225036
0001a0 ef 2f bb be 89 6c 9d 3e 94 78 ec 3e a1 cc 99 bf
       -0.36560008 0.30746868 0.46185744 -1.2015573
0001b0 4c cb 3b bf 70 4c 89 bd 3f 7b 35 bf 15 75 87 3f
       -0.7335708 -0.067040324 -0.70891184 1.0582606
0001c0 cc b9 f5 be a4 5e b4 be 09 76 16 3f ad 32 d5 be
       -0.47993314 -0.35228455 0.5877386 -0.41640225
0001d0 1f 12 df be 67 81 32 3f 9f 72 62 bd 99 e5 f2 3d
       -0.43568513 0.697287 -0.055285092 0.118601985
0001e0 c1 27 e8 3c 4c 65 23 bd 8b b3 77 3f 13 d2 74 3f
       0.028339269 -0.039891526 0.96758336 0.9563305
0001f0 64 2e 69 bd 31 7c a4 3e b6 0d 15 bf 7f 31 1f bf
       -0.056929007 0.32126 -0.58224046 -0.621849
000200 66 01 d9 3e e7 ee 42 3f 91 04 78 3f 4e c6 b8 3e
       0.4238388 0.76145786 0.9688197 0.36088794
000210 7b d4 c6 be 6f ad b1 3d c0 c4 c8 3d 0b b7 e0 be
       -0.38833985 0.08675658 0.09803152 -0.4388965
000220 be bc c6 be ef 5f 88 bf 45 df 8d 3e f9 d6 98 3c
       -0.38815874 -1.0654277 0.27709404 0.018657194
000230 0a c2 a5 be 0c 55 cb be 33 87 8c be 81 9a 7f be
       -0.32374603 -0.39713323 -0.274469 -0.24961282
000240 30 8c bc 3d e5 72 24 bf 04 51 a5 3e fb aa b4 bd
       0.09206426 -0.64237815 0.32288373 -0.088216744
000250 25 8b 0e bf bd 87 49 3e 28 77 ba be 7a d4 a5 be
       -0.5568107 0.19680686 -0.36419034 -0.3238867
000260 db b5 bc 3c 18 c2 5a bf 2c 81 ff 3e f1 65 fb be
       0.023035934 -0.85452414 0.49903238 -0.49101213
000270 13 38 62 3e ae 9b 82 bf 8c 42 a9 be 2d 6a 03 bf
       0.22091703 -1.020376 -0.33058584 -0.51333886
000280 c1 38 6e 3c 6a 1f 26 3f ce 77 9a 3d d3 61 6a be
       0.014539898 0.64891684 0.07542382 -0.2288888
000290 9c 3d b6 be 80 08 b3 be 21 29 0c bd 32 5e a4 be
       -0.3559388 -0.34967422 -0.03421891 -0.32103115
0002a0 74 05 d9 3d c2 45 b0 be a0 82 16 3e 3b 67 2b 3f
       0.10596743 -0.3442822 0.14698267 0.6695439
0002b0 fd 72 97 3e 9e 24 d1 3e 22 77 ec bd 4f 9a 77 be
       0.29579917 0.4084825 -0.1154616 -0.24179958
0002c0 45 1d 93 be e8 e8 af 3e f2 3f f0 be 0e 20 9e 3d
       -0.28733268 0.3435738 -0.46923786 0.07720958
0002d0 de a3 f3 be 4b 6d cc 3d 4d 37 f4 3d 5c af d1 bd
       -0.47585958 0.099817835 0.1192461 -0.10238525
0002e0 fa da 1e 3f 2c 3f fd be e8 64 15 be c6 d6 a2 3d
       0.6205288 -0.4946226 -0.14589274 0.07951121
0002f0 f8 50 83 be 64 7d 99 3e 7a 1e 0e bf ec fd b4 3e
       -0.25647712 0.29978478 -0.55515254 0.35349977
000300 b2 fc e8 be 39 80 30 be 1f 1e 6d be 38 92 f1 be
       -0.4550529 -0.17236413 -0.23156022 -0.4718187
000310 2d 0d 21 be e5 b7 b2 be 97 83 cd 3e 8c 0d b5 3e
       -0.15727682 -0.34905925 0.40139458 0.35361898
000320 cf b7 2a 3f c2 b9 19 3e 1e 5d 03 bf a8 46 b8 bd
       0.6668672 0.15012267 -0.5131396 -0.089978516
000330 7a 42 ae 3e ec b1 6e 3e d7 39 4c 3e 68 bf 91 be
       0.34035093 0.2331006 0.19943939 -0.28466344
000340 ab d9 9f be 27 1b ff 3e b2 36 37 bf 1f a0 9f be
       -0.31220755 0.49825403 -0.71567833 -0.3117685
000350 52 9a e8 be 01 cc 6c be 18 48 ea 3e f0 83 de 3e
       -0.45430237 -0.23124696 0.45758128 0.43460035
000360 69 e6 5d 3e 04 18 69 be c2 ae 9f be 44 a9 bc be
       0.21669926 -0.22763067 -0.31188017 -0.3684789
000370 7d a2 8a be 74 7a 0c 3f 9e 81 75 bd b9 12 f7 3e
       -0.27077094 0.5487435 -0.059938066 0.48256472
000380 48 03 1c bd 9a bc 1b bf fb 16 a6 be 5e 06 f9 bd
       -0.038089067 -0.6083466 -0.32439408 -0.121594176
000390 20 70 f7 bd 28 27 fa be d7 fc 12 3f 0e d7 96 be
       -0.12081933 -0.48858 0.57417053 -0.2946095
0003a0 c9 0e ac 3d c6 18 76 3e ec 1e 3e 3e 63 65 65 bf
       0.084012575 0.24032888 0.18566483 -0.8960783
0003b0 e1 87 73 3e 84 02 fc bd 76 91 c2 bc 91 18 f5 3e
       0.23782302 -0.12305167 -0.023751002 0.47870305
0003c0 a3 a9 d4 bc f8 18 8d bd 09 8a 26 bd 63 09 1a 3e
       -0.025959795 -0.06889528 -0.040658984 0.15042643
0003d0 d8 25 fb bd 23 e0 9e 3d d0 ce 0d bb eb 92 7b 3e
       -0.122630775 0.077575944 -0.0021638162 0.24567764
0003e0 99 b4 66 be 63 7f 11 be b2 f3 a5 3e 32 1d 0b 3f
       -0.2252983 -0.1420875 0.32412487 0.54341424
0003f0 58 22 4a 3c 0e 1b 16 3e 2f 70 51 bd 8f 12 9b 3d
       0.01233729 0.14658758 -0.051132377 0.07571899

critic_net.lstm.weight_hh_l1 f4 [128, 32]
000000 d9 4a d2 3d 38 5b 24 3d a2 89 9a bd 7e 9a 4b be
       0.10268182 0.040126055 -0.075457826 -0.19883153
000010 bc a8 04 be 62 19 4a be f0 da 9a bd 3a 37 40 3e
       -0.12954992 -0.19736245 -0.0756129 0.18771067
000020 5f 57 74 3c 61 5e f4 3d 4f 7f 09 3e 6c 08 9c 3d
       0.014913409 0.11932064 0.1342747 0.07618794
000030 32 80 84 bd ca 6b 2e be 76 cb 0e be b0 f6 1b 3c
       -0.06469764 -0.17033306 -0.13944802 0.009519264
000040 b9 0a db bc 7c 9e 7c bd b2 0c 4a 3e 4b a7 24 3e
       -0.026738511 -0.06167458 0.19731405 0.16079442
000050 98 b2 35 be 65 bc d5 bd c8 71 c6 bb 62 9e 76 bb
       -0.1774391 -0.10436324 -0.0060560443 -0.0037631025
000060 92 cb 45 be 0b 09 ae bb 89 0f 56 3c 49 bd 8c be
       -0.19315937 -0.0053111366 0.013065227 -0.27488163
000070 70 d6 46 3e 31 03 a7 3d be 0c 82 3d 77 f7 d2 3d
       0.19417739 0.081549056 0.06350087 0.103011064
000080 b6 66 cd 3b 89 a8 95 3d 11 1d 95 bd 09 75 8e be
       0.0062683476 0.07307536 -0.072809346 -0.27823666
000090 ab 13 bb 3d 72 e5 f3 be be 6f d3 3e f3 27 5e 3e
       0.09134611 -0.4763599 0.4129619 0.21694927
0000a0 d1 1d d4 bd b8 4b 75 bd 62 6f 41 3d b6 3e 75 be
       -0.103572495 -0.059886664 0.047225364 -0.23949704
0000b0 53 35 75 be 0e e4 f3 3d 2a ab c1 be d5 89 ac 3e
       -0.23946123 0.11908732 -0.378259 0.33698907
0000c0 15 ce 7a 3e 3b 72 02 bf 57 06 ba 3d 3b 8f 37 3d
       0.24492677 -0.5095555 0.090832405 0.04481433
0000d0 47 29 8b be 86 ad ae 3e 38 24 bd 3e 2b 07 44 3e
       -0.2717993 0.34116763 0.36941695 0.1914336
0000e0 da c2 04 3e e2 00 23 bd 53 75 e7 3d 8d 94 4d 3e
       0.12964955 -0.039795764 0.11301675 0.20076199
0000f0 07 14 a5 3e 37 d7 78 be d3 63 12 3f 31 91 98 3e
       0.32241842 -0.24300848 0.5718357 0.29798272
000100 de df 6e bd bd 63 66 be 0c 78 1f 3e c5 43 f9 3c
       -0.058318965 -0.22498985 0.15573138 0.030427823
000110 a2 fe e4 bc 23 28 a7 3d 3b 29 00 be 3f 2d 8d 3e
       -0.02795345 0.08161952 -0.12515728 0.27573583
000120 48 07 f1 bd 94 e6 27 3e 1e 72 0f be c9 e6 66 be
       -0.11768967 0.16396552 -0.14008376 -0.22548975
000130 44 69 93 bd fe 01 b6 bd bd 86 19 be b4 b6 07 be
       -0.07197812 -0.08887099 -0.14992805 -0.1325329
000140 f8 c1 d0 3d 91 ef c3 3c 68 d8 15 3e 9a 55 c0 bd
       0.101932466 0.023917945 0.14633334 -0.09391327
000150 db aa cb bd 37 be da 3d ee c1 6c be 59 3c 6d be
       -0.099446975 0.10680812 -0.23120853 -0.23167552
000160 7f e8 d4 3c 22 f9 c8 3d d9 27 53 3d 41 83 02 be
       0.025989769 0.09813143 0.051551674 -0.12745382
000170 05 f8 80 bd 1e 0d 18 39 7c 79 33 be 54 43 86 bd
       -0.06297306 0.00014500736 -0.17526811 -0.065558106
000180 54 f0 c8 be 41 e8 e6 bc 7b 2c 84 3e e0 8e 05 bd
       -0.39245856 -0.02818692 0.25815186 -0.03260696
000190 91 ce d7 bd 89 d0 8e 3e 02 97 45 be 69 19 8c 3e
       -0.10537446 0.27893475 -0.19295886 0.27363136
0001a0 e0 c2 03 bc c1 d8 d5 bc 79 ff b2 bd 40 ff 7e bd
       -0.008042067 -0.026104333 -0.08740134 -0.062255144
0001b0 d1 3c 90 3c 7a 27 a9 be b3 29 b4 bd f8 e7 12 be
       0.017607125 -0.3303793 -0.08797016 -0.14346302
0001c0 f6 f4 3b be d1 ab fa bc bb a3 28 be ce 9b 43 3e
       -0.18355164 -0.030599507 -0.16468708 0.19102404
0001d0 96 78 a3 bd 95 c8 13 3e 19 6e 00 3e 2b fb f2 bd
       -0.07981984 0.14431985 0.12541999 -0.11864313
0001e0 ec 0e 0a 3e cc 84 ef bd 0b 6a 87 3d 44 2a 91 3e
       0.13482255 -0.11695251 0.06612023 0.2835256
0001f0 4e 36 62 bd c1 bd 2c be c7 35 1f be 51 79 69 3e
       -0.05522757 -0.1686926 -0.15547858 0.22800185
000200 cb 18 32 3d 0a 8a 5c 3e dd 70 87 bd 73 24 c8 3c
       0.043480676 0.21537033 -0.06613324 0.024431443
000210 21 06 bf bd 81 bf d9 3d c1 12 9c 3c 4c 48 b4 3d
       -0.09327341 0.106322296 0.019051911 0.08802852
000220 8a 74 a2 bd 7a 20 1a 3e a8 f3 6d 3e 60 cc ba bd
       -0.07932384 0.15051451 0.23237479 -0.09121013
000230 75 f9 a2 bc 27 64 4a 3e af c9 79 be c2 e6 0c be
       -0.019894341 0.19764768 -0.24393342 -0.13759902
000240 b8 2d 14 be e4 35 71 3e 12 f9 1b 3d 40 81 40 be
       -0.14470565 0.23555714 0.03807933 -0.18799305
000250 68 c6 1b be 15 c7 f6 bd bd ff 24 3e c7 c7 e1 bd
       -0.15212405 -0.12049691 0.16113181 -0.11024433
000260 cd f3 85 be c5 5d c3 bd 42 e0 bb 3d 75 a7 72 3d
       -0.26162568 -0.095393695 0.09173633 0.05924173
000270 18 c6 c0 bd 4b cb 44 3e c7 07 ca 3d 64 d9 87 be
       -0.094127834 0.19218175 0.09864765 -0.26533043
000280 f1 95 d7 be ed 66 3b be c9 5a 41 3c 8f 2a e1 be
       -0.42106584 -0.18300982 0.01180143 -0.43977782
000290 e8 fe 97 bd 65 41 8d bd 05 ca cb 3d 79 fa f4 3e
       -0.074216664 -0.06897239 0.099506415 0.47847345
0002a0 42 c2 c9 be e5 cd 33 3e 62 a5 c4 be 19 e0 6e be
       -0.3940602 0.17559011 -0.38407427 -0.23327674
0002b0 f3 3c 00 bd 92 a0 12 bf 1b 9d db be 4a e8 b0 3e
       -0.031308126 -0.5727626 -0.428933 0.34552222
0002c0 a5 b7 19 3e ee f8 19 be 0a d9 af bd 20 2a 4d 3c
       0.15011461 -0.15036365 -0.08586319 0.01252225
0002d0 56 ce 03 bf ae dd c9 3e da d8 71 3e d2 50 aa be
       -0.5148672 0.3942694 0.23617879 -0.33264786
0002e0 4b 34 d5 3e 2b 3e 0d be b7 81 78 bd 41 66 07 3e
       0.4164146 -0.13793246 -0.06067058 0.132226
0002f0 23 44 4a 3e 36 26 bc bd b4 d6 88 bd 0e 20 91 3e
       0.19752555 -0.09186976 -0.06681576 0.28344768
000300 99 10 12 bf f4 14 81 be 34 f6 86 3e 20 a8 80 be
       -0.57056576 -0.25211298 0.26359713 -0.2512827
000310 86 2d b7 3d 36 8d a2 3e 40 dd 65 3e 93 cb d2 3e
       0.0894423 0.3174836 0.22447681 0.4117094
000320 eb 67 b6 be bc 44 71 3e e3 40 e7 be 8e 70 0a bf
       -0.35626158 0.23561376 -0.45166692 -0.54077995
000330 35 ea 2a 3e 83 d0 0a bf 34 38 67 be c3 ec 3b 3e
       0.16690905 -0.54224414 -0.22580034 0.18352036
000340 6d 5e 12 be 19 3c c9 3d 2e 8f 8b 3d 56 f2 93 3e
       -0.14293833 0.09825916 0.06814419 0.28895825
000350 dc ca 8f be 6c 99 db 3e af f5 1b 3e 47 a9 11 bf
       -0.28084457 0.4289049 0.1523044 -0.5689892
000360 01 a0 f3 3e 1f 90 1e bf 5e 00 79 be 63 4e 14 3f
       0.4758301 -0.6193866 -0.24316546 0.5793211
000370 66 b8 d2 bc f2 18 62 be 0e 74 e8 bd 47 b6 ca 3d
       -0.025722694 -0.22079828 -0.11350261 0.09898048
000380 db 1f a8 bd ce 8d 20 be 00 0f f5 bd 12 e7 8d bd
       -0.08209201 -0.15679094 -0.11965752 -0.06928839
000390 40 d2 ad 3d a2 ea a9 be 57 38 f4 3d 92 f7 92 3d
       0.08487368 -0.33186823 0.119248085 0.071761265
0003a0 9d 4d 5a be a0 0c 50 3c 86 84 34 be e6 e9 6b be
       -0.2131867 0.012698323 -0.17628679 -0.23038444
0003b0 18 ae 49 be 9b 47 8d be 1e c7 a4 be 2c 76 d7 3d
       -0.19695318 -0.27593693 -0.32183164 0.10520586
0003c0 cd 46 48 3d 89 cd 0e bf 6f f4 dd 3d 9b 4b b5 bd
       0.048895646 -0.5578237 0.10837638 -0.08852311
0003d0 57 99 bc be d2 22 b2 3e 4c 8c 46 3e e9 4f cf bd
       -0.3683574 0.3479219 0.19389457 -0.101226635
0003e0 0a 7a bf 3e 6a 84 26 be 8e 93 b1 bb af 04 a4 3d
       0.37397796 -0.1626145 -0.005419201 0.08008706
0003f0 8c b4 dc 3d 4f a3 c4 be 96 71 0a 3e 61 e0 a7 3e
       0.10776624 -0.38405845 0.13519892 0.32788375

critic_net.lstm.bias_ih_l1 f4 [128]
000000 3d 04 15 3d 76 c2 04 3e 1d 4c 74 bc e5 c3 42 3e
       0.036380995 0.12964806 -0.014910725 0.1902004
000010 53 18 32 be fb 61 fd 3e 19 09 d9 3e 41 fd 9c 3e
       -0.17392091 0.49488816 0.42389753 0.30661967
000020 75 d5 e8 3c 95 c3 0b bd 95 8d ad bd 8a b5 01 3e
       0.028422097 -0.03412207 -0.0847427 0.12666908
000030 72 de 2a 3e 92 66 2c bd 28 92 d7 3e 51 90 06 3d
       0.16686419 -0.042090006 0.42103696 0.032852475
000040 87 86 45 3e 8d 12 cd 3e cc f7 27 bd c9 63 16 be
       0.192896 0.40053216 -0.041007802 -0.14686503
000050 a7 e8 30 3e d2 37 52 3f 74 01 3a 3e 03 b6 59 3e
       0.1727625 0.82116425 0.18164617 0.21260838
000060 1f 74 d7 3d 43 1e 26 bc 12 83 69 3e c2 49 7e bd
       0.10520195 -0.010139051 0.22803906 -0.06208206
000070 a7 31 c5 3e ee cd b3 3e 13 95 1f 3f 0c a6 18 3e
       0.38514444 0.3511805 0.62336844 0.14907092
000080 74 13 2c be 86 9b 46 3e 5c 49 c6 bd 2a 5f b1 be
       -0.16804296 0.19395265 -0.09681961 -0.34642917
000090 a6 bf 11 bf 69 0d a7 bc fd 2b 5d be 97 f9 29 be
       -0.5693306 -0.020392137 -0.21598811 -0.16599117
0000a0 e9 46 54 be 66 56 9b be ae d9 45 bd 5e 1e 2c be
       -0.20730175 -0.30339354 -0.0483033 -0.16808459
0000b0 b1 c9 75 bd fd 97 c8 3d f2 b8 9b bd 90 94 3a be
       -0.0600068 0.097946145 -0.07603635 -0.18220735
0000c0 8f 85 8e be e1 b6 75 bd a2 89 1c 3e 72 81 73 bd
       -0.27836272 -0.05998886 0.15286878 -0.05944962
0000d0 c3 a1 77 be 14 67 bd be 94 33 b2 be 23 16 f4 3d
       -0.24182801 -0.36992705 -0.34804976 0.11918285
0000e0 e2 ae 82 be 9e 30 af 3c e8 9b 88 be df 53 a6 be
       -0.2552405 0.021385487 -0.26681447 -0.32485864
0000f0 07 9c 6e bc cd 9e a1 be 99 41 91 be 03 59 90 bd
       -0.014563567 -0.31566468 -0.2837036 -0.07048228
000100 3f b8 95 3c eb 86 a6 bc 03 2c e6 3c 05 db 2c 3d
       0.018276332 -0.020328006 0.028097158 0.04220106
000110 77 91 d5 3d 1c 33 a9 3d a6 d8 92 bd 8d a5 83 bd
       0.10428136 0.082617015 -0.07170229 -0.06428061
000120 88 4e db bd 32 58 10 3e 6a 5f 98 bd 4b 3d 93 3c
       -0.10708338 0.14096144 -0.07440074 0.017973563
000130 a4 f6 85 bd 92 4d e0 bd f8 e4 22 3d 3d e7 ae bd
       -0.065411836 -0.10952295 0.039769143 -0.08540199
000140 96 3e ba 3d 0c f6 d2 3c 1e d6 10 bd e1 e3 d5 3d
       0.090939686 0.02575209 -0.035360448 0.10443855
000150 c8 62 c3 3d 3d 16 30 be 5f 3d e3 bd 55 84 3d be
       0.095403254 -0.17195983 -0.1109569 -0.18507512
000160 24 99 cc 3c d5 b0 ab bc e4 24 d0 3b 8e 03 51 3d
       0.024975367 -0.020958344 0.006352054 0.05102878
000170 78 b7 d5 bd 92 b1 0f 3e 94 81 c2 3d 43 15 01 3d
       -0.104353845 0.14032581 0.09497371 0.031514417
000180 82 0d ec 3b 65 7c b6 3d 7a a1 32 3d 6b 72 91 3e
       0.0072037587 0.08910445 0.043611027 0.28407606
000190 7e 8b 96 bc 29 08 14 3f 65 10 12 3f e2 6c 37 3c
       -0.018377062 0.5782495 0.57056266 0.011195393
0001a0 0e 5e 11 3e 10 cf 13 3d e3 f6 da 3d 63 d6 11 be
       0.14196035 0.036086142 0.10691621 -0.14241938
0001b0 b6 e1 d0 3d d3 73 a8 bd 01 6c 6c 3e 8e 6e 52 3d
       0.10199301 -0.08225217 0.23088075 0.051374964
0001c0 08 d6 49 3e ad 0d 3b 3f 15 78 8b 3d f2 da 5d 3d
       0.19710553 0.7306774 0.06810013 0.05416388
0001d0 b6 c1 b6 3e 10 8e 38 3f 5c 81 0c 3e 7f fc 4d 3e
       0.35694665 0.7209177 0.13721222 0.20115851
0001e0 22 c4 c2 3e 95 ee 92 3d 9a 69 ea 3a ef 39 8e bd
       0.38040262 0.07174412 0.0017884255 -0.06944644
0001f0 4d a8 a6 3e cf b0 ef 3e 01 c8 30 3f c1 17 c5 3e
       0.32550278 0.46814582 0.6905518 0.38494685

critic_net.lstm.bias_hh_l1 f4 [128]
000000 21 00 c8 3d 11 2b 0d be 8a dc 72 3e 7f 25 82 3e
       0.097656496 -0.1378596 0.23716941 0.25419232
000010 64 d1 c3 3c 86 85 15 3f e7 b9 34 3f 28 df 11 bd
       0.023903556 0.58406866 0.70596164 -0.03561321
000020 52 12 42 3b 9d fa 42 bd 61 e3 4e 3e 52 84 ad 3c
       0.002961297 -0.047602285 0.20203926 0.02118126
000030 09 cd 19 3e 40 17 08 3e 85 91 88 3e d2 ba 00 3d
       0.15019621 0.13290119 0.26673523 0.031428166
000040 e3 3f 3d 3e 09 3d a5 3e 12 b5 65 be f7 2d 44 3e
       0.18481402 0.3227313 -0.22432354 0.19158159
000050 bb c3 29 3e b9 62 27 3f 4a 87 90 3d 26 bf 40 3e
       0.16578571 0.65385014 0.07057054 0.18822917
000060 e1 28 08 3e 0e be 31 be a9 e6 12 3d 10 14 a1 bd
       0.13296844 -0.17357656 0.035864506 -0.07865155
000070 f7 12 cd 3d c7 4c 03 3f a1 8e 03 3f e8 24 d8 3e
       0.10013383 0.5128903 0.5138951 0.42215657
000080 49 42 1c be 28 7e 1e 3e e3 5c 49 bd 8f 65 b9 be
       -0.15259661 0.15477812 -0.04916085 -0.36210296
000090 de 65 28 bf 7d c0 44 3d 8d 5e bc be 83 e5 7e 3d
       -0.65780437 0.048035134 -0.36790887 0.0622306
0000a0 90 d9 b2 bd 14 e2 fe bd dd ba 4d be a2 22 f1 3c
       -0.08732903 -0.12445465 -0.20090814 0.02943546
0000b0 23 96 25 be b2 11 ae 3d 14 49 99 be 8d 92 33 bd
       -0.16170554 0.08499469 -0.29938567 -0.043840934
0000c0 5e 9d a6 be 30 f5 c3 bd 06 ab 39 3e f5 28 6f bc
       -0.32541937 -0.0956825 0.18131647 -0.014597167
0000d0 3b 61 88 be 4c 68 78 be 5f cf 43 be a4 3a c3 3d
       -0.2663668 -0.24258536 -0.19122075 0.09532669
0000e0 81 6c fd bc f0 da 9d be 00 d8 b9 be 39 84 df be
       -0.030935528 -0.308311 -0.36297607 -0.43655565
0000f0 fd 98 e6 bd 8b 50 6c be f4 4a a0 be 27 91 b0 bd
       -0.11259649 -0.230776 -0.31307185 -0.086214356
000100 7f 02 90 bd 7b e7 0a 39 46 ba ad 3c 55 59 dd 3c
       -0.07031726 0.00013246939 0.021206986 0.027020136
000110 9f 97 a4 3c 0f 35 a4 3d a2 a2 85 bd 9a ce 09 3e
       0.02009183 0.080179326 -0.0652516 0.13457718
000120 f6 4d 28 bc bf 0e 42 be d3 4e e5 bd 55 25 94 bd
       -0.010272494 -0.18950938 -0.11196675 -0.07233683
000130 b1 c2 07 3e 93 b2 ef bd 1e 0b 0b bd f4 e4 36 3d
       0.13257863 -0.11703982 -0.03394615 0.04465194
000140 f2 cb a1 bd e5 ad 2a 3d 11 31 9d bd cc da 05 3c
       -0.079002276 0.041669745 -0.07675374 0.008169841
000150 ae 25 fb bd ec 60 e5 3d dd 73 15 3e f7 fa 1c be
       -0.12263046 0.11200127 0.1459498 -0.1533011
000160 fb 91 e7 bd 89 08 0f be 43 0b 57 bd 22 eb 09 3d
       -0.113071404 -0.139681 -0.052500974 0.033671506
000170 2f 79 01 be ee 99 e0 3c 89 be 10 be 20 b0 da bd
       -0.12643884 0.02741715 -0.14135183 -0.106781244
000180 49 f7 34 3d 58 02 4a 3e 7b 44 bd 3d a0 a1 1c 3e
       0.044181142 0.19727457 0.09241577 0.1529603
000190 50 99 8e 3c 12 e3 03 3f 9b 0b 0e 3f 3a 57 32 3e
       0.01740709 0.51518357 0.5548646 0.17416087
0001a0 a8 2a 09 3e 77 40 16 3d b5 01 40 3e 5a bf 64 bd
       0.13395178 0.036682572 0.18750651 -0.05584655
0001b0 32 a5 ac bc bf 1d 34 be df f3 95 3e 1c 6c 96 3e
       -0.021074865 -0.17589472 0.2928762 0.29379356
0001c0 0a 88 b4 3e a3 31 70 3f e3 bc 5a be 8c a6 1f 3e
       0.3526004 0.9382574 -0.21361117 0.15590876
0001d0 2f 3a f5 3e f9 2a 76 3f 78 0c 2e 3e 92 a7 3f 3e
       0.47895953 0.9615932 0.16996944 0.18716267
0001e0 ea 0f ac 3e 97 86 c3 bc 6f 85 05 bc 98 14 39 be
       0.3360589 -0.023867888 -0.008149489 -0.18074262
0001f0 10 f0 1c 3f e1 59 9c 3e e2 43 0c 3f a1 24 56 3e
       0.61303806 0.30537322 0.5479108 0.2091241

critic_net.dense1.weight f4 [8, 32]
000000 0a d1 35 be 11 f2 80 3d b8 9a 6b bd 8e 1b 66 be
       -0.17755523 0.062961705 -0.0575206 -0.22471449
000010 7b 08 37 3e 0e 79 ec 3d 78 5e f8 3e 8e be fe 3d
       0.17874329 0.11546527 0.48509574 0.12438689
000020 d2 fd 7c 3d cd b8 18 3e ac aa 00 3e 20 07 06 be
       0.0617655 0.14914246 0.12565106 -0.13088655
000030 89 35 e0 3b b0 fc e2 3d 52 be 82 be fa e2 a1 3d
       0.0068423194 0.110833526 -0.25535828 0.079046205
000040 66 ee bd 3d 00 48 73 be ab ed 36 be 34 a5 1d be
       0.092739865 -0.23757935 -0.178641 -0.15395051
000050 b2 fe 42 be 7b d5 2d 3d d0 da 3b be 6d 5c 5d bd
       -0.19042471 0.04243992 -0.18345189 -0.054043222
000060 a7 ca ef 3d 5f 7f 3a bd 79 08 99 be c1 86 c0 bc
       0.11708575 -0.045531627 -0.29889277 -0.023501756
000070 a6 f5 73 3e 09 c5 2d be 04 42 55 3e 49 c6 40 3e
       0.23824176 -0.16969694 0.20825964 0.1882564
000080 72 82 e6 bd 8d 52 0f 3e 6e 89 53 be 95 ae b0 be
       -0.11255349 0.13996334 -0.20657894 -0.34508196
000090 cb 86 18 bd 3b bf 43 be 45 6a c3 3e 5f 20 3a 3e
       -0.037237924 -0.19115917 0.38167015 0.18176411
0000a0 cb ec 23 be 48 4f 01 be ac b4 8d 3e 96 d3 25 be
       -0.16008298 -0.126279 0.27676904 -0.16193995
0000b0 55 32 8d be d8 70 ee bc a5 9e 97 be 25 21 c8 3e
       -0.27577463 -0.029106542 -0.29613224 0.39087787
0000c0 1b bf 96 bd fd 79 ea be dd d0 f0 bc 5b 35 4d be
       -0.07360669 -0.45796195 -0.029396469 -0.20039885
0000d0 2a 46 c1 be 1f b0 01 3f 41 94 56 3e 0e c5 d2 3d
       -0.37748843 0.50659364 0.20954992 0.102914914
0000e0 df 3d f6 3d 32 01 85 3e c6 74 9a 3e 81 b8 d5 bb
       0.1202352 0.25977474 0.30167216 -0.0065222387
0000f0 7a 45 e7 3d e2 7b 62 be db aa d8 3e 26 f7 89 3e
       0.112925485 -0.2211757 0.42317852 0.26946372
000100 f4 67 42 bd 5b eb 23 be 18 6f 56 3e 05 f1 0b be
       -0.04746242 -0.1600775 0.20940816 -0.1366616
000110 ae 98 12 3d 63 16 25 3d b9 b7 01 be 30 c8 b8 3d
       0.035790138 0.040304553 -0.12667741 0.09022558
000120 61 35 b8 be 3f 24 e1 be 9c b5 2e bd 27 1c 18 be
       -0.35978225 -0.43972966 -0.042653665 -0.1485449
000130 15 8c 28 3c c6 54 8d bd 58 a9 16 be c8 7a 4f be
       0.010287304 -0.06900935 -0.14713037 -0.20261681
000140 ef eb ca be b7 a1 ac bc 28 50 79 3e b0 60 f6 3c
       -0.39633128 -0.021073205 0.24346983 0.030075401
000150 7b 7b 6e bd 87 8e 01 3e a9 d6 59 3e f6 f4 c4 3d
       -0.05822323 0.12652026 0.21273293 0.09617035
000160 5a 8b 88 3e bb 79 1a be dc 78 17 3f ed 6b 1b 3c
       0.26668817 -0.15085499 0.5916879 0.009486181
000170 c9 82 b5 bd 35 9e 82 bd a1 3a c8 bd 5d 3b a2 3d
       -0.08862836 -0.06377832 -0.097768076 0.07921479
000180 11 f1 4a be 72 58 1c 3e db ae 93 be d5 ee 85 be
       -0.19818522 0.15268114 -0.28844342 -0.26158777
000190 64 7f 5b 3e bb 5c 39 be 1f 7b 2c 3f 83 10 61 3e
       0.21435314 -0.1810178 0.6737537 0.21978955
0001a0 d8 73 b0 be e1 0e 6f be 3a 77 71 3e f8 4e 1c be
       -0.34463382 -0.2334552 0.23580638 -0.15264499
0001b0 9b e9 78 be bb ee 2b be 97 1c 04 bf b7 8f ac 3e
       -0.24307863 -0.16790287 -0.51606125 0.33703396
0001c0 2b 53 10 be af 4f d0 be 38 62 a1 3c 47 35 9a bd
       -0.14094226 -0.40685794 0.019700155 -0.07529693
0001d0 9c cd 81 be 23 10 00 3f 00 64 b1 3e fc 1c 47 3e
       -0.2535218 0.5002462 0.34646606 0.1944465
0001e0 5a a3 80 3e 2d 72 7e 3d a8 ff b6 3e 79 9c 80 bc
       0.25124627 0.062120605 0.35741925 -0.015699612
0001f0 af 74 02 3e d2 76 ac be 55 7d eb 3e 52 86 c5 3e
       0.12739824 -0.33684403 0.45994058 0.3857904
000200 bf 33 25 3e b5 59 0f bd 8c 5f 4f be b7 e5 73 be
       0.16133021 -0.03499766 -0.20251292 -0.23818098
000210 99 e4 45 bf ec 53 99 bd 0b 22 a1 bd c2 dc 21 3e
       -0.7730194 -0.0748671 -0.07867821 0.15806869
000220 5d af 9c bd c4 4d 16 bd d3 dd 12 3d ab 10 10 3e
       -0.076506354 -0.036695257 0.03585608 0.14068858
000230 61 05 f2 3e 11 d0 39 3e d9 31 c4 bd 71 1f c5 3e
       0.4726973 0.18145777 -0.0957982 0.3850055
000240 23 32 c1 bd 66 d2 95 be 2f 8e c3 3d 71 92 b6 3c
       -0.09433391 -0.29262084 0.09548604 0.022286626
000250 b8 89 70 bd 4a 28 84 3d 35 7c 55 3e f5 4b a4 3d
       -0.05872509 0.06452997 0.20848162 0.080223
000260 2d 50 6d 3c 2d 0e d8 3c 79 db 89 3e 19 8c 98 be
       0.014484447 0.026373947 0.26925257 -0.29794386
000270 1c 8b 79 be cc 2b d0 3d 25 07 7b 3c da c2 3b be
       -0.24369472 0.101646036 0.015321528 -0.18336049
000280 92 e7 92 bd f3 54 17 be 08 b0 08 3e ea 2e 29 3e
       -0.07173075 -0.147785 0.133484 0.16521803
000290 c7 58 a7 bb 82 29 e5 3d f5 18 d4 be 60 c8 b3 bc
       -0.0051070186 0.111895576 -0.4142529 -0.021946132
0002a0 58 ca b2 3d 27 a0 ea be 1f 6b 34 be f9 39 30 3e
       0.0873 -0.45825312 -0.17618988 0.17209615
0002b0 1a ac 16 be 69 30 20 bd 1d 32 d0 3d 71 ff 86 be
       -0.14714089 -0.039108668 0.10165808 -0.2636676
0002c0 4a da 35 be 02 77 23 3e c5 a8 f1 bd 93 93 f0 3d
       -0.17759052 0.15963367 -0.11799768 0.117468975
0002d0 fd 87 32 3e c3 dd 97 bd 66 b1 f3 bc 89 6f 9d bd
       0.17434688 -0.074153446 -0.029747676 -0.07687289
0002e0 c9 c9 32 be 83 28 bc 3c 18 e1 c1 3e ec fd 1e 3e
       -0.17459787 0.022968536 0.37867045 0.15526551
0002f0 d8 06 15 be 66 96 eb 3e 54 5b 32 be 98 18 bb 3d
       -0.14553392 0.46013182 -0.17417651 0.0913555
000300 56 cb df bd 88 dc a8 be af 0d 55 3e ae 66 a7 3e
       -0.10927455 -0.32980752 0.20806001 0.32695526
000310 c3 ff 05 be e0 05 95 3e 8c 7c 04 bf de 65 5f be
       -0.13085847 0.29106045 -0.51752543 -0.21816203
000320 b8 97 ae 3d 7e dc 05 3e ce 5a 60 be 1e 45 2d 3e
       0.08525032 0.13072392 -0.21909639 0.16920897
000330 ab 50 33 3e ee 23 cd bd 01 a9 ba 3e 7c 22 3b be
       0.17511241 -0.10016619 0.36457065 -0.18274873
000340 bb c7 87 be be c2 d8 3e ca cf 3a 3e 52 c5 03 3e
       -0.2651957 0.42336076 0.18243328 0.1286824
000350 f1 54 01 3e cc e7 99 be 48 81 8c be fe 91 8b be
       0.12630059 -0.3005966 -0.27442384 -0.2725982
000360 ae 23 4e be d0 a2 90 3d 43 2d 7c be 00 85 e4 bd
       -0.20130798 0.07062304 -0.24626641 -0.1115818
000370 00 98 e4 be ce bb 5c 3e cd 67 fd be 3d b9 50 be
       -0.44647217 0.21556017 -0.49493256 -0.20383163
000380 53 9b 00 be 43 3b 6c 3e f7 d4 aa be 8d 3f d1 be
       -0.12559251 0.23069482 -0.33365604 -0.40868798
000390 e3 46 74 3e 4f 3e a2 be a2 55 2c 3f 1c 0f d2 bb
       0.23855166 -0.31688163 0.67318165 -0.0064104926
0003a0 23 a9 8e be ba 51 44 bc a4 f8 65 3e 5b ec 9b bd
       -0.27863416 -0.011982376 0.2245813 -0.076134406
0003b0 8e 5a 67 be 81 e7 16 3e cb 92 ee be fd 4d 11 3f
       -0.22593138 0.14736749 -0.4659637 0.56759626
0003c0 68 19 16 3f b3 81 26 bf 36 e2 bd bd 7c fe 88 be
       0.58632517 -0.65041655 -0.09271662 -0.26756656
0003d0 36 4a 2d be 35 e6 3c 3e 25 7c 66 3d 8b 65 cb 3e
       -0.1692284 0.18447192 0.056270737 0.3972591
0003e0 47 e1 5d 3e b3 0a 7b 3d 62 c9 8d be d6 ef 9a 3d
       0.21667968 0.0612895 -0.27692705 0.07565276
0003f0 01 f2 3a 3f 23 74 47 bf 88 2c 03 3f 1c 3d 8d 3e
       0.7302552 -0.77911586 0.51239824 0.27585685

critic_net.dense1.bias f4 [8]
000000 4c 96 d4 bd b6 cf 95 bc b1 8d a4 bd 8c 90 6d bd
       -0.10380229 -0.01828752 -0.08034838 -0.05799918
000010 65 e2 99 3d d3 29 17 3d 47 96 8a bd 9f e3 53 3d
       0.075138845 0.03690512 -0.067669444 0.05173075
