trained_models/15_lag_ppo_InvertedPendulum-v2_eps_0.75_actor.pth (torch, 234044 bytes, 44 tensors)

policy_net.lstm.weight_ih_l0 f4 [128, 4]
00000000: bdf1 803e 45cb 9bbf 0730 513e 3d76 f6bd
00000010: d388 d83e 2719 d53f f434 073d 1ae1 403e
00000020: 814f 82bb 908f 33bf 57f4 823d e51a ec3d
00000030: d285 abbe eab1 4bbf cec1 c9bb a6f4 de3e
00000040: 5132 863e 7bf5 1b3f 4e39 e13e 8178 283c
00000050: 677b 103e 59b9 8ebf ea53 103e d9dc 14be
00000060: 889f c1be cd8b b3bf 0aac a4bd 38a8 d03e
00000070: 1146 873d 8f1c 94bf 125e 21bd 3552 4d3d
00000080: 1e81 c73e 2d63 a7bf 75ef d3bd aff2 003e
00000090: e0d5 863e e1b6 923f 19e4 81bd 9aa4 8d3d
000000a0: 6bd1 e63d cc3a b53f 25e6 283e eb08 fa3d
000000b0: 3b13 fabd 9dad 463e daa3 0ebe 3e8c 903e
000000c0: cc2c 30be 80bb 6f3f 34a0 74be 52c3 a9bb
000000d0: 42d4 033f 6952 dd3c ddb6 b43c 8d60 f03d
000000e0: 0c52 ad3e 948a f43f fb1f 2dbe 0dc5 ec3c
000000f0: 49e2 fa3e aca4 ac3f be53 0b3d 0e6a 773e
00000100: 719b d03e 1ba2 3b3f ee7d 43be 2f06 cfbd
00000110: 81c6 353b 3dc6 a23f bd80 b13c c490 7b3e
00000120: b86e 943e 00b0 b3bf f120 5abe 2bc6 d5bd
00000130: a9e1 2f3e 0f91 873f 4247 513e bacc fd3d
00000140: 48b3 94be 0f9e 633f a13d 093d f9ad 46be
00000150: 9315 a03e 297d bc3f c88e 5b3e 65ba 653d
00000160: 5e5b a43e 7972 993f 72df ad3e 6bb8 993d
00000170: 55fb 873e 2ebf 093f d204 b03e c433 133d
00000180: 292f f7bd 1642 5b3f 3789 57bd 4c2d 21bd
00000190: 7f9e e03e fe8c 63bf 6af3 9b3d 1962 1fbe
000001a0: 2aeb ffbd 4849 9fbf dd8c 0bbd 2b2f 2b3d
000001b0: 4642 153f 54da c6be 6a42 e33e 1a36 22be
000001c0: 8021 013e 470e 96bf 1a88 cf3e 4f3b 95bd
000001d0: a2e3 2f3f 87e9 ce3f 0f2a 6fbe 7f4d df3e
000001e0: 94d6 6e3d 4c6d d13f 9ef0 9d3e 5ccb 2bbd
000001f0: 141a b43c 916b 393f db4c c0bd ee77 c23e
00000200: 3cd7 003e 68e2 b3bf 7070 3d3e 87cc f0bd
00000210: ed2f 073c 863a 973f 98ca 42bd 1cca f9bc
00000220: 864a 8c3e c742 08bf 33e4 133e 8ac7 b1bd
00000230: 9c58 233e a6ee b7bd 8bbb 3ebe 067c a7bd
00000240: 57e6 5a3e f3a5 583e 32fd ee3d f2ec 9fbd
00000250: 1442 0c3e d065 19bf c9a4 113d 9d76 24be
00000260: d172 053d f00e 58be 8194 443d 457b b23c
00000270: dd05 093d f0f3 11bf e5a3 553d a65f f4bd
00000280: ac14 bebb 21f8 9ebe 934c 9dbd ee9c 22bd
00000290: 20cb ec3d 6ae9 a33f c18a ffbd 32c1 273e
000002a0: 987b a1bb 5c93 a23f 1de0 cabd 49ee e4bd
000002b0: dbb7 56bd 51c7 3e3f 4107 d5bd 5914 82bd
000002c0: 0cd0 80be 12bd 0b3f 7903 f1bd 1818 eebc
000002d0: eb0a bdbd 5444 c0bd 59e2 063e 6f13 c83c
000002e0: 658c 423d c63c d53e abf4 043e 24d7 cfbc
000002f0: cdb5 1ebe 2e1e c83f f5d0 903d 9fc6 603e
00000300: 2352 543e 803f a03d e374 e53d bcd9 0b3d
00000310: be4a be3d 3dcc 5b3f 1f4d 85bd bed5 da39
00000320: cb18 053e 489b 69bf 3fff 38bc 0ebb e5bd
00000330: 322b e4bd 22dd 963f 8abb afbc edde 843a
00000340: e21c 5a3d d233 e63e 114a 413e 88e2 4f3c
00000350: 2e2f 12bd 0799 943f c7df afbd 7c53 3f3d
00000360: ebcf f43c 76a6 843f 3f0d dbbd 5dd9 e33d
00000370: f4ad f13d e3fc a83e 0136 8fbd bd03 973d
00000380: d0a3 47bd 022a 233e 8148 513e c52c 42bc
00000390: d62f 883d 800b 5ebf da1b 073e d6a1 44bc
000003a0: 7e0d ff3d dc9e 88bf efbb 243e af5a 41be
000003b0: 4ee2 113e a353 cdbe f021 cc3d 8e51 b4bd
000003c0: 3196 cbbd 4615 94bf 55b1 0b3e 0fda 4bbe
000003d0: bdbc db3e 4765 a73d 8a80 0a3f 17d1 24be
000003e0: 65e6 023d 4b07 813f 7406 fa3c dab6 133e
000003f0: 61e3 d53d 2c41 51be 8f07 1a3e 2f15 a2bd
0.25184432 -1.2171408 0.20428477 -0.12034271 0.4229189 1.6648301 0.033009484 0.1883587
-0.0039767628 -0.70140934 0.063942604 0.11528567 -0.33500534 -0.7956835 -0.0061571365 0.43546027
0.26210263 0.6092145 0.43989033 0.010282637 0.14109574 -1.1150314 0.1409451 -0.14537372
-0.37817025 -1.4027039 -0.08040626 0.4075334 0.06605161 -1.1571215 -0.039396353 0.050127227
0.38965696 -1.3077141 -0.10348407 0.12592576 0.2633505 1.146206 -0.06342334 0.06916161
0.11270412 1.4158568 0.16494043 0.12208732 -0.12210699 0.19402166 -0.13929692 0.28231996
-0.17204589 0.9364548 -0.23889238 -0.0051807547 0.51495755 0.027016835 0.022059852 0.117371656
0.3385166 1.9104791 -0.16906731 0.028902555 0.49000767 1.3487754 0.03401541 0.2416155
0.40743592 0.7329423 -0.19091007 -0.10108601 0.0027736726 1.2716748 0.021667833 0.24566942
0.28990722 -1.4038086 -0.21301629 -0.10438188 0.17175926 1.0591143 0.20437339 0.12392564
-0.2904303 0.88913053 0.03350604 -0.19402303 0.3126646 1.4725696 0.21441185 0.056085963
0.32100958 1.1988059 0.33959538 0.07505878 0.2655894 0.5380734 0.34378678 0.03593804
-0.12069542 0.85647714 -0.052621093 -0.03934984 0.43870923 -0.8888701 0.07614787 -0.15564765
-0.12496026 -1.2444239 -0.034069885 0.04179303 0.5830425 -0.38838446 0.44386607 -0.1584095
0.12610435 -1.1723107 0.40533525 -0.07286703 0.68706715 1.6165017 -0.23355888 0.43613812
0.058310106 1.636148 0.3084764 -0.041941985 0.021985091 0.7242976 -0.09389659 0.37982124
0.12582105 -1.4053469 0.18499923 -0.117577605 0.0082511725 1.1814735 -0.04755649 -0.030491881
0.27400607 -0.53226894 0.1444252 -0.08680637 0.1595177 -0.089810655 -0.1862623 -0.081779525
0.2137693 0.21157055 0.11669387 -0.078088656 0.13697082 -0.5992098 0.035557542 -0.16060872
0.0325802 -0.21099448 0.047993187 0.021787295 0.033452857 -0.57012844 0.052158255 -0.11932306
-0.005800804 -0.31048682 -0.07680621 -0.03970044 0.115621805 1.2805607 -0.12477637 0.16382292
-0.0049280636 1.270122 -0.099060275 -0.11178262 -0.052421432 0.7452288 -0.10401774 -0.06351537
-0.25158727 0.54585373 -0.117682405 -0.029064223 -0.09230598 -0.093880326 0.13172282 0.02442333
0.047497172 0.4164793 0.12983958 -0.025371142 -0.15499039 1.563421 0.070711054 0.21950768
0.20734458 0.07824612 0.11203935 0.034143195 0.092916 0.8585852 -0.0650885 0.0004173945
0.12997739 -0.91252565 -0.011291324 -0.112173185 -0.11141051 1.1786234 -0.02145173 0.0010137238
0.0532502 0.4496141 0.1887591 0.012688287 -0.035689525 1.16092 -0.08587604 0.046710476
0.0298843 1.03633 -0.10695886 0.11125443 0.11800757 0.33005437 -0.06992722 0.0737376
-0.04874021 0.15933993 0.20437814 -0.011851494 0.06649749 -0.867363 0.13194218 -0.012001475
0.12453745 -1.067348 0.16087316 -0.1888225 0.14246485 -0.40102872 0.099674106 -0.08804618
-0.09940756 -1.1568992 0.13641866 -0.19907402 0.42917433 0.08173614 0.54102385 -0.16095386
0.031958003 1.0080351 0.030520655 0.14425221 0.1044376 -0.20435017 0.15041946 -0.07914197

policy_net.lstm.weight_hh_l0 f4 [128, 32]
00000000: fd50 5e3d d934 643e d3c5 3a3e f1f4 553d
00000010: f662 b43d 1eaa ff3d e803 083d 90c8 1b3e
00000020: 5225 3d3d 1d55 393e 8253 78be a5d5 f0bd
00000030: e08d f73b b230 abbd db5c 10bc c967 b63c
00000040: f1ea 373e 248b 32bd 4037 edbd 6a1d 523d
00000050: 549f 22be 7a05 823e 5192 64bd 12ea fcbc
00000060: 5251 a53d bc8d 273d 315c 51bd 299d acbd
00000070: 8ac2 c1bd 0b53 d6bd ba83 673d c675 273e
00000080: 75e4 ba3d 9c0d 26be ab14 023c 0e3e a23c
00000090: fea5 5cbe f530 9a3d df11 abbd caac f13d
000000a0: 545a fdbc 1036 74be 96d5 83bc eee3 ab3c
000000b0: ee23 843d 3acd 83be 5534 82be f9b9 e53c
000000c0: b95e 73bd e94e a03b d3a7 7fbb ede5 c13d
000000d0: 7efa 4b3e 26f2 a13b c453 61be 8ec1 b73e
000000e0: 14c8 44be 068e 65bd f343 71bc 17cc 3abe
000000f0: 4a56 1ebe 74ab 8f3d 78d3 a3bc 881a 903e
00000100: 9715 e13d 346f 133e ee02 f23d 7a26 66bc
00000110: c48a 50bd a5f6 ee3d cd4f 30bd eb34 0f3d
00000120: 125f db3d bdf1 b43e 6562 b5bd 60f3 acbe
00000130: 25c4 a33e 7d8e 143e df1d 293e b781 aa3e
00000140: 9faa 0bbe 23b3 703e e914 0cbe 84f7 8ebe
00000150: 3a5c 4ebe d361 403e 94ee 0b3e 0fef dfbc
00000160: f11d 37bd 0eca 0abe d966 953d 2d8e ecbd
00000170: 93ea 423e 0238 24be 079f 363e 81e5 303e
00000180: 0fb6 75be 98c5 523d 8630 d43d dd8e e13d
00000190: 0a73 893d 82c6 8a3e fc17 853e dfd2 cfbc
000001a0: c7bc 0b3e d3bd 553e 42f7 1a3e 9749 5cbe
000001b0: 896b 2c3e ab53 463e f5be 2dbd ac5d f83d
000001c0: c724 d23e 26fb e03c f9ea b73d 9132 2dbe
000001d0: 0927 8bbe 284b d83d 14de f9bd 20a5 1fbd
000001e0: 7e2c 2c3e 0f6e 8ebe 24c1 9f3d 2451 603e
000001f0: a17a 93be 6b23 fdbc 6f8b 7f3d fa66 983b
00000200: a885 2c3e bd99 d3bd 2ba4 edbd 9ecc 1d3d
00000210: bb98 a6bd 3d8b c7bd 26f2 33be 2339 2fbd
00000220: cf2d 113e df4f bdbd 4e33 86bd 05a4 573d
00000230: e437 71bd 8c10 16be 7ecf cebd 4410 68bc
00000240: d573 33be 6478 83be 1101 c1bd ee0a a93d
00000250: bc3a 833d 605b 75be 5ff8 99be 9e78 3a3e
00000260: 804d 433c d913 683d 96f3 20be f415 c4bd
00000270: 1f48 8dbd db67 97be 5b30 48be d3b7 8e3e
00000280: a2f5 0abe 5761 753d 073e 72bc d453 283e
00000290: c7f3 993d d875 363e 7e38 1f3e ba1f 633e
000002a0: 9f1f bfbd c6bb 3abd 3867 07be 9e50 52be
000002b0: 0e4b 843e 7b5c f0bc 3a22 043c 4570 c9bd
000002c0: 6932 8e3d 7548 fabc 64b9 723c 0793 fa3c
000002d0: b6a8 69bc fa9a d9bd 0066 c33c c30b c63c
000002e0: f3bd 11bd 0cd8 56be 2d69 28be 9a0c 8a3e
000002f0: eb0d 0fbe 00a7 4f3d e0b3 dc3d 4f8e 423e
00000300: 45af 3abc 1754 f7bd 186b b73e 100b 5d3e
00000310: 6273 ee3a f4d0 7f3e 7d02 933e 47a8 583e
00000320: 0cf6 ae3e c36f 3b3e b68c 3abe 1a43 73be
00000330: eecd a7bd 4169 ae3e d85f 2f3e d093 89bd
00000340: 5a52 c43e d473 ebbd 6b24 e83d f8c3 a93c
00000350: 47d3 82bd 0642 2cbd 00f8 103e 5929 afbe
00000360: ff21 9b3d 5930 11be 10a0 923e a696 f33e
00000370: 9647 83be 2b23 8c3e 2aae 7d3c e30b a9be
00000380: 806b 0fbe 3eeb 68bb 1a2e 9f3b 3d3f 613e
00000390: df75 603e 9d47 183d 584b a93d 53a9 4dbb
000003a0: 833a ad3e ac99 943c 2b3d fabd d6b6 923c
000003b0: c8df 293e 5e24 ab3e cc48 b83d b549 17bc
000003c0: 3f37 0b3e 4e07 0b3e d99d 383e f4d8 52be
000003d0: bd4e cdbd 43ec c33c e774 143d 37f3 6cbe
000003e0: 38bb d7bd 6249 56be 496f 173e 5359 a03e
000003f0: 55a4 20be 59a8 0f3e 1e5d 7b3d 9b87 21be
0.054276455 0.22285785 0.18239526 0.052235547 0.08807938 0.12483619 0.03320685 0.15213227
0.04617817 0.18098874 -0.24250606 -0.117594995 0.0075547546 -0.08358897 -0.008811201 0.022266285
0.17960717 -0.043589726 -0.11582804 0.051297583 -0.15881091 0.25394803 -0.0558036 -0.030873332
0.08072151 0.040906653 -0.05111331 -0.084284134 -0.094609335 -0.10465058 0.05652211 0.16353521
0.09125606 -0.16216129 0.007939498 0.01980498 -0.21547696 0.07528869 -0.08353018 0.11800535
-0.03092686 -0.23848748 -0.016093057 0.020982709 0.064521655 -0.25742513 -0.2543055 0.02804278
-0.059416506 0.0048922193 -0.0039009943 0.09467683 0.19919774 0.0049421964 -0.2200461 0.35889858
-0.19216949 -0.056043647 -0.014725673 -0.18241917 -0.15462604 0.07015124 -0.019998297 0.28145242
0.10990446 0.1439789 0.11816965 -0.014047259 -0.050913587 0.116681375 -0.043044854 0.034962576
0.107114926 0.35340682 -0.08856658 -0.3377943 0.31985584 0.1450748 0.16515301 0.3330209
-0.13639306 0.23505835 -0.13679852 -0.27923214 -0.20152369 0.18787317 0.13665229 -0.027335672
-0.04470629 -0.1355364 0.07295007 -0.115505554 0.19034795 -0.1603699 0.17834102 0.17275049
-0.23995231 0.05145797 0.103608176 0.11013577 0.06711395 0.27104574 0.2599486 -0.025369106
0.13646232 0.20873193 0.15133384 -0.21512447 0.16837896 0.19367854 -0.04241844 0.121272415
0.41043684 0.027463507 0.08980364 -0.16913821 -0.2717822 0.1056121 -0.12200561 -0.038975835
0.16813847 -0.27818343 0.078005105 0.21905953 -0.28804496 -0.030900678 0.062388834 0.0046509476
0.16847861 -0.103320576 -0.11603578 0.038525216 -0.081346 -0.097433545 -0.17572841 -0.0427791
0.14177631 -0.0924375 -0.06552754 0.052646656 -0.058891192 -0.1465475 -0.1009817 -0.014164034
-0.17524655 -0.25677788 -0.094240315 0.08254038 0.06407687 -0.23960638 -0.30072305 0.18210074
0.011920333 0.056659553 -0.1571792 -0.095745 -0.06898522 -0.29571423 -0.19549696 0.27874622
-0.13570264 0.059907284 -0.014785296 0.16438228 0.075172 0.17818391 0.15548894 0.22180071
-0.09332203 -0.04558923 -0.13222969 -0.20538566 0.25838512 -0.029340973 0.008064801 -0.09835867
0.06943209 -0.030552128 0.014814708 0.030587686 -0.014261415 -0.106252626 0.023852348 0.02417553
-0.03558154 -0.20980853 -0.16446371 0.2696274 -0.13970153 0.050696373 0.10776496 0.18999599
-0.011394327 -0.12076586 0.35823894 0.21586251 0.0018192346 0.24982053 0.28712836 0.21157943
0.34172094 0.18304352 -0.1821774 -0.23756066 -0.08193575 0.34064677 0.17126405 -0.06717646
0.3834408 -0.11496702 0.11335071 0.020723328 -0.06387954 -0.042055152 0.14157104 -0.34211233
0.075748436 -0.141786 0.28637743 0.47575873 -0.25640553 0.2737058 0.0154834185 -0.3301688
-0.14005852 -0.0035540606 0.0048577907 0.2199678 0.21919964 0.03717767 0.08266324 -0.0031381443
0.33833703 0.018139683 -0.12218698 0.017909449 0.16589272 0.33426183 0.0899826 -0.009233882
0.13595293 0.13577005 0.18028964 -0.20590574 -0.10024784 0.02391637 0.0362443 -0.23139654
-0.10533756 -0.20926431 0.14788546 0.3131815 -0.15687688 0.14029063 0.0613681 -0.15774386

policy_net.lstm.bias_ih_l0 f4 [128]
00000000: 8784 ed3d 7b44 2dbe 4f0b 813e 2ad2 853c
00000010: 36c2 b23d bdc1 4c3e 99da babb 8c3b 943d
00000020: eb0d a33d 12d0 d03e 0bae 6fbd 8a22 c83e
00000030: f1e8 edbd f2fd e53e d996 673e 64e7 5b3d
00000040: ede6 a33e 4f03 e13c 72dd cfbd 9808 423e
00000050: 9309 e43e ddc1 673d 2cfb 353e 5240 873e
00000060: e04f 4fbe 76ef babb 7db9 803e 18a8 c43e
00000070: b938 b63d b2b4 543e b8b8 15bd b3e5 703e
00000080: 89ad 2ebd baf1 98bd d74e 28bd 6292 203b
00000090: 56e6 8fbe ad91 bebd 46d4 b8bd 7ff5 b8bd
000000a0: 670b 59be 4181 36bd 718a 5ebc f522 64bd
000000b0: ef9f 75be 55dc e53c 838b 59be 9893 0fbe
000000c0: 32d0 94be 0818 37bc 834c 61be 9f79 adbd
000000d0: 8430 92be c578 66be 751a ebbc c296 f6bc
000000e0: c084 3abe fea7 b63d f528 4abc 39fb 0dbe
000000f0: f936 4e3d a607 53be e9a3 4dbe 7835 19be
00000100: e34a 963d af15 c63d 992a 01be 42ab c839
00000110: adc3 c9bb 5d93 573d a201 8ebc 9a90 25bd
00000120: b16a a5bd 536d dbbd 18ee 213c 0d66 c6bd
00000130: ed96 61bd f31e 193e 4432 7cbd f64e 8ebd
00000140: 699c babd b717 593d 0368 e2bd d29d 5fbc
00000150: 89a6 623d 066d 95bd 6d5d 8abd f15c b83d
00000160: 3deb c5bd 1b2d 13bd 5c16 f9bd ede8 cbbd
00000170: 0786 65bc 788d 17be b77f 403d 5a34 24bd
00000180: c29d 213d 1348 6f3d f25f fc3d c002 d03d
00000190: fc2e 103e cd76 8ebd 844d ee3b e8a2 543d
000001a0: 5602 803d 6757 c83e 3b4a f73d 8030 473e
000001b0: 16d7 5d3e 561d 1e3e db5c cbbc 2098 063d
000001c0: 730f fa3e ae83 a2bd 2a6b bf3d 6721 eb3d
000001d0: 6418 c63e af12 0e3d 7038 be3c c485 aa3e
000001e0: 7ad2 17be 032a 8c3e 14e5 7ebd 07ed aa3e
000001f0: b5c2 5a3e 6c89 bfbc 1f19 093e 25bd fd3e
0.11597543 -0.16920654 0.2520394 0.016335566 0.08728449 0.1999578 -0.0057023284 0.0723792
0.07961639 0.40783745 -0.05851559 0.3908885 -0.11616696 0.44920307 0.22616138 0.05368747
0.3201212 0.027467398 -0.10149659 0.18948591 0.44538555 0.056581367 0.17771596 0.2641626
-0.20245314 -0.0057048155 0.25141516 0.38409495 0.08897538 0.20772055 -0.036553115 0.23525123
-0.042645965 -0.07467981 -0.041090813 0.0024501313 -0.2810542 -0.09305129 -0.09024863 -0.090312
-0.21195756 -0.04455686 -0.013582812 -0.0556974 -0.23986791 0.028059164 -0.21244626 -0.14021146
-0.2906509 -0.011175163 -0.22001843 -0.08470463 -0.2855264 -0.22507007 -0.02869914 -0.030101184
-0.18214703 0.08918761 -0.0123388665 -0.13865365 0.050345395 -0.20608386 -0.20082058 -0.14961803
0.07338502 0.096721046 -0.12613906 0.0003827457 -0.0061573596 0.05263077 -0.017334763 -0.040421106
-0.080769904 -0.10714211 0.009883426 -0.096874334 -0.055075575 0.14953212 -0.061571375 -0.06948654
-0.09111864 0.05300113 -0.11054995 -0.013648467 0.0553346 -0.07296185 -0.06756101 0.09002102
-0.09664009 -0.035931688 -0.12162468 -0.099565364 -0.014009005 -0.1480006 0.0469968 -0.04008899
0.03945709 0.058418345 0.123229876 0.101567745 0.14080423 -0.06956253 0.007272424 0.051913172
0.062504455 0.39129183 0.12074705 0.19452095 0.2166408 0.15440878 -0.02482455 0.03285992
0.48839912 -0.07935272 0.09346612 0.1148098 0.38690484 0.034685787 0.02322027 0.3330518
-0.14826384 0.27375802 -0.062230185 0.33383963 0.21363337 -0.023380958 0.13388489 0.49558368

policy_net.lstm.bias_hh_l0 f4 [128]
00000000: 1822 8abd 9f7c 90bd be1e 473e 5eae 14bc
00000010: 40cb f4bb 7fa6 f03d 3650 0d3e df2e b9bd
00000020: a0f8 703d ddba 913e ac0a 193e 869f 7e3e
00000030: 593c 64bd 944b 053e 6bbb b8bd 2ab2 35bd
00000040: b273 023f f245 aabd ac6c be3d f93b 1f3e
00000050: 248a aa3e 7e84 adbd b99c 253e 7cf8 fd3e
00000060: 9f5c 2fbe a5dd a2bc 345f 8c3c f770 d53e
00000070: f599 353d 2736 463e 651c 283e a0ae 103f
00000080: 57db 62be 736c 6abe 6dec 933d a39a e8bd
00000090: 5af8 46bd 5a6a 7dbe 7c4a a5be 2f84 28bd
000000a0: 043f 96bd 4329 eb3b e2cf b6bd 0d77 653d
000000b0: dbbe 88be 8a2d 903c d5f4 b2be 805b 26be
000000c0: 4f01 3b3d 5083 02be 0aeb 633d 0b0d aa3d
000000d0: b01c 98be e41f 48bd 84ff ac3c 68a8 5abd
000000e0: 05ca 253c 465e 6cbe 781a 1cbe 1532 89be
000000f0: a96f 5ebe df80 53be ff19 68be 028f 16be
00000100: 0ed6 cb3d 9928 563d 9620 093e 4833 90bc
00000110: 438f 793c 5fce afbd 344a d8bc a184 30bb
00000120: 338c 783d 1cab 1a3e 7dd6 0dbe 01cb eb3d
00000130: 4398 6f3d e952 f4bd 7582 ed3d f900 2a3e
00000140: 7ed3 553d ce0c a53c 8fac a13d 57db 57bc
00000150: 2fa4 0cbd 8e0f 083e 3602 c13d 9ba4 b5bd
00000160: d1e7 c93d e668 ba3d 81eb 9a3d 9274 283d
00000170: 42fb d73d adc4 1b3e 0156 b439 afed 963c
00000180: a3ab 7d3e f499 39be bc50 903e 43e5 ccbd
00000190: c525 353e ba1f 1c3d 7b8c 643e c1b7 f3bd
000001a0: 0783 15be 3644 ad3e 7044 b53d b14a c43e
000001b0: 0f9b a3bd f2e3 353e bc27 c43d 291d 1dbd
000001c0: 2f8a 853e f22d 6ebb 08ec d6bd 3d0e c13d
000001d0: 9149 c43e dc6b 183d c751 b63d e634 e53e
000001e0: 8e2e 02be 0edb 123d 03a3 3a3e a87e 903e
000001f0: ea9d 0a3d b380 753e 697e 4abd 4ee3 973e
-0.06744784 -0.070550196 0.19445321 -0.0090747755 -0.0074705184 0.117505066 0.1380013 -0.09042143
0.058830857 0.28462878 0.14945477 0.24865541 -0.055721615 0.13017112 -0.09020122 -0.044359364
0.5095779 -0.08314122 0.09298071 0.15550222 0.33308518 -0.084725365 0.16173066 0.4960364
-0.17125176 -0.019881079 0.01713524 0.41687748 0.044336278 0.19356595 0.16417082 0.56516457
-0.22153984 -0.22892933 0.07222829 -0.113576196 -0.04857669 -0.24747601 -0.3228339 -0.041141685
-0.07336238 0.0071765496 -0.08926369 0.05602174 -0.2670811 0.01759984 -0.34952417 -0.16245842
0.045655545 -0.12745404 0.055644073 0.08303269 -0.29709387 -0.04885854 0.021117933 -0.05338326
0.010118966 -0.23082837 -0.15244472 -0.26796022 -0.21722282 -0.20654629 -0.22666167 -0.1470299
0.09952937 0.05228481 0.13391337 -0.017602578 0.01523191 -0.08584284 -0.02640257 -0.0026934522
0.06068058 0.15104336 -0.13851352 0.11513329 0.058494817 -0.11929876 0.11597148 0.16601934
0.052203648 0.020147707 0.07894241 -0.013174853 -0.034336265 0.13287184 0.0942425 -0.088692866
0.098586686 0.09102039 0.0756445 0.041126795 0.105459705 0.15211745 0.00034396353 0.018423883
0.24772505 -0.18125135 0.28186595 -0.10004666 0.17690189 0.038116194 0.22319214 -0.11900283
-0.14600764 0.33841103 0.08850944 0.38338235 -0.079885595 0.17762735 0.09577891 -0.038357887
0.26081988 -0.0036343304 -0.10494238 0.09426544 0.38337377 0.037212238 0.089023165 0.4476692
-0.12713072 0.035853438 0.18226247 0.2822163 0.033842005 0.23974876 -0.04943696 0.29665607

policy_net.lstm.weight_ih_l1 f4 [128, 32]
00000000: 6013 2ebe e609 863e de90 fb3d 1d2b e2bd
00000010: 26c7 fb3e 2577 29bc c791 62be 7311 06be
00000020: bf62 73be ca54 813e a0ad 3abe 7de6 24be
00000030: 899c 3bbd ebff d03d 72ae 4f3f 8970 f53d
00000040: 27a5 bf3e 1518 cfba 8a0d 44be f6a6 1bbe
00000050: e9b1 bfbe c7d5 b63d ab17 ab3e 3e58 85be
00000060: 7955 b33e 61eb aebd 3610 d0bc 4846 1a3e
00000070: 272f f8bd f71a ba3e 71ba 273e b14f 03bf
00000080: e16d 083d 04eb a93d 1650 543e b84b 12be
00000090: 6b8a f83d e114 dcbd 5448 dcbc 4283 03be
000000a0: 528c 183d 52cc 3abe c5bd b83d 7fb7 c83d
000000b0: e08d f8bd fe5e 913d 09fd 833d 4bc0 acbd
000000c0: 64bb ff3d f75e 60be 1b21 463e 7388 ef3d
000000d0: ee71 32bd 9243 9d3d 3496 10be c2dd 493e
000000e0: 1018 17bd 2f66 bdbc b8f7 463d 8a9f 9b3c
000000f0: 0e3e adbd 023f c8bd 50eb 02be dce9 08be
00000100: 7c8b 48bc c492 c3bd 40ea 1dbd 8f37 66be
00000110: 148e 22bd 3d96 4cbd 1dfe 11be c616 77bd
00000120: 8a42 fabc 3fc1 65be 9fba e13d 53ae 6e3e
00000130: 663a 58be 8032 eebe ab58 e6bd 4906 5bbe
00000140: 4bd1 8abe 9438 5ebe 2d5c b2bc 9b65 d53d
00000150: 63d2 5c3e fd0b 71be ec05 2bbe 4ffb d63e
00000160: 7ada 1cbd 31b9 783e 9733 4ebe 73fc ccbd
00000170: f9b4 4cbd aa0f 92be 7aca a23d c9f2 923e
00000180: c672 bebe 5e8d a93d 5b17 7c3e 5b7b e13e
00000190: e882 bf3e 4ba8 ea3d 9273 c63e ad96 d43e
000001a0: 03c6 9c3e bf60 f23e 9a7a 3ebd 9a72 46be
000001b0: b9ba 1a3e 2ac0 ef3e e9e5 2b3f 0eb4 383e
000001c0: 1bfa be3e 6a81 943e e821 b33e c39d 9ebe
000001d0: d638 efbe 0b80 b93d 26b2 5f3e e8b8 05bf
000001e0: d68b db3e e5c5 79be efee c63e b346 e73e
000001f0: 39f4 99be 920b 0e3f e0ef 483e c325 09bf
00000200: bf3b 6c3d 4250 f13e 4011 903e 59ec 023e
00000210: 2c31 0e3f 6ae9 673e 55ec 86bb e68d b6bd
00000220: 94ef 1ebe 6a3c ba3e b5a4 9cbe 448f 9abe
00000230: 1a55 993e 4149 613e db58 033f e0d0 303e
00000240: 00ac 023f a4da 453e 310c 3abe abb9 d3be
00000250: 91e2 d2be 82c3 4b3e c6cf c13e c7f9 60be
00000260: 4af2 083e c3a1 83be 522c 90bd 823b f53d
00000270: 9bb8 ed3d bafe d13e 9320 f33e c333 dcbe
00000280: fd90 93be 2faf b6bd 3755 bb3c 9c08 a83d
00000290: 5065 9d3e 612f 153e 1e39 ddbd 6db8 4e3e
000002a0: 6de5 bbbd c86c 723e 78e7 59bc 2533 75bb
000002b0: 9457 a0bd 16d7 d63e acdb 2d3e 9636 833d
000002c0: 01ac ae3e 45aa 9b3d 0ac1 33bc acb9 35be
000002d0: cd6b 6cbe 4725 2e3e ae0d 95bd 8d2a 60be
000002e0: e3b6 843c 898e 92be f363 413e 94f4 be3e
000002f0: 3a7f 46be f312 903e 6b1d 913c be11 d1be
00000300: b63c edbe 5e9d 083d fa6c dc3e 35a2 8f3e
00000310: d547 bd3e f6ee b13e ec72 093e ed05 913e
00000320: 6dc7 113e 9228 eb3d 526c a2bd f77a aabe
00000330: 96b6 2d3e e645 bd3e 8d16 e33b 1ed0 f83d
00000340: d492 30bc c78c 503c 9881 8a3e c6f9 aabe
00000350: ba02 62be 9ea7 1fbd 2cbb a83e 9c55 fbbd
00000360: 0096 643e 8e74 d4be a719 693e 8412 8e3e
00000370: 77ba 0abe c9dc b7bd 81eb 8b3e 7cac 0b3d
00000380: 4171 92bd e7a4 9c3e a561 cb3c 8209 41bd
00000390: 80f2 003e cdc1 ffbc 0366 2dbe 19dd 4abe
000003a0: 6dc1 47be b1dd acbd bfcf bb3d 54ca 303e
000003b0: 8c06 51be 3613 32be 909c 153f 44cc 683d
000003c0: d6be 913e 40bf ae3c 1205 543d 92c3 79be
000003d0: c5a3 4cbb 154d ec3d 0472 72bc d730 9cbd
000003e0: 69b9 69bd d288 4a3c 1934 3fbe 6c52 4e3d
000003f0: 808a 843d b2f0 cb3e bb6d d23c 1f66 a6be
-0.16999578 0.26179427 0.122834906 -0.110433795 0.49175376 -0.010343348 -0.22125922 -0.13092594
-0.23768137 0.2526 -0.18230295 -0.1610355 -0.04580358 0.102050625 0.8112556 0.11984355
0.3743069 -0.0015800024 -0.1914579 -0.1520041 -0.37440422 0.089274935 0.33416495 -0.26043886
0.35026148 -0.08540989 -0.025398355 0.15065873 -0.121183686 0.36348698 0.16379716 -0.51293474
0.033307914 0.08296779 0.20733675 -0.14286697 0.12135776 -0.1074617 -0.026889957 -0.1284304
0.037243195 -0.18242005 0.09020571 0.09800624 -0.121364355 0.070981964 0.06444747 -0.084351145
0.12486914 -0.21911226 0.19348566 0.116959475 -0.043565683 0.07678904 -0.14119798 0.197135
-0.036888182 -0.023120014 0.048576087 0.018996973 -0.084591016 -0.09777643 -0.12785077 -0.1337046
-0.012240287 -0.09549478 -0.038553476 -0.22482131 -0.039686278 -0.049947966 -0.14257093 -0.060324453
-0.030549306 -0.22436999 0.11021923 0.23308687 -0.21116027 -0.46522903 -0.11247381 -0.21389116
-0.27112803 -0.2170127 -0.021772468 0.1041977 0.21564631 -0.2353973 -0.16701478 0.41988608
-0.038294293 0.24289395 -0.20136867 -0.10009088 -0.049977276 -0.28527576 0.079487756 0.28700855
-0.3719694 0.08278917 0.24618284 0.44039425 0.3740456 0.114578806 0.38760048 0.41521206
0.3061982 0.47339436 -0.04650364 -0.19379655 0.15110292 0.46826297 0.6714769 0.18037435
0.3730019 0.29004985 0.34986806 -0.30979738 -0.4672305 0.090576254 0.21845302 -0.5223527
0.42880124 -0.24391897 0.38854167 0.45171127 -0.3006914 0.55486405 0.19622755 -0.53573245
0.057674166 0.47131544 0.2813816 0.12785472 0.5554378 0.22647634 -0.0041175284 -0.08913784
-0.1552108 0.36374217 -0.30594411 -0.30187428 0.2994774 0.220006 0.5130746 0.1726718
0.510437 0.19321686 -0.18168713 -0.4135259 -0.4118848 0.19898799 0.3785383 -0.21970282
0.13373676 -0.25709352 -0.070397034 0.11974241 0.11607476 0.41014653 0.4748579 -0.4300824
-0.28821555 -0.08920132 0.022867782 0.08204767 0.30741358 0.14568855 -0.1080191 0.2018754
-0.09174619 0.23674309 -0.013299815 -0.0037414518 -0.07829204 0.41960973 0.1697833 0.06406896
0.34115604 0.07600836 -0.010971317 -0.1774661 -0.23087998 0.17006408 -0.07278 -0.21891232
0.016200488 -0.2862437 0.18885784 0.37295973 -0.1938447 0.28139457 0.017714223 -0.4083385
-0.4633538 0.033353202 0.43051893 0.28053442 0.36968866 0.34752625 0.13422745 0.28324834
0.14236231 0.114823475 -0.07930817 -0.3329694 0.16964182 0.3696739 0.0069301785 0.1214907
-0.010777194 0.012728876 0.27051997 -0.33393687 -0.22071353 -0.03897821 0.329553 -0.12272188
0.22322845 -0.41495174 0.22763692 0.277485 -0.13547693 -0.08977658 0.27328113 0.03410004
-0.07150508 0.3059456 0.024826834 -0.047128208 0.12592506 -0.031220341 -0.16933446 -0.19810905
-0.1950738 -0.08440722 0.09170484 0.17264682 -0.20412654 -0.17390141 0.5844202 0.056835428
0.2846591 0.02133143 0.051762648 -0.2439101 -0.0031225544 0.1153814 -0.014797691 -0.07626503
-0.057061587 0.012361722 -0.18672217 0.050371572 0.06471729 0.39832073 0.02568709 -0.32499787

policy_net.lstm.weight_hh_l1 f4 [128, 32]
00000000: 66aa 20bc eb32 00be 8f96 443e f17a 423e
00000010: 7ab0 f23d ed3f dcbd e2c9 1bbd c212 e8bd
00000020: d5dd 6ebd 4ec5 99bd 9022 80bc 49a9 8cbd
00000030: 4b2e 4b3d 40d8 45bd 8653 dc3d 1b94 5e3e
00000040: 8c55 19be 074d ee3c f728 953d 6512 383e
00000050: 7628 cebd efd7 08be c448 e53c 0710 823c
00000060: 3f91 4fbe 923a f93c 90a3 2a3d 6437 873d
00000070: 7b19 323e 8018 a6bd f552 0f3d 82ff d4bc
00000080: d7e7 c03b 3116 6b3d 2f0e b1bd 9d9b 2bbd
00000090: 9d5b a3bc 4831 353e 4b85 b6bc 9400 89bd
000000a0: fb28 493e f936 13bc bc6e c23d 671d 98be
000000b0: f76d c7bd 7b44 1fbe 12d4 9f3c 5152 44bd
000000c0: 7c02 5d3c 2aa1 24be a32b bebd ec0e 773e
000000d0: 4e32 5bbe 0277 b9bd 8862 913c 2799 fe3a
000000e0: c870 efbd 91c3 85be 8b66 89bd d97a 043d
000000f0: 4e29 6e3d 4f47 133e 358a 2dbd 2d3d a3bd
00000100: a42d 82be 9877 db3d 1674 46bd 2783 0dbe
00000110: 8b08 4f3e 6b90 a7bd 2982 16be 5020 f9bc
00000120: 11d5 3d3d 66da 663c 7c51 393e 127c 9b3d
00000130: e6bf d6bc ddaa 8abe fa10 de3d ef1e 103e
00000140: c00f 8b3e 4886 28bd 5bb4 e63d 5acd a7bd
00000150: 440c c63d 0619 313d 6e9f 8cbd 23f9 003e
00000160: cb45 23be 224a b4bd 267c 1ebe 8154 8dbd
00000170: defb 923d 539a 04be 7e33 eabb f8b1 1e3e
00000180: 1254 20bd 4369 e53d feb3 a9bc 4499 713e
00000190: e02b 6cbd 39fa abbd c03c eebd 17ca d1bd
000001a0: 71ba af3d 51b9 553d 68fa 63bd e240 fc3d
000001b0: 00c2 7a3d d469 d23b 837a 82be 2ba0 67bd
000001c0: 049f f33d a946 0b3d b267 05bd 4d6e a13d
000001d0: 3084 8fbe fd1c 76bc 7c4e 51bd 0bd9 1f3d
000001e0: ff34 e7bd da09 febd 5d6f 06be 0081 27be
000001f0: b311 963d f8bd 3f3e 9ef5 92bd d7e4 c23d
00000200: 6907 cc3d 61c6 efbd f8e9 bc3c 19f4 0abe
00000210: fd5d a03e 5c53 13be bdaf 0ebd b138 11be
00000220: 034e 863d 5244 f2bd a0b6 8f3e 6a0f 463e
00000230: af1b 25bd 93e6 31be 4104 303d 6f56 8b3e
00000240: c399 8b3d 4255 7f3e 4dfa 72bd 0394 61be
00000250: 21bd 9dbd 0e25 e1bd f065 27be 4461 823e
00000260: 21ec f0bb 15de 143e b490 85be ae77 84be
00000270: c5c7 d03c 247c d6b9 3e8c 003e 4120 0bbd
00000280: dbc6 b3bc 59f6 25be 348d 513e 21dd aa3d
00000290: 3def 08bd 1f52 8cbd a07f 1dbe a455 43be
000002a0: 89c8 cdbc 6235 ff3d e3f3 02be 4180 9f3d
000002b0: c090 85bd 906a 5fbd 95a7 543d 726e b0bd
000002c0: b896 e1bb 4736 723d 54a6 603c f138 833d
000002d0: 90ff 25bd cb2f 66bd 9a33 0a3e ca82 633e
000002e0: 4e0c 4e3d 7b34 36be fbe9 4fbe 2860 8c3d
000002f0: b9a8 333e f09f 4f3e a2ce 133c 694e 853e
00000300: 6a66 3a3d 5fcb 10be c12a 5b3e 20c0 1c3d
00000310: 2151 fbbd d159 f63d 15de 173d b1e2 59be
00000320: 0d4e 3c3d a450 0f3e e5d8 083e 17b3 42be
00000330: af70 403d 9009 803d 0e0b 733d 5324 5f3d
00000340: 02f8 b13d 8dc5 82bd e57e 58bd 09ee 7a3d
00000350: 6ec2 debd 2b36 52be ac1a cc3d 156f 263e
00000360: c552 cebd f5c0 51bd 9ff3 27be e562 013d
00000370: 006d b63d ebd1 04be 40f5 94bc c581 743d
00000380: 66bf bbbc 617d 6f3d f129 bd3d 73ec b1bd
00000390: f54c f53d 0d65 4ebd a07f cc3d 471f 213e
000003a0: 22f9 803e aee6 80bc 01e0 06be baea 38bd
000003b0: 62af f4bc dff7 86bd bc54 68bd 5596 aabd
000003c0: 6666 27be 3d93 f73b f74f 833d 79e6 823e
000003d0: 6d03 e2bd 333c 16be 4af0 dabd 7f3b 3abd
000003e0: e416 41be 77c1 53bd 3682 24be 29e8 c1bd
000003f0: f4c0 25be f354 383e 8a4d c5bd 78a1 08be
-0.009806251 -0.12519424 0.19198059 0.18992211 0.118500665 -0.107543804 -0.038034327 -0.11331703
-0.058317024 -0.07508336 -0.01564148 -0.06868226 0.049604695 -0.048301935 0.10758118 0.21736185
-0.1497404 0.029089464 0.07283204 0.17975767 -0.10066311 -0.13363622 0.027988799 0.015876783
-0.2027025 0.030423436 0.04165989 0.06602362 0.17392533 -0.08110142 0.034991223 -0.026000742
0.0058870125 0.05739421 -0.086452834 -0.04189645 -0.019941146 0.1769458 -0.022280356 -0.066895634
0.19644539 -0.0089852745 0.09493777 -0.29709932 -0.09737771 -0.15553467 0.019510303 -0.047930066
0.013489362 -0.16077104 -0.09285667 0.24126786 -0.21405908 -0.09055902 0.017747179 0.0019424305
-0.11691433 -0.26125768 -0.06709012 0.03234372 0.05814486 0.14382671 -0.042368133 -0.07970653
-0.25425446 0.1071617 -0.048450552 -0.13819562 0.20218103 -0.081818424 -0.1469809 -0.030410916
0.046345774 0.014090156 0.1809749 0.07592024 -0.026214551 -0.27083483 0.10843082 0.140743
0.27160454 -0.041143686 0.11264869 -0.081934646 0.09670308 0.043236755 -0.06866346 0.12595038
-0.15944593 -0.08803202 -0.15477046 -0.069008835 0.07176946 -0.12949495 -0.0071472516 0.15497577
-0.039142676 0.11201718 -0.02071571 0.23593622 -0.05765903 -0.083973356 -0.11632681 -0.10243624
0.08580483 0.052178685 -0.055658728 0.12317063 0.06122017 0.006421307 -0.25484094 -0.056549232
0.11895564 0.034002934 -0.032569595 0.07882366 -0.2803054 -0.01502156 -0.05110024 0.039025348
-0.11289405 -0.12404223 -0.13128419 -0.16357803 0.073275946 0.18724811 -0.07175754 0.09516304
0.09962351 -0.1170776 0.023060784 -0.13569678 0.31321707 -0.14387268 -0.034835566 -0.14181782
0.06557848 -0.11829437 0.2806902 0.19341817 -0.040309604 -0.17373113 0.042972807 0.2721438
0.06816437 0.24934867 -0.059320737 -0.22029118 -0.07702089 -0.10993396 -0.1634748 0.25464833
-0.0073523675 0.14537843 -0.26086962 -0.25872558 0.025485883 -0.00040909753 0.12553498 -0.033966307
-0.021945408 -0.16207255 0.20464021 0.08342958 -0.03343128 -0.06851601 -0.15380716 -0.19075638
-0.025120037 0.12461354 -0.12788348 0.07788134 -0.065217495 -0.054544985 0.05191763 -0.08614816
-0.006884422 0.059133794 0.013711531 0.06407345 -0.040526927 -0.056197923 0.13496247 0.22217861
0.050304703 -0.17793457 -0.203041 0.06854278 0.17544831 0.20275855 0.009021433 0.26036385
0.045507826 -0.1414008 0.21403028 0.038269162 -0.122713335 0.1202885 0.03707703 -0.21277882
0.045972873 0.13995606 0.13363989 -0.1901363 0.046982463 0.06251824 0.059336714 0.054478
0.08689882 -0.06385336 -0.05285539 0.061262164 -0.10876928 -0.20528476 0.09966025 0.16253312
-0.10074381 -0.05120941 -0.16401528 0.031588454 0.08907509 -0.12970702 -0.01818335 0.05969407
-0.022918414 0.05846918 0.09236515 -0.08687677 0.11977569 -0.05038934 0.0998528 0.15734588
0.25190073 -0.015734997 -0.13171388 -0.045145728 -0.029868785 -0.065902464 -0.056721434 -0.08329455
-0.16347656 0.007555394 0.064117365 0.25566462 -0.1103581 -0.14671402 -0.10690363 -0.045466896
-0.18856388 -0.051698174 -0.16065297 -0.09468109 -0.16186887 0.18001156 -0.0963393 -0.13342845

policy_net.lstm.bias_ih_l1 f4 [128]
00000000: b81e 863e f8ae 63be fdc8 45bc 4685 96be
00000010: 242c 633e b77b 21be 3715 6bbe 9133 a43a
00000020: 4507 193e e916 4cbe 420f e53e ad3b 0f3e
00000030: 3e8f 0c3e 6d18 c13d 801f 36be 1b58 433e
00000040: 1a2b 1e3e 62b8 8c3b d5fb a73e 8673 463e
00000050: 69fa 633e 0d4c 95bc d976 bd3e 9a97 373e
00000060: 5715 01be fcb9 463e 4a3d 523e b44e 3b3d
00000070: 1159 4f3e 7aeb d3bd d165 ccbd 7593 89bd
00000080: 1600 853c 759c 41be c354 46be d755 9dbd
00000090: 2d34 873b 06a5 9abd df9f 65be c652 cb3c
000000a0: 1764 87be 0565 abbd 5bfa 1ebe 5403 9bbe
000000b0: dff9 7cbd d4fb a8be e5a5 93be 0fdf 02be
000000c0: 4921 3abd 7c91 433d 3bb9 b43c 6028 54be
000000d0: c26e 323d 93c0 13be 5da8 aebd 5173 59be
000000e0: 207d 5ebd f7a6 3dbd 05df d1bd 831e 36be
000000f0: 86dd ebbd ce91 9abe 7860 98be a31f 40bd
00000100: 03cb 30bd eb0e 633d bafd 0ebe 4f3d 133e
00000110: 32db 24bd 1e14 b3bd ac6d f23c 58af 183e
00000120: 2e45 cc3d 62d5 bbbb 8ab9 dabc c6b2 cc3d
00000130: 04b7 88bd f7b8 ee3d b04a 5f3d 76b5 d93d
00000140: 8de3 013e b7a8 aebd ff1e d53d 5cd6 b1bd
00000150: 3ee7 fb3d fbbf a2bc 8e70 b33d 1f03 08bd
00000160: bc3a 0abe a2d6 843d e4e3 f1bd ba94 e3bd
00000170: 40e1 e73d e57b 73bd bc02 293d 7130 17be
00000180: f1d2 3e3e b1f2 01be 25f9 26be b991 eabd
00000190: 47cf 3d3e 422d c7bc f1d9 8fbe 4556 133e
000001a0: 46ac cebd 4dad e53c 87f1 af3e 2378 233e
000001b0: e5e1 13be ae50 83bd 64b1 4bbe 973a 983e
000001c0: 0275 0a3d 8d54 f6bd 452b 913e 7cd6 943c
000001d0: 0a21 d63d 079d b4bb 5b55 2e3e 39b6 e63d
000001e0: 6056 9bbc 3172 c2bd 6375 293e 84db 093e
000001f0: c965 1c3e b7d5 2c3d 114a 873d 8d55 7abc
0.26195312 -0.22234714 -0.012071845 -0.29398555 0.22184807 -0.1576985 -0.22957312 0.0012527575
0.1494418 -0.19930615 0.44738203 0.13987608 0.13726518 0.09428487 -0.17785454 0.19076578
0.1544613 0.004294441 0.3280932 0.19380006 0.22263493 -0.01822474 0.37004736 0.17928925
-0.12605797 0.19406885 0.20531192 0.045729354 0.2024882 -0.10347648 -0.099803574 -0.06717578
0.016235393 -0.1890734 -0.19368272 -0.07682388 0.004126093 -0.07551007 -0.22424267 0.024819743
-0.2644355 -0.08368877 -0.1552519 -0.30275977 -0.061761733 -0.3300463 -0.28837505 -0.12780403
-0.0454419 0.047746167 0.022060981 -0.20718527 0.043562658 -0.1442893 -0.085282065 -0.21235396
-0.054318547 -0.04630181 -0.10247616 -0.17785077 -0.115168616 -0.30189365 -0.297611 -0.04690517
-0.043162357 0.05543415 -0.13963977 0.14378856 -0.040248103 -0.087440714 0.029593311 0.14910638
0.099741325 -0.0057322243 -0.0266998 0.09995036 -0.066755325 0.11656373 0.054514587 0.10630314
0.1268446 -0.085282736 0.10406303 -0.08683464 0.12299965 -0.019866934 0.087617025 -0.0332061
-0.13498968 0.064862505 -0.11811045 -0.11112352 0.1132226 -0.059444327 0.041262373 -0.14764573
0.18635155 -0.12690236 -0.16305979 -0.11453576 0.18536101 -0.024313573 -0.28095964 0.14388378
-0.10091452 0.028036738 0.34363958 0.15963797 -0.1444164 -0.06411873 -0.19891888 0.297322
0.033802994 -0.120278455 0.28353325 0.01816868 0.104555205 -0.005511883 0.17024748 0.11265225
-0.018962085 -0.094944365 0.16548686 0.13462645 0.15273203 0.042196 0.06605924 -0.015279186

policy_net.lstm.bias_hh_l1 f4 [128]
00000000: 331a b33d a9d1 2ebd 091c d33d 3d3e a6bd
00000010: c480 6d3c b260 af3d 98a2 5ebe a054 8fbd
00000020: e569 05be 27b9 9fbd 739d cc3e 3daf dc3d
00000030: a60d 30be 1f00 4fbd a47b 893c 7e8c 9d3e
00000040: 7037 703e e539 d2bd d8f4 243e e24b e3bd
00000050: 7fa5 873d cbe6 ad3c 47ea 3e3e 8eed 3a3e
00000060: 7692 073e b0c5 133e 76c2 8c3e 2566 bbbc
00000070: 66a8 853e cc1b 3ebe f133 ddbd f063 9bbc
00000080: 0107 0e3d 60a3 9dbe b74a 09be 626c ae3d
00000090: 7771 98bd 567f 38be 1c5a 26be 782e 71bd
000000a0: 12a9 79be 3734 17be 8458 b9be d0ec b3be
000000b0: 520d 9bbe c8f2 27be 35fd 54be 800d f5bd
000000c0: 8447 74be 6fdd a2bd aadb 8abe 0168 3fbe
000000d0: 4f20 da3d 37ec 7dbe 05f3 b5bd 1078 21bd
000000e0: 178d 68be 4277 05be 2aba 49be 675b 93be
000000f0: cb03 65bd 9ba8 70be 4377 d63b c7d0 82be
00000100: 44b6 103d 4927 fcbc 3e58 ffbd db7e 39be
00000110: 8b45 9d3d ca72 2c3c f84b 42bc 382f f9bd
00000120: 3ae6 dabd 3f96 983b 5aee ed3a 0a29 15bd
00000130: dd6b e53d 9852 07be 6185 e9bd 8231 d0bd
00000140: caed 17be 4e17 d93d 7119 0dbe e88d 293d
00000150: 573b 0b3e 869d 6b3d d8f0 cebd f13c 94bd
00000160: cdf8 153e dcb8 39bd 194f df3d 913e 1b3e
00000170: f01a 14be 49a4 483c c9dc 56bc f121 f73d
00000180: 34dc 303e 998e d6bd bdd0 24bb 587e 61be
00000190: b9c3 763e c23e 65bc 86b7 c9bc 37a0 15bc
000001a0: 3284 f2bd e112 93bd 91f5 b43e 37a6 293e
000001b0: bdb8 ce3b fbf9 76bd a4c8 6ebe 6be2 fe3e
000001c0: 85cb 2a3e 9ca2 f8bd 5132 e93d d237 393e
000001d0: ed95 13be b5a0 143e 78c0 fb3d d4c3 143e
000001e0: da80 25bd e0aa 8cbd f697 ca3e f2fc 843d
000001f0: f849 733e 452b 9e3d 3c2d fb3d cda3 da3d
0.087452315 -0.042680416 0.10308082 -0.0811734 0.014496032 0.08563365 -0.21741712 -0.06998563
-0.13028677 -0.07798987 0.39963874 0.107756115 -0.17192706 -0.050537225 0.01678259 0.3077125
0.23458648 -0.10264949 0.16109025 -0.11098458 0.06623363 0.021228215 0.18644057 0.18254682
0.13239464 0.1443088 0.27492112 -0.022875855 0.2610504 -0.18565291 -0.10800923 -0.018968552
0.03467465 -0.30788708 -0.13407408 0.08516766 -0.07443517 -0.18017325 -0.16245311 -0.058882207
-0.24380901 -0.14766012 -0.36200345 -0.3514161 -0.302836 -0.16401207 -0.20799716 -0.119654655
-0.23855406 -0.07952391 -0.27120715 -0.18692018 0.106506936 -0.2479714 -0.08884243 -0.03942114
-0.22710072 -0.13033774 -0.19699922 -0.28780672 -0.05591182 -0.23501818 0.006544979 -0.2554991
0.035330072 -0.030780451 -0.12468003 -0.18114798 0.0767928 0.010525415 -0.011858933 -0.121672094
-0.106884435 0.0046565826 0.0018152699 -0.03641609 0.11202214 -0.13215101 -0.11402393 -0.10165693
-0.14836803 0.10600148 -0.13779236 0.041395098 0.13596855 0.057523273 -0.10104531 -0.07238186
0.14645691 -0.04534231 0.109037586 0.15160586 -0.14463401 0.0122462 -0.013114163 0.12067021
0.17271501 -0.10476417 -0.0025148832 -0.22020853 0.240981 -0.013992013 -0.024623644 -0.0091324365
-0.118416205 -0.07181335 0.35343602 0.16567312 0.0063086436 -0.060296994 -0.23318726 0.49782118
0.16679199 -0.1214039 0.1138655 0.180877 -0.14412661 0.1451443 0.1229257 0.14527828
-0.040406086 -0.06868529 0.39569062 0.06493558 0.23758686 0.07723097 0.12264487 0.10675774

policy_net.dense1.weight f4 [8, 32]
00000000: 7f00 90bd 8494 0dbe 8ae9 a6bd a75a babc
00000010: c2e3 e8bb a1f6 c8bc 51a9 e4bd 89ee 12bd
00000020: b1d4 13be 9660 fdbd 60a8 a43e 0601 b53e
00000030: 2816 bd3d 7d3f e33d a039 34bd a924 943e
00000040: 7cce 7d3e 8ead 033c 4987 01be 399c 01be
00000050: eab7 9fbb 9693 3bbe ded5 94be b7fa 90bd
00000060: ca1f 8b3d 2689 e73d c9e8 83be 5240 503e
00000070: 3b3f 6bbd 1a3f 1c3e 946f f03d b908 703c
00000080: 4754 6fbe fbaf 4b3e 9683 00be 8106 7dbe
00000090: 72ba a63e 5124 c6bd b4db 23bc 3400 c4bd
000000a0: a8ae e5bd 6d47 713c 813d a03d a7e3 d53d
000000b0: 93e3 403d 5436 edbd 6080 bbbc d662 0b3e
000000c0: f777 debd 73f1 ce3d 228d a63a 00d5 aabe
000000d0: 84e8 38be da83 403e 85bb 52be 3798 f23d
000000e0: a9b5 053e 29d4 f63d f17f 9ebe 6a32 a43d
000000f0: e164 533e 8e0f f5bd 49c1 a6bc bd34 503e
00000100: 7717 5bbd 571c d2bc 8759 28be f56d 3bbd
00000110: 8833 8cbd fbbf 9fbd b44c 613e eb9f 89bd
00000120: 2abb 153e a999 a8be b86f 9a3e 182c 673e
00000130: cbf2 5c3d 5ce7 f43d 4fe5 eabd fa00 8d3e
00000140: 5c19 093e 94e1 753e 09b6 c63d f571 31be
00000150: 0213 d53c c1af 4fbe 23a3 8bbe 8629 71bd
00000160: 1344 853e 44dc 5e3d a93a f2bc a209 1bbe
00000170: f3a6 87bd 64f7 1fbe 5c32 c23c 67d8 89bd
00000180: 42b8 2abe 29f3 af3d cf14 fb3c 3cd8 0cbe
00000190: 8794 24bd 0dfe 0abe 1139 363e ec29 6abe
000001a0: 1a9c be3e 3cbc 84bd 2e4b f53c aaf2 043e
000001b0: 9bda 49bd ca5c c2be 330b 7f3d 8a15 913e
000001c0: 2007 6b3e 62ee 3ebd 8819 8f3e 0baa 123e
000001d0: 2323 2abe dfaf 93be 5266 33be b620 493d
000001e0: e9ec b6bd 3178 26be 6f4a 5bbe df96 a4be
000001f0: 1fb1 a63e b0a0 a6bd 1ffb f9bd 4ffe c43d
00000200: bc26 833e c5d4 b33c 88b5 4ebe ca7a 413e
00000210: a52c bbbd b8af 3f3e 3578 743e 961e 893e
00000220: 5b96 9e3d f80c cb3d 802a 7abe 63b8 45be
00000230: 94e1 5fbe 2a33 853c 6853 8abd 946e ecbd
00000240: f10f 6c3d 0528 bdbd 7801 90be 819b 523e
00000250: f5eb 0e3e a204 943d c3bb ac3d 4092 84be
00000260: 3d85 86be df05 b53d 72ec 5a3e 942d d2bc
00000270: 5da2 51bd 4544 42bc 00ab 41be 14b1 d2bd
00000280: a6f5 173e 1704 54bc d47b 06be ebfc d6bb
00000290: 04b6 54be 1aa2 4f3e 3fc9 163e 0177 803d
000002a0: fd69 62bd 081d 75bd bdbb 06bf 9b25 c8be
000002b0: fa04 31bd 241e 21bc c2d7 053e 8a88 f4be
000002c0: d7d2 a7be 7297 c5bd 695d 71be a6f1 193e
000002d0: 1d64 563c 1d73 bb3e fc4a e93e 39e3 8abe
000002e0: 5b82 7b3d 6012 9bbe 12a2 953e 6ae9 3a3e
000002f0: b871 9cbe e3ae 973c 822f 74be bcdf 7738
00000300: 9173 8f3d 59eb d53d 2f8b 9dbd c6da 883e
00000310: e74a fcbd a0ed df3d 811c dcbd 8cb3 943d
00000320: cf88 543d 9e12 fd3d 811d a8be 606d 1dbe
00000330: a1e2 9e3d 3afc 223e 7d24 8abd 1159 d3be
00000340: 6571 cabc c6cc 6cbe 30b6 4ebe a8f5 2e3e
00000350: 4c8c a13d abe2 d3bc b0b6 673e de9a 89be
00000360: 9c79 90be ee82 52be dd78 3b3e 5c62 dfbc
00000370: 3695 96bb e635 fa3d ba0d 203d d88b 68bd
00000380: 957a 13be 3508 0abd c9b4 343e 3762 a83d
00000390: a16e a23e dac0 b83d 18fc bc3d d749 ebbd
000003a0: 6790 cfbd 312e 15be bf6f 0d3e 4f4e d83d
000003b0: c1bc 4e3e 733a 1cbe 938a 513e 9c99 283e
000003c0: a9f9 0a3e f919 a23d c2c2 913e e2c8 2abe
000003d0: 41c1 21be ac90 39be 771c a8bd 07a4 9e3e
000003e0: bb71 903d 2130 0e3e 6a6c 9dbe 73af 8fbd
000003f0: 85b1 743e 038e 013e e0f2 3b3e 0d29 193e
-0.070313446 -0.13826185 -0.08150013 -0.022748305 -0.007107229 -0.024531664 -0.11165107 -0.035872016
-0.14436604 -0.12371938 0.3215971 0.35352343 0.092327416 0.11096094 -0.044000268 0.2893422
0.24785799 0.008036984 -0.12649263 -0.1265725 -0.004874219 -0.18318018 -0.29069418 -0.0707907
0.06793173 0.11305456 -0.25763538 0.20337036 -0.05743335 0.15258446 0.11740032 0.014650517
-0.23371993 0.1989135 -0.12550196 -0.24709512 0.3256412 -0.096748956 -0.010001112 -0.09570351
-0.11214954 0.014726502 0.07824231 0.10443812 0.04709203 -0.11582628 -0.022888362 0.13611922
-0.10862725 0.101046465 0.0012706856 -0.3336563 -0.18057448 0.18800297 -0.20579346 0.11845439
0.13057579 0.12052185 -0.30956987 0.08017428 0.20643951 -0.119658574 -0.020355837 0.20332618
-0.053489175 -0.02564828 -0.16440402 -0.04575916 -0.06845766 -0.07800289 0.22001916 -0.06719955
0.14622179 -0.32929733 0.3016336 0.22575414 0.053942483 0.11958191 -0.114695184 0.27539808
0.1338858 0.24011832 0.09702689 -0.17328627 0.02601004 -0.20281889 -0.272729 -0.05887749
0.260285 0.05440928 -0.029568987 -0.15140393 -0.0662364 -0.15621716 0.023705654 -0.067307286
-0.16671851 0.08591301 0.03064957 -0.13754362 -0.04018071 -0.13573475 0.17795207 -0.22867554
0.3722847 -0.06481215 0.029943075 0.12983194 -0.049280744 -0.37961417 0.06226654 0.28336746
0.22951937 -0.04661406 0.27949166 0.14322679 -0.16614966 -0.28845116 -0.17519501 0.04910346
-0.08931906 -0.16256787 -0.21415113 -0.32146356 0.32557008 -0.081361175 -0.12206101 0.09618818
0.2561549 0.021952042 -0.20186436 0.18894497 -0.09139375 0.18719375 0.2387398 0.26781148
0.07743522 0.09914583 -0.24430275 -0.19308619 -0.21863395 0.016259748 -0.0675419 -0.115445286
0.05763239 -0.09236149 -0.2812612 0.20567133 0.13957198 0.07227446 0.0843425 -0.2589283
-0.26273528 0.088390104 0.21379259 -0.025656499 -0.051180232 -0.011857097 -0.18912888 -0.10287681
0.14839801 -0.012940428 -0.13133174 -0.006560912 -0.20772558 0.2027668 0.14725207 0.06272698
-0.05527686 -0.05984214 -0.52630216 -0.3909119 -0.043217637 -0.009833846 0.13070586 -0.4776042
-0.32778046 -0.096480265 -0.2357079 0.15033588 0.013085392 0.36611262 0.4556502 -0.27126482
0.061403614 -0.30287457 0.29225212 0.18253103 -0.3055551 0.01851601 -0.23846248 5.9097758e-05
0.070044644 0.1044528 -0.07692563 0.2672941 -0.12318974 0.10933995 -0.10747624 0.07260808
0.051888283 0.123570666 -0.3283501 -0.15373755 0.0775807 0.1591653 -0.06745241 -0.4127889
-0.024712274 -0.2312499 -0.20186687 0.17085898 0.07888088 -0.02586492 0.22628284 -0.26875967
-0.2821778 -0.20557758 0.18307824 -0.027268581 -0.004595424 0.122173116 0.03907559 -0.05677399
-0.1440223 -0.033699233 0.17647089 0.08221858 0.31725028 0.090211585 0.092277706 -0.11488693
-0.101349644 -0.14568402 0.13812159 0.10561811 0.20189191 -0.15256672 0.20463018 0.16464847
0.135718 0.0791511 0.284689 -0.16678193 -0.15796377 -0.18121594 -0.08208554 0.30984518
0.07052942 0.13885547 -0.30746776 -0.07015886 0.23895843 0.1265183 0.18354368 0.14957066

policy_net.dense1.bias f4 [8]
00000000: 843f d1bd 43f0 863c bfd1 c3bc 5147 433d
00000010: ed39 71bd a761 5d3c c309 55bc b687 bb3d
-0.10217193 0.016471988 -0.023903726 0.047675434 -0.058893133 0.013512052 -0.013002816 0.09156744

policy_net.dense_out.weight f4 [1, 128]
00000000: 21b8 1a3c 9484 74bd cdd2 adbc 5b04 82bd
00000010: e2fa 443d 179b 17bd 1b16 063d 112b 8a3d
00000020: a607 0b3c 1210 a4bd 9337 48bd 05d1 013d
00000030: df4b c63c 76d3 e43d 04ff d83d f38c 91bd
00000040: 5519 afbd 3249 263d 489d 2f3d 80cf a8bb
00000050: 8c1e 1d3d 20c0 e8bd 39a8 d03b c7e4 943d
00000060: d6cd e33c 1030 cabd 7dcc debc 7a02 bb3d
00000070: 7437 8d3b dd74 aebd b9ee 963b a87e 5f3b
00000080: 0046 ec3c 73e0 21bd 43a9 abbd 7ef4 96bd
00000090: b102 553d 8824 b33d 54cc ccbc d72c f93b
000000a0: c2e8 09bd 0c15 47bd 9235 963c 50de 543d
000000b0: bfe2 fa3b 1c33 fabd b1a7 3dbd cf0a 4abc
000000c0: 1083 4bbd 45d3 d3bd 5151 993c b741 bfbc
000000d0: c814 353d ddef 983c a7d8 6d3c b3ed 2a3d
000000e0: 3d2e 203d a502 c23d f760 82bb 4e3e 08be
000000f0: 2680 cb3c eb01 d83c d004 9ebb 8bea 883d
00000100: 9514 61bd fc3f c23c e953 babd daeb 9cbd
00000110: ef5d 6a3c 1fec 15bd aa93 ff3c 9ee5 0cbc
00000120: 3191 91bd 8db9 8c3c bc6a f5bd 0e92 04bd
00000130: f8e8 0a3d cc2f acbd 5d4e efbc 8522 0a3d
00000140: c571 c8bc 5f0d 9dbd 26ea 74bc 7fc9 cbbc
00000150: 1911 aa3b e12e bf3b 6250 c0bc fd47 b33d
00000160: c172 633d 1b7f edbb 875e 38bd f1e0 90bd
00000170: 2c9e 94bd c966 3bbc c487 c13c febb 983d
00000180: d52c 353d 0839 423c 0bb1 d2bc 076d 2bbd
00000190: 4da5 1cbd 24e5 993d 0912 7f3d 1358 c13d
000001a0: 92d0 f63c 14e7 ec3a d5d5 283d 6ab6 133d
000001b0: 529a fbbd 159a 80bd 0917 f8bc 59eb a53c
000001c0: 9644 083e 257c 253e 7212 0b3e d92a a2bc
000001d0: 36dc 54be dd57 52be 312a e9bd 03d4 2b3e
000001e0: 5a94 323e 3dfe 893e ad1a 833e b944 963e
000001f0: fa68 b2be e1f7 d1be 16fd bdbe cc35 b73e
0.009443314 -0.05969675 -0.021218682 -0.06348487 0.048090823 -0.03701314 0.032735925 0.067464955
0.00848571 -0.08010878 -0.048881125 0.031693477 0.0242061 0.111731455 0.10595515 -0.07106962
-0.085497536 0.04059715 0.042874604 -0.005151689 0.03835921 -0.1136477 0.00636771 0.07270198
0.027808111 -0.098724484 -0.027197117 0.09131332 0.004309589 -0.08518384 0.0046060947 0.0034102593
0.028841972 -0.039520692 -0.083818935 -0.07370852 0.05200452 0.08747202 -0.024999775 0.0076042223
-0.03366924 -0.048604056 0.018336091 0.051969826 0.007656425 -0.122167796 -0.0463025 -0.0123316785
-0.049685538 -0.10343031 0.018715532 -0.023346765 0.04420927 0.018669063 0.014516986 0.041730594
0.039106596 0.09473161 -0.0039788443 -0.13305017 0.02484138 0.026368102 -0.004822351 0.066853605
-0.05495127 0.02371215 -0.09098036 -0.076621726 0.014304622 -0.036602136 0.031198341 -0.008599667
-0.07107771 0.017178321 -0.119832486 -0.03236585 0.033913583 -0.08407554 -0.029212171 0.033724327
-0.024468312 -0.07668566 -0.014948403 -0.024876354 0.0051900265 0.005834446 -0.02347583 0.08753965
0.05552936 -0.007247818 -0.045012023 -0.07074154 -0.072567314 -0.01143808 0.023624308 0.07457732
0.04423221 0.011854418 -0.025719186 -0.041852023 -0.03824358 0.07514408 0.06227306 0.09440627
0.030128751 0.0018074238 0.04121955 0.036062635 -0.12285294 -0.06279389 -0.030284422 0.020253824
0.13307413 0.16160639 0.13581255 -0.019795822 -0.20787129 -0.2054133 -0.113850005 0.16780095
0.17439404 0.2695178 0.2560629 0.29349306 -0.34845716 -0.4100943 -0.37107152 0.3578323
