trained_models/15_lag_ppo_InvertedPendulum-v2_eps_0.0_critic.pth (torch, 175156 bytes, 33 tensors)

critic_net.lstm.weight_ih_l0 f4 [128, 4]
000000 4f 05 71 3c c4 11 72 bf b4 7c e5 3d 7d 37 94 be
       0.014710738 -0.9455836 0.11205426 -0.28948584
000010 20 0f 21 3e a7 91 7d 3f 17 a3 d5 3e d3 6b d6 3d
       0.15728426 0.9905037 0.4172599 0.104697846
000020 e4 fa 3f 3e e2 ff 08 3d 4d 9e 3a bc 95 d9 fb 3c
       0.18748051 0.033447154 -0.011390281 0.0307434
000030 c3 4a 44 3f 6b cd b1 3f 7b be 6b 3f ce ee 8b 3e
       0.7667658 1.3890814 0.92087525 0.2733063
000040 79 e0 6c 3e 22 57 08 bf f4 57 3c 3e 8c 58 c5 be
       0.23132505 -0.53257954 0.18392926 -0.38544118
000050 dc d7 fd bd 2e 63 15 bf d7 e9 56 be 0c 12 7a 3b
       -0.123946875 -0.5835446 -0.2098764 0.003815773
000060 b6 52 37 3f 4d 30 64 bd c8 1f cd 3e 97 cb 9d be
       0.7161058 -0.055710126 0.4006331 -0.3081939
000070 28 55 e2 3e ea 63 59 3f c1 20 fd 3e ea 00 47 3e
       0.44205594 0.8491808 0.49439052 0.19433942
000080 9b 30 19 3e 74 ec d4 be 4c 4f 85 be 64 cc e2 be
       0.14959948 -0.4158665 -0.2603706 -0.44296563
000090 52 4e 62 bd 47 07 55 3e 16 58 50 bd 27 f3 52 bd
       -0.055250473 0.20803557 -0.050865255 -0.05150142
0000a0 99 ac 1b 3f b4 f4 e1 3f c4 f1 c8 bd 4f cb 59 bd
       0.6081024 1.7652802 -0.09811738 -0.053172406
0000b0 c9 ae 24 bd 14 38 2a bf 51 81 3c be 00 a3 0f bd
       -0.04020575 -0.6649182 -0.18408705 -0.03506756
0000c0 87 b2 92 bd 09 f0 d9 bc 18 aa c2 bc f5 39 03 3a
       -0.07162958 -0.026603715 -0.023762748 0.00050058897
0000d0 31 a4 f8 3e 85 62 4b bf 0d d9 2b be 5d 8f 8d be
       0.48562768 -0.79447204 -0.16782017 -0.2764844
0000e0 67 95 95 bf 5c 16 b2 3d 24 4b ce 3e 8a ff a1 3e
       -1.1686219 0.08695671 0.40291703 0.31640273
0000f0 00 e7 78 be dc cf 8f 3e 19 1f 3a be 37 26 59 bd
       -0.2430687 0.28088272 -0.18175925 -0.05301496
000100 92 42 86 3e a6 b9 ae 3f 1c fb 86 3c 72 3e a8 3e
       0.26222664 1.3650405 0.01647716 0.32860142
000110 e2 d3 8b bf 94 61 0a c0 a2 0b 00 bf 16 5f ae be
       -1.0924037 -2.1622057 -0.5001775 -0.3405692
000120 ba 98 cb bd 2a 30 97 be 46 4a c1 bd 80 73 af be
       -0.0994124 -0.29528934 -0.09437995 -0.34267807
000130 f0 d3 68 3e 8f d1 5d 3f 93 4e 61 3d 0f 81 3f 3e
       0.22737098 0.86647886 0.055006575 0.18701576
000140 89 a2 53 3e 75 d5 16 bf c7 9f d2 be 88 ff 12 be
       0.20667471 -0.5891946 -0.41137525 -0.1435529
000150 3a 85 e8 be 8f 95 ca bf 5d 43 a9 bb 48 fe d1 be
       -0.45414144 -1.5826892 -0.005165501 -0.41014314
000160 aa e2 f4 3d 54 1a 6a bf 58 77 5e 3e a3 66 da bd
       0.11957295 -0.91446424 0.21725214 -0.10664108
000170 06 c7 cb 3e 3a ad 2f bf 94 09 25 3c e5 34 9e be
       0.3980028 -0.686237 0.010073084 -0.3089973
000180 32 77 57 bf d3 98 e3 bf 05 68 2f bd 02 8d 86 be
       -0.8416625 -1.7781013 -0.04282381 -0.26279455
000190 08 2d 61 3d 11 b6 ef be 39 d0 88 be f8 ac 4c bc
       0.054974586 -0.46818593 -0.2672136 -0.012492411
0001a0 86 9e aa bd 6f 41 89 bf 29 57 9b 3e 04 7f e0 be
       -0.08331017 -1.0723094 0.30339935 -0.43846905
0001b0 19 fa 0c 3f 57 57 9c 3f a2 54 35 3f 71 42 ee 3e
       0.5506912 1.2214154 0.70832264 0.46535066
0001c0 48 ab d4 be 06 d2 30 3f a6 f3 00 bc c2 d4 9e bc
       -0.41536927 0.6907047 -0.00787059 -0.01938856
0001d0 b7 b5 21 3f 17 83 8d be 39 1c 70 3c 3b 3b 0a bd
       0.631679 -0.27639076 0.014655166 -0.033747893
0001e0 39 df f0 be 48 23 91 bf 8d 68 58 be c8 0c aa be
       -0.47045305 -1.1338892 -0.21133633 -0.33212876
0001f0 bb 64 a0 be be 9e 8c 3e 9c 34 8c 3c 21 49 7f 3e
       -0.3132685 0.2746486 0.01711493 0.2493024
000200 ab c9 8d 3d 8b e2 bf 3e 58 60 78 3e af 03 11 3e
       0.06923231 0.37477526 0.24255502 0.14161561
000210 24 59 26 bd ed d4 05 3f 88 3c 90 3d ba da 35 3d
       -0.040612355 0.52278024 0.070427954 0.044398047
000220 20 fb 9d 3d 92 6b fd 3e 3c 85 83 3d 66 83 64 3e
       0.07713914 0.49496132 0.06421897 0.2231575
000230 11 d0 15 be 84 72 b5 3e a8 b4 58 be d9 06 65 3d
       -0.14630152 0.3543893 -0.21162665 0.055914734
000240 89 d9 cf bd 73 c0 95 be 66 26 05 be e7 fe 98 3c
       -0.101489134 -0.2924839 -0.13002929 0.018676234
000250 c3 c2 79 3e 94 43 22 bf a4 d8 06 bf d6 2d 2c bd
       0.24390702 -0.63384366 -0.5267432 -0.0420359
000260 d6 03 2f 3e 0b 57 5f 3f 97 03 12 3e 88 88 b3 be
       0.17091307 0.8724219 0.14259182 -0.35065103
000270 8a af 60 bd f5 a2 68 3e 51 d5 14 3e 2c 49 ba 3b
       -0.054854907 0.22718413 0.14534499 0.0056849923
000280 21 60 4c 3d 42 ca 14 3e e3 8d 0d bf fc 0d 77 be
       0.049896363 0.1453028 -0.55294627 -0.24126428
000290 b5 b3 9c bd 22 ea a2 3d 5c 2c 62 3b e2 83 12 3d
       -0.07651464 0.079548135 0.0034511304 0.035770305
0002a0 34 d3 27 3e e4 c6 44 3f ee ee 0b 3d ba 15 c3 3b
       0.16389161 0.76865983 0.034163408 0.0059535177
0002b0 fb 28 84 3d 07 9e 2e bf 59 31 bd 3d c9 69 3d be
       0.06453129 -0.6820988 0.09237928 -0.18497385
0002c0 d0 42 aa bc 24 43 e4 3d a6 2e 8a 3d 89 fb 13 3e
       -0.020783812 0.111456186 0.06747179 0.14451422
0002d0 82 53 af 3c f9 13 a4 3e f7 52 ec 3e 42 05 22 be
       0.021402124 0.32046488 0.46157047 -0.15822318
0002e0 66 58 a5 bc 78 39 73 bf 01 49 09 3e 33 23 c0 bd
       -0.020183753 -0.95009565 0.13406755 -0.09381714
0002f0 4d 12 12 be d6 32 04 bf 30 f6 a5 be 06 07 a0 be
       -0.14264794 -0.5164007 -0.3241439 -0.31255358
000300 e1 3a ac 3c 6c 41 05 be 93 fc 24 be 1b fa 4e bd
       0.02102417 -0.13013238 -0.16111974 -0.050531488
000310 6d d2 58 bd 99 e5 07 3e 89 23 07 3f de fc d0 3d
       -0.052935053 0.13271178 0.527886 0.102044806
000320 de a5 0c 3f 3a da 1d 3f c9 75 3a be 42 4b c5 be
       0.54940593 0.6166111 -0.18208994 -0.3853398
000330 bd 0e 1b be f7 96 45 bf 6e a4 75 3b 04 ad a1 be
       -0.15142341 -0.7718348 0.003748204 -0.31577313
000340 bc a4 92 3b a6 91 43 3f 2b 6b 25 3e c3 52 1f 3e
       0.0044752043 0.76394117 0.16154163 0.15558915
000350 7a ae 36 be e5 04 2b bf 41 4a 32 3e 44 98 b7 bd
       -0.17839995 -0.66804343 0.17411138 -0.08964589
000360 f4 6c a0 3d 5e f3 28 3f ef a8 88 bd e0 64 3c 3e
       0.07833281 0.6599635 -0.066728465 0.18397856
000370 3f 5d 4c be 90 04 0d 3e ef 0f 29 3e 99 33 63 3d
       -0.19957446 0.13771272 0.16509984 0.05546913
000380 41 76 ba 3d 04 b2 89 bd d1 7e aa 3d bb 95 7b 3e
       0.091045864 -0.06723407 0.083249696 0.24568836
000390 8a a2 05 bd 4e 3d 47 be 6b 05 62 bb db f6 07 be
       -0.032625712 -0.1945698 -0.0034488093 -0.13277762
0003a0 26 ba e1 bd 12 ba 49 39 ee 46 1a bd 5a 47 07 3e
       -0.11021833 0.0001923817 -0.0376653 0.13210812
0003b0 ae a8 d4 3b f9 0b 25 3d 04 65 60 3c e5 d4 55 3d
       0.0064898347 0.04029462 0.013695959 0.052204985
0003c0 80 6d 7f bd 17 a5 62 3e 9d e7 45 3e 89 8c 83 3e
       -0.062360287 0.2213329 0.19326635 0.25693157
0003d0 27 16 a4 bd ad 15 24 3f e3 85 2c be 25 01 c9 3d
       -0.08012038 0.64095575 -0.16847949 0.098146714
0003e0 2d 1a 0b 3c 21 a9 d5 be ef 76 a1 3d 48 f5 1c 3d
       0.0084901275 -0.41730598 0.07884013 0.038319856
0003f0 4c f5 2a be 2d cc 10 bf 03 0f b1 bb 2e 48 9e bd
       -0.16695136 -0.5656155 -0.005403401 -0.07728611

critic_net.lstm.weight_hh_l0 f4 [128, 32]
000000 ff 19 0a 3d db ad bf 3d 45 e4 b9 bb 55 ec 47 3e
       0.033716198 0.09359332 -0.005672964 0.19523747
000010 d5 1d bd 3d 46 82 83 bc b5 85 b9 bc 9d 80 7a bc
       0.09234206 -0.01605333 -0.022646764 -0.015289453
000020 fd 4c b6 3b 23 e8 25 3e 7f 9b 0f 3e d4 8f 2a 3c
       0.005563377 0.16201834 0.14024161 0.010410268
000030 dd b4 cb 3d 3d 68 4f 3c 7f e2 e8 bd 8e 7e de 3d
       0.09946606 0.01265913 -0.11371326 0.10863982
000040 df 5b e2 bb 69 f5 06 be fc b8 b4 3c e3 3b 8c 3d
       -0.0069079245 -0.13179554 0.022060864 0.0684736
000050 24 93 f8 3d 65 d2 0a 3e 36 08 82 bd 93 45 8e 3d
       0.1213744 0.13556822 -0.06349222 0.06946864
000060 f8 3b aa bd 7c 81 da 3c 88 81 02 3e dd 9d 13 bc
       -0.083122194 0.026673071 0.12744725 -0.0090098055
000070 c9 c9 1f bd 55 c0 9e 3d df 3d 21 3c 69 0a 02 be
       -0.039010797 0.07751528 0.009841411 -0.12699284
000080 09 f5 1a 3e 3b 52 6b 3d 6e ea a3 bd 55 33 64 3d
       0.15132536 0.057451468 -0.08003698 0.055713017
000090 12 6c 87 3d eb fd 1b 3e 74 f1 e8 3c 41 39 ac 3d
       0.0661241 0.15233581 0.028435446 0.08409358
0000a0 a7 19 65 3e d0 0e 53 ba c5 bb 6b 3c c3 28 fd bc
       0.22373067 -0.00080512185 0.014388029 -0.030903226
0000b0 58 df 01 3d 2c e4 4c be 52 b9 2a bd f7 4a 27 be
       0.031707138 -0.20008916 -0.04168064 -0.1633719
0000c0 c7 78 4c 3e 5c 87 bd bd 5a 2b 9f 3d 85 09 ad bd
       0.19967948 -0.092543334 0.077719405 -0.08449081
0000d0 c8 48 1a 3e c4 c9 45 be 68 63 32 3e 52 19 61 3e
       0.15066826 -0.19315249 0.17420733 0.21982315
0000e0 d1 22 01 bd 1c 8a 0d be 3a 0f c3 3d 6c 01 27 be
       -0.031527344 -0.13822216 0.095243886 -0.16309136
0000f0 45 91 50 be 3e 60 3f 3e 58 37 76 bd bc 0e 26 3c
       -0.20367916 0.18689057 -0.060111374 0.010135349
000100 6b 28 ba 3d 13 d6 0b 3e 54 2c 2a 3e e2 de 55 3e
       0.0908974 0.13655882 0.16618472 0.20885804
000110 85 af 2a 3c e8 09 25 3d 4b cc 0d be dc ba 0d bd
       0.010417824 0.04029265 -0.13847463 -0.03460203
000120 ba 73 1a 3e ab c4 28 be 5b 80 2f be 45 95 0e be
       0.15083209 -0.16481273 -0.17138807 -0.1392413
000130 0c e4 62 bd de 9d 5a 3d e3 b0 f2 3d bb 2d b3 3d
       -0.055393264 0.05337321 0.11850145 0.08748957
000140 11 dd 3f be 7f 87 f0 39 41 fb eb 3d a5 d0 3f 3e
       -0.18736674 0.0004587732 0.11522532 0.18731935
000150 02 97 09 3e d8 76 aa bd ab 0f b2 bd a7 4e 87 bd
       0.13436511 -0.08323449 -0.08694395 -0.066067986
000160 c9 f1 49 bc f6 d1 74 bd 1e 4b 26 3d c3 47 4c bd
       -0.0123257125 -0.059770547 0.04059898 -0.049873125
000170 fd 85 f2 3d 93 7a 3b 3e 1f 31 ca 3d 05 8e 9c 3c
       0.118419625 0.18308477 0.0987265 0.019110689
000180 53 b3 61 3e 28 2b 2b 3e ca 59 3a be ac 03 c1 bd
       0.22041063 0.16715682 -0.18198314 -0.094245285
000190 8c 4f 82 be db 9a 13 bd c6 d7 a4 3e d3 95 1b be
       -0.25451314 -0.036036354 0.32195872 -0.15193872
0001a0 f8 d4 a0 3e 9c ae 48 be 7a 67 aa be 9e 7f 2f be
       0.31412482 -0.19597858 -0.3328207 -0.17138526
0001b0 04 b5 3d 3e ee 19 33 3e c9 d0 dc be 07 41 b8 bc
       0.18526083 0.1749036 -0.4312804 -0.022491945
0001c0 46 ac f4 3d 90 a4 a6 3e af c8 86 bd 34 eb c6 be
       0.11946921 0.32547426 -0.06581246 -0.3885132
0001d0 35 34 2c 3d f8 9e 0f be 4f 1c 73 be f0 bc dc bd
       0.042041976 -0.14025486 -0.23741268 -0.107782245
0001e0 08 76 d6 3d 50 55 67 be 8a 36 95 3e 7d 1e 85 3d
       0.104717314 -0.22591138 0.29143173 0.06499956
0001f0 68 29 91 3e 37 96 aa be 9d f4 02 3e 2a e9 44 3e
       0.28351903 -0.3331773 0.12788625 0.1922957
000200 d0 76 10 3e de 52 ce 3d 98 e3 f6 3d c3 c3 80 be
       0.14107823 0.100743994 0.12055129 -0.25149354
000210 a9 88 b7 bd e9 a3 52 3e f3 9f 10 bd e5 4f f7 3d
       -0.08961613 0.2057034 -0.03530879 0.120757855
000220 42 6f 0e bd 34 40 fc bc 7b dd 2f 3d 3b d9 a1 3d
       -0.034774072 -0.030792333 0.04293583 0.079027615
000230 3a ad fe 3d 3f a2 7f bd c4 b9 fc 3d 33 bc 2e 3e
       0.12435384 -0.06241059 0.123401195 0.1706398
000240 b7 10 c9 3d 97 0b 4e be e5 5b ad 3d d8 ac a8 3d
       0.09817641 -0.20121609 0.08464793 0.08236092
000250 a8 de c1 3d 39 0a 89 bc 10 5b 1c bd 5c 45 bb bd
       0.094662964 -0.016728507 -0.03817278 -0.091440886
000260 dd 1e d4 3d ee 57 2c 3e 2b 05 23 be c4 04 01 be
       0.10357449 0.16830418 -0.1591994 -0.12599474
000270 9c a5 4b 3d f6 06 bb 39 d2 af 80 3d ef 58 a8 3c
       0.049718484 0.00035672606 0.06283535 0.02055022
000280 c0 9e 3e bd 37 f7 19 bc 19 cb 95 bd 5b e8 c0 3d
       -0.046538115 -0.0093973195 -0.073141284 0.09419318
000290 1e db a9 bd fc 27 de 3d 98 8e 73 be ce 16 99 bd
       -0.082937464 0.1084747 -0.23784864 -0.07475053
0002a0 95 1b 64 be 85 51 0a bd 2e 40 1f be 75 07 77 bd
       -0.22276147 -0.03376915 -0.15551826 -0.060309846
0002b0 28 66 8f bd 3b 03 3e 3e 8b e6 30 3e 3c aa f8 3d
       -0.07001907 0.1855592 0.17275445 0.12141845
0002c0 0f a4 54 be 7b 03 34 3d 56 45 c0 3e fc 6b 68 3d
       -0.20765708 0.04394863 0.375529 0.056743607
0002d0 c9 b7 ef bd da 3a c5 3c e5 aa c7 bc af e8 aa 3d
       -0.11704976 0.024075914 -0.024373481 0.08345162
0002e0 00 67 76 3d ca bb 06 bd f0 df 02 be 5f 10 93 3e
       0.060156822 -0.032893933 -0.12780738 0.28723428
0002f0 d4 34 d4 3d cf 9b 0a 3e 86 02 ca 3d ed 29 1b be
       0.10361639 0.13535999 0.098637626 -0.15152712
000300 0c ab f9 3e 37 e4 a4 3e 8c 64 84 be 95 f4 e1 3d
       0.4876331 0.32205364 -0.2585796 0.110329784
000310 8c 4e 41 be 0b 48 aa bd 26 e5 40 be c1 94 ee bd
       -0.1887762 -0.08314522 -0.18837413 -0.11649466
000320 36 ae 06 3e ed 56 e3 be a1 16 f3 be 48 4a 24 3d
       0.13152394 -0.44402257 -0.47478202 0.040109903
000330 4e cd a6 3e dd d1 bd 3e 06 ae 1b bf 2d 54 d8 be
       0.3257851 0.37074175 -0.60812414 -0.4225172
000340 41 5c fb bd f0 ea 17 3f e2 ec af 3d a3 0c b7 be
       -0.122734554 0.5934286 0.08590104 -0.3575183
000350 b6 a5 d7 be 40 70 1d 3e 7f a8 76 be 2f 86 e6 be
       -0.42118615 0.15374851 -0.24087714 -0.4502425
000360 97 02 dd be f3 36 f6 be 4f 12 f5 3e ad e4 35 bd
       -0.43166038 -0.48088798 0.4786553 -0.044407535
000370 49 85 a4 3e c1 89 e5 be e2 63 1e 3e 3e 1b bd 3e
       0.32132939 -0.4483166 0.1546779 0.36934847
000380 17 96 09 3d c7 7e d7 bd 79 e1 06 be bf 08 04 ba
       0.033590402 -0.10522228 -0.13171948 -0.00050367037
000390 d0 aa 1d bd f6 47 1d bd 5b 57 a0 3e f6 71 17 3e
       -0.038492978 -0.038398705 0.31316647 0.14789566
0003a0 fe 34 6f 3e d4 67 28 3e ce 14 ce 3c 3c 0e 47 bc
       0.23360059 0.16445857 0.025156405 -0.01214939
0003b0 46 d4 45 3d 00 68 d3 bd 9e f4 36 be c1 8f 92 bd
       0.048298143 -0.10322571 -0.17866752 -0.07156325
0003c0 07 a5 22 be 7d c0 ae bd 72 c3 75 bd 92 6d 08 bc
       -0.15883265 -0.08532808 -0.060000844 -0.008326905
0003d0 2c f5 80 3e 33 8d a6 bd 2d 9a 4a 3e 7e d0 49 3e
       0.2518705 -0.081324 0.19785376 0.1970844
0003e0 c3 54 43 be 1b 27 05 3d 5b 89 95 ba 7c c0 6b 3d
       -0.19075303 0.032507997 -0.0011408733 0.057556614
0003f0 4a 1f 31 bd 8c b3 17 bd ee 24 8c 3d 8d 94 86 bd
       -0.04324273 -0.037036464 0.06842981 -0.065713026

critic_net.lstm.bias_ih_l0 f4 [128]
000000 e0 7f 40 bd ac 0b 72 3d 3b f5 37 ba cc 9d 71 3e
       -0.04699695 0.059093162 -0.0007017438 0.23595351
000010 7f 8f 7e bd 5c 0e a1 bd a2 b2 0c 3f 9a 78 aa bd
       -0.062148567 -0.07864067 0.5496007 -0.08323784
000020 5e 1f 49 3d 1b 51 4e 3d a7 e9 83 bd b3 d2 a9 3e
       0.04910218 0.050370317 -0.0644105 0.33168563
000030 70 5c d2 bd 8b f9 0e 3e 5c 7f 4e 3e c2 a8 b5 3d
       -0.10271537 0.1396238 0.20165771 0.088700786
000040 cb bf b6 3d af 74 12 3b ab 06 19 3f bc 0a d8 3c
       0.089233 0.002234738 0.597758 0.026372306
000050 85 e6 9c 3e 76 8f 1b be 1f 8b 4b 3d 48 e0 3e 3e
       0.30644622 -0.15191445 0.049693223 0.18640244
000060 94 85 dc ba 1c ca b3 bd 9b 11 80 3d 05 4f 41 3e
       -0.0016824477 -0.08778784 0.06253358 0.188778
000070 56 5a 9a 3d 33 6c 0b 3d 45 71 f0 bb 4a d2 4f be
       0.075367615 0.034038734 -0.0073377215 -0.20295063
000080 bb 0e 49 be e6 82 9d bd 5d 4b c1 bd 07 f4 40 3a
       -0.19634525 -0.076909825 -0.094382025 0.00073605817
000090 ec d9 2f be 8e d2 26 3c 2f c2 15 be f9 81 a7 bc
       -0.17172974 0.010182036 -0.14624856 -0.020447718
0000a0 4a 90 0b be 51 e7 0d be f1 c8 52 3d 54 10 5e bc
       -0.1362926 -0.13857771 0.051461164 -0.013553698
0000b0 85 a7 2b 3d cd d4 7f be fd ab 65 bd 26 2c 5a be
       0.041907806 -0.24983521 -0.056072224 -0.21305904
0000c0 c7 b6 26 be 5a 6a 30 be be a8 bb be 0b 51 63 3d
       -0.16280662 -0.1722807 -0.36652178 0.05549721
0000d0 c9 ae e7 bb 4b 01 cc 3d 01 fc b1 bd 68 23 95 bd
       -0.0070703966 0.09961184 -0.08690644 -0.07282144
0000e0 6f d1 46 be 80 e8 87 bc 38 f5 90 bd 39 00 98 be
       -0.1941583 -0.016590357 -0.07078022 -0.2968767
0000f0 12 08 c1 3b 97 f7 83 be e1 e7 88 be 28 48 85 bc
       0.0058908546 -0.25774834 -0.2673941 -0.016269758
000100 34 e8 d4 3d ec 98 cd 3c 5e 70 04 3d 7a 0a 6a bc
       0.10395852 0.025097333 0.032333724 -0.014284724
000110 de 4c aa bd cf a9 c2 3b 0d 46 85 bb 64 7f 7e bd
       -0.083154425 0.005940653 -0.0040671886 -0.062133208
000120 ae 7c 55 3d a7 fb 89 bd 34 09 d2 bd c0 5e 42 3d
       0.052120857 -0.06737452 -0.102556616 0.047453642
000130 39 e2 87 bc 8a a1 9f ba 0e 62 1a be 74 9a 94 bc
       -0.016587364 -0.001217888 -0.15076467 -0.018140055
000140 cd 8a 3e bd a8 a6 db bd 79 2c 88 bd 2b f0 c6 bd
       -0.04651909 -0.107251465 -0.066491075 -0.09713777
000150 96 a3 9c 3d 8b 0a be 3d 7c c9 17 be 68 9b 0e be
       0.07648389 0.09279355 -0.14822954 -0.1392647
000160 4d 0a 50 bd bc 20 10 be cc 34 7d 3d 14 b4 53 bc
       -0.050791074 -0.14074987 0.06181793 -0.012921352
000170 2f 43 da 3c 9d 76 a7 3c d2 3c f3 bd 33 f9 15 3d
       0.026643364 0.020442301 -0.11876835 0.036614608
000180 1d cc 03 3c 76 7e 7a bd 62 53 9b bd d2 5d b8 3e
       0.00804427 -0.06115576 -0.075842634 0.3600908
000190 45 16 be bd 02 05 f3 bc 93 60 c9 3e c5 86 9d 3d
       -0.09281591 -0.029665474 0.39331493 0.07691721
0001a0 68 d5 66 bd c2 d8 bd bc 04 1f b0 3d 1c 5b c1 3c
       -0.056355864 -0.023174647 0.08599666 0.023603015
0001b0 ad 83 b0 3d 10 6e dd 3c 47 d6 76 3d 9b 9e a6 bd
       0.08618865 0.027030021 0.060262945 -0.0813572
0001c0 ef 6d f4 3c b5 b2 0e 3e 9c 5c 44 3f 84 65 e9 3c
       0.029837577 0.13935359 0.7670381 0.02849079
0001d0 64 32 30 3e 97 14 d3 bd 1e 47 38 3e 14 a7 71 3e
       0.17206722 -0.103066616 0.17995879 0.23598891
0001e0 f6 47 e8 3d 94 f1 cd 3d a6 96 1d 3e 39 a1 ac 3e
       0.113418505 0.10055843 0.15389499 0.33716753
0001f0 ff b5 06 3d fc f9 08 3e 2e fe 9c 3e 55 ad 3b be
       0.03288841 0.13376611 0.30662674 -0.1832784

critic_net.lstm.bias_hh_l0 f4 [128]
000000 8c 12 a8 3d a6 95 52 bd eb 44 39 be 37 43 54 3e
       0.082066625 -0.051412247 -0.18092696 0.20728765
000010 5a 32 4e bd f5 e0 0e 3d 48 36 d2 3e 81 76 35 3e
       -0.050340988 0.034882504 0.41057038 0.17720987
000020 b8 91 f3 bd 48 12 c9 3d 53 35 30 3e e6 96 d0 3d
       -0.11893028 0.0981794 0.17207842 0.101850316
000030 2e e0 f7 3d 0a 4e a2 3e 75 e5 4e 3c b0 17 7a 3e
       0.12103306 0.31700164 0.012627949 0.24423099
000040 ef 51 6c 3e 4a cf 17 3e 29 8a 31 3f bd 81 06 3d
       0.2307813 0.14825168 0.6935144 0.03283857
000050 fa 76 68 3e 5f b1 57 3d 57 71 12 bd a6 3a 7f bb
       0.22701636 0.05265939 -0.03575262 -0.003894487
000060 88 09 f2 bc 2c 89 78 bd 47 1a 10 3e e8 59 37 3d
       -0.02954556 -0.060677692 0.14072524 0.044763476
000070 b4 5f 68 bd 0a 9e 6f 3e 5e 47 35 bd 37 70 07 be
       -0.056731895 0.23400131 -0.044257514 -0.132264
000080 a1 e3 88 3d dd d8 d1 bd 92 34 58 3c 5e a9 c2 bd
       0.06684042 -0.102464415 0.0131961275 -0.095049605
000090 50 86 1d be a1 a5 37 be 32 f2 a4 be d1 8e bb bd
       -0.15383267 -0.17934276 -0.3221603 -0.091580994
0000a0 bb d5 26 bd a3 55 32 be 95 fc f0 3c 1c fb 7a be
       -0.040731173 -0.1741548 0.029417315 -0.24509853
0000b0 56 b2 d5 bd 0f 5d 53 be 05 4d a9 bd b4 d0 db 3b
       -0.104344055 -0.20640968 -0.082666434 0.006708229
0000c0 a0 be 66 be e0 57 2f be 7b aa a3 bc c8 75 8e bc
       -0.22533655 -0.17123365 -0.019978752 -0.017390147
0000d0 3d 42 ef bd f7 a8 22 be 9f 55 81 3d f4 ae bf 3d
       -0.11682556 -0.15884767 0.06315159 0.093595415
0000e0 9b 2e 9e be 08 dd 37 3e af 5d 53 be 8e ce e6 bd
       -0.30894932 0.1795541 -0.20641206 -0.11269866
0000f0 42 5d 31 be 9c 48 50 3c 9e e9 84 3d cb 0e 92 bb
       -0.17320731 0.012712624 0.064898714 -0.00445733
000100 55 cf b1 3c 32 19 5c 3d 84 0c 74 bd 9e a6 05 bd
       0.021705309 0.053734966 -0.05958225 -0.0326296
000110 dd 7b 5c 3d c6 61 2e bd b6 86 90 3d 72 0c f8 3d
       0.053829063 -0.042573713 0.07056944 0.12111749
000120 dd be 4f bd 1d 4b c6 bd a3 79 9b 3d 52 ec aa 3b
       -0.05071913 -0.096822955 0.0759156 0.00521616
000130 41 fc 29 bd 94 e3 bd 3d bb c4 a7 bd c3 28 d7 bd
       -0.041500334 0.09271923 -0.0819182 -0.105058216
000140 a7 03 ff 3b ae 45 5b 3e ab da d3 3c 74 b4 9d bd
       0.007782418 0.214133 0.025861105 -0.07700434
000150 b5 1c e4 bd d6 ee ae bd c1 6e ca 3d 44 96 c6 bd
       -0.11138288 -0.08541648 0.09884406 -0.0969663
000160 3b 4b 11 bb 26 28 8a bd 8c 65 e1 3d 11 a1 15 3d
       -0.0022170085 -0.06745939 0.11005697 0.036530558
000170 2f 3e 49 3d 6d 8b 0f bd c8 96 60 3d 5c b7 71 bb
       0.04913157 -0.035045076 0.054831296 -0.0036882972
000180 4b 64 9c bd 64 ae 6b 3d 62 65 00 3e 8b df 7b 3d
       -0.07636317 0.05753936 0.12538674 0.061492484
000190 b2 49 88 3d 0f 59 5b bd 37 4d 06 3f b5 97 59 3e
       0.06654681 -0.05355173 0.5246157 0.21249278
0001a0 41 ff 1d 3e 40 d9 ae 3d cc b9 a0 bd 77 2b 99 3e
       0.15429403 0.08537531 -0.07847938 0.29915974
0001b0 6c dd cd bd f9 d7 41 3d bb 1a d6 bb 61 d3 40 3e
       -0.100519985 0.04732511 -0.0065339482 0.18830635
0001c0 b5 c9 c4 3c 78 b9 7a 3c 6e 3b 2f 3f 99 6a 50 3d
       0.024021963 0.015303008 0.6845006 0.05088291
0001d0 92 23 e9 3d 16 10 bc bd 36 40 0f be fd a2 cc 3d
       0.113837376 -0.09182756 -0.13989338 0.09992025
0001e0 71 b6 e6 3c 55 94 b7 3d 9f 83 20 bc c5 31 8e 3e
       0.028163167 0.08963839 -0.009797006 0.27772346
0001f0 76 10 6b be 9e 01 a7 bd 97 9e 0a 3e 2d cd 36 be
       -0.22955498 -0.08154605 0.1353706 -0.17851706

critic_net.lstm.weight_ih_l1 f4 [128, 32]
000000 1b c0 45 3d 52 47 39 be f2 20 a2 bc 61 b7 cf be
       0.04827891 -0.18093613 -0.0197911 -0.40569595
000010 fd b5 eb bd 6b 0c af 3c a0 c1 84 3d a0 47 c6 3d
       -0.11509321 0.021368226 0.064822435 0.0968163
000020 8d 8a a2 3d bd 4a 13 be 63 37 d4 3e 09 18 0d be
       0.07936583 -0.14383979 0.41448507 -0.137787
000030 7c 10 5b bd 41 2e 52 3e 34 17 1f bc 16 71 0c be
       -0.053482518 0.20525457 -0.009710122 -0.13715014
000040 a5 32 87 3e ab 9b 95 3e 6c e2 2d 3e c0 d8 8a 3d
       0.26405826 0.29220328 0.16980904 0.06779623
000050 74 59 8d 3d 23 92 91 bd a1 c7 67 bc a6 68 8e be
       0.069018275 -0.071079515 -0.014146716 -0.27814215
000060 ad 0f 79 3c 14 df 0f be 41 2e e1 bc 4f fe 40 be
       0.015201491 -0.14049941 -0.027487876 -0.18847011
000070 b5 67 c0 3d 13 10 a3 3e b3 ed 77 be 8d 78 08 3d
       0.093947805 0.318482 -0.24211769 0.03331809
000080 b7 f8 b5 3d a5 92 3d 3e f9 b5 6f be 45 52 20 3e
       0.08885329 0.18512972 -0.23409261 0.15656383
000090 7b bb 47 be 45 36 6b bd ce b3 0a be f9 72 3a 3d
       -0.19505112 -0.057424802 -0.13545153 0.045519803
0000a0 8a 15 2e 3e 25 08 7b bd 40 c9 30 bd 36 d4 cd bd
       0.17000404 -0.061287064 -0.043160677 -0.10050242
0000b0 c1 66 87 bd ea 29 d6 ba 23 e5 99 3d fb 16 d3 bd
       -0.066113956 -0.0016339396 0.075144075 -0.103071176
0000c0 42 4a f5 bd fc dd 02 be c2 27 11 3e ca 9b 46 3e
       -0.11977054 -0.12779993 0.14175323 0.19395366
0000d0 b8 79 ae 3d 97 c2 80 be 0f 95 77 bd cf fc b8 3d
       0.0851931 -0.2514846 -0.060444888 0.090325944
0000e0 12 bf ee 3d 5d 8a 33 bd 84 47 08 be 40 b7 89 3e
       0.116575375 -0.043833125 -0.13308531 0.2689762
0000f0 e8 9c ec 3c 8d 6f 97 bd 60 b8 a0 3d 66 96 46 3e
       0.028883412 -0.073943235 0.07847667 0.1939331
000100 85 7d 8b 3c b2 5d bc be 3e 02 0f 3d 3d b1 b9 be
       0.017027626 -0.36790234 0.034914248 -0.36268035
000110 28 ef 40 3e 9a c8 8d 3d dd 54 cf 3d 54 b4 50 3e
       0.18841231 0.06923027 0.10123608 0.2038129
000120 be cd 94 3d df 19 2e be 46 21 da 3e ab cd 11 be
       0.07265805 -0.17002057 0.4260351 -0.14238612
000130 aa 94 0e be e6 f0 86 3e 21 10 f5 bd f5 34 9d be
       -0.13923898 0.26355666 -0.11965967 -0.30704466
000140 23 67 0d 3f 70 92 0e 3f fd 89 25 3e 18 50 ee bd
       0.552355 0.55692196 0.1616592 -0.116363704
000150 1d cb 82 be 03 ac fc bd 51 5a 71 bd 4e 02 80 be
       -0.25545588 -0.12337496 -0.058924023 -0.25001758
000160 13 ec 45 be 97 0c 48 bd 5f 94 0d 3d b5 0b d2 be
       -0.19328336 -0.04884013 0.034565326 -0.41024557
000170 a8 86 a0 bd af 8f 26 3e c6 59 5c bd 1e df da 3d
       -0.07838184 0.16265748 -0.053796552 0.106870875
000180 bd fb 99 bc 54 1a 98 be 63 47 dc 3d ef 00 28 bf
       -0.018796796 -0.29707587 0.107558034 -0.65626425
000190 4f de 8a be 25 6b 7c be c4 f7 ba 3e 7a e9 86 3e
       -0.27122733 -0.24650247 0.36517155 0.26350003
0001a0 d2 17 85 3e 99 ce 15 3e ab 0c b6 3e b0 99 57 be
       0.25994736 0.14629592 0.3555654 -0.21054721
0001b0 1d c8 35 bc cc 17 80 be c1 e2 a5 bd 8b b0 86 be
       -0.011095074 -0.25018156 -0.080998905 -0.26306567
0001c0 6d 3b 0d 3f 54 d8 25 be fa 6f 13 bf 35 60 d1 3b
       0.551688 -0.16195804 -0.5759274 0.0063896426
0001d0 c3 10 70 3d 20 c9 07 be c6 a5 bc 3d dd 61 5c 3d
       0.058609735 -0.13260317 0.09211306 0.053804267
0001e0 e7 fd 05 3f d5 25 e5 bd e6 ed 8c be c8 7f 17 bf
       0.5234055 -0.111888565 -0.27525252 -0.59179354
0001f0 7b ae 83 be fb 8f d6 bc 98 3b e5 be 30 4e 90 3d
       -0.25719056 -0.026191702 -0.4477203 0.07046163
000200 b5 3c 89 bd e6 9e 3f be 66 fa f2 bd bb 3c 82 bf
       -0.06701032 -0.18712959 -0.11864166 -1.0174783
000210 af f1 89 be b4 01 6a be 13 b7 22 3f a5 55 c1 3e
       -0.26942202 -0.22852212 0.635606 0.37760654
000220 f9 64 f4 3e 14 4b ad be 07 0a fe 3e 06 fd eb be
       0.47733286 -0.33846343 0.49617025 -0.4609148
000230 52 19 b6 3e c7 0b de bc 11 ea f4 bc f3 4a cb be
       0.35566193 -0.027105225 -0.029896768 -0.3970562
000240 a1 d6 41 3f 89 e1 8e be 08 32 5e bf 0f a7 b1 bd
       0.7571812 -0.27906445 -0.8679509 -0.08674442
000250 c7 ce ae 3e a0 d9 f9 be 30 ef c2 3d 1d 17 b2 bd
       0.34142134 -0.48798847 0.09518278 -0.08695815
000260 4f 23 27 3f c9 d2 2e be 87 e6 4f 3e 43 8a 3c bf
       0.6528825 -0.17072596 0.20302783 -0.7364847
000270 ab 65 2a 3e b1 f5 a7 3e d0 08 32 bf cd 41 7b 3e
       0.16640346 0.32804635 -0.69544697 0.2453682
000280 ce d0 6c bd 84 21 c5 bd fd 7a fd bb 91 c7 03 3c
       -0.05781632 -0.09625533 -0.0077356086 0.008043186
000290 11 f5 aa bc 69 b2 ff bc 4c d2 9d bd b3 c3 10 bd
       -0.02086881 -0.031213002 -0.077061266 -0.035342883
0002a0 b3 93 00 3e 4a 1e fa 3c c2 2a 21 3e 9c f7 cd bc
       0.12556343 0.030532021 0.15738967 -0.025142483
0002b0 f3 b3 19 3e 65 11 7f bd bd e8 14 3e 26 1f 12 3d
       0.15010051 -0.062272448 0.14541908 0.035674237
0002c0 5f dc 46 3e a9 dc 4b 3d 04 8e 48 3e 77 1c 0c be
       0.19420002 0.049770985 0.19585425 -0.13682733
0002d0 c9 c5 22 3e 88 97 c7 3d f2 3a f0 3d 85 05 89 3d
       0.15895762 0.09745699 0.11729993 0.06690506
0002e0 1c 0f 21 be 12 00 f0 3d 87 f6 ca ba 09 c0 25 3e
       -0.1572842 0.117187634 -0.0015484848 0.16186537
0002f0 f3 ea 53 be 91 b7 4c 3e cb d8 7d bd 46 11 a4 3d
       -0.20695095 0.199919 -0.061974328 0.08011107
000300 cc b6 f5 bd 3e 03 87 bc 77 33 75 3a 11 62 56 3d
       -0.11997756 -0.016481038 0.0009353677 0.052339617
000310 4d 8b 07 be 22 96 96 bb af d5 1c 3e e2 2a 0e bc
       -0.13236733 -0.004595534 0.15315889 -0.008677216
000320 df 3d bc 3d 9e e6 9e bd ba 7b 77 3d 30 96 0a 3d
       0.091914885 -0.077588305 0.06042073 0.033834636
000330 fc 03 48 bd 23 bc 67 be 23 20 c2 3d 6d 08 e3 3d
       -0.048831925 -0.22630362 0.09478786 0.110855915
000340 5a f7 1c be af 17 f6 bd 99 f1 c8 3d 54 f8 33 be
       -0.15328732 -0.12016236 0.09811706 -0.17575198
000350 5c 52 78 3e 74 27 3c be 7d ad 44 3e 55 45 f9 3d
       0.24250168 -0.18374425 0.19206806 0.12171427
000360 d1 1f 1e 3d a9 fa 8a 3c 1d 96 8d be 03 5d fb 3d
       0.03860456 0.016965227 -0.2765359 0.122736
000370 4b 81 2e bc 4e f9 8d 3c e6 ad 31 bd 8c 90 17 3d
       -0.010650943 0.017330792 -0.043378733 0.037003085
000380 01 0d b1 be 85 5f 9e be ed f1 08 3e b5 85 a8 bf
       -0.34580234 -0.3093225 0.13373537 -1.3165804
000390 d3 92 33 bd 9f e8 8d be 2a 15 4a 3f dc e8 2c 3f
       -0.043841194 -0.27716538 0.78938544 0.67542815
0003a0 d3 9c 96 3e 6b 23 30 bc ca 78 c3 3e 5a f3 30 bf
       0.29416522 -0.010750632 0.38178092 -0.69121325
0003b0 80 48 ba 3d 67 46 ab be 61 c3 81 be 4d 4c ec be
       0.090958595 -0.3345215 -0.25344375 -0.46151963
0003c0 49 b8 59 3f ae 1f 87 bf 9c 6f 8e bf d9 66 55 be
       0.8504682 -1.0556543 -1.112781 -0.20840015
0003d0 0a 41 01 3f 1b 11 06 bf 9d d4 f0 bc 90 f5 ae bd
       0.50489867 -0.5236985 -0.029398257 -0.08542931
0003e0 15 0b 2f 3f 48 9d cc be 94 97 6d be e7 93 7b bf
       0.68376285 -0.39963746 -0.23202354 -0.98272556
0003f0 5e 9e 75 be 44 e0 e1 3d 47 c3 75 bf 63 97 f7 3d
       -0.23986194 0.110291034 -0.96001095 0.120894216

critic_net.lstm.weight_hh_l1 f4 [128, 32]
000000 a1 f7 e2 3d a6 58 12 be 43 60 46 bd 9a b8 25 bd
       0.11082388 -0.14291629 -0.048431646 -0.040459253
000010 83 b4 a7 bb ca 19 67 bd 14 af bf 3c ae d3 de 3d
       -0.005117954 -0.05642108 0.023398913 0.108802184
000020 9a cc 05 be bd a9 7d be fa 9e 0e 3e d3 9c 75 3d
       -0.1306633 -0.24771781 0.13927832 0.059964012
000030 28 69 35 3c 59 64 0a 3e 3b 4f cd bd 3a 61 fc 3d
       0.0110724345 0.13514842 -0.10024878 0.12323232
000040 d9 29 60 bd c0 7d 4d bd 8f f9 e2 bd e9 18 03 be
       -0.05472741 -0.050168753 -0.11082756 -0.12802471
000050 0e 35 3d 3d e5 b7 d1 bb 46 df 95 3d 94 c2 3b 3e
       0.046193175 -0.0064000958 0.07317977 0.18335944
000060 ef f7 2b 3b da 0e e7 bd de c9 0a be 42 78 6b be
       0.002624031 -0.112821296 -0.13553569 -0.22995093
000070 f3 4a fa bd e2 b8 1a 3e 1b 7d 2d 3e 94 3f 82 3d
       -0.12221327 0.1510959 0.16942255 0.06359783
000080 c6 e9 c5 bd 58 0d 22 be e7 a6 1a bc e9 d2 90 3d
       -0.09663729 -0.15825403 -0.009439207 0.07071478
000090 69 99 f4 bc a2 44 8a bc e2 f3 a7 bd 25 d8 94 be
       -0.029858308 -0.01687843 -0.08200814 -0.29071155
0000a0 8b 71 47 3e e6 bf 71 3d 81 b3 dc bd de 9c f2 bc
       0.19476907 0.0590209 -0.10776425 -0.029615816
0000b0 68 8b 3f be e5 18 48 3d 98 ec 28 3e 99 d2 89 3e
       -0.18705523 0.048851866 0.16496503 0.26918486
0000c0 7c de c1 3c 24 1f 55 3e 95 3f 56 3e a7 65 c1 bd
       0.02366566 0.2081266 0.20922692 -0.09443217
0000d0 2e 1d 80 bd 18 4b 3f be 40 ac 84 3d e5 94 9e bd
       -0.062555656 -0.1868099 0.064781666 -0.07743243
0000e0 de 73 bd 3d d1 a6 59 3d 2e e9 93 bc 85 90 29 be
       0.092506155 0.053137604 -0.018055525 -0.16559036
0000f0 36 ce 06 be d1 5d 8e be af 72 8d be ce 88 1d 3e
       -0.131646 -0.2780595 -0.2762656 0.15384218
000100 b8 59 0e 3d 1d a4 cd 3d 48 e9 ab bd 53 fd f8 3d
       0.03475353 0.10041068 -0.08394104 0.12157693
000110 39 5b 3a be 6b 31 71 3e 30 a1 d9 bc ca c2 b7 bd
       -0.18198861 0.23554008 -0.026566118 -0.089727
000120 43 f8 90 bd 91 cc 78 be f7 5b fd 3d 5e d1 2a be
       -0.07078602 -0.24296786 0.123710565 -0.1668143
000130 8d b2 44 3e d0 97 0d be cf a3 be bc 3b d9 c7 3d
       0.19208737 -0.13827443 -0.02327147 0.0975823
000140 8e d1 12 3e 17 3d 97 3d b2 98 37 3e dc 8e da bd
       0.14337751 0.07384699 0.17929342 -0.106717795
000150 2b e1 01 be 49 8d 00 be 6a 93 8b bd 8a b4 89 bd
       -0.12683551 -0.12553896 -0.068152264 -0.06723888
000160 65 a0 d2 3d 2a 98 a7 3d 1e 49 fe 3c b5 bc d4 bd
       0.10284499 0.0818332 0.031040724 -0.103875555
000170 b5 54 2f be c2 6a 03 3d 42 47 5d 3c e9 ff 39 be
       -0.17122157 0.032084234 0.013505759 -0.18164028
000180 f2 56 be 3d 90 24 99 bd f1 04 e7 ba 46 47 2a bc
       0.09293927 -0.07477677 -0.0017625374 -0.0103929695
000190 0d 0a 72 3d 55 51 db 3d 3d a1 43 be 85 f8 88 bd
       0.059091616 0.10708872 -0.19104476 -0.06688026
0001a0 8d 25 9b bd 15 2b 56 be 93 a4 ba 3d 29 e0 46 3e
       -0.075755216 -0.20914872 0.09113421 0.19421448
0001b0 9e 56 2a bd e3 95 5f 3c 33 12 57 3d f0 be 1e 3e
       -0.04158651 0.013646576 0.05250759 0.15502524
0001c0 c3 fd 40 3e b8 d1 99 bd 07 10 92 3d 1f 36 a6 3d
       0.18846802 -0.07510704 0.07131963 0.081157915
0001d0 15 f7 2e be e5 5e 5e 3e 1e 9f 01 be dc b4 45 3d
       -0.17086442 0.21715887 -0.12658355 0.048268184
0001e0 c8 25 12 bd 24 4f e2 bd dd 2c 85 be bf e6 a0 bd
       -0.035680562 -0.11050251 -0.2601079 -0.07856511
0001f0 cf 76 75 3c aa d3 19 3d 2e 08 d5 3d 56 a7 b1 3d
       0.014981939 0.037555374 0.10401951 0.08674495
000200 ba 52 7b be 0a 14 e4 bd 4d 05 b2 3d 08 b4 fe 3d
       -0.24543276 -0.11136635 0.08692417 0.12436682
000210 5d 97 15 be 7f a1 e9 bd f6 07 71 be 68 fb a2 3d
       -0.14608522 -0.11407756 -0.23538193 0.07958108
000220 0c fe 46 3e 65 dd bb be 59 97 0c 3e f2 b1 48 3e
       0.19432849 -0.36692348 0.1372961 0.19599131
000230 cc da 73 be db e7 96 bd 40 46 b6 3d f0 90 52 3e
       -0.23813933 -0.07368442 0.08900118 0.20563102
000240 3e 3a 3a 3e 31 24 b4 bd c6 0d a0 3b 14 8a f3 bd
       0.1818628 -0.087959655 0.0048844544 -0.11891571
000250 1e af 06 be 4e d5 6a bd 39 c3 86 bc c6 15 d8 3d
       -0.1315274 -0.05733233 -0.016450511 0.10551028
000260 ce 03 1f 3e 32 59 d0 bd 09 47 9d be 9f 5c 88 be
       0.15528795 -0.10173263 -0.30718258 -0.26633164
000270 9c d7 c6 be f6 96 f2 3c a9 7c b3 3e 52 0f 31 3d
       -0.38836372 0.029613 0.35056046 0.0432275
000280 c1 1a 34 bd 35 c0 19 3e 78 bf f8 bc 5e 3e 93 bc
       -0.043970827 0.15014727 -0.030364737 -0.017974075
000290 7c db 0d bd db b3 03 3d 07 b4 cb 3b f3 60 5f be
       -0.034633145 0.032153945 0.0062165293 -0.21814327
0002a0 a1 d9 04 be 6f da c9 bd 46 c0 a2 3c a3 04 87 3d
       -0.12973644 -0.09856116 0.019867074 0.06592681
0002b0 2d a8 6b 3a f5 4a c1 bd b8 58 fd 3d cf a2 df 3d
       0.0008989599 -0.09438125 0.123704374 0.10919725
0002c0 3b 73 0f 3e 9e 49 51 3e 81 66 65 3d 68 37 40 be
       0.140088 0.20438239 0.05600596 -0.18771136
0002d0 13 bb 7d 39 4e c7 9c bd 6e 4b d0 bd 52 0b 0c be
       0.00024197651 -0.07655202 -0.10170637 -0.13676193
0002e0 67 af 30 3e 3f 38 16 be b7 cb 47 bd 29 6a 97 3d
       0.1725441 -0.14669894 -0.048778262 0.07393295
0002f0 df 6a e1 bd d0 f3 39 bc ab 1d d5 bc 23 a2 c2 bd
       -0.11006712 -0.011349633 -0.026015123 -0.095035814
000300 40 7e 11 bd bf 58 89 3d a1 b9 12 3e d7 94 ca 3d
       -0.035520792 0.0670638 0.14328624 0.0989167
000310 56 04 71 3e 07 8d 9e 3c ff 41 02 3d e2 92 45 be
       0.2353681 0.019354356 0.03180122 -0.19294313
000320 22 de cd bc d8 0c ea 3d eb 99 2c be fb 08 09 be
       -0.025130335 0.11428231 -0.1685559 -0.13382332
000330 48 06 ec 3d 91 a7 98 3c 68 2f b7 3d 98 b9 ed 3d
       0.115246356 0.01863459 0.08944589 0.11607665
000340 0f f3 0a be 19 4f 96 bd 66 a5 68 3e c9 71 99 be
       -0.13569282 -0.073393054 0.22719344 -0.29969624
000350 4b 62 28 3c 14 50 59 be 5d 47 5f 3e 24 0f 11 3e
       0.010277341 -0.21221954 0.21804567 0.14165932
000360 57 67 01 3e eb c1 c8 bc 4b 27 0f be b2 c1 d9 bd
       0.12637077 -0.02450653 -0.13979833 -0.106326476
000370 60 80 69 be 2e 68 86 be dd 14 2f be 48 86 12 be
       -0.22802877 -0.26251358 -0.17097802 -0.14309037
000380 7e 1f 65 bd db de 61 be b9 a3 33 be 98 20 e3 3d
       -0.055938236 -0.22057669 -0.17542924 0.11090201
000390 a6 c2 14 bd a1 c2 33 be f7 22 9c bc c0 d4 53 be
       -0.036318444 -0.17554714 -0.019059641 -0.20686626
0003a0 6a b7 3c bd 53 37 82 3e 15 c4 2b 3e 0f 15 8a 3d
       -0.046073355 0.25432834 0.16774018 0.06742298
0003b0 0c de e6 bd f0 dc af bd 24 4f 40 3e ba 24 35 3e
       -0.11272821 -0.08587062 0.1878019 0.17689791
0003c0 42 ff 1e 3e f6 f2 30 3e 93 a3 21 3e f3 e2 13 bc
       0.1552706 0.17280182 0.15785055 -0.009026277
0003d0 c7 bf a1 bc 52 fc 6f bd be 84 40 3e 01 c6 8c 3e
       -0.019744767 -0.05859024 0.18800637 0.27494815
0003e0 41 af 51 3e f0 e0 42 bd df 75 d7 be e4 be af bd
       0.2047701 -0.0475778 -0.42082116 -0.08581331
0003f0 5a ee 2d be 7a 44 c0 3d 93 dc 46 bd 3e 1a 95 3b
       -0.16985455 0.09388061 -0.0485502 0.0045502475

critic_net.lstm.bias_ih_l1 f4 [128]
000000 4f bc 16 be 76 2a 9d bd cc 5c 1c 3e ed 7e 33 3e
       -0.14720272 -0.076741144 0.15269774 0.17528887
000010 36 ee 22 3e 4f f7 f1 3d e1 a9 f0 bd 8f d4 45 3e
       0.15911183 0.118147485 -0.11751152 0.19319366
000020 77 e2 5b 3c 8a 40 69 3e 5e 79 13 3e d4 32 9e 3d
       0.013420693 0.22778526 0.14401767 0.077245384
000030 61 69 17 bd 5c c9 88 3d f3 29 4c be 86 c4 2c 3d
       -0.03696573 0.06679031 -0.19937877 0.042179607
000040 3a 52 6e 3e 4f bd f4 3d c3 a4 98 3e 7d cc f1 3c
       0.23273554 0.1195017 0.29813203 0.029516453
000050 71 95 8f bd 3d 60 14 bd b8 3f a4 bc 78 bd 85 3d
       -0.070109256 -0.036224592 -0.020049915 0.06530279
000060 bc 6b 29 3e af c0 d8 3e 33 43 1e 3e 5e 3f af 3e
       0.16545004 0.42334506 0.15455322 0.34228033
000070 78 b7 65 3e 40 10 19 3d 31 e0 4d 3e 7f 36 a2 bd
       0.22433269 0.037369013 0.20105053 -0.079205506
000080 be cd ad bd 58 a8 d5 bc a3 01 2c be fe 25 6d be
       -0.08486508 -0.02608125 -0.167975 -0.23159024
000090 41 89 17 be 88 a1 3e be 32 84 28 3c 4b 6b 61 be
       -0.14798452 -0.18616307 0.010285424 -0.22013585
0000a0 22 5c a8 bd f8 7b b6 bb f6 5d 78 bd b8 15 53 3d
       -0.08220698 -0.0055689774 -0.060636483 0.051534384
0000b0 01 63 41 3e 8a df 8c be 34 99 c7 3c b7 05 ea bc
       0.18885423 -0.27514297 0.024365045 -0.028567178
0000c0 52 46 85 be b5 8c a2 be c2 b5 22 be 31 e4 91 be
       -0.26030213 -0.31747976 -0.15889648 -0.2849441
0000d0 a1 74 67 3d 73 91 53 bd 6a 65 6f be ea 30 a7 3d
       0.05650771 -0.051652383 -0.2337853 0.081636265
0000e0 b8 dd de bd b4 d7 88 be dc 4f 55 be 4d 74 6e bd
       -0.10882133 -0.26727068 -0.20831245 -0.05821638
0000f0 17 b4 9d bd 39 78 30 be 03 d6 20 be 6b a4 86 be
       -0.07700365 -0.17233361 -0.15706639 -0.26297316
000100 78 ea 8f bd 47 f7 b5 bd 61 9b 01 3b 25 ed 7d 3c
       -0.07027143 -0.08885055 0.001977645 0.015498434
000110 e2 e9 53 3d 6f a4 d4 bd c9 07 23 3e 36 a0 8b 3a
       0.05173672 -0.10382926 0.15920939 0.0010652605
000120 05 6f 8d 3d 29 13 60 3a 7d 5d f4 bc 6e 4e 3d bc
       0.06905941 0.0008547777 -0.029829735 -0.011554344
000130 53 9f 01 be 61 df 75 bd fe 24 f7 bd a2 c2 d1 3d
       -0.12658434 -0.060027484 -0.120676026 0.102422014
000140 1a b1 db 3d d7 4b 47 3d 49 57 db bd f0 c9 39 3e
       0.10727139 0.04865631 -0.10710008 0.1814344
000150 76 46 42 3c 04 80 9a 3d 5c 86 10 3e 51 c3 cf bd
       0.0118576195 0.07543948 0.14113754 -0.101446755
000160 00 ab e3 bc e2 e3 8a 3a c0 ec 8e 3d 75 07 bd bd
       -0.0277915 0.0010596479 0.0697875 -0.09229938
000170 8e 6a ef b9 63 2e 33 bc 44 5b 3f bd ed d5 22 be
       -0.00045665022 -0.010936352 -0.046717897 -0.15901919
000180 f8 fe 1a be d9 49 82 bd 81 10 4e be c3 3f d6 bd
       -0.15136325 -0.063617416 -0.20123483 -0.1046138
000190 8e 05 97 3e f3 f8 02 3e e0 73 47 3d 16 01 77 3e
       0.29496425 0.12790279 0.04869449 0.24121508
0001a0 43 ac 80 bd 8c 1f 82 3e f3 cc 18 bd d8 63 4c be
       -0.06282856 0.25414693 -0.03730483 -0.19959962
0001b0 7a c6 8b bd 55 5b 92 3d d8 e9 d4 bd 3d 13 ad bc
       -0.06824966 0.071463265 -0.10396165 -0.021127338
0001c0 19 ef 81 3e a6 6f 15 3e 47 a4 1e 3e 9c 6f 6c 3e
       0.2537773 0.14593372 0.15492354 0.2308945
0001d0 0d e3 3b be 85 0c 6f bc 1b 21 ba 3d 95 b5 b9 b9
       -0.18348332 -0.014590387 0.090883456 -0.0003542124
0001e0 e2 7d 8a 3e f6 a7 b1 3e 91 90 5b 3e ae 6e 08 3e
       0.27049166 0.34698457 0.21441866 0.13323471
0001f0 96 83 08 3e a8 41 cc 3d 85 3d a8 3e 5c 76 36 3d
       0.13331446 0.099734604 0.32859436 0.04454647

critic_net.lstm.bias_hh_l1 f4 [128]
000000 36 12 b2 bd e3 aa 36 3e 33 a0 31 be 09 e5 55 3e
       -0.0869488 0.17838626 -0.17346267 0.20888151
000010 f9 b5 87 3e d2 24 27 be 5f 61 b3 3d 9a 1a 82 3c
       0.26506022 -0.1632264 0.087588064 0.015881825
000020 27 da 5b be 39 90 d3 bc c5 5d 54 3e 0c 97 97 3c
       -0.21469937 -0.025825607 0.20738895 0.018504642
000030 79 88 3e 3e 8d 23 96 3d b6 1c 59 bd c2 8d eb 3b
       0.18606748 0.073309995 -0.053005897 0.0071885297
000040 f5 5f c1 bb b4 0b e3 3d c9 b8 f2 3c 53 80 20 3c
       -0.0059013315 0.110862166 0.029629128 0.00979622
000050 17 c2 aa 3c 5a 1b a5 3d e6 5d 42 3e 1b cc 1b 3e
       0.020844502 0.080618575 0.18981132 0.15214579
000060 c8 e9 83 3e f8 6f d5 3e 27 20 0f 3c af da a4 3e
       0.25764298 0.41686988 0.008735693 0.32198092
000070 33 3b 60 3e b3 5b 8f 3d 55 43 e6 3e d4 c0 87 3d
       0.21897583 0.06999912 0.44973245 0.06628576
000080 b6 e2 71 bd c4 11 17 3c 70 24 92 be 6a f2 8e 3c
       -0.0590541 0.009220544 -0.28543425 0.017449576
000090 00 05 1d be 5b 3a 0a 3d 6c a8 83 bb 96 f0 8e be
       -0.15333939 0.03374706 -0.00401788 -0.27917928
0000a0 2b fc 70 3d 3d 8d 52 bd 0c 6a 82 be aa 3c 7b 3c
       0.058834236 -0.051404227 -0.25471532 0.015334288
0000b0 0a 6b 03 3e 99 9b b8 bd 71 31 42 3d 82 49 00 be
       0.12833801 -0.09014053 0.047410432 -0.12528041
0000c0 c0 4a 99 bc 3a e7 c3 be fc 94 5d be bb 59 e6 bd
       -0.018712401 -0.3826235 -0.21638864 -0.112475835
0000d0 91 ac 9d 3d c7 fa fb bd 73 89 52 3d 67 5d eb bd
       0.0769893 -0.12303691 0.051400613 -0.114924245
0000e0 0c 63 19 be 73 da 6c be 1b 60 71 be e4 d0 67 bd
       -0.1497919 -0.23130207 -0.23571818 -0.056595698
0000f0 4f 4c 8a be 30 d4 5a be dd 6e c4 bd bd a1 64 be
       -0.27011344 -0.21370006 -0.09591458 -0.22327323
000100 2a d0 84 3d 10 e6 12 3a a4 51 91 3b 20 03 b9 bc
       0.06485017 0.000560374 0.004434781 -0.022584498
000110 51 aa 10 3e 82 82 e5 3c a7 3c 2c be 7c 8c d6 bc
       0.1412747 0.028016333 -0.16820012 -0.026190035
000120 29 cd 4e bc 4c 9c 5f 3d b1 c3 82 3c b1 7b 1e 3e
       -0.012622156 0.054592416 0.015962454 0.15476872
000130 9f ec df bd 86 28 01 bd 56 ae b8 3d cc 40 2e bc
       -0.10933804 -0.031532787 0.09017627 -0.010635566
000140 a8 27 a0 bd ac 39 99 39 98 fc 0c 3e 40 06 07 be
       -0.07820064 0.00029225403 0.13768232 -0.13185978
000150 18 68 22 3d 67 d1 cb bd fe 8a 0a 3d 3e bf e8 3d
       0.039650053 -0.0995205 0.03382396 0.113646016
000160 9f be ab 3d 81 23 b3 3c 63 32 ac bd fb c3 86 3d
       0.083859675 0.021867516 -0.08408048 0.06580349
000170 0d cf b6 bc 49 bc c5 3c 35 be 35 3d 03 ff c6 3d
       -0.022315526 0.024137633 0.04437085 0.097166084
000180 ea 41 fd bd d6 d4 30 3d 08 e4 14 be 9f 39 8a bc
       -0.12366088 0.043171726 -0.14540112 -0.016873179
000190 31 84 c6 3d e2 16 9b bd 41 4d 87 bd 73 75 af 3e
       0.09693182 -0.07572724 -0.06606532 0.34269294
0001a0 1a e1 24 be 66 a7 65 3e 24 9b 6d 3e 9b dd f6 bd
       -0.16101494 0.22427139 0.23203713 -0.12053987
0001b0 e3 a9 fc 3d b8 c9 ad 3d 17 2f 80 3d e5 82 39 be
       0.12337091 0.084857404 0.06258982 -0.18116339
0001c0 42 36 98 3e 12 88 ba 3d d8 3e 81 3e 43 7a ac 3d
       0.29728895 0.091079846 0.25243258 0.08421757
0001d0 00 28 41 be 00 48 9a bd 0e 3d 01 3e bf b7 a9 bd
       -0.18862915 -0.07533264 0.12620947 -0.08287
0001e0 78 38 7c 3e ec 0f 87 3e d7 58 15 3e a9 9e 98 3e
       0.24630916 0.26379335 0.14584671 0.29808548
0001f0 92 36 eb 3d b4 f5 7f 3e 71 fd a3 3e 84 8a 8a 3d
       0.11485018 0.24996072 0.32029298 0.06764701

critic_net.dense1.weight f4 [8, 32]
000000 d0 00 73 bd d9 50 93 3d eb 84 16 bd 04 ce 04 be
       -0.059326947 0.07193155 -0.036747854 -0.12969214
000010 8e 4e cd 3e 42 d6 3a be b3 3a 3b 3e ff ca d4 be
       0.40098995 -0.18245795 0.1828411 -0.41561124
000020 ef cb d3 3c 16 59 d9 3e df 53 29 be db ec 36 3d
       0.025854079 0.4245078 -0.165359 0.044659477
000030 2b bd a6 3d b4 18 20 3f b3 01 55 bc 36 68 4f 3e
       0.0814155 0.62537694 -0.013000893 0.20254597
000040 36 fe 66 be 53 1e 0e 3d 02 6c fc 3a 46 b4 69 bd
       -0.22557911 0.03469689 0.0019258263 -0.057056688
000050 90 fb 52 3e c2 95 af be 36 99 60 3e 20 40 c5 3c
       0.20603776 -0.34293944 0.21933445 0.024078429
000060 60 3f 66 3d b3 c4 0d 3d d7 08 e4 3e f8 09 b3 bb
       0.056212783 0.034611415 0.44537994 -0.005463835
000070 51 20 e8 bd ef 82 eb bd 56 4f 65 3d 84 58 b7 be
       -0.11334289 -0.11499583 0.055983864 -0.3580972
000080 13 27 1a be 06 fe 21 3e 80 ef e6 bd ee ae 19 be
       -0.15053968 0.15819559 -0.1127615 -0.15008137
000090 64 18 99 3e fe 81 15 3d 0e 6e 8f 3e d2 51 ac be
       0.2990142 0.036500923 0.28013653 -0.33656174
0000a0 75 8b f7 bd cb 58 45 3e ea 06 11 3e 7b 1c 44 be
       -0.12087146 0.19272153 0.14162794 -0.1915149
0000b0 9c ee 94 3c db 3e 99 3e 23 24 52 bd c4 c9 55 3d
       0.018180184 0.29930767 -0.051303994 0.05219437
0000c0 3d 8b 88 be 2f 7a 61 bd 2f f2 33 bd 1f b9 7e 3c
       -0.2666873 -0.055048164 -0.043932136 0.015547066
0000d0 e4 ac 32 3e b8 3e b4 bd 7f f0 7e 3d 79 18 f9 bd
       0.17448765 -0.08801025 0.062241074 -0.12162871
0000e0 d6 1f 06 3e 78 bb 25 3e e8 cc d6 3d 15 57 10 3c
       0.13098082 0.16184795 0.104883015 0.0088098245
0000f0 7c cf 5b be bc 6a 9c be ae 2a 1a be 1d b9 7c be
       -0.21465868 -0.30550182 -0.15055344 -0.2467999
000100 a4 aa 1c 3e e2 2e 22 be e7 0c 67 3d 01 32 50 3e
       0.15299469 -0.15838197 0.05640879 0.20331575
000110 c2 b6 14 bd ac 07 8c bd 34 35 09 be b5 62 04 3e
       -0.036307104 -0.06837401 -0.13399202 0.12928279
000120 bb b1 b9 bd bf e0 6c bd f0 60 98 3e 04 6d 37 be
       -0.090671025 -0.057831522 0.29761457 -0.1791268
000130 3b 90 3c be ca c8 48 be a1 2e 30 be a1 15 2a bd
       -0.18414395 -0.19607845 -0.17205288 -0.041524533
000140 d6 0d 0a 3e 12 d1 2d 3d b9 20 7e be 21 f5 98 bd
       0.1348184 0.042435713 -0.2481717 -0.0746863
000150 b3 51 26 3d d6 b5 98 3e e8 b5 a6 bd b1 b7 0e 3e
       0.04060526 0.2982623 -0.081401646 0.1393726
000160 2c ac 90 be 67 73 a4 be 3a 46 8e be 9a a4 10 3d
       -0.28256357 -0.32119295 -0.27787954 0.035313226
000170 41 15 40 3e 52 65 8c 3e 20 45 57 3d a8 71 9a 3d
       0.18758108 0.2742105 0.052556157 0.075412095
000180 44 d6 df bd 7e 08 f2 bc 02 44 2c 3e 08 bf 84 be
       -0.1092954 -0.029545065 0.16822818 -0.25926995
000190 75 c6 3b 3e 41 7c 4d bd 0e d2 e0 3d 13 77 b8 be
       0.18337424 -0.050167326 0.10977565 -0.36028346
0001a0 b7 40 ac 3d 56 8e 49 3e ae 2d 95 be de 96 da bd
       0.08410781 0.19683203 -0.29136413 -0.10673307
0001b0 80 89 58 3e 51 5f 9a 3d cd f9 2c 3e 9d a3 e7 bd
       0.21146202 0.075377114 0.16892166 -0.11310504
0001c0 30 33 b7 bd ab 9c 02 3e 9b 7d eb 3d 47 64 68 be
       -0.0894531 0.12755077 0.11498567 -0.22694503
0001d0 1f 18 05 be af f7 51 be d5 9f 8c 3e 51 2b 28 be
       -0.12997483 -0.2050464 0.27465692 -0.16422774
0001e0 52 75 af 3e fd 5f b1 3e b5 3d ac 3e fe 2d 44 be
       0.34269196 0.34643546 0.3364083 -0.1915817
0001f0 56 95 af bd b9 0c c7 bc 9e 7e 85 be fd 92 a6 be
       -0.085734054 -0.024298059 -0.26073164 -0.32534018
000200 e4 3a 5d 3d 40 1b dd bb b0 09 8a bd cc c7 00 3d
       0.05401124 -0.006747633 -0.06740129 0.03144054
000210 12 ac cc 3d 4a 63 dd bd 5b 7f 8f 3c ee 61 33 3e
       0.09993757 -0.108099535 0.017516783 0.17517826
000220 ce 24 41 be d8 a9 74 3e 37 d5 6f 3e e4 a7 15 3d
       -0.18861696 0.23892915 0.23421179 0.036537066
000230 d5 5f 2f be a1 6b 71 3e a8 a4 15 bd 7b 5c 2d 3c
       -0.17126401 0.23576213 -0.03653398 0.010581131
000240 1a f3 87 3e a3 db 1b 3d 88 9b 12 3d ea 97 4a 3e
       0.2655266 0.03805126 0.035792857 0.19784513
000250 48 54 88 3d 14 ce 6d 3d 68 22 1f 3e ad 37 62 bd
       0.066567004 0.05805786 0.15540469 -0.055228878
000260 12 d3 5e be b5 fc 56 be aa 27 87 3b 3b 2b 96 3e
       -0.21760204 -0.20994838 0.0041246014 0.29329857
000270 17 9f 53 3e b5 22 9d bd 3b 42 86 3e 8e 85 95 3e
       0.20666157 -0.076726355 0.26222405 0.29203457
000280 67 b4 11 3e 7a 8c fb bd cd 55 25 be c8 58 41 3e
       0.14228974 -0.12282653 -0.16146012 0.18881524
000290 0c 13 72 be e7 5a 02 be b9 a8 22 3d f0 54 11 3f
       -0.23640078 -0.12729989 0.039711688 0.5677023
0002a0 9e 21 fe bc 8b d8 ab be 63 87 a0 3e e7 bc c2 3d
       -0.03102189 -0.33563647 0.31353292 0.095086865
0002b0 9e db 7f 3d 0c b8 a0 be ea 9b dd 3b 62 c9 c0 bd
       0.062465303 -0.31390417 0.006762971 -0.09413411
0002c0 6a 4f 8c 3d 3d 68 78 be a1 0c 5a be fb 1e a1 3e
       0.068510845 -0.24258514 -0.2129388 0.3146895
0002d0 2e 53 80 3d e2 f6 b8 3e c2 4b ad be bd 7d 60 3c
       0.06265865 0.36125857 -0.3384686 0.013701853
0002e0 6e 2a 54 be cc ff 59 be ba 43 f4 bd 72 7a 50 3e
       -0.2071931 -0.21288985 -0.1192698 0.20359209
0002f0 0a fd 5d 3c 59 e9 af 3d 1c de b1 3e dc fe 6f 3e
       0.013549099 0.085894294 0.34739769 0.23437065
000300 43 37 8d bd d7 08 d4 bd a1 fe 42 3e 42 66 04 3e
       -0.06895306 -0.103532486 0.19042446 0.12929633
000310 ea 85 b6 bc 40 e0 26 be 53 23 96 bc 1c b0 d3 3e
       -0.022280652 -0.16296482 -0.01832739 0.41345298
000320 5d 69 20 3d 59 ce 0f 3e 35 6f 9b be b1 58 98 bd
       0.039162982 0.14043559 -0.30358282 -0.074387915
000330 39 8c a5 bd 2f e0 9d 3e 71 8e 0d be c3 1d 48 3d
       -0.08083386 0.308351 -0.13823868 0.048856508
000340 11 75 c8 bd 90 85 7d be 0b a8 3e bd 3d 38 8e bd
       -0.09787954 -0.24757981 -0.046546977 -0.0694432
000350 76 3d 37 bc e9 da f5 be 2f 53 5c bd 31 a2 a9 bd
       -0.011184087 -0.48018578 -0.053790268 -0.08282889
000360 9b 7b 0a be aa 13 ff 3b b8 51 ba 3d 95 dd 94 bd
       -0.13523714 0.0077843266 0.09097618 -0.07268826
000370 6b 5e 5a bd 18 44 45 be 15 d9 c0 3c ec 91 5e bd
       -0.0533127 -0.19264257 0.023541013 -0.05433838
000380 22 52 db bd bd 22 24 3e c1 a8 48 bc 51 ef 7c 3d
       -0.10709025 0.16028877 -0.012247265 0.061751667
000390 40 07 c3 3d d9 51 d9 bd 63 32 89 3e 4b 07 b0 be
       0.09522867 -0.10611314 0.26796255 -0.34380564
0003a0 d7 e6 39 be 3e 63 95 3e 1b f9 8e be e7 b0 a0 3c
       -0.18154465 0.29177278 -0.27924427 0.019615604
0003b0 30 fd 6c 3e cc 92 15 3f b6 7e 25 3e 0a d9 37 3d
       0.23143458 0.5842712 0.16161618 0.04488472
0003c0 c4 ad 86 be 82 71 04 bd 28 00 71 3d 94 c8 b2 bd
       -0.26304448 -0.032334812 0.05883804 -0.087296635
0003d0 84 01 68 3d 4d c0 56 be 11 3e 9e 3e b0 2f bc 3c
       0.05664207 -0.20971794 0.30906728 0.022971958
0003e0 b7 0f 92 3e 68 e1 9a 3e a3 e2 c0 3e 4d 5b 45 bd
       0.28527614 0.30250096 0.3767291 -0.048182774
0003f0 38 c9 f8 3c 71 8b b4 be 2d 79 73 be e9 9e 23 be
       0.030369386 -0.35262635 -0.23776694 -0.15978588

critic_net.dense1.bias f4 [8]
000000 15 c2 5c bd 48 41 29 3d a5 83 ce bc 38 e3 78 bc
       -0.05389603 0.041322023 -0.025209257 -0.015190892
000010 d1 82 d8 bd 27 50 d4 3d 5b 06 86 bd 90 1e ab 3d
       -0.10571826 0.1036685 -0.06544181 0.08355439
