trained_models/15_lag_lstm_ppo_Walker2d-v2_eps_0_critic.pth (torch, 715828 bytes, 33 tensors)

critic_net.lstm.weight_ih_l0 f4 [256, 17]
0	0x3d0419ab	0.03225104
1	0xbdec1c54	-0.11528841
2	0xba28a603	-0.0006433429
3	0x3e291713	0.16512708
4	0x3e2ad8a5	0.16684206
5	0xbe11e327	-0.14246808
6	0x3e3a53be	0.18196008
7	0x3e6db321	0.23212864
8	0xbdc4ce4a	-0.09609659
9	0x3e335d16	0.17515978
10	0xbd0a23ac	-0.033725426
11	0x3d5552c0	0.05208087
12	0x3d8d8d91	0.06911767
13	0xbd7d7401	-0.061878208
14	0x3c86a9bf	0.016438363
15	0x3c3d7531	0.011563585
16	0xbcd16754	-0.025561966
17	0xbd09028c	-0.033449695
18	0x3d3aa206	0.045564674
19	0x3e1456f7	0.144863
20	0x3d72ead5	0.059305985
21	0xbe2fdb19	-0.17173423
22	0x3ddefb69	0.108877964
23	0xbdaa8221	-0.08325601
24	0xbd88e428	-0.06684142
25	0xbe4d5c82	-0.2005482
26	0xbb3a63b2	-0.002844077
27	0xbc4cff08	-0.012511976
28	0x3dfdc698	0.123913944
29	0x3d4ab144	0.04948546
30	0xbdd1ea03	-0.10249712
31	0x3d800efd	0.06252859
32	0xbe2634b4	-0.16231042
33	0x3dcb0b31	0.09914244
34	0x3e3a6b80	0.1820507
35	0xbc292e41	-0.010325969
36	0xbd8e74c9	-0.06955869
37	0xbd527b1a	-0.05138693
38	0x3d0b3157	0.0339826
39	0xbe1fc08a	-0.15600792
40	0x3d5ab580	0.05339575
41	0x3b74dd39	0.0037363304
42	0xbc04c5fb	-0.008103843
43	0x3da42068	0.080139935
44	0x3cdcb6ac	0.026942573
45	0xbe2eb30f	-0.17060493
46	0xbd7d0b67	-0.061778452
47	0x3c50d2a4	0.012745533
48	0x3d317129	0.04332081
49	0x3d5c0fb0	0.0537259
50	0xbdc09f4e	-0.09405385
51	0x3dacf441	0.08445025
52	0xbe071250	-0.1319058
53	0x3b9a52d8	0.004709583
54	0x3dc3eb50	0.09566367
55	0xbc8dbb75	-0.0173013
56	0xbd96ad7d	-0.07357309
57	0xbdb5594c	-0.08854923
58	0xbd50bfe7	-0.050964262
59	0xbb7c8104	-0.0038529048
60	0xbd52dfab	-0.051482838
61	0x3cd3bddc	0.025847368
62	0x3d5721fa	0.052522637
63	0xbd9be8e8	-0.07612783
64	0x3df9c4aa	0.12195714
65	0xbb95f901	-0.0045768027
66	0x3d11405a	0.03546176
67	0xbe001834	-0.12509233
68	0x3b9bfd5d	0.004760428
69	0x3d3ef191	0.046617094
70	0x3daee7a6	0.08540277
71	0xbdc9e31f	-0.09857773
72	0xbc110822	-0.008852037
73	0xbd759f25	-0.059966225
74	0xbb871b3b	-0.004123119
75	0x3e0854fc	0.13313669
76	0x3cbd87ba	0.023136009
77	0xbb1002ec	-0.0021974398
78	0x3db5ae29	0.08871109
79	0x3dbb57ae	0.09147583
80	0xbdbe56ad	-0.09293876
81	0x3da24df5	0.079250254
82	0xbdbafbdb	-0.09130069
83	0xba887487	-0.0010410704
84	0x3e1b382d	0.15158148
85	0x3d8c65be	0.06855343
86	0xbe22adfc	-0.15886682
87	0xbd3b675a	-0.04575286
88	0xbd6bb3d5	-0.057544548
89	0x3c8026c9	0.015643494
90	0xbc0e335d	-0.008679238
91	0xbe2d2677	-0.16909204
92	0xbd509b9c	-0.05092965
93	0xbd80967e	-0.06278704
94	0xbe645fb0	-0.22302127
95	0xbb6df7f5	-0.0036311124
96	0x3c76b2b7	0.015057257
97	0x3d99f1ae	0.075168
98	0x3db44518	0.08802241
99	0xbc45fad1	-0.012083725
100	0x3c8e2f1d	0.01735645
101	0xbd17b87f	-0.037041184
102	0x3d9bb53b	0.07602926
103	0xbdf32830	-0.118728995
104	0xbb3225cf	-0.002718318
105	0x3c72db7f	0.01482284
106	0x3dd1403d	0.102173306
107	0xbd389940	-0.045068026
108	0xbda7dcd7	-0.08196419
109	0xbd3d0089	-0.04614309
110	0xbda6bf9b	-0.081420146
111	0xbd1ae71e	-0.037818067
112	0x3cab56dd	0.020915443
113	0x3d06b7d8	0.03289017
114	0xbdbf42db	-0.093389235
115	0xbc478a85	-0.012179022
116	0xbd882e39	-0.06649441
117	0xbc296e1d	-0.010341194
118	0xbbf70ad6	-0.0075391335
119	0x3e279662	0.1636596
120	0xbda47d7d	-0.080317475
121	0xbd1a3bc9	-0.03765467
122	0x3db04e95	0.08608738
123	0x3cb6da42	0.02232087
124	0xbe2454d8	-0.1604799
125	0x3df5dc63	0.12004926
126	0x3d4abb68	0.04949513
127	0xbca9745d	-0.02068537
128	0x3cd486cc	0.025943182
129	0x3da1f4a2	0.07907988
130	0x3d6903d7	0.056888428
131	0xbdd834f7	-0.10556977
132	0xbd783921	-0.060601357
133	0xbdc4e5d4	-0.09614149
134	0x3dc047ac	0.0938867
135	0x3df2e7bc	0.11860606
136	0x3de507b5	0.111831106
137	0x3d509635	0.0509245
138	0xbe28f2fd	-0.16498943
139	0xbbe47dde	-0.0069730124
140	0x3e062206	0.13098916
141	0x3ddc0e75	0.10744945
142	0xbe390201	-0.1806717
143	0x3d8bfec4	0.06835702
144	0xbceaa944	-0.028645165
145	0x3e08dbd6	0.13365111
146	0xbd7b06f0	-0.061285913
147	0xbd85ea03	-0.06538775
148	0x3d6eb554	0.058278397
149	0xbd3a7534	-0.04552193
150	0xbdac777e	-0.08421229
151	0x3ddbb121	0.10727144
152	0x3d8d34e5	0.068948545
153	0xbd12b734	-0.035819247
154	0xbe675037	-0.22589193
155	0xbcef36f9	-0.029201018
156	0x3b3700a4	0.0027923966
157	0x3ded5a58	0.11589497
158	0xbe3b9ba5	-0.18321092
159	0xbcfa6c2c	-0.030569158
160	0x3e0629aa	0.13101831
161	0xbe85a2f6	-0.26100892
162	0x3e977c5e	0.29587072
163	0xbe234d99	-0.1594757
164	0x3dd50050	0.1040045
165	0x3d021dec	0.031766817
166	0xbc477e1d	-0.012176064
167	0xbdfa24bd	-0.122140385
168	0xbd39aff4	-0.045333818
169	0xbc87489a	-0.016514111
170	0xbe931d67	-0.2873337
171	0x3d45082a	0.04810349
172	0xbc819f3a	-0.015822995
173	0x3e04764f	0.12935756
174	0xbe2ecc6a	-0.17070165
175	0xbd518185	-0.05114891
176	0x3d058c39	0.03260443
177	0xbcf9523c	-0.03043472
178	0xbb3774e9	-0.0027993268
179	0xbe722253	-0.23645906
180	0x3db572c0	0.088597775
181	0xbc5a62ea	-0.013329247
182	0x3cf483b9	0.029847967
183	0xbddb4cd3	-0.107080124
184	0xbd9702bd	-0.07373569
185	0x3dfe0cc8	0.124047816
186	0xbda69e3f	-0.08135652
187	0x3d440f76	0.047866307
188	0xbde2d925	-0.11076573
189	0x3dd4a451	0.10382903
190	0x3d9f6706	0.07783322
191	0xbb193b31	-0.0023381228
192	0xbdcadc63	-0.09905317
193	0xbcbbcfd2	-0.022926245
194	0xbc9862e1	-0.018601837
195	0xbc222bdd	-0.009898153
196	0xbe2f263c	-0.17104429
197	0xbb8e9580	-0.004351318
198	0x3d8a1c83	0.067437194
199	0x3cb67658	0.022273228
200	0xbc93ee2b	-0.018057903
201	0xbcd2c3b4	-0.025728084
202	0xbdd8930c	-0.10574922
203	0x3dc725ef	0.09724032
204	0x3db5c63f	0.08875703
205	0xbd0a34d6	-0.033741795
206	0xbd4a3784	-0.04936935
207	0xbe3548a6	-0.17703494
208	0x3dd327dd	0.10310338
209	0x3c68fc02	0.01422024
210	0xbe5f7b66	-0.21824417
211	0xbd7961ea	-0.060884394
212	0xbd06e5ec	-0.032934114
213	0x3dcdfb98	0.10057753
214	0x3e83e032	0.25756985
215	0xbd436076	-0.047699414
216	0xbcfb817f	-0.030701397
217	0x3dd95bc0	0.10613203
218	0xbd8f31de	-0.06991933
219	0xbd8f6e81	-0.07003499
220	0x3c9e343e	0.01931202
221	0x3b796daa	0.003805975
222	0x3d929716	0.071577236
223	0xbd3d0b19	-0.04615316
224	0x3e611fca	0.21984783
225	0xbdf44ed3	-0.11929097
226	0xbdf1dbd6	-0.118095085
227	0x3eab3a14	0.33442748
228	0x3c178687	0.009248382
229	0xbe224706	-0.15847406
230	0x3ece335c	0.4027356
231	0xbcd13bd0	-0.025541216
232	0x3d7d09b9	0.06177685
233	0x3da9cce8	0.08291036
234	0x3ce036dc	0.027369909
235	0x3df85ee0	0.12127471
236	0x3d561f95	0.052276213
237	0x3da42cc2	0.080163494
238	0xbd96745b	-0.07346412
239	0x3ea3a3f3	0.3196102
240	0x3da7ea5e	0.08198999
241	0x3e60eb1b	0.21964686
242	0x3db7c7bd	0.08973644
243	0x3e37150a	0.1787912
244	0x3c9e1aac	0.019299828
245	0xbd83a77e	-0.06428431
246	0xbde279a1	-0.11058355
247	0x3dc4c46c	0.09607777
248	0x3ba851b3	0.0051366924
249	0xbdd445e5	-0.10364894
250	0xb9c38547	-0.00037292598
251	0xbd2cc9ad	-0.04218452
252	0xbdd7cbca	-0.105369166
253	0xbd958aa1	-0.07301832
254	0x3dd61aa6	0.104543015
255	0x3d8c63c2	0.06854965

critic_net.lstm.weight_hh_l0 f4 [256, 64]
0	0xbbe96ae9	-0.0071233404
1	0xbe53900f	-0.20660423
2	0x3db7794e	0.08958684
3	0x3cb32308	0.02186729
4	0xbd68ed58	-0.056866974
5	0x3e4328ac	0.19058484
6	0x3b782492	0.0037863594
7	0x3e295df1	0.16539742
8	0x3e37996a	0.17929617
9	0x3e1cc0ee	0.15307972
10	0x3d9e644f	0.07733976
11	0x3e619f4a	0.2203342
12	0x3d8e242a	0.069404915
13	0xbd170bfd	-0.036876667
14	0x3e018e00	0.12651825
15	0xbe35ba79	-0.17746915
16	0xbd109bcf	-0.03530484
17	0x3df1a760	0.117995024
18	0x3e29275b	0.16518919
19	0x3e54c178	0.20776927
20	0x3e28440d	0.1643221
21	0x3c02c697	0.007981918
22	0xbe403a19	-0.18772162
23	0xbcf68115	-0.030090848
24	0xbdcd9bb6	-0.10039465
25	0xbd05dcef	-0.0326814
26	0x3e053f82	0.13012508
27	0xbd98ee04	-0.07467273
28	0x3d9d74d2	0.07688297
29	0xbe48b2b8	-0.19599426
30	0x3e3fa515	0.18715318
31	0x3d608167	0.054810908
32	0xbdecb7f6	-0.11558525
33	0xbe28e800	-0.16494751
34	0xbe0b0108	-0.13574612
35	0xbceb44b8	-0.028719291
36	0xbcd5cc3d	-0.026098365
37	0xbe5c1068	-0.21490633
38	0x3c00a841	0.007852615
39	0x3d8e2d8b	0.069422804
40	0x3cbacc26	0.022802424
41	0xbde9aef6	-0.11410324
42	0x3dd2093d	0.10255668
43	0x3e459350	0.19294477
44	0x3c5b2789	0.013376125
45	0xbd9ec97d	-0.077532746
46	0x3dd83cfe	0.10558508
47	0xbca6692b	-0.02031382
48	0xbbfac86e	-0.0076532876
49	0xbde70a2f	-0.11281239
50	0x3db805d1	0.089854844
51	0xbe036574	-0.1283167
52	0x3df62d1e	0.12020324
53	0x3c19b029	0.009380379
54	0xbd61e42c	-0.055149242
55	0x3d3863d4	0.04501708
56	0xbcaaf21f	-0.020867405
57	0x3cea0c94	0.02857045
58	0xbd9f2c76	-0.07772152
59	0x3e13dd0d	0.14439793
60	0xbdabdd06	-0.08391766
61	0xbe20c543	-0.1570025
62	0x3e24d5ae	0.16097137
63	0x3d604ed2	0.05476267
64	0x3d083640	0.03325486
65	0xbd199485	-0.037495155
66	0xbca1664c	-0.0197021
67	0xbdb04763	-0.08607366
68	0xbe0fa3d5	-0.1402734
69	0x3e160565	0.14650495
70	0x3dcf8fdf	0.10134863
71	0xbc7914d4	-0.01520272
72	0x3c02e4d4	0.007989127
73	0x3e1a4d73	0.15068607
74	0xbcb71442	-0.022348527
75	0x3c04cf22	0.008106025
76	0x3d2c86a5	0.042120595
77	0x3deb2e4b	0.11483439
78	0x3d655562	0.05598963
79	0xbd611228	-0.054948956
80	0xbd843291	-0.06454957
81	0x3d8b6816	0.06806962
82	0x3b191161	0.0023356306
83	0x3df75f5d	0.12078736
84	0x3d2dbc70	0.042416036
85	0x3d1d6dfa	0.03843496
86	0xb8b016ac	-8.396557e-05
87	0x3de79c50	0.11309111
88	0xbda648ca	-0.08119352
89	0xbe0ab69d	-0.13546224
90	0x3dc7be7a	0.097531274
91	0x3e27c24f	0.16382717
92	0x3dc8adb6	0.09798758
93	0xbc1e2b7c	-0.009653922
94	0xbc16ee10	-0.009212032
95	0x3c9f61b4	0.019455768
96	0xbcfec72e	-0.031100836
97	0x3d1f1003	0.03883363
98	0xbdd333bf	-0.10312604
99	0xbcef3bd2	-0.02920333
100	0xbd0ceb2f	-0.034403976
101	0x3decda68	0.11565095
102	0x3cb7f19b	0.022454074
103	0x3cd88c5c	0.026434116
104	0x3d07bfc1	0.033141855
105	0xbdfa7ecf	-0.12231218
106	0x3dd2b96e	0.10289274
107	0x3e166b9e	0.1468949
108	0x3df288b6	0.11842482
109	0x3bcdb456	0.0062776012
110	0x3dc4721a	0.09592076
111	0xbe00fadc	-0.12595695
112	0xbda68e47	-0.08132606
113	0x3d07e978	0.033181638
114	0x3d8f653b	0.0700173
115	0xbb9a077a	-0.0047005983
116	0x3ddf62fc	0.10907552
117	0x3dbfd11e	0.09366058
118	0xbdf9e33b	-0.12201544
119	0x3e21aace	0.15787813
120	0xbe2744a6	-0.16334781
121	0xbd29644a	-0.04135541
122	0xbd00cd15	-0.03144558
123	0xbca7f60a	-0.020503063
124	0xbd9e2bc9	-0.07723195
125	0x3c3e9c89	0.011634001
126	0x3c0e435c	0.008683052
127	0x3dd08144	0.101809055
128	0x3bf3b7d1	0.007437684
129	0x3d34d8e8	0.04415217
130	0x3cb5ea78	0.02220653
131	0x3e00c46e	0.12574932
132	0xbdff8965	-0.12477378
133	0x3ccf21f6	0.025284749
134	0x3e066376	0.13123879
135	0x3dd44173	0.10364046
136	0x3d88930f	0.06668674
137	0x3d967da5	0.073481835
138	0xbd2faa85	-0.04288723
139	0x3cb22c37	0.021749599
140	0xbd2ba592	-0.041905947
141	0xbc82e5bc	-0.015978687
142	0x3dc54bec	0.096336216
143	0xbc6bd8d0	-0.014394954
144	0x3e1ae0e4	0.15124851
145	0x3e4ec973	0.20194034
146	0xbd812fa9	-0.063079186
147	0x3c852427	0.01625259
148	0xbdacd199	-0.08438415
149	0x3e1ad5b6	0.15120587
150	0x3d6c3346	0.057666086
151	0xbd7e63a4	-0.062106743
152	0xbd2083fc	-0.03918837
153	0xbd68633a	-0.056735255
154	0xbd898ab7	-0.06715911
155	0xbd8b81bf	-0.068118565
156	0xbd871230	-0.06595266
157	0x3d31bb48	0.043391496
158	0xbd89ddf7	-0.067317896
159	0xbd14d1c2	-0.036332853
160	0x3d3297a6	0.043601654
161	0xbdc4170a	-0.09574707
162	0xbce02201	-0.027359964
163	0x3d0ba41e	0.03409206
164	0xbd89a29b	-0.06720468
165	0x3bb97759	0.0056599793
166	0x3bcb7bad	0.0062098117
167	0x3e1c8419	0.15284766
168	0x3d4ec5e2	0.050481685
169	0xbe069bc1	-0.13145353
170	0x3e138b60	0.14408636
171	0x3ddd0304	0.10791591
172	0x3e0dc8fd	0.13846202
173	0xbdd4b94f	-0.10386907
174	0x3de84905	0.11342052
175	0xbd7b81d7	-0.06140312
176	0x3d83e315	0.06439797
177	0x3d5be088	0.053680927
178	0xbd2fbff9	-0.04290769
179	0xbd552e0b	-0.052045863
180	0x3e0762be	0.13221261
181	0x3d5c3638	0.053762645
182	0xbe1ae317	-0.1512569
183	0xbc213d85	-0.009841328
184	0xbe1c9b3f	-0.15293597
185	0xbd75e3f8	-0.06003186
186	0x3d06dab4	0.032923415
187	0x3df26201	0.11835099
188	0xbc50a348	-0.012734242
189	0xbdf32538	-0.11872333
190	0xbdee5d0c	-0.11638841
191	0x3ce210ce	0.027595904
192	0x3d4ec8f8	0.050484627
193	0xbe1bf82c	-0.15231389
194	0xbc7b2873	-0.015329468
195	0x3c5ccc34	0.01347642
196	0xbe0b4d5d	-0.1360373
197	0x3e03e950	0.1288197
198	0xbd19c10e	-0.037537627
199	0x3d270418	0.04077539
200	0xbcf47f82	-0.029845957
201	0x3e3b6af9	0.18302526
202	0x3db6347d	0.0889673
203	0x3d83b821	0.06431604
204	0xbc9b32d3	-0.018945133
205	0x3db0791f	0.08616852
206	0x3e140da5	0.1445833
207	0xbdacc56f	-0.08436095
208	0x3e0a0a2e	0.13480446
209	0xbd1ccf62	-0.038283713
210	0x3d26fab1	0.04076642
211	0x3e3c4e32	0.18389204
212	0x3d966e3b	0.073452435
213	0x3e41a928	0.18912184
214	0xbe2f8702	-0.17141345
215	0x3d48179d	0.048850644
216	0x3e09244d	0.13392754
217	0x3d37220e	0.04471021
218	0x3e0744fa	0.13209906
219	0xbd2866ed	-0.041113783
220	0x3e21249c	0.15736622
221	0x3d44a2ca	0.04800681
222	0x3bb28e3f	0.005449086
223	0xbd0c4d26	-0.034253262
224	0x3ca047ed	0.019565547
225	0xbdd4093b	-0.10353323
226	0xbd4695b9	-0.04848263
227	0xbba55a5e	-0.005046173
228	0xbd2910ed	-0.041275907
229	0xbe0ba111	-0.1363566
230	0x3cccaab5	0.024983743
231	0xbd20df6c	-0.03927557
232	0x3d38b4b8	0.04509422
233	0xbc46480c	-0.012102138
234	0x3d923efd	0.0714092
235	0xbd360c85	-0.044445533
236	0x3e274015	0.16333039
237	0xbddf7434	-0.10910836
238	0x3d927f2d	0.07153163
239	0xbe321088	-0.17389119
240	0xbe16f6bd	-0.1474256
241	0x3d0af142	0.033921488
242	0x3df56421	0.11981989
243	0xbdbcb01a	-0.09213276
244	0x3de414c3	0.111367725
245	0x3c5a7549	0.013333627
246	0xbc328593	-0.010896104
247	0x3e1ad016	0.15118441
248	0xbe156fae	-0.14593384
249	0x3d9c3847	0.076279216
250	0xbe24b37f	-0.16084097
251	0x3cad2feb	0.021141013
252	0xbcf3fb39	-0.029782878
253	0xbd18da9d	-0.03731786
254	0xbd06dab2	-0.032923408
255	0xba099a90	-0.0005249167

critic_net.lstm.bias_ih_l0 f4 [256]
0	0x3e071e94	0.13195258
1	0xbd6f98fe	-0.058495514
2	0x3dc25eb3	0.09490719
3	0x3e133614	0.14376098
4	0x3d20e46b	0.039280336
5	0xbd3cbc4a	-0.046078004
6	0xbd71834b	-0.0589631
7	0x3dcf7f46	0.10131697
8	0x3d7c5854	0.061607674
9	0x3e371aef	0.17881368
10	0xbe226274	-0.1585787
11	0x3e229cb1	0.15880086
12	0xbd869faf	-0.06573426
13	0x3ddb448a	0.10706432
14	0xb9bd5bb6	-0.0003611722
15	0x3cb0e916	0.021595519
16	0x3d75ae8e	0.05998092
17	0x3e155b98	0.14585721
18	0x3e256b73	0.1615427
19	0x3d6a908a	0.05726675
20	0x3ccaee73	0.024771905
21	0x3d5b4ae0	0.053538203
22	0x3e6850d2	0.2268708
23	0x3e4a7189	0.19769873
24	0xbdf040f4	-0.11731139
25	0x3df8f778	0.12156576
26	0x3da41f4a	0.080137804
27	0xbd19ca49	-0.03754643
28	0xbd594c31	-0.053051177
29	0x3db5358d	0.088481046
30	0xbcde3f6f	-0.027129857
31	0x3d998c77	0.07497495
32	0x3a94dcbe	0.001135729
33	0xba177394	-0.00057774154
34	0x3d94a2f2	0.07257642
35	0x3e044ad7	0.12919174
36	0x3e43290b	0.19058625
37	0x3d481739	0.04885027
38	0x3d25dedb	0.040495735
39	0xbca7283b	-0.020404926
40	0xbcd90aa4	-0.026494332
41	0x3d01ce17	0.031690683
42	0x3deb4bbd	0.11489055
43	0xbe08b827	-0.13351499
44	0x3e2768b5	0.16348536
45	0x3dedb272	0.11606301
46	0xbad20157	-0.0016022128
47	0x3c8e39d9	0.017361568
48	0x3dd3cf86	0.10342316
49	0x3da660a2	0.081239
50	0x3d54d4ee	0.051960878
51	0xbd55d054	-0.05220063
52	0xbd14d962	-0.036340125
53	0x3db16df3	0.08663549
54	0x3d9a505d	0.07534859
55	0x3e2d82df	0.16944455
56	0x3dc4c441	0.09607745
57	0x3e02e0c9	0.12781061
58	0x3dbe66e9	0.09296972
59	0x3c538c31	0.012911842
60	0x3e02e0d4	0.12781078
61	0xbd649eaf	-0.055815395
62	0x3dd25f02	0.102720276
63	0x3d1d0580	0.038335323
64	0xbdbbdd3f	-0.09173059
65	0x3e156c32	0.14592054
66	0x3e124980	0.1428585
67	0x3e088c35	0.13334735
68	0x3c2c159e	0.010503201
69	0x3c793f94	0.015212912
70	0xbdd63946	-0.10460143
71	0x3de80f91	0.11331094
72	0xbd43018b	-0.047608893
73	0xbd696552	-0.056981392
74	0x3cfc22fc	0.0307784
75	0xbd003723	-0.031302582
76	0xbe1552bc	-0.14582342
77	0xbc092074	-0.008369554
78	0x3c43be4a	0.011947224
79	0x3cb14e8e	0.021643903
80	0xbdc070b3	-0.09396496
81	0x3e2619f6	0.16220841
82	0x3cb3fc08	0.021970764
83	0xbcfc80c4	-0.030823119
84	0x3d928ba3	0.0715554
85	0xbdb54980	-0.0885191
86	0x3dd0f0af	0.10202157
87	0xbdb683de	-0.089118704
88	0xbdb81fb5	-0.08990423
89	0xbe03b476	-0.12861809
90	0xbda1ab91	-0.07894052
91	0x3d116847	0.035499837
92	0x3d08c458	0.033390373
93	0xbb7bdad0	-0.0038429983
94	0x3d7db479	0.06193969
95	0x3d7472f2	0.059679933
96	0xbe3627b1	-0.17788579
97	0xbd6f6271	-0.05844349
98	0xbe0f3848	-0.13986313
99	0xbc8c8c46	-0.017156731
100	0x3c6c785f	0.014432996
101	0x3da9f17a	0.08298011
102	0xbd800569	-0.06251032
103	0xbda6046c	-0.08106312
104	0x3c957788	0.018245474
105	0xbe065629	-0.13118805
106	0x3d3ff8a9	0.046868
107	0x3cfc95e4	0.030833192
108	0xbd941cfe	-0.07232092
109	0xbd61765a	-0.05504451
110	0xbd3da423	-0.04629911
111	0xbdc76643	-0.09736302
112	0xbcd9d4c2	-0.026590709
113	0xbe21f69b	-0.15816729
114	0x3da5e604	0.081005126
115	0x3d74e39a	0.05978737
116	0x3cedfb42	0.029050473
117	0xbe0a842c	-0.13526982
118	0x3ce9bca5	0.028532336
119	0x3d6df035	0.058090407
120	0x3d391a60	0.04519117
121	0xbe2555c5	-0.16146
122	0x3c0f48e0	0.008745402
123	0xbcd83521	-0.026392521
124	0xbda6ef22	-0.0815108
125	0xba11c2f9	-0.0005560364
126	0xbe220153	-0.15820818
127	0xbe2465a6	-0.16054401
128	0x3d8a1e20	0.06744027
129	0xbe32efc7	-0.1747428
130	0x3e186c51	0.1488507
131	0x3e028eb8	0.12749755
132	0x3d2e72f0	0.04259008
133	0xbcfbe07e	-0.030746695
134	0xbb845aca	-0.004039143
135	0x3dfe0941	0.12404109
136	0xbd0036f8	-0.031302422
137	0x3e07c913	0.13260297
138	0xbde8cb86	-0.11366944
139	0x3e096ae8	0.13419688
140	0xbba386da	-0.004990441
141	0x3dd897b5	0.10575811
142	0x3e059c74	0.13047963
143	0xbd46ca05	-0.048532505
144	0xbbc443c6	-0.0059895245
145	0x3d01cd49	0.031689916
146	0xbb840dc2	-0.0040299604
147	0x3e1b3f71	0.1516092
148	0x3db66a95	0.08907048
149	0xbd3e4b00	-0.046458244
150	0xbe2b84d1	-0.16749884
151	0x3b174d03	0.0023086674
152	0xbde9265e	-0.11384271
153	0xbdec65bb	-0.11542841
154	0x3d22587a	0.03963516
155	0xbd95496a	-0.07289393
156	0x3d2fe8a7	0.042946484
157	0xbe2e107e	-0.16998479
158	0xbba53168	-0.00504129
159	0x3c96cc7e	0.018408056
160	0x3c553566	0.013013219
161	0xbd239410	-0.039936125
162	0xbd1a83e5	-0.03772344
163	0x3dd75119	0.10513515
164	0xbdbe40f3	-0.09289732
165	0xbe337084	-0.1752339
166	0x3cac4608	0.021029487
167	0x3e07a8f9	0.13248052
168	0x3e2834af	0.16426347
169	0xbdb3c155	-0.087771095
170	0x3dec1b63	0.11528661
171	0xbd6222cf	-0.055208977
172	0xbc553c48	-0.01301486
173	0xbe15698d	-0.14591046
174	0x3de0b098	0.109711826
175	0xbda46619	-0.08027286
176	0xbd0f42b1	-0.03497571
177	0xbca89df7	-0.020583136
178	0x3d4a41ef	0.049379285
179	0xbda42291	-0.080144055
180	0x3d55b17c	0.052171215
181	0x3d56434c	0.052310273
182	0xbe1c46ba	-0.15261355
183	0x3da9fe59	0.08300466
184	0xbd50bdf0	-0.05096239
185	0x3e288093	0.16455297
186	0x3b9105a0	0.0044257194
187	0x3ca8a6fb	0.020587435
188	0xbe2075d9	-0.15669955
189	0xbdb4d349	-0.08829362
190	0xbd9b0457	-0.07569187
191	0xbd6d4ada	-0.057932712
192	0x3bc309da	0.005952102
193	0xbce90d4f	-0.028448729
194	0xbd92a25b	-0.07159873
195	0x3de0183e	0.10942124
196	0xbd41b368	-0.047290236
197	0xbd38361b	-0.044973474
198	0x3c453bef	0.012038215
199	0x3dee0ffa	0.11624141
200	0xbd3e001a	-0.046386816
201	0x3c638c9b	0.013888503
202	0x3d6871ba	0.056749083
203	0x3e0de23b	0.13855831
204	0xbd0890dc	-0.033341274
205	0xbc680bf6	-0.014163008
206	0xbde86ef9	-0.11349291
207	0x3dd85360	0.105627775
208	0xbd4521da	-0.048127986
209	0x3e5ae14f	0.21375011
210	0xbd895446	-0.06705527
211	0x3e0a1cb5	0.13487513
212	0x3bcc7cd5	0.006240467
213	0xbd19f7e7	-0.037589934
214	0x3c1b7587	0.00948847
215	0x3d62b1d4	0.05534537
216	0xbc3413bc	-0.010991033
217	0x3d97ff0c	0.07421693
218	0x3dc17ea9	0.09447987
219	0x3db87a69	0.09007723
220	0x3dec1c4a	0.11528833
221	0x3d9a693a	0.075396016
222	0xbc97321a	-0.018456507
223	0x3e1e0447	0.15431319
224	0xbc2d07c9	-0.010560938
225	0x3e02ee52	0.12786224
226	0x3dbe03c3	0.09278061
227	0x3db12087	0.08648782
228	0x3dea3ba8	0.1143716
229	0x3dce7d29	0.10082466
230	0xbc4b142b	-0.012394945
231	0xbc07dbb7	-0.00829213
232	0xbdbe5689	-0.09293849
233	0x3e0089b1	0.12552525
234	0x3de92d54	0.11385599
235	0xbd571fa8	-0.052520424
236	0x3e24d3a9	0.16096367
237	0xbd6c6011	-0.057708804
238	0xbd6e0d64	-0.05811824
239	0x3dd4e3d4	0.10395017
240	0xbce2a8b3	-0.027668333
241	0x3dece24d	0.11566601
242	0xbc8d754e	-0.01726785
243	0x3e263621	0.16231586
244	0x3c27859a	0.010224724
245	0x3c3613c7	0.011113114
246	0x3ceb7b4f	0.028745322
247	0x3e1090fb	0.14117806
248	0x3ced8b20	0.028997004
249	0x3cc2c504	0.023775585
250	0xbd0b3134	-0.03398247
251	0x3e1b486a	0.15164343
252	0xbd1603f9	-0.036624882
253	0x3cd6b7f5	0.026210764
254	0x3dd0612c	0.10174784
255	0x3e0f5571	0.13997437

critic_net.lstm.bias_hh_l0 f4 [256]
0	0x3d863075	0.06552211
1	0xbcb40d75	-0.021979073
2	0x3e167a41	0.14695074
3	0x3c46ceae	0.012134237
4	0x3e0dfab4	0.13865167
5	0x3e3316f5	0.17489226
6	0x3e304dcd	0.17217179
7	0xbd863065	-0.06552199
8	0x3b317f91	0.0027084092
9	0x3e34146c	0.17585915
10	0xbd495876	-0.04915663
11	0x3dcf3d48	0.1011911
12	0x3de953a9	0.1139291
13	0x3de2dd84	0.11077407
14	0xbc6869a5	-0.014185344
15	0xbc1432af	-0.009045287
16	0x3e2da3b5	0.1695698
17	0xbd2cabaf	-0.042155918
18	0xbd12c55a	-0.03583274
19	0x3d751857	0.059837665
20	0x3cba46a5	0.022738764
21	0x3e27f458	0.16401803
22	0x3e67953b	0.2261552
23	0x3e207a1d	0.15671583
24	0xbdc6038a	-0.09668644
25	0xbd96a1eb	-0.07355102
26	0x3da4dadc	0.080495566
27	0x3d5cb1a5	0.053880353
28	0xbd2ec16e	-0.042664938
29	0x3e0732c0	0.13202953
30	0xb98fb27e	-0.00027408072
31	0x3c97c7cf	0.018527893
32	0x3cdbcc4e	0.026830819
33	0xbce760e4	-0.028244443
34	0xbd033ea2	-0.032042153
35	0x3e25d4c9	0.16194452
36	0x3d78b444	0.06071879
37	0x3e0e7aba	0.13914004
38	0xbd48968f	-0.04897171
39	0x3de48b68	0.11159402
40	0x3d53849b	0.051640134
41	0x3d6150bb	0.05500863
42	0xbdc20399	-0.094733424
43	0x3cae0d1e	0.02124649
44	0x3e282e8a	0.16424003
45	0x3d559b61	0.052150134
46	0x3e161798	0.14657438
47	0xbcaead0c	-0.02132275
48	0xbc236441	-0.009972633
49	0x3ddcc23d	0.107792355
50	0xbd6e408e	-0.058167033
51	0x3e116e07	0.14202128
52	0x3e1f9ab7	0.15586363
53	0x3d1f35f0	0.0388698
54	0xbc00f11e	-0.007869987
55	0xbc5859c5	-0.0132049965
56	0x3e184637	0.14870535
57	0x3e4c2f51	0.19939925
58	0x3dcdf83f	0.10057115
59	0x3e2febf4	0.17179853
60	0x3dcbf15d	0.09958146
61	0x3e036990	0.12833238
62	0x3e364501	0.1779976
63	0xbcb4eaa5	-0.022084543
64	0xbd4eff07	-0.05053618
65	0x3d94bc5c	0.07262489
66	0x3c2c09d6	0.010500392
67	0x3c86eb17	0.016469521
68	0xbdc6869f	-0.09693646
69	0xbdaae891	-0.0834514
70	0x3d12e2ec	0.03586094
71	0x3d7a6c65	0.06113853
72	0x3ced03f5	0.02893255
73	0x3cc5bfd4	0.024139322
74	0x3c4e3a6f	0.012587174
75	0x3d9e0a2f	0.07716786
76	0xbcc79726	-0.024364065
77	0x3c0d558b	0.008626352
78	0x3c822e66	0.015891265
79	0x3e3bdf9b	0.18347017
80	0xbe055d05	-0.13023765
81	0x3e202b2b	0.15641467
82	0xbe0e4371	-0.13892914
83	0xbd688052	-0.056763
84	0x3d86e851	0.065872796
85	0x3d8ebb1f	0.06969284
86	0x3d935bbe	0.07195233
87	0xbde60306	-0.112310454
88	0xbd78bc9f	-0.060726758
89	0xbde91247	-0.11380439
90	0xbda40108	-0.08008009
91	0xbe34f41a	-0.17671242
92	0xbdbc0523	-0.09180667
93	0x3db3054d	0.087412454
94	0x3dfa75ab	0.12229475
95	0xbdf7ae61	-0.12093807
96	0xbe021325	-0.12702616
97	0xbd8060e8	-0.062684834
98	0xbd5f2e26	-0.05448737
99	0xbd46b1de	-0.04850947
100	0xbe3fd780	-0.1873455
101	0xbdf1a2ae	-0.11798607
102	0xbe072765	-0.13198622
103	0xbd3cc80c	-0.046089217
104	0x3d50db17	0.05099019
105	0xbcd1278e	-0.025531556
106	0xbc3cc50e	-0.011521591
107	0xbc84e49b	-0.016222289
108	0xbd8c30af	-0.06845223
109	0x3d8586b3	0.065198325
110	0xbd6691c0	-0.05629134
111	0xbd47660d	-0.048681308
112	0xbd0c6ec4	-0.03428532
113	0x3c719de3	0.014747116
114	0xb9675708	-0.00022062298
115	0xbd1ac3af	-0.037784275
116	0x3d5f9374	0.05458398
117	0x3c92111d	0.017830426
118	0xbca3dd9d	-0.020003134
119	0x3cabb1e6	0.020958852
120	0x3e0c023c	0.13672727
121	0xbdb8d323	-0.09024646
122	0xbddfcad2	-0.10927357
123	0xbd188c15	-0.037242968
124	0xbdab8b24	-0.08376148
125	0x3ce47865	0.02788944
126	0xbdea7aa8	-0.11449176
127	0x3b8d46d5	0.0043114224
128	0xbd302103	-0.043000232
129	0xbd4fd97f	-0.05074453
130	0x3e0af1ae	0.13568756
131	0x3d57b559	0.05266318
132	0x397fb3cb	0.00024385673
133	0xbd6664c9	-0.05624846
134	0xbb1b7427	-0.0023720355
135	0x3d8ef3dd	0.06980107
136	0xbbd48593	-0.00648565
137	0x3d76cd0a	0.060254134
138	0xbc6afd27	-0.014342583
139	0x3d6316e4	0.055441752
140	0x3dbf804f	0.09350645
141	0x3dce0db5	0.10061208
142	0xbd7a8564	-0.061162367
143	0xbd8923ad	-0.06696258
144	0xbd001df5	-0.03127857
145	0x3e3dfab3	0.18552665
146	0x3cff128a	0.03113677
147	0xbabfa534	-0.0014621378
148	0x3dfb2c7e	0.122643456
149	0x3e16b033	0.14715652
150	0xbe1d771d	-0.1537747
151	0x3c8a1d71	0.016859742
152	0x3d242cce	0.04008179
153	0xbd39f07f	-0.04539537
154	0x3d2b2a21	0.041788224
155	0x3d454593	0.048162054
156	0x3bfcc34a	0.00771371
157	0xbe245b31	-0.16050412
158	0x3e47c975	0.19510444
159	0x3cb1ca3e	0.021702882
160	0x3daff613	0.08591857
161	0xbe0b26e5	-0.13589056
162	0xbced3e95	-0.028960506
163	0xbdc4595d	-0.09587357
164	0x3ddacfe3	0.106841825
165	0xbdfa5f44	-0.12225202
166	0x3db240ef	0.08703791
167	0x3d1fab4e	0.03898173
168	0x3df8fdca	0.121577814
169	0xbd3718e3	-0.04470147
170	0x3d1cc4bb	0.038273554
171	0xbe0c8979	-0.13724317
172	0x3daa418e	0.08313285
173	0xbcbe48a0	-0.02322799
174	0xbd274b70	-0.040843427
175	0x3c8dcc30	0.017309278
176	0x3d70dc52	0.058803864
177	0xbdd99140	-0.10623407
178	0x3db37950	0.08763373
179	0xbddc7ab3	-0.107655905
180	0x3dca2249	0.098698206
181	0xbde52085	-0.11187843
182	0xbe3a9b98	-0.18223417
183	0x3dd320d3	0.10308995
184	0xbe341353	-0.17585497
185	0x3de2b722	0.11070086
186	0x3d3766c3	0.044775736
187	0x3e1bd4ee	0.15217945
188	0xbe3913e8	-0.18074
189	0x3cb5a692	0.022174153
190	0xbd03ceb5	-0.032179553
191	0x3e0b6385	0.13612182
192	0x3d574409	0.052555118
193	0x3c05afaa	0.008159557
194	0x3dcf2b98	0.10115737
195	0xbb65aad0	-0.003504444
196	0xbcc235bb	-0.023707261
197	0xbd26f148	-0.040757447
198	0xbcf34d21	-0.029699864
199	0xbd752c8c	-0.059856936
200	0xbd3a41df	-0.045472976
201	0x3c6defcf	0.014522507
202	0x3e0bda52	0.13657501
203	0x3e297c56	0.16551337
204	0xbd770008	-0.060302764
205	0x3c32b686	0.010907775
206	0x3dd202a7	0.10254412
207	0xbb51a7e8	-0.003199095
208	0xbd94f0ec	-0.07272515
209	0xbcb00677	-0.021487458
210	0x3d817974	0.063219935
211	0x3dd86803	0.10566714
212	0x3c623e0a	0.013808737
213	0x3e05c373	0.13062839
214	0x3d180235	0.03711148
215	0x3d581a4b	0.05275945
216	0xbc6f7172	-0.01461445
217	0xbc053e56	-0.008132538
218	0x3d8ce151	0.06878913
219	0xbd825783	-0.06364348
220	0x3d003357	0.03129896
221	0xbdbeffbf	-0.093261234
222	0x3e5392b1	0.20661427
223	0x3c164d13	0.009173649
224	0x3df2ed8c	0.11861715
225	0x3d4c74fd	0.049916256
226	0x3dfc2ca2	0.123132005
227	0x3d9d5887	0.07682901
228	0x3da617d0	0.081100106
229	0x3bb50bb3	0.0055250763
230	0x3e08bf4e	0.13354227
231	0xbb1b95e1	-0.0023740458
232	0x3cd6f687	0.0262406
233	0xbca01268	-0.019540027
234	0xbccb392e	-0.024807539
235	0xbd88f496	-0.06687276
236	0xbc89f212	-0.016839061
237	0xbb5ab822	-0.0033373912
238	0x3db6cb62	0.08925511
239	0xbd18b769	-0.03728429
240	0xbde6def3	-0.11272993
241	0xbb9ec96c	-0.0048457887
242	0x3d3c1f4f	0.045928296
243	0xbd7dab75	-0.061931092
244	0x3dfc8791	0.12330545
245	0x3e17f054	0.14837772
246	0xbd1e9402	-0.03871537
247	0x3d216c8a	0.03941015
248	0xbc4c220e	-0.012459291
249	0x3d290cb5	0.041271884
250	0x3e0f329c	0.1398415
251	0x3e202fc7	0.15643226
252	0xbd252006	-0.040313743
253	0x3c930d5a	0.017950702
254	0x3cba9baa	0.022779305
255	0xbd244e81	-0.04011393

critic_net.lstm.weight_ih_l1 f4 [256, 64]
0	0xbcffc04a	-0.03121962
1	0xbe10864a	-0.14113727
2	0x3cf67efc	0.030089848
3	0x3ddb7d0f	0.107172124
4	0x3c863591	0.016382964
5	0xbdb0c5e8	-0.086314976
6	0x3d3de7fd	0.04636382
7	0xbd85a451	-0.065254815
8	0x3e037328	0.12836897
9	0x3ddd3321	0.10800768
10	0xbca0567b	-0.019572487
11	0x3db7f0af	0.089814536
12	0x3dc9e2a6	0.09857683
13	0x3dae7b00	0.08519554
14	0xbd5a0c26	-0.053234242
15	0x3de05258	0.10953206
16	0x3dda0fdc	0.10647556
17	0x3e0f8308	0.14014828
18	0xbbdee53c	-0.006802229
19	0x3cfc3807	0.030788435
20	0x3d143580	0.036183834
21	0xbcc72dea	-0.024313886
22	0xbd2df3d7	-0.042468872
23	0xbd5e0f82	-0.05421401
24	0x3e252cf7	0.16130434
25	0xbe2cfbcb	-0.16892926
26	0x3de52d4b	0.111902796
27	0x3d020876	0.03174635
28	0x3dff9ddd	0.12481282
29	0xbd599ce2	-0.05312813
30	0xbd272dbf	-0.04081511
31	0x3cb638e8	0.022243932
32	0xbd3a4074	-0.045471624
33	0xbe0e3cd7	-0.13890396
34	0x3da2fd2b	0.07958444
35	0xbd749dde	-0.059720866
36	0xbd19f7f4	-0.037589982
37	0xbe2ffdb8	-0.1718663
38	0x3c26793a	0.010160739
39	0x3cbf7e35	0.02337561
40	0x3b56383a	0.0032687322
41	0xbdb921a3	-0.09039619
42	0x3dc44845	0.09584097
43	0x3d0a2e7a	0.03373573
44	0xbe0421a7	-0.12903462
45	0x3e048856	0.12942633
46	0x3dc79796	0.097457096
47	0xbdf75bfe	-0.12078093
48	0x3d624130	0.05523795
49	0x3e18583f	0.14877413
50	0x3dbb8dea	0.09157927
51	0xbdcb1a4a	-0.099171236
52	0xbd2e611b	-0.042573076
53	0x3d2da35e	0.042392127
54	0xbc084a96	-0.008318564
55	0x3db94fbc	0.09048411
56	0x3d5e3b02	0.054255493
57	0x3d91b3b1	0.071143515
58	0x3d91a989	0.071124144
59	0x3d647d6b	0.05578367
60	0xbd669b77	-0.056300607
61	0xbd816d0e	-0.06319629
62	0x3deec59b	0.11658784
63	0xbca9412e	-0.020660963
64	0x3e1ec86d	0.15506144
65	0xbe18e360	-0.14930487
66	0x3e2ffb71	0.17185761
67	0xbdb324e4	-0.08747271
68	0xbde6d570	-0.11271179
69	0x3d0b916a	0.034074225
70	0xbd91eeec	-0.07125649
71	0x3e2879fe	0.16452786
72	0x3d614f5b	0.05500732
73	0x3de18000	0.11010742
74	0x3d8da975	0.06917087
75	0x3d960091	0.07324327
76	0x3d65a444	0.05606486
77	0x3e2d7373	0.16938572
78	0xbda26830	-0.079300284
79	0xbe19a6b1	-0.15004994
80	0xbd51e768	-0.051246077
81	0xba9660b6	-0.0011472914
82	0x3cbb0d84	0.022833593
83	0x3dc1732f	0.09445798
84	0x3d8a27a9	0.06745846
85	0x3d98dda4	0.074641496
86	0xbda97ca5	-0.08275727
87	0x3d73c131	0.059510414
88	0xbe02fbea	-0.1279141
89	0xbd8e5743	-0.069502376
90	0xbdc1b07c	-0.0945749
91	0x3de53ad6	0.11192863
92	0x3c3f4254	0.011673529
93	0x3dc9b72b	0.0984939
94	0x3de856e5	0.11344699
95	0x3e02d95a	0.12778226
96	0x3e071cdd	0.13194604
97	0xbd83665a	-0.064160064
98	0x3da5b150	0.0809046
99	0x3e198f7b	0.1499614
100	0x3e115769	0.141935
101	0xbd843de0	-0.06457114
102	0x3de16fe1	0.11007667
103	0x3d52563f	0.051351782
104	0x3db5fbc0	0.08885908
105	0xbd34780f	-0.04405981
106	0xbcd0ab49	-0.0254723
107	0x3d3c02b3	0.04590101
108	0xbb549304	-0.003243626
109	0xbdac4dff	-0.08413314
110	0xb828825b	-4.0175724e-05
111	0xbe373729	-0.17892136
112	0x3dc6196c	0.096728176
113	0xbd72fc4d	-0.059322644
114	0x3dd0ece1	0.10201431
115	0xbd90856c	-0.07056698
116	0xbdbaa4cc	-0.09113464
117	0x3dd80f52	0.10549797
118	0xbd103165	-0.035203356
119	0x3dcfcf15	0.1014692
120	0x3c1c3721	0.009534628
121	0xbb71d4fa	-0.0036900626
122	0x3d91ff66	0.071287915
123	0xbc009b9f	-0.007849603
124	0xbe18799f	-0.14890145
125	0xbd8895df	-0.06669211
126	0x3df93b33	0.121694945
127	0xbd1e3f8d	-0.038634825
128	0xbdb5988e	-0.08866988
129	0xbc58b546	-0.013226813
130	0x3da5ae7d	0.080899216
131	0x3da3f613	0.08005919
132	0xbe1914f5	-0.149494
133	0xbdbcd27f	-0.092198364
134	0x3e181e03	0.14855199
135	0x3d107454	0.03526719
136	0x3cfb496b	0.030674657
137	0xbdcbfefd	-0.099607445
138	0x3db5d1cd	0.08877907
139	0x3db5753c	0.08860251
140	0x3da4e9a3	0.08052375
141	0xbcdb471c	-0.026767306
142	0x3dc5b5c7	0.09653812
143	0xbe174a15	-0.14774354
144	0x3dc0c4b6	0.0941252
145	0x3d164164	0.036683455
146	0xbc958a30	-0.01825437
147	0xbd6f397d	-0.058404434
148	0xbcf619b2	-0.03004155
149	0x3da7f289	0.08200557
150	0xbd6945de	-0.056951396
151	0xbe333676	-0.17501244
152	0xbcbf9a4e	-0.023389008
153	0xbe086e2d	-0.13323279
154	0x3d926c44	0.07149556
155	0x3dc367d6	0.095412895
156	0xbc83b60e	-0.016078021
157	0xbcb715c6	-0.02234925
158	0x3dfff548	0.124979556
159	0xbd5d3cc9	-0.054013047
160	0xbd39b021	-0.045333985
161	0x3c974481	0.018465282
162	0x3b8ef572	0.0043627555
163	0xbcc20a14	-0.023686446
164	0xbdbef03f	-0.09323167
165	0x3bc07855	0.0058737197
166	0xbd72fa6d	-0.059320856
167	0x3dd04ea0	0.101712465
168	0xba55919a	-0.00081470015
169	0xbdd9e2d5	-0.10638968
170	0x3e121a67	0.14267884
171	0x3b89b130	0.0042020306
172	0x3d5e34ca	0.054249562
173	0xbdbf1dd1	-0.09331859
174	0x3ccb9d5a	0.024855305
175	0xbdcf5c9e	-0.10125087
176	0x3d4d7085	0.050156135
177	0x3d12cddb	0.03584085
178	0x3d8c1e4b	0.068417154
179	0xbd8cc16f	-0.06872832
180	0x3ca01339	0.019540416
181	0x3c2f6451	0.01070507
182	0x3d44b470	0.04802364
183	0x3d82a8f4	0.063798815
184	0x3d9e009a	0.077149585
185	0xba266396	-0.0006347237
186	0x3da79ef7	0.08184617
187	0xbd0e182e	-0.03469103
188	0xbc11200e	-0.00885774
189	0x3c486278	0.012230508
190	0x3d6c05a3	0.057622563
191	0xbe0629a2	-0.13101819
192	0xbe170715	-0.14748795
193	0xbe0003e7	-0.12501489
194	0xbdee0a43	-0.11623051
195	0xbd10bc87	-0.035336044
196	0xbd97b0a9	-0.07406742
197	0x3d61395e	0.05498635
198	0x3db3efa5	0.08785943
199	0x3dc20443	0.09473469
200	0xbd9d6d63	-0.076868795
201	0x3db5edd1	0.088832505
202	0x3dcd857f	0.10035228
203	0xbd9cf578	-0.07664007
204	0x3d3c9181	0.0460372
205	0xbd983c76	-0.07433407
206	0x3cd2fdc1	0.025755765
207	0x3df5c71f	0.1200087
208	0xbbffc98c	-0.0078060087
209	0x3d7e750c	0.062123343
210	0xbe23e4db	-0.1600527
211	0xbd999b97	-0.075003795
212	0xbda90673	-0.08253183
213	0x3ba4fa9a	0.005034757
214	0xbd99ceee	-0.07510172
215	0xbdcd3c19	-0.10021228
216	0xbcd0ff61	-0.0255124
217	0xbcfbb3f0	-0.03072545
218	0x3d803251	0.06259597
219	0xbb816024	-0.0039482284
220	0xbd155541	-0.036458258
221	0x3ca43a70	0.020047396
222	0x3d1fd5d0	0.039022267
223	0xbe05adce	-0.13054582
224	0xbe40328b	-0.1876928
225	0xbdfd3956	-0.123644516
226	0x3db5ef7a	0.08883567
227	0x3da1bebf	0.0789771
228	0xbe2319ba	-0.15927783
229	0x3c7e1154	0.015507061
230	0x3d957af5	0.07298843
231	0xbcf6ee4a	-0.030142922
232	0x3e275487	0.16340838
233	0xbc7aec52	-0.015315132
234	0x3db6d518	0.08927363
235	0xbd4f2fe6	-0.05058279
236	0xbd675864	-0.05648078
237	0xbd6853fb	-0.056720715
238	0x3dfdd6b5	0.12394468
239	0x3cfcd189	0.030861633
240	0x3dc23224	0.0948222
241	0x3c66020a	0.014038572
242	0xbda0a7d1	-0.078445084
243	0xbc6c6ca7	-0.014430202
244	0x3e159381	0.1460705
245	0xbc6e174c	-0.014531922
246	0xbd91fc57	-0.07128208
247	0xbdaf77c1	-0.08567763
248	0x3d19589a	0.037438013
249	0x3ce2850c	0.027651332
250	0x3d0fb849	0.035087857
251	0x3b4fa957	0.0031686628
252	0xba068027	-0.00051307905
253	0x3dae2485	0.08503059
254	0xbdc8e05b	-0.098084174
255	0x3d34259f	0.04398119

critic_net.lstm.weight_hh_l1 f4 [256, 64]
0	0x3d877e90	0.06615937
1	0x3d14c67b	0.0363221
2	0xbdae977e	-0.085249886
3	0xbd92ea90	-0.071736455
4	0x3e0965b8	0.13417709
5	0x3de65f28	0.11248618
6	0xbd8ae973	-0.06782808
7	0x3e0a15fd	0.1348495
8	0x3ae77f55	0.0017661849
9	0x3c8c6a8a	0.017140646
10	0x3d2076bb	0.03917573
11	0x3dcb7ee2	0.0993631
12	0xbcabfaf2	-0.020993683
13	0x3db92994	0.090411335
14	0xbd27ab8a	-0.040935077
15	0xbe01bde9	-0.12670101
16	0x3c5e828b	0.013580929
17	0xbdb66045	-0.08905081
18	0x3d61fb51	0.055171315
19	0xbd5db365	-0.054126162
20	0x3debfd7c	0.11522958
21	0xbe0edb1f	-0.13950776
22	0x3db2ab46	0.08724074
23	0xbcb3eb50	-0.021962792
24	0x3d4ce504	0.050023094
25	0x3d43bf41	0.047789816
26	0xbd35f383	-0.044421684
27	0xbe2bea2a	-0.16788545
28	0x3dd356e0	0.103193045
29	0xbd05627b	-0.03256462
30	0x3dc462c3	0.0958915
31	0xbdc85dae	-0.09783493
32	0x3d371f4e	0.04470759
33	0x3dd89878	0.10575956
34	0x3dd39012	0.103302136
35	0xbdafa6b2	-0.085767165
36	0x3db00387	0.08594423
37	0xbe20e194	-0.15711051
38	0x3d5061a0	0.050874352
39	0xbde352cd	-0.11099777
40	0xbda3f212	-0.080051556
41	0x3dc39931	0.09550703
42	0x3e092f6f	0.13397
43	0xbda0bcd7	-0.07848518
44	0x3ccb467a	0.02481388
45	0x3e04b7fc	0.1296081
46	0x3e16704e	0.14691278
47	0xbd860568	-0.06544
48	0x3d92b467	0.07163315
49	0xbddfb715	-0.10923592
50	0x3dfb811a	0.122804835
51	0xbd85e574	-0.06537905
52	0xbcb8ec1e	-0.022573527
53	0xbe1f5042	-0.1555796
54	0xbd8a054c	-0.067392915
55	0xbda365e5	-0.07978419
56	0xbe1f0dc9	-0.15532602
57	0xbde44509	-0.1114598
58	0x3d933941	0.07188655
59	0x3d93df2e	0.072203025
60	0x3d37531a	0.044756986
61	0xbd2fdac2	-0.042933233
62	0xbe07e2dd	-0.13270135
63	0xbd936f9a	-0.07199021
64	0x3d3437ce	0.043998532
65	0x3dbe5048	0.09292656
66	0xbd9d0fc4	-0.07669023
67	0xbd5c39e4	-0.053766146
68	0x3d0da769	0.034583483
69	0x3e148370	0.14503264
70	0x3cf66e3a	0.030081857
71	0xbd7b1f4d	-0.061309148
72	0x3d64a5bc	0.05582212
73	0x3dd61783	0.10453703
74	0xbd6988a4	-0.057015076
75	0x3d8dddf6	0.06927101
76	0x3d674117	0.05645856
77	0xbd3739fb	-0.04473303
78	0xbd80993b	-0.062792264
79	0xbd3b927c	-0.045793995
80	0x3e10b4d2	0.14131477
81	0xbe0941fb	-0.13404076
82	0xbdd2a04a	-0.10284479
83	0x3d776cfc	0.06040667
84	0x3da0c06a	0.078492
85	0xbe2076ad	-0.15670271
86	0xbd57cd7c	-0.0526862
87	0x3d8669a6	0.065631196
88	0x3df610e9	0.12014944
89	0x3dced95c	0.10100052
90	0x3db175f4	0.08665076
91	0x3c9b94ec	0.01899191
92	0xbc91ed30	-0.017813295
93	0xbd79d713	-0.060996126
94	0xbdbc3398	-0.09189528
95	0xbd14358e	-0.036183886
96	0x3d2e4d27	0.042554047
97	0xbc9177a8	-0.017757252
98	0x3dbb34e0	0.091409445
99	0x3dfc309f	0.12313961
100	0xbdd73726	-0.105085656
101	0xbde79c79	-0.11309142
102	0x3d75620a	0.05990795
103	0xbd071f6a	-0.032988943
104	0x3e0bf5d5	0.13667996
105	0x3dc42b01	0.09578515
106	0xbd9dd651	-0.07706893
107	0xbe048cf0	-0.12944388
108	0xbca54bd1	-0.020177754
109	0xbd79f5c8	-0.06102541
110	0x3d2dad13	0.042401385
111	0xbd0ba02b	-0.034088295
112	0x3e2d3831	0.16915967
113	0xbdb9a0ed	-0.09063897
114	0x3dfa4203	0.12219622
115	0x3dcede12	0.1010095
116	0xbb1c5ce8	-0.0023859087
117	0x3d6f5907	0.058434512
118	0x3cebb68c	0.028773569
119	0x3d7c6b7f	0.061625954
120	0xbda81c6c	-0.08208546
121	0x3d949e89	0.07256801
122	0x3da3c171	0.079958804
123	0xbd1338d4	-0.035942867
124	0x3b106556	0.0022033057
125	0x3ddbf3f3	0.10739889
126	0xbd118f0e	-0.03553682
127	0xbda94d4d	-0.08266697
128	0x3d0d6e39	0.034528945
129	0x3ddb7e87	0.107174926
130	0x3e175c35	0.14781268
131	0xbdb63ccd	-0.088983156
132	0x3df84b70	0.121237636
133	0xbc2e34a1	-0.010632665
134	0xbdcb2a0e	-0.09920131
135	0x3e14d5b4	0.14534646
136	0xbcc63b8c	-0.024198316
137	0x3cd265f8	0.025683388
138	0xbd9bec0a	-0.0761338
139	0xbdd63579	-0.10459418
140	0xbc1ccc7c	-0.009570237
141	0xbc4f49c8	-0.012651868
142	0x3dd2b714	0.10288826
143	0xbdd7c787	-0.10536104
144	0xbc463112	-0.01209666
145	0x3d0e079e	0.034675233
146	0xbdbba991	-0.091632016
147	0x3cbb3df4	0.02285669
148	0x3b18c833	0.0023312687
149	0xbc51d086	-0.0128060635
150	0x3d2aaa90	0.041666567
151	0xbccba4e3	-0.024858898
152	0x3b82fd68	0.0039974935
153	0x3df68e7a	0.12038894
154	0xbbcb7bee	-0.006209842
155	0x3d03e41d	0.032199968
156	0xbcbc84f4	-0.023012616
157	0xbda9ce12	-0.08291258
158	0xbd3b239a	-0.04568825
159	0x3ce56756	0.028003376
160	0x3d63a34e	0.05557566
161	0xbd881d99	-0.0664627
162	0x3da6aa3a	0.08137937
163	0x3df628ec	0.12019524
164	0xbcf66897	-0.03007917
165	0xbc93edbd	-0.018057698
166	0x3c1bdade	0.009512631
167	0xbd121149	-0.035661016
168	0x3af8d39c	0.0018983963
169	0xbd17787b	-0.036980134
170	0xbe1b4ace	-0.15165254
171	0x3d46cc3e	0.048534624
172	0xbe17dfad	-0.1483142
173	0x3da68a69	0.081318684
174	0x3dd60187	0.1044951
175	0x3def05bc	0.116710156
176	0xbde53abb	-0.111928426
177	0x3cb36c88	0.021902338
178	0x3dc9bfbd	0.09851024
179	0x3d0a6ffa	0.033798195
180	0x3d587e1d	0.052854646
181	0xbe07b531	-0.13252713
182	0x3e21c5bb	0.15798084
183	0x3dbd46ac	0.09241995
184	0x3d39d46f	0.045368608
185	0xbd77e8bf	-0.0605247
186	0x3ca7d90d	0.02048924
187	0xbd68b2cc	-0.05681114
188	0xbd016507	-0.031590488
189	0xbe1ec9de	-0.15506694
190	0xbe0cde52	-0.13756683
191	0x3e1d9123	0.15387397
192	0x3ddb42e7	0.1070612
193	0x3dadd6ea	0.08488257
194	0xbd1be944	-0.038064256
195	0x3c0ac283	0.008469227
196	0xbdd8ab78	-0.1057958
197	0x3d979789	0.0740195
198	0xbe0998fd	-0.13437267
199	0xbc82ed9f	-0.015982447
200	0xbb8f4dd2	-0.0043732906
201	0xbd86d5a0	-0.065837145
202	0x3e0f27c4	0.13980013
203	0xbdf68d9b	-0.12038728
204	0x3c50566e	0.012715919
205	0xbdce943a	-0.10086866
206	0xbca8ad8e	-0.02059057
207	0xbda40299	-0.08008308
208	0xbc52c290	-0.01286377
209	0x3d95c0fe	0.07312201
210	0xbd274a8d	-0.04084258
211	0x3dc4ed3b	0.096155606
212	0xbd33e9f2	-0.04392428
213	0xbd79f8d0	-0.0610283
214	0xbd216eb2	-0.039412208
215	0x3dda52f2	0.10660352
216	0x3df1ad85	0.11800674
217	0xbdd20f63	-0.10256841
218	0xbdeee7ae	-0.11665283
219	0xbd9c4457	-0.07630222
220	0xbd8579f1	-0.06517399
221	0x3c12ae5c	0.008952703
222	0x3c62735e	0.013821451
223	0xbd32e2ae	-0.04367321
224	0x3d5c605f	0.053802844
225	0x3df46a3a	0.119343236
226	0xbc0ee0f0	-0.0087206215
227	0xbdc1a377	-0.094550066
228	0x3e00e25d	0.1258635
229	0x3c5afd8f	0.013366117
230	0x3dc42836	0.09577982
231	0x3bfff5d9	0.0078112897
232	0xbbbd98e8	-0.00578605
233	0xbdcfb0f0	-0.1014117
234	0xbe1f0623	-0.15529685
235	0x3d359404	0.04433061
236	0xbb544db6	-0.0032394952
237	0x3d5e6c36	0.054302417
238	0x3ca18c67	0.01972027
239	0x3d32156d	0.043477464
240	0xbdb5b45e	-0.08872293
241	0x3dc05c93	0.09392657
242	0x3cd4006d	0.02587911
243	0x3db07bc4	0.086173564
244	0xbd4f6695	-0.05063494
245	0xbdf2dcee	-0.11858545
246	0x3db2be91	0.08727754
247	0xbd543582	-0.05180884
248	0x3b73604a	0.003713625
249	0x3d69f902	0.057122238
250	0xbda1e586	-0.07905106
251	0x3ae361d9	0.0017347886
252	0x3abe09f5	0.0014498817
253	0x3db85d89	0.090022154
254	0x3d95e025	0.07318143
255	0xbd34f5cf	-0.044179734

critic_net.lstm.bias_ih_l1 f4 [256]
0	0xbd0b48bd	-0.034004916
1	0x3dae9abf	0.08525609
2	0x3d73d786	0.05953171
3	0xbd0aff38	-0.0339348
4	0x3cac1aeb	0.02100893
5	0x3cfa5d5a	0.030562092
6	0x3e06a3c8	0.13148415
7	0x3e0fe3f2	0.14051798
8	0x3d754e77	0.059889283
9	0x3cbae964	0.022816367
10	0xbda94960	-0.08265948
11	0x3e3c4391	0.1838515
12	0x3e0ee24c	0.13953513
13	0x3e205fa8	0.1566149
14	0x3d1da77e	0.03848981
15	0x3dd73a7c	0.10509202
16	0xbd8d2cc0	-0.06893301
17	0xbbb86c27	-0.005628127
18	0xbb2faab9	-0.002680464
19	0x3e14c939	0.14529885
20	0xbd473980	-0.04863882
21	0x3dea21a9	0.114322014
22	0xbd869430	-0.06571233
23	0x3df656a9	0.12028248
24	0x3def0228	0.11670333
25	0x3e0a5b26	0.13511333
26	0x3de4b5e8	0.11167508
27	0xbc86bc7c	-0.016447298
28	0x3dbd5146	0.09244017
29	0xbdab9538	-0.083780706
30	0x3d6309d1	0.055429284
31	0xbd2de507	-0.042454746
32	0x3dd827dc	0.105544776
33	0xbd11ae7d	-0.035566796
34	0xbda0eee5	-0.078580655
35	0x3dcf6d1b	0.10128232
36	0xbd1b69be	-0.03794264
37	0xbc37ed48	-0.011226006
38	0x3d74f63e	0.059805147
39	0x3db10281	0.08643056
40	0x3cc40412	0.023927722
41	0x3c0d65ca	0.008630225
42	0x3d9947aa	0.07484372
43	0xbd84d63c	-0.064861745
44	0x3d78560e	0.060628943
45	0x3d85688c	0.06514081
46	0xbd979af5	-0.074026026
47	0x3d29d3b3	0.041461658
48	0xbb17d156	-0.0023165545
49	0xbd9a1a7a	-0.07524581
50	0x3d64eb9a	0.05588875
51	0x3d39c895	0.045357306
52	0x3cc70b85	0.024297485
53	0x3c9cc2d4	0.01913587
54	0x3c0a16d5	0.008428295
55	0x3dc2d0c6	0.095124766
56	0xbcfc767b	-0.030818215
57	0x3da905bf	0.08253049
58	0x3df6980d	0.1204072
59	0x3d94ed31	0.07271803
60	0x3e2e371d	0.17013212
61	0x3e632233	0.22181015
62	0xbdac4d7e	-0.08413218
63	0xbd8fce40	-0.07021761
64	0x3da26106	0.07928662
65	0xbdd77e9d	-0.105221964
66	0x3db56a4f	0.088581674
67	0xbbd4a000	-0.0064888
68	0x3e024573	0.12721805
69	0xbd07578e	-0.033042483
70	0xbd11dfcb	-0.035613816
71	0xbd08d267	-0.03340378
72	0xbe257be8	-0.16160548
73	0x3e1bbe41	0.15209295
74	0xbdd4261f	-0.103588335
75	0xbdaaa9ee	-0.08333193
76	0xbdaf4830	-0.085586905
77	0xbd47f0ed	-0.04881375
78	0xbe283389	-0.16425909
79	0x3ac0aca3	0.0014699887
80	0xbda3f326	-0.08005361
81	0xbd9917da	-0.074752524
82	0xbdec7d96	-0.11547391
83	0x3de5d485	0.112221755
84	0x3d0c6e93	0.03428514
85	0x3ce10fd5	0.02747337
86	0xbce722d9	-0.028214859
87	0xbde7c642	-0.113171116
88	0xbd53681e	-0.051612966
89	0x3d8b95ff	0.06815719
90	0xbddfc977	-0.10927098
91	0xbd0784ff	-0.03308582
92	0xbe20d3ee	-0.15705845
93	0xbdf5e9c2	-0.120074764
94	0xbbce5428	-0.0062966533
95	0x3d9dea88	0.07710749
96	0x3de07721	0.10960222
97	0xbd702a36	-0.058634005
98	0xbde1cd07	-0.11025434
99	0xbd7c19a9	-0.06154791
100	0x3db63aa4	0.088979036
101	0xbdde028e	-0.10840331
102	0x3c7f6d35	0.015590002
103	0xbe0f7b52	-0.14011887
104	0x3b321d5f	0.002717815
105	0x3dcb478f	0.09925758
106	0xbd9132c1	-0.07089759
107	0xbd1d81a5	-0.038453717
108	0x3e092627	0.1339346
109	0x3d5d8136	0.054078303
110	0x3cb02351	0.021501215
111	0x3cb05b1a	0.021527816
112	0x3dc7e73d	0.09760902
113	0x3d7aecf2	0.061261125
114	0x3c380d5f	0.011233657
115	0xbd8d72ce	-0.06906663
116	0xbe027332	-0.12739256
117	0xbdaac1a4	-0.08337715
118	0x3d1a43a9	0.037662182
119	0x3d1d2624	0.03836645
120	0xbc8bf09e	-0.017082509
121	0xbe0f4b24	-0.13993508
122	0xbde5b51e	-0.11216186
123	0xbdc42139	-0.09576649
124	0xbcb512c2	-0.022103671
125	0xbe119da2	-0.14220288
126	0x3d9f1a36	0.07768671
127	0x3db27d8f	0.08715355
128	0x3da2741b	0.079323016
129	0x3d8ce7b7	0.068801336
130	0x3e0c6e12	0.13713863
131	0xbbe648d7	-0.007027726
132	0x3ddbb8bf	0.10728597
133	0xbde23fe4	-0.110473424
134	0xbdd08206	-0.1018105
135	0x3c555af4	0.013022173
136	0xbdc20834	-0.09474221
137	0xbe14905f	-0.14508198
138	0x3c01f657	0.007932267
139	0xbc047986	-0.008085614
140	0xbd9a3e76	-0.07531445
141	0x3e197cd6	0.14989027
142	0x3dd6f658	0.10496205
143	0xbdc8ed06	-0.09810834
144	0x3d7901f3	0.060792875
145	0x3cc54b72	0.024083827
146	0x3d5a5a5c	0.05330883
147	0xbe28e494	-0.16493446
148	0xbdc1e8cf	-0.09468233
149	0x3d6afddf	0.057371017
150	0xbde456fb	-0.11149403
151	0x3c93bccc	0.018034361
152	0x3dbec11c	0.093141764
153	0xbd06eb9d	-0.032939542
154	0x3ad8f488	0.0016552368
155	0xbda8c1c2	-0.08240081
156	0xbdc6f55f	-0.097147696
157	0xbd923060	-0.07138133
158	0x3cf55df0	0.02995202
159	0xbbf9ea5d	-0.0076268152
160	0xbd5132fd	-0.051074017
161	0xbda3e651	-0.08002914
162	0x3df0c496	0.11756246
163	0x3dcb6020	0.09930444
164	0x3a2ec823	0.0006667396
165	0x3d784e14	0.060621336
166	0x3d64a8be	0.055824988
167	0xbd2faa8e	-0.042887263
168	0x3e0c2c6a	0.13688818
169	0xbc0b8ba0	-0.008517176
170	0xbdfe3b18	-0.12413615
171	0xbdf55305	-0.11978725
172	0xbdd1a674	-0.102368265
173	0x3c96c557	0.018404646
174	0x3dd42173	0.103579424
175	0xba75b354	-0.000937273
176	0x3cc3aefc	0.02388715
177	0x3d643869	0.05571786
178	0xbd519fc8	-0.05117777
179	0xbd948701	-0.072523125
180	0xbd779b34	-0.060450748
181	0xbd0f896d	-0.03504317
182	0x3df9b7d0	0.121932626
183	0x3d443249	0.04789952
184	0xbcffedab	-0.031241259
185	0xbcfb030b	-0.0306411
186	0x3d93f856	0.07225101
187	0xbbad99bc	-0.0052978676
188	0xbd01975e	-0.031638496
189	0xbce2d906	-0.027691375
190	0x3d20807a	0.039185025
191	0x3dbccbac	0.09218535
192	0x3d8ad4fb	0.06778904
193	0x3d180f7d	0.037124146
194	0x3df2ea52	0.11861099
195	0x3e0a1d4d	0.1348774
196	0xbdda39b0	-0.10655534
197	0xbc7b02fc	-0.015320536
198	0xbd1ef167	-0.038804438
199	0x3da234f5	0.07920257
200	0x3e23d76b	0.16000144
201	0x3db57ec6	0.08862071
202	0x3e1e30f6	0.15448365
203	0x3ac24d6b	0.0014824098
204	0xbc5841c5	-0.013199274
205	0x3c3bc15b	0.011459674
206	0xbb897bc6	-0.004195663
207	0x3dfe2761	0.12409855
208	0x3d3460bb	0.044037562
209	0xbbb48803	-0.005509378
210	0x3be7db79	0.0070757237
211	0xbd74a641	-0.059728865
212	0x3d8f033c	0.06983039
213	0x3d677553	0.056508373
214	0x3d923539	0.07139058
215	0x3c51ea13	0.012812155
216	0x3dce0c06	0.10060887
217	0xbbf9dec4	-0.0076254327
218	0x3d94ae78	0.0725984
219	0xbdaad7b0	-0.083419204
220	0x3d49b564	0.049245253
221	0x3d02c809	0.03192905
222	0x3d83f7dc	0.0644376
223	0xbc221ff3	-0.009895313
224	0x3d804a06	0.06264119
225	0x3df48b94	0.11940685
226	0x3da841c4	0.08215669
227	0x3e0ecde6	0.13945732
228	0x3e2545d9	0.16139926
229	0x3de2f232	0.11081351
230	0xbcbe2bbf	-0.02321422
231	0x3cc0a7a8	0.023517445
232	0xbba47a70	-0.0050194785
233	0x3e14a98e	0.14517805
234	0x3da306c8	0.07960278
235	0x3ca5e8de	0.020252641
236	0xbd9a41cb	-0.0753208
237	0x3c57b09b	0.013164665
238	0xbd7fc542	-0.06244398
239	0xbc279dca	-0.010230491
240	0x3df835fc	0.12119672
241	0x3cd05f1c	0.025435977
242	0x3d22a4d4	0.039707974
243	0x3d23e508	0.040013343
244	0x3debf26a	0.11520846
245	0xbcab3df3	-0.020903563
246	0x3dec2056	0.11529605
247	0xbac9ad14	-0.0015386664
248	0x3cbc4bdd	0.022985393
249	0x3d9cf826	0.07664518
250	0x3dd9546d	0.10611806
251	0xbbe23889	-0.006903712
252	0xbd84107d	-0.064484574
253	0x3cf1b756	0.029506367
254	0x3b5646b0	0.0032695942
255	0xbd62396a	-0.055230536
