trained_models/15_lag_ppo_InvertedPendulum-v2_eps_0.25_critic.pth (torch, 175156 bytes, 33 tensors)

critic_net.lstm.weight_ih_l0 f4 [128, 4]
000000 6e 27 0a bf a3 93 84 3f 5a d7 ed bd 79 88 3c 3e
       -0.53966415 1.0357555 -0.11613341 0.18411435
000010 64 42 d9 bf 10 0a 22 bf 94 b7 78 bf 2a d5 1e bd
       -1.6973386 -0.63296604 -0.9715512 -0.038777508
000020 fd 75 2f 3f 4f 74 96 bf e5 c5 c6 3d 9f 46 25 bf
       0.6853941 -1.1754245 0.09705714 -0.64560884
000030 96 e9 0e 3f 2b 3f e6 3f e9 9b f7 3d af 11 5e 3c
       0.55825174 1.7988027 0.120902844 0.013554021
000040 21 d1 8d bd 4d 14 2e bf 53 3c 9c 3d e5 21 c7 be
       -0.06924654 -0.67999727 0.076286934 -0.38893047
000050 15 fc 8e be 0b a9 b3 bf d0 f0 9e 3e 1f 45 d7 be
       -0.27926698 -1.4035963 0.310431 -0.42044923
000060 54 01 5b bf 3c 52 05 c0 38 27 1c bf 90 a6 48 be
       -0.855489 -2.0831442 -0.60997343 -0.19594789
000070 66 91 3a bf c8 06 6e bf d2 ed b4 be 02 1b b3 3e
       -0.7287811 -0.929791 -0.35337692 0.34981543
000080 83 2f a8 bf 53 32 22 3f a6 00 06 bf 09 01 69 3f
       -1.31395 0.6335804 -0.5234474 0.91017205
000090 dc c2 74 bf 54 31 0b be 8f 69 e5 3e 06 cf 8c bb
       -0.9560983 -0.13593036 0.44807097 -0.00429714
0000a0 9e b8 8c be 47 0b c7 3f ca 33 c7 bd 2f 27 e4 3e
       -0.27484602 1.5550317 -0.09726675 0.44561145
0000b0 27 93 26 bf 60 f1 81 3f 33 f9 cf be a5 dc 80 3f
       -0.65068287 1.0151787 -0.4061981 1.0067335
0000c0 4f db 89 be 53 e8 8c bf 9f ac c7 3d 51 5e 4c 3e
       -0.26925132 -1.10084 0.09749722 0.19957854
0000d0 48 da af bf 37 32 25 3f 98 c7 70 bf 45 43 46 3f
       -1.3738489 0.64529747 -0.94054556 0.77446395
0000e0 7a de 49 bf d6 ef b1 bf 17 06 05 bf a4 88 d2 bd
       -0.788551 -1.3901317 -0.5196242 -0.102799684
0000f0 af 63 36 3e e7 5e c7 3f d3 c2 59 3e 8c 21 87 3e
       0.17811464 1.5575837 0.21265726 0.26392782
000100 75 08 88 3d a2 a8 b4 3f f3 0e f3 3c 1f 89 b7 3a
       0.06642238 1.4113963 0.029670214 0.0014002657
000110 76 6c 85 bf 12 a9 7b 3d 00 cf 0f bf 15 98 2f bd
       -1.0423725 0.061440535 -0.5617523 -0.042869646
000120 04 8f dd 3e d6 56 03 40 a0 3d 64 3f 6b 35 b8 3e
       0.43273175 2.052175 0.8915653 0.35978255
000130 9b c4 27 be 28 23 cc 3f 09 a2 90 bd 1a 96 42 3e
       -0.16383593 1.5948229 -0.07062156 0.19002572
000140 aa b3 e7 be 9e 64 48 3f aa b7 01 3d 7c ed ac 3e
       -0.4525426 0.7827853 0.031669296 0.33774936
000150 fd 46 e1 3d 02 d0 85 3f 92 49 4b 3d 14 a5 a8 be
       0.10999868 1.0454104 0.04963071 -0.32938445
000160 23 56 57 3e 78 19 fa 3f c8 fd 77 3e d9 24 89 be
       0.21028952 1.9539022 0.24217904 -0.26785925
000170 3e a7 0f bf 25 de 0c 3f 09 92 08 be 05 75 64 3e
       -0.56114566 0.55026466 -0.13336958 0.22310264
000180 be 23 3b 3f 80 0b 4a bf 24 c4 82 3e 81 c0 81 be
       0.73101413 -0.789238 0.25540268 -0.2534218
000190 16 da 24 bf 05 76 26 c0 23 87 bb 3e d8 e1 55 bd
       -0.6439527 -2.6009533 0.3662654 -0.052217335
0001a0 9d 79 d1 be ce f8 f1 3d ea f8 29 bf 1d e9 15 3f
       -0.40913096 0.11815034 -0.6639544 0.5855883
0001b0 db 65 aa bd 89 f2 8f bd 09 ed 68 be c9 9b 19 3e
       -0.08320209 -0.07028682 -0.22746672 0.15000834
0001c0 0d 8a ad 3f 9f 77 42 bf 0b 1d 4b bf 04 c9 39 bf
       1.3557755 -0.7596378 -0.7934119 -0.7257235
0001d0 1a ea 8b be f6 24 8e 3f e3 cf 96 3d 43 3e 7f 3e
       -0.27327043 1.110503 0.0736387 0.24926095
0001e0 a6 a2 f1 be 14 35 22 c0 d4 66 f4 bd 51 78 91 bd
       -0.47194403 -2.5344896 -0.119336754 -0.07103027
0001f0 b2 0f 8c be d6 23 95 3f 69 ed 3a bd 51 40 8f 3e
       -0.27355725 1.1651561 -0.04563657 0.27978757
000200 b1 73 2f 3d bc 05 4d bf 1a 05 e4 3c ed 38 0d 3d
       0.04283494 -0.80086875 0.027834464 0.034478117
000210 89 a2 e3 3e f6 94 9b 3f e0 30 6c 3e 2d 19 8a 3e
       0.44459942 1.2154834 0.2306552 0.26972333
000220 91 49 b6 3c 6c 1e 94 3e 5b 2d 62 3d b5 1a 33 be
       0.022251876 0.2892946 0.055219036 -0.17490657
000230 da fe ac 3e b9 9e 31 3e 3f 9c 26 be 96 22 cd 3e
       0.33788186 0.17345704 -0.1627054 0.4006545
000240 50 2c f4 3d 4c 78 b0 3f 57 6a 96 3d 0f 81 b2 3d
       0.119225144 1.3786712 0.073445015 0.08716022
000250 e7 a3 7d bd 51 8c 24 bf 14 a8 1b bd 06 64 32 be
       -0.061923888 -0.64276606 -0.03800209 -0.17420968
000260 2a f9 bd be 7e cd 3f bf 5d 39 53 3e cd 5a b5 bd
       -0.3710416 -0.7492293 0.20627351 -0.088552095
000270 91 46 cb be f2 74 81 bf 92 b1 93 3c 27 55 f4 bd
       -0.39702275 -1.0113814 0.018029008 -0.11930304
000280 30 27 90 be 5c 1f d9 bd 38 fe 9d be 8d 97 4a 3e
       -0.28154898 -0.106016845 -0.30858016 0.19784375
000290 27 c7 83 bd 16 94 88 be bf d4 31 3e 41 55 b7 be
       -0.0643447 -0.2667548 0.17366312 -0.3580723
0002a0 96 a4 fe 3e c4 22 aa 3f 0d c1 bb 3e e4 24 d8 bc
       0.49734944 1.329186 0.36670724 -0.026384778
0002b0 11 93 1b 3f f6 29 92 3f bf 86 6e 3e 1c 81 ed 3c
       0.6077128 1.1419055 0.23293589 0.028992228
0002c0 14 ba 07 3d fc 3b 91 be 8b 84 72 3e 12 c3 10 3e
       0.033136442 -0.28366077 0.23683374 0.14136913
0002d0 81 bc f8 3e d9 85 61 3f 0b 37 15 3e 6a db 01 3c
       0.48581317 0.8809486 0.14571778 0.007925848
0002e0 69 93 c3 3e cd ce 24 3f d5 b4 8f bc 5d b2 4f be
       0.38198403 0.6437805 -0.017542282 -0.20282884
0002f0 78 cc 54 3d 5e 98 e9 bd 1d ff 16 3d 2b ad 4f be
       0.05195281 -0.11406015 0.03686439 -0.20280902
000300 de 3b f6 bd 7c 14 34 be 35 6b 2c bd 75 78 29 be
       -0.120231375 -0.17585939 -0.042094428 -0.16549857
000310 5d f2 d5 3e ce 2c 0e 3f 1e 93 a9 3d 45 c7 cb 3b
       0.4178647 0.55537117 0.082800135 0.006218823
000320 63 ec 57 be dd 31 17 3e cc a4 a5 bd 1b a3 48 3e
       -0.21086268 0.14765115 -0.08088073 0.1959347
000330 01 c8 74 3d 97 c6 d3 be 5d c3 76 be 82 4c 6c 3e
       0.05976105 -0.4136245 -0.24097963 0.2307606
000340 3b f9 cc bd a3 9d 2e bf 1d a5 32 bd 20 69 0c bc
       -0.100084744 -0.68209285 -0.043614496 -0.008569986
000350 7a b1 e1 3b ea 35 e2 3d a2 37 c4 3e e3 a9 fd 3d
       0.006887612 0.110454395 0.38323694 0.12385919
000360 ae 5d 34 be 71 64 0c be 67 ee fc bd 7c f2 71 3e
       -0.17613861 -0.1371019 -0.12350159 0.23627657
000370 61 c2 f5 be a4 74 73 bf 0d 38 7e be 29 42 83 bd
       -0.47999862 -0.95099854 -0.24826069 -0.064091034
000380 8a c6 ac be 1b a3 56 3f 07 42 4e bd 7d cc 33 3e
       -0.33745223 0.8384263 -0.050355937 0.17558475
000390 c6 dc 81 be 40 c6 85 bf cb 0a a0 be 85 32 86 3e
       -0.2536375 -1.0451126 -0.31258234 0.26210418
0003a0 fe d6 9c 3e 57 5f 50 3f fc 6d 62 bd 19 f4 f0 3d
       0.30632776 0.8139548 -0.05528067 0.11765308
0003b0 ca ed 4b bc a2 9b 8f be 5d 79 27 be 68 68 c6 3c
       -0.01244683 -0.28048426 -0.1635489 0.024219707
0003c0 b0 7a c1 3b 3a 05 7c 3f 06 b2 1b bb 7f b4 e4 bd
       0.005904518 0.98445475 -0.0023757233 -0.111672394
0003d0 eb ae b9 bc 91 56 3b 3e ed 0c 55 3d be f3 d1 3c
       -0.022666415 0.18294741 0.05201428 0.02562892
0003e0 b2 d2 81 be cc 75 6d bf e0 c6 ed 3d 12 03 26 3d
       -0.2535606 -0.9275787 0.11610198 0.04053027
0003f0 87 cc 19 be b1 2a 2e be 0d 6d b7 be 25 d1 5e be
       -0.15019427 -0.17008473 -0.35825387 -0.2175947

critic_net.lstm.weight_hh_l0 f4 [128, 32]
000000 cc 2f 21 bd 34 92 de bd 22 df 4e 3d 97 64 5a be
       -0.039352223 -0.1086773 0.050505765 -0.21327434
000010 dd 0e 2d bd c8 73 6d be 3e 97 b1 3d f4 8e e4 bd
       -0.042250503 -0.23188698 0.08671425 -0.11160079
000020 fa 7e 8b 3e ec 33 04 be a3 f2 0a be 2c b7 72 3e
       0.27245313 -0.12910432 -0.13569121 0.23702687
000030 55 dc ef bc 12 5b 20 3e e3 a2 80 3d f2 c0 52 3e
       -0.029279867 0.1565974 0.06281068 0.20581415
000040 0c 92 ff bd fb ca cd be 81 85 2d 3e dd 3c 02 3e
       -0.12479028 -0.40193924 0.16945459 0.1271853
000050 7f 3b 4c 3e d7 d8 57 3e b3 c6 d1 bd e4 59 e7 bc
       0.19944571 0.21078812 -0.10242977 -0.028241105
000060 dd 6d 83 3d df 0d 34 3d 4e 38 2f 3e 3b 3a 24 3e
       0.06417439 0.04395854 0.17111322 0.16037838
000070 70 70 3f 3e 74 5e 0e bd 37 74 b8 bd 6b ea f1 3d
       0.18695235 -0.034758046 -0.09006541 0.1181229
000080 4b b2 86 3c 7f 74 06 be fd ae 4c be 8c 6f d0 3c
       0.016442439 -0.13130377 -0.19988628 0.025443815
000090 98 cc 74 be f8 3c 8e be 82 75 12 3e e2 92 47 be
       -0.23906171 -0.2778089 0.14302638 -0.19489625
0000a0 00 d5 fa 3a bb 49 5c bd 83 0f 14 bd 53 79 da 3c
       0.0019136965 -0.053781252 -0.036147606 0.02666918
0000b0 1d 18 17 be c1 86 1e 3e b2 ec d9 3d a2 3f 67 3c
       -0.14755292 0.15481092 0.10640849 0.014114292
0000c0 a8 1b 20 be 33 a1 86 3d 08 01 db 3d 79 fe 4e 3c
       -0.1563555 0.06573715 0.10693556 0.012633913
0000d0 d5 cb 92 bc b0 21 d5 3e 96 3e d7 bb da fb 87 be
       -0.01791946 0.41627264 -0.00656874 -0.26559335
0000e0 9e 97 57 be 8f 80 ad 3e f9 ee 11 3e 07 f1 20 3e
       -0.21053931 0.33887145 0.14251317 0.15716945
0000f0 af 53 b0 bd ce 02 d6 bd 60 28 59 bd ca 88 96 3e
       -0.086097114 -0.10449754 -0.05301702 0.29401237
000100 6d 61 1c 3d f0 77 a2 3d e6 3a 02 3d f0 ae 4d 3c
       0.03817885 0.079330325 0.03179445 0.012553915
000110 12 f4 82 bd a2 9a 76 3c 21 c0 60 3d 9d 1a 58 bd
       -0.06394209 0.015051516 0.05487073 -0.052759755
000120 5c a4 7f 3e 66 e1 ee bc f1 33 10 be 83 a9 1f 3e
       0.24965042 -0.029160213 -0.14082314 0.15592007
000130 de 6e 9f 3d 1e 1f 19 3e 8d c7 ba bd 91 27 33 3d
       0.07784818 0.14953277 -0.091200925 0.043738905
000140 18 4a 18 be fe 95 dd 3d 43 f2 83 be f1 39 00 3e
       -0.14872015 0.10819624 -0.2577077 0.12522103
000150 0f 65 a8 bd 39 64 e4 bd 38 d2 1f be 9a 39 1b 3d
       -0.082224004 -0.111519285 -0.15607536 0.03789673
000160 93 30 57 3a d6 75 97 bd 24 74 ef bc e0 16 80 bd
       0.0008208837 -0.07395522 -0.029230185 -0.06254363
000170 97 89 28 3d 7e e1 f7 3d f8 b6 2a 3d aa a6 81 bd
       0.04114684 0.12103556 0.0416784 -0.06330617
000180 a5 31 2b bd e1 97 e9 3d 34 97 ee 3d 21 c0 84 be
       -0.04179539 0.11405922 0.116499335 -0.25927833
000190 68 28 8d 3d 4a e6 2f be df 30 86 bc 32 38 62 3e
       0.068924725 -0.17177692 -0.016380725 0.2209175
0001a0 aa 0c 15 be 18 b9 e7 bd 30 58 81 be 12 d4 cb ba
       -0.14555612 -0.11314601 -0.25262594 -0.0015550873
0001b0 04 59 c2 bd f7 ea 7a be cb 9c 46 be f6 03 da 3d
       -0.09489635 -0.24503694 -0.1939575 0.10645287
0001c0 96 de 1d 3e c3 91 4d be ec bd 53 3d bd 7e d5 3d
       0.15416941 -0.20075135 0.051694795 0.10424564
0001d0 07 c6 69 bc 57 0b 54 3d 7b f4 c7 3c 9d 93 32 3d
       -0.014268405 0.051768627 0.02440857 0.043597806
0001e0 8c c2 f8 3d 62 b6 f2 bd 2e 23 cd 3d 8d 6e 9e 3d
       0.12146482 -0.11851193 0.100164756 0.0773593
0001f0 94 d3 8a 3e 05 40 4d be 9f b3 08 bc 21 cf 02 3e
       0.27114546 -0.20043953 -0.008343606 0.12774326
000200 37 1c c9 3d 0e 3c 23 be 1c ba 79 3e 53 ec 84 3d
       0.09819835 -0.15940878 0.24387401 0.06490388
000210 36 c9 8f 3d 3d fe 9c be 14 ca 46 3e 90 3f 86 be
       0.070208 -0.30662718 0.19413024 -0.2622037
000220 01 80 52 3d 06 18 6a bd e4 57 67 be 41 7e 5c 3e
       0.051391605 -0.057151817 -0.22592121 0.21532537
000230 48 78 a5 bd 9a f1 ac 3e 0e 4e cc bd 3d a9 82 3c
       -0.080795825 0.33778077 -0.09975825 0.01594984
000240 8e be 84 bd 02 4b 54 be 06 aa 24 3d 2e de 99 3d
       -0.06481658 -0.20731738 0.04020121 0.075130805
000250 0d 7b a9 bb 2e 55 81 3e 67 3a 30 3d e6 dd 4c bc
       -0.0051721395 0.252603 0.043024447 -0.012504077
000260 92 2c 28 3e de e0 89 3e 60 de 82 3e 30 d9 73 3e
       0.16423252 0.26929373 0.25560284 0.23813319
000270 24 f5 09 3e 25 7f 42 bd e8 ed 05 be 18 b8 63 3d
       0.1347242 -0.047484536 -0.13079035 0.055595487
000280 9e bf 05 3e a4 d7 24 bd 4c a3 c8 bd cf a2 35 3d
       0.13061377 -0.040244713 -0.097967714 0.04434472
000290 4c de 89 bd 49 c3 9a bd 0c d8 04 bd 73 cb 60 bd
       -0.06731853 -0.07556779 -0.0324326 -0.054881524
0002a0 c2 53 58 bd d4 70 b0 bd fb 93 e0 bd 1c f8 41 3c
       -0.052814253 -0.0861527 -0.10965725 0.011838939
0002b0 5d 85 ae 3d cc 1c 24 be 49 b4 4f bd e2 69 ee 3d
       0.08521531 -0.1602661 -0.050709043 0.11641289
0002c0 1a 5f 13 3e bd a5 41 be a4 53 94 bc 09 41 01 3e
       0.14391747 -0.1891088 -0.01810629 0.12622465
0002d0 41 f1 69 bd be 69 8f 3d dc b2 b8 bd 52 dc a0 3d
       -0.057114843 0.070025906 -0.0901849 0.07854523
0002e0 1a eb 71 bd 83 4b c3 bd 8d 4c c4 3d a3 db 96 bd
       -0.0590621 -0.09535887 0.095849134 -0.07366111
0002f0 b5 1f 74 3d 86 a9 31 3e 67 c1 e0 3d c2 60 b7 3b
       0.05960055 0.17349824 0.109743886 0.005596251
000300 de 7a 52 3e b5 35 bd be 8f 7d 7c be c3 0c aa 3e
       0.20554683 -0.36955038 -0.24657272 0.3321286
000310 fc 4b b5 bd 84 11 a6 3d a5 4f c1 bc 35 81 08 be
       -0.088523835 0.081088096 -0.023597548 -0.13330539
000320 a2 d2 9b 3e 17 bb 2a be 2b 24 19 3d f3 b1 8d 3e
       0.30434138 -0.16672932 0.037388008 0.27674827
000330 e7 a3 11 bd a2 4d 90 3b cd d2 bf bc 1a b5 5d 3d
       -0.0355567 0.004403786 -0.023415947 0.05412779
000340 4b c7 75 be 50 fd 88 be 3d f7 2f bb ed 67 b1 bc
       -0.24001805 -0.26755762 -0.0026850246 -0.021656001
000350 02 4f 2c be 85 fe 86 3e 03 02 04 3e 6d d4 0a be
       -0.16827014 0.26366058 0.12891392 -0.13557597
000360 98 eb 45 be b1 41 8f 3e 62 7d 41 bd ca 64 7e 3d
       -0.19328153 0.27979806 -0.047238715 0.06210784
000370 2e d1 d9 bd 50 3e 21 3e b1 09 3d bc b4 2b 2d 3e
       -0.10635601 0.15746427 -0.011537955 0.16911203
000380 21 23 0e 3e 24 eb 01 be d8 4f ce be a2 9c 0a 3e
       0.13880588 -0.12687355 -0.4029529 0.13536313
000390 52 89 8c bd 3e 8c 67 bd 0e 7d 03 3f 17 29 3e be
       -0.06862129 -0.05653023 0.51362693 -0.18570362
0003a0 23 d9 8e 3e 8d 05 85 be 52 6d b1 be 85 e7 ce 3e
       0.27900037 -0.25980797 -0.34653717 0.4041101
0003b0 58 a1 11 be c8 de fc 3d a9 7c 1a be 91 23 c4 3d
       -0.14221704 0.1234718 -0.15086617 0.09577096
0003c0 ec a9 1b be d7 18 6b be 7b 78 39 3e 0d 40 e4 3d
       -0.15201539 -0.22958694 0.18112366 0.11145029
0003d0 18 71 97 be e1 a7 60 3e 31 84 96 bd 2d 25 85 be
       -0.2957847 0.2193904 -0.07349432 -0.26004925
0003e0 3c ab b3 bc ba 33 04 3f 1e ba 9f 3b 6b 7d 1f 3e
       -0.021932237 0.5164143 0.004874482 0.15575187
0003f0 b5 8e 28 3d 1b d0 ca 3c ad fe e3 bc d3 4f 92 3e
       0.04115172 0.024757436 -0.0278314 0.28576526

critic_net.lstm.bias_ih_l0 f4 [128]
000000 0b 05 19 3e 9c bc 49 3e 2b 73 9c 3d e6 cb 05 be
       0.1494333 0.19700855 0.07639154 -0.13066062
000010 3e a6 5b 3e 89 f0 f6 bd 22 aa ae 3d f2 30 53 3e
       0.21450135 -0.12057597 0.08528544 0.2062414
000020 67 03 aa 3e c6 65 05 3d 74 72 93 3e 66 f7 9d 3e
       0.3320572 0.03256776 0.28798258 0.30852813
000030 4b b8 e7 bd f9 b8 28 3f 34 1e 02 3f 23 a8 be bb
       -0.11314448 0.65907246 0.50827336 -0.0058183833
000040 5f 3e 2d be 60 5a 15 3e e4 79 b4 bc da 58 a0 bd
       -0.16918324 0.14585257 -0.022030778 -0.07829447
000050 a5 59 73 3e ae 7f 20 be 08 79 5a bd 3a 77 fb 3c
       0.23764665 -0.15673706 -0.05333808 0.0306965
000060 a4 61 93 3e 2f 2d 8f 3e 29 fb f0 bd 5b cd 5b be
       0.2878543 0.2796416 -0.11766655 -0.21465056
000070 f4 ce 93 3d e0 09 f4 bd f0 1c 1f 3e 2b 23 10 3e
       0.072172076 -0.11915946 0.15538383 0.14075916
000080 4c 81 a7 be 18 f1 ca bd 97 6b 69 bd 64 75 f0 bd
       -0.32715833 -0.09909266 -0.05698737 -0.117411405
000090 12 0d 0b be c8 a6 f1 bd 81 35 f1 bd ed dc 4f be
       -0.13579205 -0.11799389 -0.11777783 -0.2029912
0000a0 d7 2e d9 bd dc 72 88 be 53 60 d5 bd 3d 9a 17 be
       -0.10604637 -0.2665013 -0.10418763 -0.14804931
0000b0 a7 25 94 bd 34 6e 31 be 6d 6f 72 be 60 48 56 be
       -0.07233744 -0.17327195 -0.23675318 -0.20926046
0000c0 69 f7 3d be b5 97 28 be 28 e0 0d 3d 19 7e 07 be
       -0.1855141 -0.16464122 0.0346376 -0.13231696
0000d0 e7 f7 95 be 18 fe 98 3c 0a 89 4d bd 89 99 4f be
       -0.29290697 0.018675849 -0.05017952 -0.20273413
0000e0 05 03 53 be 2b 73 f1 bd 83 56 17 bd bf a3 5d 3b
       -0.2060662 -0.11789545 -0.03694774 0.0033819524
0000f0 37 0f 89 be c0 48 8d bd d1 55 47 be 9b 7b 63 bc
       -0.2676942 -0.068986416 -0.1946633 -0.01388445
000100 e5 3d 25 be b6 aa 55 be 7f 27 71 be a9 45 f2 bd
       -0.16136892 -0.20865902 -0.23550223 -0.11829693
000110 17 6a 63 bd fd 0e fd bc 96 d4 7a bd ad aa ee 3c
       -0.055521097 -0.030890936 -0.061237894 0.029134119
000120 ea 72 77 3d 56 6d 23 bd 09 55 0e be 3f a2 02 3e
       0.060412325 -0.039899193 -0.13899626 0.12757204
000130 3a b8 81 3d ba bb 93 3e 0f e4 97 3d 69 d6 0d 3d
       0.063339666 0.28854162 0.074165456 0.034628306
000140 b1 b3 a1 3a b5 87 44 be 09 2d 7f 3d 40 be 92 bd
       0.0012336877 -0.19192393 0.06229881 -0.071651936
000150 5f 86 e2 3d 06 36 4a 3e 96 08 08 be 10 a6 14 bc
       0.110607855 0.19747171 -0.13284525 -0.0090727955
000160 07 15 13 be 7e eb 85 bd 8a 6a 49 3e e2 d7 18 3e
       -0.1436349 -0.06539057 0.19669548 0.14926103
000170 69 c5 f5 3b 67 df 21 3e eb 7b 64 3d d9 80 ca 3d
       0.0075003398 0.15807877 0.05578224 0.09887857
000180 d5 5f c0 3d 0b 26 9c 3e cd a4 b4 3e 1e da 16 be
       0.093932785 0.30497774 0.35281983 -0.14731643
000190 58 31 13 3d 68 a2 c3 3d c5 76 60 bb 4d 12 94 3e
       0.03593573 0.09552461 -0.003425048 0.28920212
0001a0 aa 9f 96 3e 30 70 f3 bd 7b 07 15 3e dc 7a b5 3e
       0.2941869 -0.118866324 0.14553635 0.35445297
0001b0 00 1d df 3c 64 f4 25 3f 6f 6e 96 3e 60 26 99 3d
       0.027235508 0.64826035 0.2938113 0.074780226
0001c0 2a 19 2c be 9f 6d b0 bb 71 07 23 3e f8 6f df 3c
       -0.16806474 -0.0053841616 0.15920807 0.02727507
0001d0 38 a3 a2 3d 43 fd 67 be 45 84 13 be a1 23 0b bc
       0.07941288 -0.22655205 -0.14405926 -0.008492381
0001e0 4c e4 6e 3e 33 85 d8 3d 9e c8 ff bd 30 18 42 be
       0.23329276 0.10572281 -0.124894366 -0.1895454
0001f0 f2 98 48 3e 81 6b 02 be 2d 95 ac 3e 40 2b 04 be
       0.19589594 -0.12736322 0.33707562 -0.12907124

critic_net.lstm.bias_hh_l0 f4 [128]
000000 9e 3b 33 3d 6a 8e 7e 3e cb 07 78 3e b5 23 05 3d
       0.043758027 0.24859014 0.24221723 0.032504756
000010 9f 89 8a 3e 20 b6 fa 3c bd 36 0a bc e7 eb 50 3e
       0.27058122 0.030604422 -0.008435902 0.2040249
000020 eb 77 a0 3e d5 32 4f 3e 37 db e0 3c bd 34 d1 3e
       0.3134149 0.20234235 0.02744828 0.4086055
000030 26 32 cd bc 8d 44 67 3f 95 9a b2 3e 45 f2 f6 3d
       -0.025048327 0.90338975 0.34883562 0.12057928
000040 53 d2 be 3c e8 f5 2b 3e ec fb 5e 3e 5d c0 80 3d
       0.02329365 0.16793025 0.21775788 0.062866904
000050 5b 28 bd 3c 7e 00 b9 3d 03 a3 93 3d 73 6e 87 bd
       0.023090532 0.09033297 0.072088264 -0.066128634
000060 68 b7 02 3e da 6d 7f 3e 21 42 8c 3d dd bd 3b be
       0.12765276 0.24944249 0.068485506 -0.18334146
000070 16 a5 4e 3e fc 9a 39 be 7b 50 4a 3c fb d2 b9 bd
       0.20180163 -0.18125528 0.01234829 -0.090734445
000080 ca 60 73 bd 5b ac d4 bd 7d 08 67 be 65 ea ce bd
       -0.059418477 -0.10384437 -0.22561832 -0.10103301
000090 b7 08 bc 3d 1d f6 67 bd 8b 31 5e bd a0 ad ae be
       0.0918135 -0.056631196 -0.054246467 -0.3411684
0000a0 1a 33 73 be d8 a4 8b be b4 46 73 3c 70 0a 4e 3c
       -0.23749962 -0.27274203 0.0148484 0.012575731
0000b0 35 fb b8 3d e0 a9 78 be f0 19 4c bd 0a 0a 6e be
       0.09032289 -0.24283552 -0.049829423 -0.23246017
0000c0 cb 0b 78 be bd fd 19 be 41 94 e1 bd a0 96 36 be
       -0.24223249 -0.150382 -0.11014605 -0.17830896
0000d0 af c2 7b be 7b 52 b7 3c 36 65 7f bd 97 8d b2 bd
       -0.24585985 0.022378197 -0.06235238 -0.08718412
0000e0 2b df 18 be 9b 30 54 be 91 6c 43 3d da fd 64 bd
       -0.14928882 -0.20721667 0.04771096 -0.055906154
0000f0 b8 01 85 be 23 dd 3a 3d d1 64 3b bd 90 75 8e 3d
       -0.25977874 0.04562105 -0.045750443 0.06956017
000100 5a e8 ca 3d 1a c5 07 be 94 73 9a 3d 2d eb 98 3d
       0.09907599 -0.13258782 0.07541576 0.07466731
000110 7d da 25 be 0b aa 81 bd 3a ef 6a bd 41 94 a8 3c
       -0.16196628 -0.06331261 -0.05735705 0.020578505
000120 d1 07 91 3e 57 6c 49 3d 50 82 01 be cd 0d a0 3e
       0.28326276 0.049175587 -0.12647367 0.3126053
000130 7f 91 07 be bb bc c4 3e f0 29 3f be 30 dd 17 3e
       -0.13239096 0.3842524 -0.18668342 0.1483047
000140 83 15 c2 bd fb 75 b8 bd 48 43 6e bc 7b db b8 3d
       -0.09476759 -0.09006878 -0.014542408 0.090262376
000150 83 be c0 3c fd 47 04 be d6 a3 9e 3d ac bb d4 bd
       0.023528343 -0.12918086 0.07746093 -0.10387358
000160 49 0c 13 3c d3 a9 d2 bc ca 14 b7 3d 63 b1 aa ba
       0.008975097 -0.025715744 0.08939512 -0.0013022836
000170 fd d2 4b be cf 1f 1b 3d 99 82 c6 3c 08 b2 1d 3e
       -0.19904704 0.037872132 0.024232196 0.15399945
000180 69 05 42 3e 4a 50 61 3d 55 74 45 3e b5 2c c5 bd
       0.18947376 0.05500821 0.19282658 -0.09627668
000190 e3 4b 8b 3e 69 c0 01 3e 4b 89 0a 3e 9b d6 f1 3d
       0.27206334 0.12671055 0.13528936 0.11808511
0001a0 a6 a6 fe 3e 87 61 57 3e af 34 87 3e 0f dd e1 3e
       0.49736518 0.21033297 0.26407382 0.44113967
0001b0 f5 3b b3 3d 44 c5 2d 3f 96 f1 a0 3e 46 06 d5 3c
       0.0875167 0.6787913 0.31434315 0.026003968
0001c0 98 47 82 3d 64 3b 1a 3a 1f db 19 3e 65 e0 28 bc
       0.06361312 0.00058834837 0.15024994 -0.010307406
0001d0 f5 ee fc 3d 69 4b 41 be b4 af 4b bc e4 9e b5 3d
       0.12350265 -0.18876423 -0.012432028 0.088681966
0001e0 a0 1a 83 3e df 1d cc 3e 8a 13 4f 3e 18 3c 78 be
       0.2560625 0.3986654 0.20222297 -0.24241674
0001f0 e1 0e 82 3e 49 35 2a bd 23 87 44 3e ec 6f d7 3d
       0.25401977 -0.041554723 0.19192176 0.10519394

critic_net.lstm.weight_ih_l1 f4 [128, 32]
000000 d2 e8 df bd ca ff 20 bd 9b fe 54 be 2b 7c 07 bf
       -0.10933079 -0.03930644 -0.2080025 -0.5292384
000010 5f b5 c8 be 1d b0 62 3e 48 cd a1 be 37 c0 65 3e
       -0.39200875 0.22137494 -0.3160193 0.22436605
000020 e4 ae 17 3e 0d 26 a9 3d 52 d7 9e be f4 de 14 3d
       0.14812809 0.08259211 -0.3102365 0.036345437
000030 f9 7a 74 3e 03 8e 04 3f 68 8f 0b bf 66 77 82 be
       0.23875035 0.5177919 -0.54515696 -0.2548172
000040 ed 4f 9d 3d 85 3f a7 be 2c 82 08 bf 57 ce 16 3e
       0.0768126 -0.3266565 -0.53323627 0.1472715
000050 43 2c ba 3e c5 ac 75 3e bf 6d a5 be aa e6 a6 bc
       0.36361894 0.23991688 -0.32310292 -0.020373661
000060 55 bf 86 3e f3 17 86 bf 31 ed 8d 3e b5 f0 31 bd
       0.2631785 -1.0476059 0.27720025 -0.043442447
000070 2d 1a ef be 61 a2 8f 3e 6b 41 19 3f 4a c1 ec 3d
       -0.46699658 0.28053573 0.59865445 0.115603045
000080 fe 86 2c 3d a8 64 92 3f 0f ed 2f 3f c1 7a 30 3f
       0.042120926 1.1436968 0.687211 0.6893731
000090 39 89 67 3f 01 3f 8f be 3c 01 9a 3f a6 11 33 bf
       0.9044376 -0.27977756 1.2031627 -0.69948804
0000a0 1e 9d 93 bf 5c b1 07 bf 1e 00 35 3f 14 a2 6f bf
       -1.1532323 -0.53005004 0.70703304 -0.93606687
0000b0 d5 b4 9f be 7c ac b0 bf 8d 31 f5 3f 57 a1 10 3e
       -0.3119265 -1.3802638 1.9155747 0.14124046
0000c0 0e 29 7b be ea fa 89 3f 20 e9 64 3e 43 61 0d be
       -0.2452738 1.0779698 0.22354555 -0.13806634
0000d0 cc 1a 28 be d4 49 8e be 85 88 ef 3e dd 8e 07 bf
       -0.16416472 -0.277907 0.46783844 -0.5295237
0000e0 1c 16 2d 3f 63 4a 63 3f 6d bd ab be c7 b5 8f bb
       0.6761186 0.8878538 -0.33542958 -0.004385683
0000f0 13 89 7a 3f 88 6b 8d be f4 69 58 bf 33 a8 62 bd
       0.9786541 -0.27621102 -0.8453667 -0.05533619
000100 ce a4 a4 be 13 47 26 3f 93 c0 8f 3f 94 c0 df 3b
       -0.32156986 0.649522 1.1230644 0.006828377
000110 46 2f ad 3e 1e 32 98 be 42 b2 03 3e 0b af dc bd
       0.3382513 -0.29725736 0.12860969 -0.10775574
000120 ec f1 a6 be e8 a4 2f 3e 85 21 ac bd bc bb b7 bd
       -0.32606447 0.1715275 -0.08404831 -0.08971354
000130 3a da ac bd e4 01 0f bf c6 40 b6 3e 59 86 18 be
       -0.08440061 -0.5586226 0.35596293 -0.14895
000140 b5 27 8b 3d 1e b1 ca 3d 2b 14 38 be e1 0c 7b 3d
       0.06794683 0.09897064 -0.17976443 0.06129158
000150 cb ab 27 3e 41 da 44 3c 65 c8 35 3d af d3 ff bd
       0.16374128 0.012014926 0.044380564 -0.12491547
000160 b6 90 87 3f 99 70 50 3e 21 04 2a 3d f8 47 f8 bc
       1.0591037 0.20355453 0.041507844 -0.030307755
000170 ec 49 82 3f 25 21 fa 3d fe ba f5 be 9b 98 a1 3d
       1.0178809 0.12213353 -0.47994226 0.07890435
000180 31 a1 2a be f2 00 ca bd 57 c4 0c 3e e4 85 89 be
       -0.16663052 -0.098634616 0.13746773 -0.26859963
000190 a8 44 fa 3d 7d c9 1a 3e f6 0e d7 be 59 95 7a 3e
       0.122201264 0.15115924 -0.42003602 0.24471034
0001a0 37 c0 1a 3e d8 9a 29 bc 69 0d 05 be 74 79 51 bc
       0.15112387 -0.010351859 -0.12993397 -0.012785304
0001b0 2d e1 13 3e 72 c1 59 3e 7c 46 07 be 1d 6a 9b be
       0.14441366 0.212652 -0.13210481 -0.30354396
0001c0 73 a9 4a 3e 25 05 b2 be 9d d0 ca be d7 50 c8 3b
       0.19791202 -0.3476955 -0.39612284 0.0061131525
0001d0 1c 4a 80 3e 0a ab d1 3d 10 cc b0 be ab 9f c6 bd
       0.2505654 0.10237701 -0.34530687 -0.09698423
0001e0 54 60 b5 bb 2b 02 09 bf 4b a9 bf 3d cf 26 19 bd
       -0.005535165 -0.53518933 0.09358462 -0.037390526
0001f0 97 8c f7 3d 84 20 7b bd 41 d7 d7 3e 68 71 84 3d
       0.12087362 -0.061310306 0.42156413 0.06466943
000200 32 90 ca 3e ad 32 83 3f db 07 e0 3e 6a 5b 8f be
       0.39563137 1.024984 0.43755993 -0.2799943
000210 e9 ec b6 3e 50 b5 c2 bd 7b 8e de 3e 4f bc d1 be
       0.35727623 -0.09507239 0.4346808 -0.4096398
000220 1e 36 27 bf ca 94 11 be bd 5a 0a 3e db e0 1c bf
       -0.6531695 -0.14216915 0.13511176 -0.612806
000230 02 e8 b9 3d 7b 71 2e bf 01 9d f4 3e cd ec 2f be
       0.09077455 -0.6814191 0.47776034 -0.17180176
000240 cd 5f 20 3e 7a e2 05 3f 72 5f a2 be 27 c8 23 3e
       0.15661545 0.522987 -0.31713444 0.15994321
000250 3d 48 d4 be 46 25 18 3e d1 f9 bb be 52 6a fd 3c
       -0.41461363 0.14857969 -0.36714032 0.030934487
000260 bf 74 e7 3e 04 ce cb 3e 88 ca 2d be f7 69 41 be
       0.45206258 0.39805615 -0.16971791 -0.18888079
000270 c5 94 2b 3f 21 39 c7 bd 00 8e f1 be 45 2a f5 bd
       0.6702388 -0.09727693 -0.4717865 -0.11970953
000280 be 27 cc bd 4e fb eb bd fb 8b 4b bd b2 0c 88 3e
       -0.09968518 -0.11522542 -0.049694043 0.26572186
000290 50 95 a3 3d e8 a5 d6 3d c3 38 c4 3d 22 47 3b 3d
       0.079874635 0.10480863 0.09581139 0.045722134
0002a0 d0 ca e5 bb 16 a1 e9 3d ac d4 45 3e 67 13 22 3d
       -0.0070127025 0.11407678 0.19319409 0.039569285
0002b0 a5 3c 11 be be c6 67 bd d1 87 28 3e 2b c8 84 3d
       -0.1418329 -0.05658602 0.1645806 0.064834915
0002c0 3d 4e 0c be 39 a8 4a bd 68 7c 13 3e 8c 0b a0 bd
       -0.1370172 -0.049476836 0.14402926 -0.078147024
0002d0 f7 c4 c4 bd 36 57 07 be 1c 6f 7d 3e d1 65 09 3e
       -0.096078806 -0.13216862 0.24749416 0.13417746
0002e0 74 88 b7 bd 0a f1 51 bd 9a 50 a5 3c d9 80 33 bd
       -0.08961573 -0.051255263 0.020180035 -0.04382405
0002f0 66 6d 82 bd bc a3 cc bd 31 3a 03 bd 81 d7 0b be
       -0.06368522 -0.09992167 -0.032037918 -0.13656427
000300 02 09 ee bc a1 39 13 be 5f b4 38 bd cd 20 f3 bd
       -0.02905703 -0.14377452 -0.04509389 -0.11871491
000310 74 ba 3f 3c bc 4c 49 3e c9 2e 24 be 42 29 82 3e
       0.011702169 0.19658178 -0.16033472 0.25422102
000320 59 25 0f 3e 10 a6 4b 3e 5d 6a ed bd 06 83 80 bd
       0.13979091 0.19887567 -0.11592553 -0.06274991
000330 55 52 8e 3e 8c f5 b3 3d 9d 49 8c be e1 1b 7e be
       0.2779719 0.08787069 -0.27399912 -0.24815322
000340 eb d1 87 3e c6 3f dc 3c ed 5a 9a be 73 a0 ba 3e
       0.26527342 0.026885878 -0.30147496 0.36450538
000350 ce c6 a5 3d 00 80 25 bd 70 49 f1 be e4 ac 9b 3d
       0.080945596 -0.040405273 -0.4712634 0.07601336
000360 40 ba 14 3e 37 71 17 bf b0 bb 5f bc 24 90 c8 bd
       0.14524174 -0.5915713 -0.013655588 -0.09793118
000370 2d 02 6f bd f5 6f 3b 3e b2 c2 a7 3e 23 00 96 be
       -0.058351684 0.18304427 0.32765728 -0.2929698
000380 2e 10 75 be 16 1f 5f 3f 71 a1 52 3f 33 4f 3a 3e
       -0.23931953 0.8715681 0.8227759 0.18194275
000390 5e ac e0 3e d1 95 49 be 92 e2 bb 3e b2 08 d1 bd
       0.43881506 -0.19686057 0.36696297 -0.102067366
0003a0 2f d5 4e bf 62 0b 89 bd b7 4c dc 39 97 bc 87 be
       -0.8079404 -0.06691624 0.00042018827 -0.2651107
0003b0 81 ca 4f 3d 7e 96 26 bf 0f 59 53 3f 0c 74 33 be
       0.050730232 -0.6507338 0.8255777 -0.17524737
0003c0 71 a9 a0 bc b0 4f 83 3e e2 a6 19 be b9 df cd 3d
       -0.019612046 0.25646734 -0.15005067 0.10052437
0003d0 ce fd fc 3e a6 e9 aa 3c ef 6a 86 3e 99 08 a6 bd
       0.49412388 0.020863365 0.2625346 -0.081071086
0003e0 30 6f 4a 3f 21 c3 16 3d 9c 95 30 bc eb 15 e4 3c
       0.7907591 0.036807183 -0.010777857 0.027842483
0003f0 c8 76 82 3f f1 18 5f bd 2a 1a d0 be e7 e1 51 3e
       1.0192499 -0.054467145 -0.40644962 0.20496331

critic_net.lstm.weight_hh_l1 f4 [128, 32]
000000 a2 46 31 3e 28 36 83 be b2 8a df be 6a 69 7b be
       0.173121 -0.25627255 -0.43660504 -0.24551931
000010 f0 6f 1c 3e 14 4e 01 be 1e 9d e3 3d b3 58 e7 39
       0.15277076 -0.1262744 0.11113952 0.0004412584
000020 08 ae dc 3d 18 f0 8a 3b eb 4a 23 3d 64 db d8 3d
       0.10775381 0.004240047 0.03986637 0.105887204
000030 2a ae 0c be f0 24 eb 3d ab 3e 86 3e f5 f5 8f bc
       -0.13738313 0.11481655 0.26219687 -0.017573336
000040 47 42 46 be 34 57 4c 3d 2e 89 e0 bc 25 36 4e 3e
       -0.1936122 0.04988785 -0.027409162 0.20137842
000050 e5 d5 1e bd 73 93 4a bc f0 54 ef bd e8 53 c1 3d
       -0.038778204 -0.012364256 -0.116861224 0.09439832
000060 6b 4f a4 3c 5a 42 32 3d 98 2e 85 3d 80 1d 61 be
       0.0200574 0.04352031 0.06503028 -0.2198391
000070 5a f8 54 be 6b d1 6e 3c 34 0e 89 3e bb d6 a1 bc
       -0.20797864 0.014576296 0.2676865 -0.019755712
000080 3b e8 cb bd 6a 64 43 be e1 f0 4c be df 7f 23 be
       -0.09956404 -0.19081274 -0.20013763 -0.15966748
000090 2a e3 f7 bc a1 b5 52 bc da 2e 6d bd 9e f6 92 3d
       -0.030259687 -0.0128606865 -0.05790601 0.07175945
0000a0 d5 03 d3 bc 99 5c f3 bd f2 7b 1b be b4 f1 29 3d
       -0.025758663 -0.11882896 -0.15184 0.04149027
0000b0 50 14 c3 bc a6 c7 fa 3c 94 f9 ca 3e e0 0f 75 be
       -0.023813397 0.030612778 0.39643538 -0.23931837
0000c0 bb 3f be 3d 56 7a 57 bd 29 28 0b 3e 4b 2e 99 bc
       0.09289499 -0.052606903 0.13589539 -0.018698832
0000d0 f9 c7 95 be 7c 38 80 3d 82 7d 68 3e 2c fd d4 bd
       -0.2925413 0.062607735 0.22704127 -0.10399851
0000e0 64 d7 e8 3d 03 3c 43 3e ca e0 ad 3d 3d 8e cb bc
       0.113692075 0.19065861 0.08490141 -0.024848098
0000f0 ac f3 0b be bb 92 d7 3c 40 c3 2b 3e be f4 81 3d
       -0.13667172 0.026315084 0.167737 0.06345509
000100 f6 57 4c bd 20 e6 65 bd cf 0f c1 bd 63 52 13 be
       -0.049888574 -0.056127667 -0.094268434 -0.14386897
000110 43 93 48 3e 3f d9 b3 bd ba 5e 46 be 69 45 30 3e
       0.19587426 -0.08781671 -0.19372073 0.17213978
000120 87 59 66 bd 10 ab 88 be c1 40 73 bc 93 0a 1b 3e
       -0.056237724 -0.2669301 -0.0148469815 0.15140752
000130 e2 02 3a be ea 45 9f 3e 86 17 11 3d af d5 f2 bd
       -0.18165162 0.31108028 0.035422824 -0.11857163
000140 ed 0c 7d 3d 75 9d 69 be cf 68 51 bc f0 43 80 3e
       0.061779905 -0.22813971 -0.012781336 0.25051832
000150 86 a0 21 be 75 59 af bd 40 6c a8 3d fd 8f 18 bd
       -0.15783891 -0.085619844 0.08223772 -0.037246693
000160 ef 96 61 3e 71 f3 4d 3e dd 43 91 bd 4d 73 ef bc
       0.22030233 0.20112397 -0.07093022 -0.029229784
000170 97 f2 e4 bd 77 61 f1 be 30 60 ca 3d 91 1e 28 be
       -0.11179083 -0.47144672 0.098816276 -0.1641791
000180 a2 d5 6b bd 9f 4e 87 3d 89 48 ae be c3 e4 74 bd
       -0.057576783 0.06606793 -0.34039715 -0.059788477
000190 db 8e 9c 3d bc 1e ce 3c 0b 8b 94 3d fb e0 03 be
       0.07644435 0.02516114 0.07253083 -0.12878792
0001a0 b9 8c ac 3d f9 4a 87 39 f4 e2 10 bc 6c d3 00 bc
       0.08425278 0.00025805066 -0.008843172 -0.007862907
0001b0 37 85 40 be 85 80 88 bd 89 0d 07 3e 34 fb 2f 3c
       -0.18800817 -0.06665138 0.13188757 0.010741044
0001c0 c2 a0 7f 3e f9 0d b1 bd 2d d8 98 3d 7e 28 3d 3d
       0.24963668 -0.08645243 0.07463107 0.046181194
0001d0 ac c4 f7 3c 2c c0 2e 3e 6d f9 16 3d 90 85 2f be
       0.030245148 0.17065495 0.036858965 -0.17140794
0001e0 c4 12 bf bd 94 2d be 3d 1c 82 44 be b9 94 32 be
       -0.09329751 0.09286037 -0.19190258 -0.17439546
0001f0 fd aa d0 3d 53 d0 a2 bd e1 09 6e 3e 0f 94 9a 3d
       0.101888634 -0.07949891 0.23245956 0.07547771
000200 93 f8 87 bd 26 c6 88 3d 3c 8f 17 bd 44 da 98 3d
       -0.06639209 0.06678419 -0.037001833 0.07463506
000210 67 33 91 be fd 67 fd bd a4 e6 b1 bd b0 88 1f 3e
       -0.2835953 -0.1237335 -0.08686569 0.15579486
000220 15 5f 60 3d 86 82 20 3d aa b6 96 bd 4a 38 95 3d
       0.054778177 0.039186977 -0.07359059 0.07286127
000230 ce 69 44 be 9d 27 0c be 19 e4 f1 3c e3 9d 8e 3e
       -0.19180986 -0.13686986 0.02952771 0.27854833
000240 0a 5f ae 3d 16 5e 22 3e f3 25 01 3e 78 fb 12 bd
       0.08514221 0.15856203 0.12612133 -0.03588435
000250 ab c6 a6 bd ff d6 22 bc c4 60 79 3e e1 bf 5f be
       -0.08143362 -0.009938954 0.2435332 -0.2185054
000260 a1 3b 2e be 53 54 6f 3d ea e0 c8 bd b8 ab 2f bd
       -0.17014934 0.058430027 -0.09808524 -0.042888373
000270 70 df 80 3b 0d 19 4f bd 10 13 0b be 17 14 42 3d
       0.003932886 -0.050561 -0.1358149 0.04738244
000280 eb a2 30 3e c9 5f 8e bd 4f 1d 05 3e 16 c8 c3 3b
       0.17249648 -0.06951863 0.12999462 0.00597478
000290 87 ac 2e be 70 ca 2c 3b 65 5b e7 3d 07 40 82 bd
       -0.17058001 0.002636578 0.11296729 -0.063598685
0002a0 65 f9 1e 3c 5e 75 b8 bc 19 65 26 3e 78 e5 1b be
       0.009703015 -0.022516903 0.16249503 -0.15224254
0002b0 1e 7e 1c be 7a 97 4b bd 6e 68 ca 3d 94 12 51 3e
       -0.15282485 -0.049705006 0.098832 0.20417243
0002c0 2b 8d 28 bd e6 79 11 3e ff 52 d5 bd 12 d8 d8 3d
       -0.041150253 0.14206657 -0.10416221 0.10588087
0002d0 47 14 3c 3e 03 85 40 be 27 5e 85 3d 6e 06 85 3d
       0.1836711 -0.1880074 0.06512099 0.06495367
0002e0 b8 bc e5 3d f6 9e 97 3d c5 c6 a5 bd 43 f0 40 3e
       0.11217636 0.07403366 -0.08094553 0.18841653
0002f0 9a 84 5a 3d 8c d8 0c be 6f e4 be 3d 12 03 01 3e
       0.053349115 -0.13754481 0.09320914 0.12598827
000300 45 b9 c0 bd 5b 46 70 bc 84 d5 75 be d4 36 50 bd
       -0.09410337 -0.014665212 -0.24007231 -0.05083354
000310 f1 39 97 bd 00 d1 48 3e b2 7a 5a 3e 9e ac 1c be
       -0.07384098 0.19610977 0.21335867 -0.15300223
000320 bc 3f 0f bc 25 c6 f7 3d 5d 07 29 bd 68 6f 11 bc
       -0.008743223 0.1209834 -0.041266788 -0.008876659
000330 2b 60 d2 bd d0 3d b9 3d 16 eb 01 3e b6 5b 8d be
       -0.10272249 0.09044993 0.12687334 -0.27609032
000340 61 14 70 3e a6 c1 17 3e f1 12 46 3e 9e ca fe bd
       0.23445274 0.14819965 0.19343163 -0.1244099
000350 b0 a3 f3 3d 8c 5b 0e 3e 89 a4 34 be 78 29 f0 3d
       0.11896455 0.1390211 -0.1764089 0.117266595
000360 53 fd 1c be 8a 49 10 3e a1 c9 d6 bd 4f 5f 00 bc
       -0.1533101 0.14090553 -0.104876764 -0.007835223
000370 64 81 ee 3c cd 62 57 3c 15 74 0a 3d 79 cb 02 be
       0.029114433 0.013146115 0.03380211 -0.12772931
000380 be 50 7e bd 83 a0 38 3e 3f ae be 3d 01 f5 82 3d
       -0.06208872 0.1802998 0.093105786 0.06394387
000390 b9 14 35 be 65 59 bc bd 84 4b 06 be 8c 0c 18 bd
       -0.17683686 -0.09196738 -0.13114744 -0.03712134
0003a0 dc 0e f8 bd ab d3 e3 3d 4d 81 9d bc d9 91 90 be
       -0.12112209 0.11124357 -0.019226694 -0.28236273
0003b0 8f 95 e1 bd 0c 4d 26 3d 7a f7 36 3d df fc 99 3e
       -0.11014854 0.04060082 0.044669606 0.30075738
0003c0 0b 14 1e bd 28 93 0b 3e 62 cf 2f 3c b1 a3 80 3e
       -0.038593333 0.13630354 0.010730596 0.25124887
0003d0 7d b5 26 be 19 c6 0b 3e bf d6 93 3e 19 0c 50 3d
       -0.1628017 0.13649787 0.28874776 0.050792787
0003e0 69 c8 1e 3e 10 07 23 3d 55 b8 12 3e 9a df 0a 3e
       0.15506138 0.039801657 0.1432813 0.1356186
0003f0 6a ae a6 be c7 3c 0b be 6f 37 09 be 98 7c e4 3d
       -0.32554942 -0.13597403 -0.13400052 0.11156577

critic_net.lstm.bias_ih_l1 f4 [128]
000000 28 59 eb bd e5 93 04 be 49 a8 81 3e 33 ef ee bd
       -0.114916146 -0.12947042 0.25323704 -0.116667174
000010 7d 8c 58 be 62 3d 0e bd e0 f3 10 be bb 0f c9 3c
       -0.21147342 -0.034726508 -0.14155531 0.024543634
000020 36 43 52 be 5f 99 1a 3d 4d 88 4b 3c 41 5b 5a be
       -0.20533451 0.037743922 0.012422633 -0.21323873
000030 41 8f 0d 3e e7 ea 15 be 36 c3 a9 3d c3 74 79 bd
       0.13824178 -0.1464039 0.08289187 -0.06090237
000040 38 98 87 be d3 5a f2 3d 4d 40 7b 3d ec f7 a7 3d
       -0.2648332 0.118337296 0.06134062 0.08201584
000050 95 b4 a5 bd a2 79 37 3d 98 e2 c8 bd f2 c4 2a be
       -0.08091084 0.044793732 -0.09808844 -0.16676691
000060 8b 7d 45 be f3 06 69 3e 85 0b 5c be 2e 03 3d be
       -0.19286172 0.22756557 -0.2148877 -0.18458244
000070 09 40 34 be 10 8c 19 3e 56 8e 7a 3d 42 4e 0d 3d
       -0.17602552 0.14994836 0.0611709 0.03449846
000080 1c 18 de bd 94 fd 8f bd 7d 31 48 be 33 43 dd bd
       -0.10844442 -0.07030788 -0.19550128 -0.10803833
000090 d0 be 18 be ca 58 6d bc 03 14 b5 3c 3f 77 12 bd
       -0.14916539 -0.014486501 0.022104269 -0.035758253
0000a0 8e d7 63 be ef 48 49 be 52 ee 38 be 82 8a 60 be
       -0.22250196 -0.19656728 -0.18059662 -0.21927837
0000b0 ea a4 aa be 10 b4 e1 be 68 03 9a bd a5 d9 61 be
       -0.33328944 -0.4408269 -0.07520181 -0.22055681
0000c0 8e e2 7f bd 54 6f d3 be 95 03 56 3d 14 ad 15 bd
       -0.06247192 -0.41295874 0.05224951 -0.036542013
0000d0 05 e0 2b be e0 8e c2 be b7 b8 be bd f9 fa 14 be
       -0.16784675 -0.3799963 -0.09312575 -0.14548863
0000e0 ce 8f a4 be 19 84 a9 be 90 94 a0 be ef 0f f6 be
       -0.32140964 -0.33108595 -0.31363344 -0.4805903
0000f0 71 ad 56 bd 52 11 a9 be df 12 aa be cd 62 02 be
       -0.0524115 -0.33021027 -0.33217523 -0.12733002
000100 8d 37 26 3e 63 ac 38 3e d9 47 fc 3d 94 32 df bb
       0.16232128 0.1803451 0.12318391 -0.0068114493
000110 36 fc 90 3c c8 31 4d bc 7e b4 a1 bb c8 ab 10 be
       0.017698389 -0.012524076 -0.0049348464 -0.1412803
000120 36 b2 1b 3c 8e bb 1e 3e cb 9e 2a be 06 3b be bd
       0.009502938 0.15501234 -0.16662137 -0.092886016
000130 4c 95 21 bc 4d 98 89 3d 3c 06 0c be 2c 00 d3 3c
       -0.009862255 0.06718502 -0.13674253 0.025756918
000140 5c ee f9 bd 49 3d 05 bd 89 81 0d be 59 29 dc bd
       -0.122036666 -0.03252915 -0.13818945 -0.10750074
000150 d9 37 8b bd 33 cf 90 3d 13 55 f1 3c be b7 34 bd
       -0.067977615 0.0707077 0.029459512 -0.044120543
000160 ac 6b 24 be fa a6 93 bc 24 18 d5 bd c1 a1 db bd
       -0.16056699 -0.018023957 -0.10404995 -0.107242115
000170 32 fc ac bc fe 72 d8 3d 96 3d bb bd 5d a8 e5 bd
       -0.02111635 0.10568808 -0.09142606 -0.11213753
000180 b2 99 0d bd cd 35 83 bd b6 95 1e 3e 59 9e 4f bc
       -0.034570403 -0.06406746 0.15486798 -0.01267203
000190 47 76 d3 bd 2e 36 de bc 31 d1 3d be 8d c4 ac bd
       -0.10325294 -0.027125444 -0.18536831 -0.084359266
0001a0 cd 55 27 3c 94 e7 78 3e fc d1 20 bd 26 1c a4 be
       0.010213328 0.2430709 -0.039262757 -0.32052726
0001b0 f3 d1 21 3e 3b 0e b6 bd 9c 83 83 3d 27 db 7b 3d
       0.15802746 -0.08889433 0.06421587 0.061488297
0001c0 a4 1c 87 bd 4f 22 05 3e 63 c9 c2 bd a3 6f e6 3d
       -0.0659726 0.13001369 -0.09511068 0.11251762
0001d0 ff 6e c6 bd 90 71 f2 3d 58 27 4e 3d 59 96 44 be
       -0.096891396 0.118380666 0.05033049 -0.19197978
0001e0 af 9a 43 be 76 bd ad 3d fb b7 a0 3d 47 6c 21 bd
       -0.19101976 0.084834024 0.078475915 -0.039409902
0001f0 29 ea 57 3d b4 81 2a 3c cc 21 0c 3e 31 43 55 3d
       0.052713547 0.0104069 0.13684767 0.05206603

critic_net.lstm.bias_hh_l1 f4 [128]
000000 ae a3 d4 bc 77 37 08 bd be 05 25 bd 85 ba 14 bc
       -0.025956955 -0.03325602 -0.04028868 -0.009077673
000010 f3 a4 20 3d 2e 21 d8 bd 12 58 25 3d 54 44 0f be
       0.039219808 -0.105532035 0.040367194 -0.13990909
000020 bb 2f 73 be 0d 0f 5a 3e 69 13 2c 3e 0c 6b d6 bd
       -0.23748676 0.21294804 0.1680428 -0.10469636
000030 d2 c1 46 bd 10 92 97 bd 73 98 a7 3c b4 7d 0f 3d
       -0.048524685 -0.07400906 0.020458436 0.03503199
000040 c1 dc 19 bd 21 09 b3 3d 47 37 d3 3d 8e 85 5b bd
       -0.037564043 0.087419756 0.10313278 -0.053594165
000050 dd bb cd 3c bd 75 13 be 00 59 b0 3d ca 09 5e be
       0.025113994 -0.14400382 0.086107254 -0.21683422
000060 57 4c 6a be 63 e7 01 bd b9 af 28 be 85 76 00 3e
       -0.22880684 -0.03171481 -0.16473283 0.12545212
000070 38 03 84 bd e3 45 f9 3c ab 63 ff bd 36 6a 89 bb
       -0.064459264 0.030428832 -0.12470182 -0.0041935695
000080 cd 2e 1e be 96 6f 83 be 46 53 b6 be 08 0c 24 be
       -0.1544754 -0.2567107 -0.35610408 -0.16020215
000090 f2 37 5b bd 86 0a f0 bd 13 d7 e7 38 a4 15 1e bc
       -0.05352015 -0.11720757 0.00011054999 -0.009648714
0000a0 fa 85 89 be 39 69 1f bd 19 3e 20 3d e4 1b 33 be
       -0.26860029 -0.038918708 0.03912172 -0.17491108
0000b0 41 2a f5 bd 2f 22 a3 be 21 3d b3 bd a0 40 9c be
       -0.1197095 -0.31862018 -0.08751894 -0.30518055
0000c0 1e 73 1c be b5 29 82 be 10 70 03 3e 01 58 9c 3d
       -0.15278289 -0.25422445 0.12835717 0.07633973
0000d0 ee 9c 76 be 24 e8 af bd 73 2b 2c be 7a 77 54 3d
       -0.24083301 -0.08589199 -0.1681345 0.051871754
0000e0 70 27 c3 bd 2b 47 9d be d2 25 63 be 4e 9c 88 be
       -0.095290065 -0.3071836 -0.22182396 -0.2668175
0000f0 08 54 51 be 7b aa 5a be fb 02 7b be c6 8f 8d bd
       -0.20442212 -0.21354096 -0.24512856 -0.06912188
000100 08 ba 3b 3b 3e a1 b7 bd 55 87 2d be fe 5e 95 bd
       0.0028644819 -0.089663014 -0.16946156 -0.07293509
000110 50 c9 9f 3d 90 59 8a bd a5 0e 8c bd 26 ca 46 3b
       0.07802069 -0.06755364 -0.06838731 0.0030332892
000120 2d e9 0b 3e 83 b1 07 be 17 b5 5c bd 4e e5 27 3e
       0.13663168 -0.13251309 -0.05388364 0.16396067
000130 97 4c d6 3c 35 a8 f4 bb e0 3f 9f 3d 36 56 33 bd
       0.026159568 -0.007466341 0.07775855 -0.04378339
000140 96 06 16 bd 54 da b1 3a 2e 18 3f be 1d 96 a1 3d
       -0.036627375 0.0013569095 -0.18661568 0.0788996
000150 9e e6 bc bb d9 db b7 bc 9a 87 c7 bd 3b b0 f5 3d
       -0.0057647964 -0.022443699 -0.09742661 0.11996504
000160 a6 62 35 3e 15 4e d0 bd a5 05 40 3e ec 94 f2 3d
       0.17713413 -0.10171143 0.18752153 0.11844811
000170 74 78 d7 bc c3 e8 49 bc 02 50 ce 3b aa 72 d1 bd
       -0.026302554 -0.012323561 0.006296159 -0.102269486
000180 e4 8d 06 be ad 1d 89 3d 36 2b 95 3e 64 54 09 bc
       -0.13140064 0.06695113 0.2913453 -0.008381937
000190 7d f2 a3 bd 8a 1a 67 be 23 e1 75 be 39 8f 65 3c
       -0.08005235 -0.22568718 -0.24011664 0.014011198
0001a0 3d 44 61 bd 99 27 38 3e 87 e3 f6 bd fb 8f 52 bc
       -0.054996718 0.17983855 -0.12055116 -0.01285171
0001b0 c8 85 24 be d4 cc af 3c 7b bc 02 bd 0f bd 76 3e
       -0.16066658 0.021459974 -0.03191803 0.24095558
0001c0 63 be 3e bd ad 5a 55 3e 51 3b 8f 3b f2 70 85 bd
       -0.046568286 0.20835371 0.0043710847 -0.06515683
0001d0 db 4d 0b bd de ba ff ba 5f d4 f0 3d 64 20 4c 3c
       -0.034009796 -0.0019510647 0.117592566 0.012458894
0001e0 e0 07 1f be a9 e9 78 3d 8a 8a c8 3d 81 a9 0a 3c
       -0.15530348 0.06076971 0.09792049 0.008463264
0001f0 1f 3e 06 3d 3f 9b 1b 3e 19 6c 4b 3e 1d e5 d9 3d
       0.032774087 0.1519594 0.19865455 0.10639403

critic_net.dense1.weight f4 [8, 32]
000000 1a 09 3e be e6 3b 31 be ae f7 d3 bd 4a ef 94 bd
       -0.1855816 -0.17308006 -0.103499755 -0.07272203
000010 49 73 00 bd 1e 77 c4 3b 1d b1 8b bd b8 91 54 be
       -0.031359944 0.005995645 -0.06820891 -0.20758712
000020 12 72 1a 3d 38 44 69 be c2 1d e3 3d 18 79 a9 bd
       0.037706442 -0.2277993 0.1108966 -0.0827505
000030 3f 85 a0 ba 54 e4 83 3d 62 7a 0e 3f 14 bd 72 be
       -0.0012246742 0.064400345 0.5565549 -0.2370494
000040 e1 e7 0d 3e 28 dd 91 bd fd 63 1e be a3 3f 14 3e
       0.13857986 -0.0712226 -0.1546783 0.144774
000050 4b c6 01 bd 80 31 27 3d 49 e3 61 bc cb 78 d7 3d
       -0.031683248 0.04081869 -0.013787099 0.10521086
000060 d6 0a 9d bd 1e 94 ae 3e 01 90 13 3d 0f 61 64 be
       -0.076680824 0.3409738 0.036026005 -0.2230265
000070 02 da 0f be 13 42 ab 3d ac b3 a4 3e 71 7b 9a bb
       -0.14048007 0.08362212 0.3216833 -0.0047144224
000080 ea 6e 0f be 23 7f ae 3e 77 61 03 3e 78 48 bb 3c
       -0.14007154 0.34081373 0.12830149 0.022861704
000090 45 bc 2f 3d e0 87 e4 bd 78 b1 19 bc f2 5e 0f 3e
       0.042904157 -0.111587286 -0.009380691 0.14001063
0000a0 d2 72 d5 bd 8e 57 64 3d 50 bc 38 3e 16 88 52 3e
       -0.10422291 0.05574756 0.18040586 0.20559725
0000b0 42 16 3d be 9f f0 91 3e 45 2a dc be c8 21 35 be
       -0.18465522 0.28503892 -0.43001 -0.17688668
0000c0 40 53 dd 3e f9 c2 90 be 77 04 20 3e 5f 3c 07 3e
       0.43227577 -0.28273752 0.15626703 0.13206623
0000d0 71 13 03 be af 1a bb 3d 58 79 df 3d 93 5e 1d be
       -0.12800385 0.09135949 0.10911816 -0.15368108
0000e0 81 cc 2b be 0a d1 8c bb 79 a8 41 be df 12 00 be
       -0.16777231 -0.0042973803 -0.18911923 -0.12507199
0000f0 ba 80 62 be 32 c5 6d bd 9b b8 9a be e2 c6 b0 3e
       -0.22119418 -0.05804939 -0.30218968 0.34526736
000100 49 94 8e bd 61 73 11 3d f1 f0 f4 3d a0 c8 57 bd
       -0.06961877 0.035510425 0.119600184 -0.052681565
000110 9f 9c d3 bd a1 70 46 3c a9 96 ce 3d a1 51 e2 3c
       -0.103326075 0.012111814 0.1008733 0.027626814
000120 1a a7 ef 3b 0b 3e f4 bd 47 1d a5 bc 99 ac 5c 3c
       0.007313621 -0.11925896 -0.020155562 0.013468885
000130 1e 81 f9 3c 4c 0f dd 3b 64 38 04 bf 46 99 6b 3e
       0.030457076 0.0067462083 -0.51648545 0.23007688
000140 85 ba 97 bd 75 a3 52 3e fe 10 f7 3d a5 4b d1 bc
       -0.07408623 0.20570166 0.12063788 -0.025548765
000150 1e 3d 1e 3e d2 31 f4 bb e8 e2 b7 bd 44 26 07 3d
       0.15453002 -0.007452228 -0.08978826 0.032995477
000160 9d 84 f1 3c 16 c8 de bd 77 ea e0 3d a0 fb 94 3d
       0.02948218 -0.10878007 0.109822206 0.07274556
000170 76 b4 30 3e 35 52 4c bd bd 0e 3d be 60 74 64 bd
       0.1725634 -0.049883086 -0.18462653 -0.055775046
000180 7c f7 ee 3c cb a3 9d be b5 1c 33 bd 60 62 d1 3d
       0.029170744 -0.30789027 -0.04372855 0.10223842
000190 91 0d a0 bd be 8a 6a bd 6a d9 0c 3e 14 fd e6 bd
       -0.078150876 -0.05726122 0.13754812 -0.112787396
0001a0 b9 76 3b 3e 76 e3 27 be 99 f4 2f 3e de 75 91 3c
       0.18307008 -0.16395363 0.1718315 0.017756399
0001b0 f6 6a 95 bd 1d da fd 3d c2 23 18 3f 0c 54 d8 bd
       -0.07295792 0.123951174 0.5942956 -0.10562906
0001c0 de 56 ea 3c 42 a3 3c be 3b 19 27 be af e1 50 bd
       0.028605875 -0.18421653 -0.16318218 -0.05099648
0001d0 87 69 06 3e b9 3f 91 3c cf d3 ee bd 9b ad e6 bc
       0.13126193 0.01773058 -0.11661493 -0.028158953
0001e0 cf 03 c3 3d 9e 5c e2 3d 42 1d fc bd 66 fa 70 bd
       0.09522211 0.110528216 -0.12310268 -0.05883255
0001f0 e3 f8 2c be a0 33 b4 bd 0a e8 ee 3e 73 0a 47 be
       -0.16891818 -0.08798909 0.46661407 -0.1943758
000200 4b 2e da bc 37 4c 08 bf 23 1d ca 3d b9 c7 ca 3b
       -0.026633402 -0.53241295 0.09868839 0.0061883596
000210 36 3c 30 3e ab 6e 70 be ab c5 cd bb 7e 96 35 be
       0.17210469 -0.23479716 -0.0062796674 -0.1773319
000220 da 63 8b 3b ec 09 43 be 57 d9 b9 3c 25 80 38 3d
       0.0042538466 -0.19046754 0.022686644 0.045044083
000230 d7 b2 16 3d 22 f0 63 3b 3b 62 0d 3f b4 37 ae bd
       0.03679165 0.0034780581 0.5522801 -0.08506718
000240 0b 22 fb 3c 3c 13 01 be 13 3e ef bd 4c 31 cf bd
       0.030655881 -0.12604994 -0.116817616 -0.101168245
000250 8c b9 d4 3c 54 f3 d3 3d a8 fe 0a 3d 10 5d eb 3d
       0.025967382 0.103491455 0.033934265 0.1149236
000260 97 8a 78 bc 67 7d 5c bd 56 42 09 3e d1 23 7d bd
       -0.015169761 -0.05383053 0.13404211 -0.061801735
000270 21 44 ea bd b4 ce 39 bd e2 bb 09 3f 05 b0 08 3d
       -0.11438776 -0.045363143 0.5380231 0.03337099
000280 fb 2d 83 39 8d b1 11 3e 1f 46 a4 bd 1e 30 af 3c
       0.00025020525 0.14227886 -0.08021187 0.021385249
000290 84 00 8f 38 85 df 8b 3d 13 d7 9c 3d f3 29 d2 3d
       6.8188674e-05 0.06829742 0.0765821 0.102619074
0002a0 c3 4c e3 bb a8 eb fb 3d 96 2e a7 3d a3 08 3b bc
       -0.006936641 0.12300807 0.081631824 -0.011415633
0002b0 74 e7 4e bd 5b 0a 35 3d 9b a3 27 bf ef 1d 18 3e
       -0.0505137 0.04419933 -0.6548402 0.14855169
0002c0 3a ba af bc 53 04 f3 3d ff 0f 16 3e a9 ce ca bd
       -0.021451104 0.11866059 0.1465454 -0.099026985
0002d0 de 12 06 3e 21 20 44 be 89 19 25 be 59 16 e6 bd
       0.13093135 -0.19152881 -0.16123022 -0.11234731
0002e0 97 37 21 3e fe 4d 8e bd 35 cb e7 bd 7d a6 36 3e
       0.15743862 -0.069484696 -0.113180555 0.17836948
0002f0 53 59 08 3e 97 7f 9c bd 04 d0 f4 be f7 9a 12 3e
       0.13315324 -0.07641523 -0.47814953 0.14316927
000300 26 6d 84 3c c6 3d ab 3e 22 d0 b7 3e e2 61 f5 bc
       0.016165327 0.33445567 0.3590098 -0.0299539
000310 8a ec 5b be f7 48 6a bc e4 53 08 bc 13 24 9f 3e
       -0.21476951 -0.014299623 -0.008320782 0.3108221
000320 eb 76 96 3e 57 33 b3 3d d6 8a 39 3e d8 17 ac bd
       0.29387602 0.08750027 0.18119368 -0.08402985
000330 b8 e0 23 be 69 82 fb 3c b4 d8 3d bf 48 c5 90 3e
       -0.16003692 0.030701833 -0.7415879 0.28275514
000340 b5 2a f1 bd 2a fd 3b be af 33 5d 3e 14 47 2c be
       -0.11775724 -0.18358293 0.21601747 -0.16823989
000350 93 f0 0a 3e 9a 78 d2 3c 06 fa 2d 3e 31 9d 1e be
       0.13568334 0.025692273 0.16989908 -0.15489651
000360 8c 74 ef bd 35 e2 bd be 2c 7e 2a 3e 9c ee 83 3d
       -0.116921514 -0.37086645 0.16649693 0.064419955
000370 6a 28 76 3d e2 8d a1 3d a3 ba de be 24 78 e1 bd
       0.060097136 0.0788839 -0.43501768 -0.11009243
000380 f3 fb 54 be c2 7d 1b bf b9 27 b5 be 71 9c 95 bd
       -0.20799236 -0.60738766 -0.35381868 -0.073052295
000390 fa fe b0 bc e5 fd d3 3d 4d 3b 89 3d 6a 31 7e be
       -0.021605957 0.10351161 0.06700764 -0.24823537
0003a0 92 c8 96 be da 95 94 be 16 0b 3c be 2b 4e 80 3e
       -0.29449898 -0.29020578 -0.18363604 0.25059637
0003b0 9e 77 3d 3e b9 c6 38 be bb 56 34 3f 83 a8 29 be
       0.18502662 -0.18044557 0.7044484 -0.16568188
0003c0 42 99 dc 3d 69 f2 02 3e d5 87 b7 bd 3c 16 49 3e
       0.10771419 0.12787785 -0.08961455 0.19637388
0003d0 24 83 db bd 6b cf 4e 3e 19 93 8f be be 83 23 be
       -0.107183725 0.20196311 -0.28041914 -0.15968224
0003e0 d7 74 e8 3d 8f c2 b4 3e 83 64 44 be 1a 77 b3 3d
       0.113504104 0.35304686 -0.19178967 0.08762951
0003f0 3d 9d 07 bd b6 3d 46 3e 09 b7 0f 3f a1 9f e1 3d
       -0.03310894 0.19359478 0.56138664 0.11016775

critic_net.dense1.bias f4 [8]
000000 b3 51 04 3e 58 22 7c bb c5 94 03 bd a9 e2 2c 3d
       0.12921791 -0.003847262 -0.0321243 0.042208347
000010 5d 05 9f bd 92 a9 6b bd 01 d8 90 3c cf da dc 3d
       -0.07764695 -0.05753476 0.017681124 0.10783922
