trained_models/15_lag_ppo_InvertedPendulum-v2_eps_0.25_actor.pth (torch, 234044 bytes, 44 tensors)

policy_net.lstm.weight_ih_l0 f4 [128, 4]
0	0xbdd6fbd0	-0.10497248
1	0x3df9406d	0.12170491
2	0xbefb117c	-0.49036777
3	0x3e3e6dea	0.18596616
4	0xbea44315	-0.3208243
5	0x3f05135c	0.51982665
6	0xbe59dfa8	-0.21276724
7	0xbb302d2e	-0.0026882398
8	0xbe43bcb6	-0.19114956
9	0xbf01a998	-0.50649405
10	0xbe85ac98	-0.2610824
11	0xbe34442c	-0.1760413
12	0x3d97839b	0.073981486
13	0x3e9ca32c	0.3059324
14	0xbca85771	-0.020549508
15	0xbf0914f7	-0.53547615
16	0xbe58305f	-0.21112202
17	0xbf940266	-1.1563232
18	0x3c9d2187	0.019181026
19	0xbe8657ac	-0.26238763
20	0xbea1d373	-0.31606635
21	0xbe873b8a	-0.26412612
22	0xbefb1d7c	-0.49045932
23	0xbcb4bea8	-0.022063568
24	0xbeb8663c	-0.360155
25	0xbf632446	-0.88727224
26	0xbd560c8c	-0.05225806
27	0xbef7a222	-0.48365885
28	0x3c5d7946	0.013517683
29	0x3f44ee12	0.76925766
30	0xbe10c057	-0.14135872
31	0x3e49c27f	0.197031
32	0xbea1da41	-0.31611827
33	0xbf6bf9cd	-0.9217804
34	0xbcca12f7	-0.024667246
35	0xbe28cd11	-0.16484477
36	0xbe2277e4	-0.15866047
37	0x3f946fa4	1.159657
38	0xbeddc1a3	-0.43311796
39	0x3d81e448	0.06342369
40	0x3c410e99	0.0117832655
41	0x3f4c6e1b	0.7985551
42	0xbe96d43c	-0.29458797
43	0x3d4dd2fc	0.05025004
44	0x3eaaf7ad	0.33392087
45	0x3f596f4a	0.8493544
46	0x3e902de3	0.2816001
47	0xbef8a14d	-0.48560563
48	0x3e620bd6	0.22074828
49	0x3e4ea216	0.20179018
50	0x3f0ada47	0.54239315
51	0x3ed92d75	0.42417493
52	0xbe170689	-0.14748587
53	0x3f888381	1.0665132
54	0xbe710080	-0.23535347
55	0x3e594acd	0.2121994
56	0x3deed78a	0.116622046
57	0x3f4a8b47	0.7911877
58	0xbe38c661	-0.18044426
59	0x3eec764b	0.46184
60	0xbe111675	-0.14168723
61	0x3f0c7f55	0.54881793
62	0xbe925482	-0.285801
63	0x3e053c66	0.13011321
64	0xbe91adcb	-0.28452906
65	0x3f3622e8	0.7114701
66	0xbedd4a40	-0.4322071
67	0x3dd229c3	0.10261872
68	0xbeca3698	-0.39494777
69	0xbf2a3c21	-0.66498
70	0x3d8a5a24	0.06755474
71	0xbe12486b	-0.14285438
72	0xbe4d1709	-0.20028318
73	0x3ded50bb	0.11587664
74	0xbe4f927a	-0.2027072
75	0xbe6ca2bc	-0.23108953
76	0xbecbfff8	-0.39843726
77	0xbed6c294	-0.41945326
78	0x3d2b5f67	0.04183903
79	0xbf0782be	-0.5293387
80	0x3cabb1d5	0.02095882
81	0x3f8b1cef	1.0868205
82	0xbe0ea272	-0.13929155
83	0x3d8216da	0.06352015
84	0xbebefdef	-0.3730311
85	0x3ef0a162	0.46998125
86	0xbf494c63	-0.7863218
87	0x3ede85e9	0.4346154
88	0xbf049464	-0.51788926
89	0xbd9d0da1	-0.07668615
90	0x3d27006e	0.040771894
91	0xbe2b64ad	-0.16737624
92	0xbdea548c	-0.11441907
93	0x3fbdbd09	1.4823314
94	0xbeb95c72	-0.36203343
95	0x3ec25bb6	0.37960595
96	0xbd49e936	-0.049294673
97	0x3f5143b4	0.8174393
98	0xbedfd769	-0.43719032
99	0xbd7bf96f	-0.061517175
100	0xbd826dc5	-0.06368593
101	0x3f1cdef9	0.6127773
102	0x3e970340	0.29494667
103	0x3e8c8975	0.2744862
104	0xbe22f260	-0.15912771
105	0xbfa42aeb	-1.2825598
106	0xbe21205f	-0.15735005
107	0xbea1b5ed	-0.3158411
108	0xbed388d4	-0.4131533
109	0x3f3c0d4f	0.7345781
110	0xbe890dc5	-0.26768318
111	0xbe27225c	-0.16321701
112	0x3d2b548f	0.04182869
113	0x3e8b4dc8	0.2720778
114	0xbe1d4219	-0.15357246
115	0xbd9124b7	-0.07087081
116	0xbf022ab0	-0.50846386
117	0xbd38f546	-0.045155786
118	0xbca379c7	-0.019955529
119	0xbf4118d7	-0.7542853
120	0xbdd0aad5	-0.101888336
121	0x3e716e21	0.23577167
122	0x3d889ce9	0.06670553
123	0xbeb63909	-0.3559039
124	0xbeeb76f9	-0.45989206
125	0x3f3e9ed6	0.74461114
126	0xbf4ddc02	-0.8041383
127	0x3eb4a50f	0.3528218
128	0x3d87f0bf	0.066377155
129	0x3e450dc1	0.19243528
130	0x3d87a3ab	0.06623014
131	0xbac7acec	-0.001523403
132	0xbd93d78e	-0.07218848
133	0x3f3b724c	0.7322128
134	0x3da8a557	0.08234661
135	0x3be191f5	0.0068838545
136	0xbe16d164	-0.14728314
137	0xbf255bee	-0.645934
138	0xbcdccda2	-0.026953522
139	0xbe88155b	-0.26578793
140	0xbda3ca8a	-0.07997616
141	0xbf1028b2	-0.56312096
142	0x3d0438ef	0.03228086
143	0xbd1090b6	-0.035294257
144	0xbcb7e572	-0.022448275
145	0xbf1f42b4	-0.62211156
146	0xbe1d4f13	-0.15362196
147	0xbc86e92b	-0.016468605
148	0xbd87ed2b	-0.06637033
149	0xbe948629	-0.29008606
150	0xbeb466d6	-0.35234708
151	0x3c5293e5	0.012852644
152	0x3ac1f49f	0.0014797634
153	0xbf9e6276	-1.2373798
154	0xbe0f0a61	-0.13968803
155	0xbcc85ebc	-0.024459235
156	0x3dd3b039	0.10336346
157	0x3f6d5194	0.92702603
158	0x3ed1f542	0.4100743
159	0xbe28c2f8	-0.16480625
160	0x3dcac012	0.09899916
161	0xbf870c52	-1.0550635
162	0xbe0d8eab	-0.13823955
163	0xbe3acaae	-0.18241379
164	0x3c55d4a2	0.013051184
165	0x3f12eaed	0.5738972
166	0x3e619ae4	0.22031742
167	0xbeb0809d	-0.34473124
168	0xbcd7831b	-0.026307633
169	0x3f605ef3	0.8764488
170	0xbd75acb4	-0.059979156
171	0xbd80f432	-0.062965766
172	0x3daa2c96	0.08309285
173	0xbe3f4caa	-0.18681589
174	0x3dfd9ce3	0.123834394
175	0xbd591bd1	-0.053005043
176	0x3e2bce08	0.16777813
177	0x3e5fa3dc	0.21839851
178	0xbb36f521	-0.0027917104
179	0x3e2b9a38	0.16758049
180	0x3e1bce6d	0.15215464
181	0x3f686064	0.9077208
182	0x3dca0917	0.09865015
183	0x3e04cf1d	0.12969632
184	0x3d91ca24	0.071186334
185	0x3f85e0e0	1.0459251
186	0x3e133491	0.14375521
187	0x3e134527	0.14381848
188	0x3e374668	0.17897952
189	0x3f25c9d8	0.64761114
190	0x3c06a7cb	0.008218716
191	0xbbbb7704	-0.005720975
192	0xbd0c932f	-0.034320053
193	0xbe0cafc2	-0.13738921
194	0xbd96adf4	-0.07357398
195	0xbd0d4ab3	-0.034495067
196	0xbd896731	-0.06709135
197	0xbec3beef	-0.38231608
198	0x3cc4c8dc	0.024021558
199	0x3e001da8	0.12511313
200	0x3c6c0095	0.014404436
201	0x3f1dc12d	0.6162289
202	0xbdd93d77	-0.106074266
203	0xbce2d427	-0.027689053
204	0xbd95cc0e	-0.07314311
205	0xbf462c5b	-0.7741143
206	0xbe84dc25	-0.25949207
207	0x3e500180	0.20313072
208	0xbc196635	-0.009362747
209	0x3f558513	0.8340618
210	0xbe1daec3	-0.15398698
211	0xbd5be240	-0.053682566
212	0xbe3b6c5c	-0.18303055
213	0x3cfca056	0.030838173
214	0x3e56c31b	0.20972864
215	0xbd040cbc	-0.032238707
216	0x3dffaeba	0.12484498
217	0xbef80873	-0.48443946
218	0xbeb415c5	-0.3517286
219	0x3d7d445c	0.06183277
220	0x3d9ecbb1	0.07753695
221	0x3f0a7266	0.5408081
222	0xbe15cb71	-0.14628388
223	0xbe2090ea	-0.1568028
224	0x3e4bfe40	0.19921207
225	0x3f76cb01	0.9640351
226	0x3e05778c	0.13033885
227	0x3e270f0a	0.1631433
228	0xbe0141d1	-0.12622763
229	0x3f592b2f	0.8483152
230	0x3cceb6d9	0.025233673
231	0x3d7177fc	0.058952317
232	0xbda21e3c	-0.07915923
233	0xbf8a4d81	-1.0804902
234	0xbc9f592e	-0.019451704
235	0xbcc13eb5	-0.023589471
236	0xbc9a8aba	-0.018864978
237	0x3f4ad7ca	0.7923552
238	0x3dc749b6	0.09730856
239	0x3d3c316b	0.045945566
240	0xbd15c3ff	-0.03656387
241	0x3ec346df	0.38140008
242	0x3d91f82d	0.07127414
243	0x3d43eafc	0.04783152
244	0xbeb3b556	-0.35099286
245	0xbd2ec7d7	-0.04267105
246	0xbea21b1b	-0.31661305
247	0x3dd06e6f	0.101773135
248	0xbc8ac02b	-0.016937336
249	0xbf1aff27	-0.6054558
250	0x3caba1d4	0.02095119
251	0xbea91fc0	-0.33032036
252	0xbd6548ee	-0.055977754
253	0x3d942598	0.07233733
254	0xbde407ec	-0.111343235
255	0x3e124611	0.1428454

policy_net.lstm.weight_hh_l0 f4 [128, 32]
0	0x3e22e2b2	0.1590679
1	0xbe1acb6a	-0.15116659
2	0x3eb2b9f5	0.349075
3	0x3c945f43	0.01811183
4	0x3e48612e	0.19568321
5	0xbc6d6794	-0.014490027
6	0x3b1aa29d	0.002359546
7	0x3e5472bc	0.20746893
8	0x3e65b19f	0.22431038
9	0xbe3b512e	-0.18292686
10	0xbd491d11	-0.049099986
11	0xbe87ffde	-0.265624
12	0xbe1f8674	-0.15578634
13	0x3e01251e	0.12611815
14	0xbc139d59	-0.009009683
15	0x3e121642	0.14266303
16	0x3e08defc	0.13366312
17	0x3e6051de	0.2190623
18	0x3e303c32	0.17210463
19	0x3e5bd5b4	0.2146824
20	0x3e0e80aa	0.13916269
21	0xbeaad143	-0.3336278
22	0x3d8d8b84	0.06911376
23	0x3d8bd627	0.06827956
24	0xbda5e7bc	-0.081008404
25	0xbdc860d0	-0.097840905
26	0x3e8ce90a	0.27521545
27	0x3d11e9ed	0.03562348
28	0x3e50eb0a	0.2040216
29	0x3e358abc	0.17728704
30	0xbe625ce6	-0.2210575
31	0x3d917c33	0.07103767
32	0xbd3d97ae	-0.04628723
33	0xbd878a65	-0.066181935
34	0x3e4786b2	0.19484976
35	0x3e8ca0ba	0.27466375
36	0x3a18b8fa	0.00058259035
37	0x3ea967c0	0.33086967
38	0x3d75256e	0.05985015
39	0x3d18bc9a	0.03728924
40	0x3eb3ebbd	0.35140792
41	0xbdf515b8	-0.11967033
42	0xbde3b17f	-0.11117839
43	0xbe875bb9	-0.26437166
44	0xbdd29677	-0.10282605
45	0x3d3aed59	0.04563651
46	0x3e81b9b6	0.25337
47	0xbd4a57ea	-0.049400248
48	0xbb5ce56e	-0.0033706087
49	0xbdcb9625	-0.09940747
50	0xbd199a8c	-0.037500903
51	0x3e2ec18b	0.17066018
52	0x3ea7082c	0.32623422
53	0xbea16802	-0.31524664
54	0x3e16652f	0.14687036
55	0xbd27f431	-0.041004363
56	0xbe48c461	-0.19606163
57	0xbe693e93	-0.22777776
58	0x3c739aa6	0.014868414
59	0x3ea268b4	0.31720507
60	0x3e8adba6	0.27120703
61	0x3c4b3054	0.012401659
62	0xbd450f76	-0.048110448
63	0x3e358e4a	0.1773006
64	0x3e585dd8	0.21129549
65	0xbd3328ef	-0.04374021
66	0x3c13eb5c	0.009028282
67	0xbe30cb64	-0.17265087
68	0x3ce1bccd	0.027555848
69	0x3dd4c5a3	0.10389259
70	0xbd41d76e	-0.04732459
71	0xbd656485	-0.056004066
72	0x3e580203	0.21094517
73	0xbe09f224	-0.13471276
74	0x3d968184	0.07348922
75	0xbdf73a09	-0.12071616
76	0xbd2e3a62	-0.042536147
77	0xbda54df3	-0.08071508
78	0x3e1d2225	0.15345056
79	0xbe073933	-0.13205414
80	0xbd8e58b3	-0.06950512
81	0x3da73388	0.08164126
82	0x3cd1dac1	0.025617005
83	0x3cb587bf	0.022159455
84	0x3d99a991	0.07503045
85	0x3c2cf127	0.010555542
86	0xbcc36aba	-0.023854602
87	0xbdc65791	-0.09684671
88	0xbd92dae6	-0.07170658
89	0x3b2fc4e7	0.0026820244
90	0x3ce50129	0.027954655
91	0x3e342422	0.17591909
92	0x3dac1240	0.084019184
93	0x3dd5fbde	0.104484305
94	0x3dae24e9	0.08503134
95	0x3d643f2f	0.05572432
96	0xbe105616	-0.14095339
97	0x3b1ed603	0.0024236448
98	0xbd3bb96a	-0.04583112
99	0x3da0d540	0.07853174
100	0x3c07e1d5	0.008293589
101	0x3dbed888	0.09318644
102	0x3e06ae5b	0.13152449
103	0xbd80065e	-0.062512144
104	0x3d75b40a	0.05998615
105	0xbe670e6d	-0.22564097
106	0xbe03a7ab	-0.12856929
107	0x3da1497a	0.07875343
108	0x3c6eab4d	0.0145672085
109	0x3e21186b	0.15731971
110	0xbc61f09c	-0.013790276
111	0x3deda6c8	0.116040766
112	0x3e762fcb	0.24041669
113	0x3da21ce5	0.079156674
114	0xbdbc81b2	-0.09204425
115	0x3d347f99	0.044067
116	0x3e0a89d1	0.13529135
117	0xbdbcc1c1	-0.09216643
118	0xbd1fdc87	-0.03902867
119	0x3e3687bb	0.17825215
120	0x3d484070	0.048889577
121	0xbd7e94ef	-0.062153753
122	0x3df837d7	0.121200256
123	0x3e370e3c	0.17876524
124	0x3cc289c8	0.02374734
125	0xbe2c32c0	-0.16816235
126	0xbdbc4f30	-0.09194791
127	0xbd49b7b1	-0.049247447
128	0x3b411725	0.0029463258
129	0x3d7fa04a	0.062408723
130	0xbdecdc83	-0.11565497
131	0x3d722f27	0.059127
132	0xbe2d665b	-0.16933577
133	0xbe2333d3	-0.15937738
134	0x3d9a4765	0.07533149
135	0x3df7590d	0.12077532
136	0xbdf05306	-0.117345855
137	0xbdc5e747	-0.09663253
138	0x3ce00816	0.027347606
139	0x3d716364	0.058932677
140	0x3e22b18b	0.1588804
141	0x3dadd483	0.08487799
142	0x3e37816f	0.17920469
143	0x3de16c14	0.110069424
144	0x3df0db50	0.117605805
145	0x3d64c849	0.05585507
146	0xbd0d76bf	-0.034537073
147	0x3e2494c1	0.1607237
148	0x3e3e9a50	0.18613553
149	0xbe4447e8	-0.19168055
150	0xbde840bb	-0.11340471
151	0xbe19fb80	-0.15037346
152	0x3c36f524	0.0111668445
153	0x3de94547	0.11390167
154	0x3ce632b7	0.028100355
155	0x3dc0c6e9	0.09412939
156	0xbdc2b8e3	-0.095079206
157	0xbe63cf11	-0.22246958
158	0x3dd2e41a	0.10297413
159	0xbc110efc	-0.00885367
160	0x3e2efd39	0.17088784
161	0x3df5f1f3	0.12009039
162	0xbe605879	-0.2190875
163	0xbdfa52c2	-0.12222816
164	0xbe7f5a91	-0.24936892
165	0xbda74370	-0.081671596
166	0xbccf3ca6	-0.025297474
167	0x3da58a53	0.08083024
168	0xbd92b9f5	-0.07164375
169	0x3deef418	0.11667651
170	0x3e81a968	0.2532456
171	0xbe0f53d6	-0.13996825
172	0x3dc66679	0.09687514
173	0xbce9ef34	-0.028556444
174	0xbdc874d6	-0.0978791
175	0xbe328662	-0.17434075
176	0xbe5451a2	-0.20734265
177	0x3d93d503	0.07218363
178	0xbd245c37	-0.040127005
179	0xbe43e8e9	-0.19131817
180	0xbd89e31f	-0.06732773
181	0x3d2b53a1	0.0418278
182	0x3d894269	0.0670212
183	0xbe7d3ec0	-0.24730968
184	0x3e1a44e2	0.15065339
185	0xbd769f38	-0.060210437
186	0xbc2457d6	-0.010030707
187	0xbe27d765	-0.1639076
188	0x3d7a69a0	0.061135888
189	0xb9c04d87	-0.00036678856
190	0xbd340a9f	-0.04395544
191	0xbde0c47f	-0.10974979
192	0x3c3089ab	0.01077501
193	0x3dad273b	0.08454748
194	0xbd62f9b8	-0.05541393
195	0x3e15cc0b	0.14628617
196	0x3d81ceec	0.06338295
197	0x3e3b1efa	0.18273535
198	0xbd3ffb1e	-0.046870343
199	0xbd4794c0	-0.048725843
200	0x3dd21909	0.10258681
201	0xbca8299c	-0.020527653
202	0xbe2676a3	-0.16256194
203	0xbdc057fb	-0.09391781
204	0xbe143a85	-0.14475448
205	0xbd8fa91c	-0.07014677
206	0x3e24999a	0.1607422
207	0xbca1ada7	-0.019736124
208	0xbdb22f92	-0.087004796
209	0xbde18c9e	-0.11013149
210	0xbdf175ee	-0.117900714
211	0x3df5817a	0.11987586
212	0x3e126c38	0.14299095
213	0xbd45714f	-0.048203763
214	0x3e09d594	0.1346038
215	0xbd8ad432	-0.06778754
216	0xbe058cf2	-0.13042048
217	0x3da5effb	0.08102413
218	0xbc92fd97	-0.017943187
219	0x3d768c48	0.060192376
220	0x3d03648e	0.03207832
221	0x3d637754	0.055533722
222	0xbe1e80c3	-0.15478806
223	0x3de1264d	0.109936334
224	0x3d488d44	0.048962846
225	0x3e1784bc	0.14796728
226	0xbd87b67a	-0.066266015
227	0x3e63acf6	0.22233948
228	0x3e64788b	0.22311608
229	0x3bf73d53	0.007545152
230	0xbd265987	-0.040612724
231	0xbe060644	-0.13088328
232	0x3e7fdb89	0.2498609
233	0xbe1820ab	-0.14856212
234	0x3dcca533	0.09992447
235	0xbca1ab47	-0.019734992
236	0x3daee2d2	0.08539356
237	0x3e61e7ac	0.22061032
238	0x3e291003	0.16510014
239	0x3e812846	0.2522604
240	0x3dd0fa73	0.102040194
241	0x3d9e085e	0.0771644
242	0xbd5b6528	-0.053563267
243	0x3da6188b	0.0811015
244	0xbd749752	-0.059714623
245	0x3d190d31	0.037366096
246	0x3dcec631	0.10096396
247	0x3e8e3a60	0.27778912
248	0xbd34433b	-0.04400943
249	0xbdc1e7e7	-0.0946806
250	0x3e0bb78e	0.1364424
251	0x3de49774	0.111617
252	0x3b7a71dd	0.003821484
253	0x3da7fa17	0.08201998
254	0xbdc891b6	-0.09793417
255	0x3d1c64e3	0.03818215

policy_net.lstm.bias_ih_l0 f4 [128]
0	0x3ea88bc7	0.32919142
1	0x3e5865a0	0.21132517
2	0x3e9886b9	0.29790285
3	0x3e97f57b	0.29679474
4	0xbcf3ea19	-0.029774712
5	0xbe117497	-0.14204632
6	0x3da01d8e	0.07818137
7	0x3d5d41ac	0.054017708
8	0x3e46bc3d	0.19407745
9	0x3e7f2f52	0.24920395
10	0x3ee42f42	0.44567305
11	0x3e6fd18a	0.23419777
12	0x3c4e1568	0.012578346
13	0x3e0174dc	0.12642235
14	0x3cc1fd0d	0.023680234
15	0x3e16f228	0.14740813
16	0x3c4e8b36	0.012606433
17	0x3ecf4e18	0.40489268
18	0x3f370560	0.71492577
19	0x3e222b07	0.15836726
20	0x3e4617bf	0.19344996
21	0xbe1e45c9	-0.15456308
22	0x3dd3a859	0.10334844
23	0xb9f29e27	-0.0004627567
24	0x3eaa9e01	0.33323672
25	0x3de83edf	0.11340117
26	0xbe330561	-0.1748252
27	0x3e2a922f	0.16657327
28	0x3ce39d90	0.027785093
29	0xbd720240	-0.059084177
30	0x3eb06f6e	0.34460014
31	0xbdc209a3	-0.09474494
32	0xbdf33a1d	-0.118763186
33	0xbe80bde3	-0.25144872
34	0xbe311709	-0.17293943
35	0xbdd59c2d	-0.10430179
36	0xbe49d5ad	-0.19710417
37	0xbd37a885	-0.044838447
38	0xbd42853f	-0.047490355
39	0xbe7b3903	-0.24533467
40	0xbe02334a	-0.12714878
41	0xbd978e25	-0.07400159
42	0xbbd77c62	-0.006576107
43	0xbea2c19b	-0.31788334
44	0xbd3ab09a	-0.045578577
45	0xbd4bd1f2	-0.049760766
46	0xbe26cbc6	-0.16288671
47	0xbe603d6c	-0.2189843
48	0xbd19768d	-0.037466574
49	0xbb8b91fd	-0.0042593465
50	0xbe1ede7a	-0.15514556
51	0x3d208047	0.039184835
52	0xbda81580	-0.08207226
53	0xbe3d2dc2	-0.18474486
54	0xbd33faa8	-0.043940216
55	0xbcc585ea	-0.024111707
56	0x3d54db27	0.051966812
57	0x3e188063	0.14892726
58	0xbd80e581	-0.062937744
59	0xbd0c819a	-0.034303285
60	0x3d09bf14	0.033629492
61	0xbe1fbabe	-0.1559858
62	0xbe5a560f	-0.21321891
63	0x3c7521b9	0.014961653
64	0xbde31ef3	-0.110898875
65	0x3d6eb40d	0.05827718
66	0x3cc4fabd	0.024045343
67	0xbd29bbfb	-0.041439038
68	0xbcff8a62	-0.031193916
69	0x3d0f0371	0.03491539
70	0x3e24b993	0.16086416
71	0x3d4ac61f	0.04950535
72	0x3e0ed349	0.13947786
73	0x3adb3598	0.0016724346
74	0xbdddd89b	-0.1083233
75	0x3db54486	0.088509604
76	0x3e160fb0	0.14654422
77	0x3d887190	0.06662285
78	0x3da3291a	0.07966824
79	0x3dc8fffd	0.09814451
80	0x3c290bd1	0.010317759
81	0xbda4f5f3	-0.080547236
82	0xbe06dccc	-0.13170165
83	0x3c52cca7	0.012866176
84	0x3de31612	0.11088194
85	0xbda908f9	-0.082536645
86	0x3ddc1374	0.10745898
87	0xbdb7102e	-0.08938633
88	0x3c06ab34	0.008219529
89	0xbe3ec106	-0.1862832
90	0x3d90bf0f	0.070676915
91	0xbd56a410	-0.052402556
92	0x3dc6c9fa	0.09706493
93	0x3d1713cc	0.036884114
94	0xbab9177b	-0.0014121378
95	0x3c61c7b3	0.013780522
96	0x3e42fd86	0.19042024
97	0x3e29278f	0.16518997
98	0x3c9b3851	0.018947752
99	0x3e2919a9	0.16513695
100	0x3dd8dff5	0.105895914
101	0xbd8dc535	-0.0692238
102	0x3daf2fcb	0.08554038
103	0x3e706f5d	0.23479982
104	0x3da28d6a	0.07937129
105	0xbc492106	-0.01227594
106	0x3ebc7f52	0.36815888
107	0x3e1bd8ad	0.15219374
108	0x3e5e4107	0.21704493
109	0xbd53ebb2	-0.05173845
110	0x3df104fc	0.11768529
111	0xbdf6d1e7	-0.120517544
112	0xbe8e4429	-0.27786377
113	0x3e1dd2ce	0.15412447
114	0x3ed17454	0.40909064
115	0x3e90617d	0.28199378
116	0xbd66d626	-0.05635657
117	0xbe5d0d91	-0.21587206
118	0x3d49282c	0.049110577
119	0x3d4453ae	0.047931366
120	0x3e08d659	0.13363017
121	0x3c7f4614	0.015580673
122	0xbd6bf80d	-0.057609607
123	0x3e48d574	0.19612676
124	0x3d1e7d09	0.03869346
125	0x3e10501e	0.14093062
126	0x3e754f96	0.23956141
127	0xbd9f63ff	-0.077827446

policy_net.lstm.bias_hh_l0 f4 [128]
0	0x3e124c39	0.14286889
1	0x3e3f67a2	0.18691877
2	0x3e93e824	0.28888047
3	0x3e69399d	0.22775884
4	0xbd22cc51	-0.039745633
5	0xbdc3c00e	-0.09558116
6	0x3d680554	0.056645706
7	0x3e8c7e65	0.2744018
8	0xbce9c119	-0.028534459
9	0x3db26da7	0.08712321
10	0x3e6ec872	0.23318651
11	0x3e4ee989	0.20206274
12	0xbd452b19	-0.048136804
13	0x3e2b8f94	0.1675399
14	0x3db1a222	0.086735025
15	0x3e4c06ab	0.19924419
16	0x3c85ba2e	0.016324129
17	0x3e6661bb	0.22498219
18	0x3ecc5ac9	0.39913014
19	0x3e490393	0.1963027
20	0xbc8d099a	-0.017216492
21	0xbd9f11a3	-0.07767036
22	0x3df62ad8	0.120198905
23	0x3e544a74	0.20731527
24	0x3db23e2d	0.08703265
25	0x3d8f36b1	0.069928534
26	0xbe25cde3	-0.16191821
27	0x3c88904e	0.016670372
28	0xbe8652d4	-0.26235068
29	0x3c9481a0	0.018128216
30	0x3e99832a	0.29982883
31	0xbe0ec94e	-0.13943979
32	0x3cc31771	0.023814889
33	0xbe861375	-0.2618672
34	0xbe9101f1	-0.28321794
35	0xbe36cc8c	-0.17851466
36	0xbcbb54fe	-0.022867676
37	0xbe849414	-0.25894225
38	0x3d447812	0.04796607
39	0xbded6c76	-0.11592953
40	0xbd33750c	-0.043812796
41	0xbe9e2331	-0.30886224
42	0x3b9f273f	0.0048569734
43	0xbd87ea14	-0.06636444
44	0xbe1b2cf0	-0.15153861
45	0xbe0296d1	-0.12752844
46	0xbe20cd62	-0.15703347
47	0xbe672f89	-0.22576727
48	0xbe28d994	-0.1648925
49	0xbdb659dc	-0.08903858
50	0xbe5f69eb	-0.21817748
51	0xbe3b6a7f	-0.18302344
52	0xbd45689d	-0.04819547
53	0xbe9f99a4	-0.31171906
54	0xbcc7a66c	-0.024371348
55	0xbe8e8ed0	-0.27843332
56	0xbdfc4ae1	-0.123189695
57	0xbc20bb58	-0.009810291
58	0xbd863d1a	-0.06554623
59	0xbe621925	-0.22079904
60	0xbcd8f9aa	-0.026486237
61	0xbe2e1c18	-0.17002904
62	0x3d91be89	0.0711642
63	0xbe4e434a	-0.20142856
64	0x3e357a36	0.17722401
65	0xbe08aa38	-0.13346183
66	0x3cb0f17b	0.021599522
67	0x3dfc3228	0.12314254
68	0xbc9004ec	-0.017580472
69	0xbc39d33b	-0.011341865
70	0xbe099dec	-0.13439149
71	0x3da6db22	0.08147265
72	0x3ceede3d	0.029158706
73	0xbce0b787	-0.027431263
74	0x3e0bf14f	0.1366627
75	0xbe0c27e1	-0.13687088
76	0xbe049942	-0.12949088
77	0xbcd3330a	-0.025781173
78	0x3c9532a8	0.018212631
79	0xbcc68281	-0.024232151
80	0xbc62529c	-0.013813641
81	0x3ce0fe37	0.02746497
82	0x3d8f4723	0.0699599
83	0x3d8a6779	0.06758017
84	0xbdabba06	-0.083850905
85	0x3c706890	0.014673367
86	0xbda2390e	-0.079210386
87	0x3d556364	0.05209674
88	0xbd1a6a89	-0.037699256
89	0x3e22233e	0.15833756
90	0x3e064369	0.13111652
91	0x3dbca8db	0.09211894
92	0xbc8b9c07	-0.017042173
93	0xbd4577fe	-0.048210137
94	0xbd20edc0	-0.039289236
95	0xbd27c5fc	-0.040960297
96	0x3de94e7d	0.113919236
97	0x3e5c513b	0.21515362
98	0x3d376dd6	0.044782482
99	0x3ebbb739	0.36663225
100	0x3dc2e1c7	0.0951572
101	0x3c171dab	0.009223382
102	0xbd8724df	-0.065988295
103	0x3e172d46	0.14763364
104	0x3e22b141	0.1588793
105	0x3e2caae8	0.1686207
106	0x3e80ffb0	0.25195074
107	0x3e61fb78	0.22068584
108	0x3c94c962	0.018162433
109	0xbd651823	-0.05593122
110	0x3d6ff4c9	0.058583055
111	0xbda5d433	-0.080971144
112	0xbe7f558a	-0.24934974
113	0x3eba5fbb	0.36401162
114	0x3f2bc896	0.67102945
115	0x3d388b75	0.04505487
116	0xbe25aee1	-0.16179992
117	0x3ca69e70	0.02033922
118	0xbcf938e5	-0.030422637
119	0x3da72264	0.08160856
120	0x3cbebbaa	0.023282845
121	0x3e2181a8	0.15772116
122	0x3e13bcaa	0.14427438
123	0x3e12df3c	0.1434297
124	0xbe867e79	-0.26268366
125	0x3d9f506e	0.077790126
126	0x3edabca5	0.4272205
127	0x3ba19697	0.004931282

policy_net.lstm.weight_ih_l1 f4 [128, 32]
0	0x3eeb61bf	0.45973012
1	0xbeaf3ea7	-0.34227487
2	0x3e4b329d	0.19843526
3	0x3e6ed6f1	0.23324181
4	0x3ed48762	0.4150954
5	0x3f02b376	0.51055086
6	0x3e40c89e	0.1882653
7	0x3e45caee	0.19315693
8	0x3e953c0d	0.29147378
9	0xbf1a4a1e	-0.60269344
10	0xbe0805d8	-0.13283479
11	0x3e2ab106	0.16669092
12	0x3c0f758a	0.008756051
13	0x3e50d7bd	0.20394798
14	0x3ec1fc7b	0.3788794
15	0x3ec4defb	0.3845137
16	0x3e8a7cd5	0.27048364
17	0x3e9552fa	0.2916487
18	0x3d82be2a	0.06383927
19	0x3f4fe4fd	0.81208783
20	0x3e474f57	0.1946386
21	0x3e57ee09	0.21086897
22	0x3f0f41e5	0.5595992
23	0x3e91c757	0.28472397
24	0xbe2e76d5	-0.17037518
25	0x3e1c67a7	0.15273915
26	0x3ea4622f	0.32106158
27	0x3e083951	0.13303114
28	0x3ea52ef1	0.32262376
29	0x3eabbc64	0.33542168
30	0xbd847934	-0.0646843
31	0x3df598f3	0.119920634
32	0x3dbb725f	0.09152674
33	0x3e152738	0.14565742
34	0x3e026482	0.12733653
35	0x3e02687d	0.12735172
36	0x3d3ea227	0.04654136
37	0x3e99b8d7	0.30023834
38	0x3e84b057	0.25915787
39	0xbd5302f2	-0.05151648
40	0x3cc32148	0.02381958
41	0xbe958929	-0.29206207
42	0x3e65d042	0.22442725
43	0xbe61bd21	-0.22044803
44	0x3de709e9	0.11281187
45	0xbe4376d3	-0.19088297
46	0xbd295768	-0.041343123
47	0xbd2e07f2	-0.042488046
48	0x3e95a026	0.29223746
49	0x3ead9783	0.33904657
50	0x3f144ade	0.5792674
51	0x3ed3889c	0.41315162
52	0xbc789aa7	-0.015173591
53	0xbd2a64a3	-0.04159988
54	0x3e683720	0.22677279
55	0x3e00a780	0.12563896
56	0x3e8fe466	0.28103942
57	0x3dd3901a	0.103302196
58	0x3e36469c	0.17800373
59	0x3d7a6cfe	0.0611391
60	0xbcb2f30b	-0.021844408
61	0x3ee15f26	0.44017905
62	0xbe2a2724	-0.16616493
63	0x3e6e7538	0.23286903
64	0x3e80efd0	0.25182962
65	0x3d20061f	0.039068338
66	0xbcdc3236	-0.026879411
67	0xbe5f3c55	-0.21800359
68	0xbe63f33c	-0.22260755
69	0xbdaa17b9	-0.08305306
70	0xbeb10fb8	-0.34582305
71	0xbdd8f6eb	-0.10593971
72	0xbe5303bb	-0.20606892
73	0xbda6e02b	-0.081482254
74	0xbe125b37	-0.14292608
75	0xba8884d1	-0.0010415559
76	0xbe0f57b7	-0.13998304
77	0xbd954d56	-0.07290141
78	0xbd3d32f4	-0.04619117
79	0xbe01cea7	-0.12676488
80	0xbe263672	-0.16231707
81	0xbebcc1c8	-0.36866593
82	0xbedb9d9d	-0.42893687
83	0xbdff0695	-0.12452427
84	0x3e1af39e	0.15131995
85	0xbd234743	-0.039862882
86	0xbe2b7546	-0.16743955
87	0x3bc24cf5	0.005929584
88	0xbde89379	-0.11356253
89	0xbd83cc0e	-0.06435405
90	0xbe31632b	-0.17322986
91	0x3e2cdffb	0.16882317
92	0xbd94800a	-0.07250984
93	0xbe896848	-0.26837373
94	0x3db4fd93	0.08837428
95	0x3d7603de	0.06006228
96	0x3e1c004d	0.1523449
97	0xbd1aeffd	-0.037826527
98	0x3e1642e3	0.14673953
99	0xbdee505a	-0.116364196
100	0x3e85548b	0.26041064
101	0x3d607ec0	0.05480838
102	0x3eb5e6d8	0.35527682
103	0x3c8a3ce6	0.016874742
104	0x3da510b3	0.08059826
105	0xbe18d58d	-0.14925213
106	0xbe4a8db6	-0.19780621
107	0x3e0121a6	0.12610492
108	0x3eb84fb3	0.35998306
109	0x3d6f2531	0.058385078
110	0xbde27b87	-0.11058717
111	0x3e16bd68	0.1472069
112	0x3e4d4355	0.20045216
113	0x3ef8ff49	0.48632267
114	0x3eac5c58	0.33664203
115	0x3eef3a1f	0.4672403
116	0x3e593bb1	0.21214177
117	0x3dd756dc	0.10514614
118	0x3e88e52a	0.26737338
119	0x3d311b2b	0.0432388
120	0xbe13d099	-0.14435042
121	0x3cbdce7a	0.023169745
122	0x3e8c92f4	0.27455866
123	0x3dc23742	0.09483196
124	0xbe001fc7	-0.12512122
125	0x3e91c54f	0.28470847
126	0xbd83423e	-0.06409119
127	0x3cae3f78	0.021270499
128	0x3eb94d7f	0.36191937
129	0xbd776deb	-0.06040756
130	0x3e23c284	0.1599217
131	0xbe0eb06e	-0.1393449
132	0x3caf78ea	0.021419961
133	0x3e0ca5c9	0.13735117
134	0x3e16a7a3	0.14712386
135	0x3d69645d	0.05698048
136	0xbdefad71	-0.11703003
137	0xbe781fb1	-0.2423084
138	0x3af26659	0.0018493637
139	0x3e659596	0.22420344
140	0x3d9551fb	0.07291027
141	0x3e059982	0.1304684
142	0x3dec37b0	0.11534059
143	0x3ce27679	0.027644383
144	0x3e764fd0	0.24053884
145	0x3c82e42f	0.015977947
146	0xbcf4d94c	-0.029888771
147	0x3e977a97	0.29585716
148	0x3dd893d0	0.10575068
149	0xbd79a95c	-0.06095253
150	0x3de1e900	0.11030769
151	0xbdb4f308	-0.08835417
152	0xbe7238c0	-0.23654461
153	0x3d1b6b04	0.037943855
154	0x3d7375d6	0.05943855
155	0xbd2a25e5	-0.041540045
156	0x3e16aa01	0.14713289
157	0x3e7e3863	0.24826197
158	0x3e6b5a2c	0.22983617
159	0x3d124e93	0.035719465
160	0xbe36522a	-0.1780478
161	0x3ea32665	0.3186523
162	0x3e6f3dfb	0.23363487
163	0x3e400ada	0.1875414
164	0x3e852d9c	0.2601136
165	0x3e783565	0.24239118
166	0x3e210f89	0.15728582
167	0xbd1def56	-0.038558327
168	0x3deb1b0c	0.11479768
169	0x3c33b7c9	0.010969111
170	0x3eb249e1	0.3482199
171	0xbe106aa5	-0.14103182
172	0x3e1358a0	0.14389277
173	0x3ca61845	0.020275244
174	0x3ca882ca	0.020570178
175	0xbe1778aa	-0.14792123
176	0xbd0c1add	-0.034205306
177	0x3e15ab7b	0.14616196
178	0x3ea963fc	0.33084095
179	0x3da73e85	0.081662215
180	0xbe54e924	-0.20792061
181	0xbcd3bef1	-0.025847884
182	0xbd7d1e9f	-0.06179678
183	0x3d1eccfe	0.038769715
184	0x3edd887d	0.43268195
185	0x3da435e8	0.08018094
186	0xbd5a3624	-0.05327429
187	0xbdc07278	-0.09396833
188	0x3be148bf	0.006875127
189	0x3e6990b0	0.228091
190	0xbea92db2	-0.33042675
191	0x3c8ae98c	0.016957067
192	0xbea68b2b	-0.32528052
193	0x3ea61986	0.32441348
194	0x3d0fcb57	0.03510603
195	0x3e530b84	0.20609862
196	0x3e45cbab	0.19315974
197	0x3dc41135	0.095735945
198	0x3e86f785	0.26360717
199	0xbe57a978	-0.21060741
200	0x3e165700	0.14681625
201	0x3e50ccda	0.20390645
202	0x3ecc97f2	0.39959675
203	0xbe95745c	-0.29190338
204	0x3e7f35d7	0.24922882
205	0xbe1ea318	-0.15491903
206	0xbd0cca51	-0.03437263
207	0xbe8a5856	-0.2702052
208	0x3de35c9e	0.1110165
209	0x3e2c7381	0.16840936
210	0x3eecd809	0.46258572
211	0x3d3a0313	0.045413088
212	0x3d9d0f5b	0.076689444
213	0x3d767d23	0.060177933
214	0xbd850df2	-0.064968005
215	0xbce7d731	-0.028300853
216	0x3e3e2e9f	0.18572472
217	0x3e96f6db	0.2948521
218	0xbdaedc05	-0.08538059
219	0xbe3fee77	-0.18743311
220	0x3d0982fe	0.03357219
221	0x3da927bf	0.08259534
222	0xbd012513	-0.031529497
223	0x3df1fe77	0.118161134
224	0xbe4304ff	-0.19044875
225	0x3e5a8d5f	0.21342991
226	0x3e28f7a3	0.16500716
227	0x3db2fe1d	0.087398745
228	0x3dd6f501	0.104959495
229	0x3e1e67bd	0.1546926
230	0xbc1169bf	-0.0088753095
231	0xbe8e7307	-0.27822134
232	0xbe3b35a2	-0.18282178
233	0xbd85eefb	-0.065397225
234	0x3afb7b0c	0.0019186451
235	0x3dccc340	0.099981785
236	0x3e56d0e9	0.2097813
237	0xbd2dd0a5	-0.042435307
238	0xbda7af99	-0.081877895
239	0xbd133b83	-0.035945427
240	0xbddea762	-0.108717695
241	0x3d3a58d1	0.04549486
242	0x3ed9fb80	0.42574692
243	0x3e5a7856	0.21334967
244	0xbe148d99	-0.1450714
245	0xbd6e01ce	-0.05810719
246	0x3daea0f7	0.08526795
247	0xbd5ae4f5	-0.053441007
248	0x3e8c6d8b	0.27427325
249	0x3e9aab73	0.3020893
250	0xbd35993b	-0.044335585
251	0xbe679311	-0.22614695
252	0xbdb61584	-0.088908225
253	0x3df30441	0.11866046
254	0xbde2d295	-0.110753216
255	0xbda9cdb9	-0.082911916

policy_net.lstm.weight_hh_l1 f4 [128, 32]
0	0xbdbda593	-0.092600964
1	0x3e395607	0.18099223
2	0x3b98194e	0.0046416884
3	0xbe8dc4cf	-0.27689216
4	0xbde2b917	-0.11070459
5	0x3e331bfb	0.17491142
6	0x3e8e93fd	0.2784728
7	0xbe839495	-0.25699297
8	0xbe69df06	-0.22838983
9	0x3e9fd219	0.3121498
10	0xbe58ba17	-0.21164738
11	0x3e4114df	0.18855618
12	0xbe630833	-0.22171097
13	0xbe7a5156	-0.2444509
14	0x3d93b291	0.07211793
15	0x3e10197f	0.14072226
16	0x3db3448c	0.08753309
17	0xbdc24c2c	-0.09487185
18	0xbe54e0b8	-0.20788848
19	0xbe443dd2	-0.19164208
20	0xbe3ceabd	-0.1844892
21	0x3dc69dff	0.09698104
22	0x3cb2ec9d	0.021841342
23	0x3d5b3370	0.05351585
24	0xbe99fcf6	-0.30075806
25	0x3e9db6af	0.3080344
26	0x3c229a84	0.009924535
27	0x3e2bb7ef	0.16769384
28	0x3c15bafb	0.009138818
29	0x3e6c5356	0.23078665
30	0xbe114c6b	-0.14189307
31	0xbe61aee5	-0.22039373
32	0xbdeb1172	-0.11477937
33	0xbe4b4e2e	-0.19854042
34	0x3dcb5ceb	0.09929832
35	0x3e0d3ddb	0.13793127
36	0x3db89654	0.09013048
37	0x3de2a0ba	0.110658124
38	0xbe4c1884	-0.19931227
39	0xbdadb30b	-0.08481415
40	0x3d2b856d	0.04187529
41	0x3e0cf7b7	0.1376637
42	0x3d9aad88	0.0755263
43	0x3e4ef5f3	0.2021101
44	0xbe14971f	-0.14510773
45	0x3de82c3c	0.11336562
46	0x3d914ff3	0.07095327
47	0x3d0dd784	0.03462936
48	0xbcb10d5b	-0.021612814
49	0x3e24f7f9	0.16110219
50	0xbcf33238	-0.029687032
51	0x3d4151d5	0.04719718
52	0x3e4e4ae1	0.20145752
53	0xbd9088e9	-0.070573635
54	0x3e05a1be	0.13049981
55	0x3d33b3b3	0.043872546
56	0x3da01bdb	0.07817813
57	0x3deb99d8	0.11503953
58	0xbadf03d5	-0.0017014692
59	0x3df0a892	0.11750902
60	0x3e1d5276	0.15363488
61	0xbdd475de	-0.10374044
62	0x3d949005	0.07254032
63	0xbd8ac84f	-0.06776487
64	0x3e8066cb	0.25078425
65	0xbda9bafb	-0.08287617
66	0xbd7b324c	-0.061327264
67	0x3ddb4673	0.107067965
68	0x3e194b06	0.14970025
69	0x3ddec4b2	0.108773604
70	0x3d2ebf2e	0.042662792
71	0x3e49e719	0.19717063
72	0x3e0420cf	0.1290314
73	0xbdc2b7bd	-0.095077015
74	0x3e55cd62	0.20879129
75	0xbdc68d12	-0.09694876
76	0x3e3faf9c	0.18719333
77	0x3d175c01	0.036952976
78	0xbdd3cad2	-0.10341419
79	0xbe3acb57	-0.1824163
80	0x3d8cb7f1	0.068710215
81	0xbe392377	-0.18079935
82	0xbe11db82	-0.14243892
83	0x3befeba6	0.0073217927
84	0x3dc7435f	0.09729647
85	0xbe438bb1	-0.19096257
86	0xbd7ea4ab	-0.06216876
87	0x3d4b271a	0.049597837
88	0x3dd143a3	0.10217979
89	0xbcbd144a	-0.023080964
90	0x3e1ee078	0.15515316
91	0xbd496850	-0.049171746
92	0x3dfa057b	0.122080766
93	0x3d6c0e1c	0.057630643
94	0xbd6b9472	-0.057514615
95	0x3dfe2f09	0.12411315
96	0xbe236438	-0.15956199
97	0xbe1ebabd	-0.15500923
98	0xbe053fb0	-0.13012576
99	0xbe199ef2	-0.15002039
100	0x3dea7e0d	0.114498235
101	0xbe342402	-0.17591861
102	0x3d7f0ebc	0.06226991
103	0xbde3ee15	-0.11129395
104	0x3dd59d12	0.104303494
105	0x3e2f1873	0.1709917
106	0x3c377d18	0.011199258
107	0x3db4f8a1	0.08836485
108	0xbe2ac8f1	-0.16678216
109	0xbd4db44d	-0.050220776
110	0xbe1fa0e8	-0.15588725
111	0x3d00d7d8	0.031455845
112	0x3d10c73e	0.035346262
113	0x3e16bc28	0.14720213
114	0x3d767452	0.060169525
115	0x3e4bebde	0.19914195
116	0x3de4d6e3	0.11173799
117	0x3dafa7ca	0.08576925
118	0xbe6bca5f	-0.23026417
119	0x3e0ab1b1	0.13544346
120	0x3e1e38e5	0.15451391
121	0xbdd5bada	-0.1043603
122	0x3ce86a55	0.028371016
123	0x3e03c935	0.12869723
124	0x3e82be3b	0.2553576
125	0xbdda503a	-0.10659833
126	0xbe08bb4d	-0.133527
127	0xbe6c21c8	-0.23059762
128	0xbe1cbf06	-0.15307245
129	0x3e0de6f6	0.13857636
130	0x3d706ce4	0.058697596
131	0xbe2acc2e	-0.16679451
132	0x3e279591	0.16365649
133	0x3d70f43f	0.05882668
134	0x3dd68753	0.1047503
135	0xbd048467	-0.03235283
136	0xbda117e2	-0.078658834
137	0x3cf6879f	0.030093966
138	0xbcd8e30c	-0.026475452
139	0x3b2b3314	0.0026122974
140	0x3e20089b	0.15628283
141	0xbc0d024d	-0.008606506
142	0xbd1d7966	-0.038445853
143	0x3e229cad	0.1588008
144	0xbdb28fbe	-0.08718823
145	0x3c2e9a14	0.010656852
146	0x3e7f9655	0.24959691
147	0xbe13bd00	-0.14427567
148	0x3e422498	0.18959272
149	0x3db4e3d7	0.088325195
150	0x3d20c5d9	0.039251182
151	0xbdf0bcb7	-0.117547445
152	0x3d6808f3	0.05664916
153	0x3de662a1	0.11249281
154	0x3e4c4d58	0.1995138
155	0x3db244a4	0.087044984
156	0x3bb4adbf	0.005513876
157	0x3e321667	0.17391358
158	0xbdb5cd69	-0.088770695
159	0xbe018487	-0.12648211
160	0xbe75fad4	-0.24021465
161	0xbcef6be9	-0.02922626
162	0xbde6d45a	-0.112709716
163	0x3c1375b8	0.009000234
164	0xbe6e0923	-0.23245673
165	0xbe4e62e9	-0.20154919
166	0xbd29b97a	-0.04143665
167	0x3e14fa84	0.14548689
168	0x3d7a0c07	0.061046626
169	0x3d594b9b	0.05305062
170	0x3cda5b5d	0.026654894
171	0xbd8e3af6	-0.0694484
172	0xbe3d2354	-0.18470508
173	0xbd7a8af4	-0.061167672
174	0xbe76dec4	-0.24108416
175	0x3e4c4a14	0.19950134
176	0x3deb6e00	0.1149559
177	0x3dbf8275	0.093510546
178	0xbde9dd2d	-0.11419139
179	0xbd7271a7	-0.05919042
180	0x3e550d23	0.20805793
181	0xbd8a02db	-0.06738826
182	0xbe93c038	-0.2885759
183	0x3e6fdb03	0.2342339
184	0xbd50f2c3	-0.051012766
185	0x3e108148	0.14111817
186	0x3e3b21dd	0.18274637
187	0x3e5811a1	0.21100475
188	0xbd355398	-0.044269174
189	0x3e3d91a1	0.18512584
190	0xbe13c500	-0.14430618
191	0x3dd4ce8c	0.10390958
192	0xbea160d8	-0.31519198
193	0xbe661e56	-0.2247251
194	0x3d825d7f	0.06365489
195	0x3dc59b24	0.09648731
196	0x3d8bc1d8	0.06824082
197	0xbd712538	-0.058873385
198	0xbd61dea1	-0.055143956
199	0x3cfa10f1	0.030525656
200	0xbd81b9f0	-0.06334293
201	0xbd64c727	-0.05585399
202	0xbe0f6f3d	-0.14007278
203	0xbe105432	-0.14094618
204	0xbd45e13f	-0.048310515
205	0x3e2c35b3	0.1681736
206	0xbe187dd8	-0.14891756
207	0xbcf56c2b	-0.029958805
208	0xbdd53be4	-0.10411814
209	0x3e1d2421	0.15345813
210	0x3cc7bedc	0.024383001
211	0xbdd99702	-0.106245056
212	0x3ccaebf6	0.024770718
213	0xbd79bc97	-0.06097087
214	0x3c4a7f69	0.0123594785
215	0x3d97f856	0.07420413
216	0xbdba0595	-0.09083096
217	0x3dcdb36e	0.10043989
218	0x3e07cb66	0.13261184
219	0x3dced6fd	0.100995995
220	0x3d513a32	0.05108089
221	0x3d83bb1e	0.06432174
222	0xbe72b791	-0.23702838
223	0x3c88b4b8	0.016687736
224	0xbda89f3f	-0.08233499
225	0xbe91fc5b	-0.28512844
226	0x3d2ec017	0.04266366
227	0xbdd370f8	-0.103242815
228	0xbe1edee2	-0.1551471
229	0xbd599a13	-0.053125452
230	0xbe05f64d	-0.13082238
231	0x3ccbd491	0.024881633
232	0x3cb4d4eb	0.022074183
233	0xbd2632e2	-0.04057587
234	0xbc8713d6	-0.01648895
235	0xbe476a54	-0.19474155
236	0xbe0fcf75	-0.14043982
237	0xbd78bda4	-0.06072773
238	0x3c415a4e	0.0118013155
239	0xbd856f41	-0.065153606
240	0x3c01b4a3	0.007916602
241	0xbcd6f758	-0.02624099
242	0x3e6c62c6	0.23084554
243	0x3dd12b47	0.102133326
244	0x3e091354	0.1338628
245	0xbd153da0	-0.036435723
246	0x3d1e00bc	0.03857492
247	0x3e0d6cee	0.13811085
248	0x3ce49ef7	0.027907832
249	0x3aabb627	0.001310055
250	0x3d2a8484	0.041630283
251	0xbd0fc2ac	-0.035097763
252	0x3c1e697c	0.009668704
253	0x3df9c428	0.12195617
254	0x3db4fc82	0.088372245
255	0xbe106e32	-0.14104536

policy_net.lstm.bias_ih_l1 f4 [128]
0	0x3e61b586	0.22041902
1	0x3d881c69	0.06646044
2	0x3db83d73	0.089960955
3	0x3de58f47	0.112089686
4	0xbbb1770a	-0.005415802
5	0x3e18e099	0.14929427
6	0xbd0e8a0c	-0.03479962
7	0xbdd470ce	-0.10373078
8	0x3e0ed602	0.13948825
9	0x3df601a5	0.120120324
10	0x3d77973b	0.06044696
11	0x3f05184c	0.519902
12	0x3e682ddd	0.22673745
13	0xbe14b72c	-0.14523
14	0x3c01967a	0.007909412
15	0xbd4fb03c	-0.05070518
16	0x3d8558fd	0.06511114
17	0x3e915c0a	0.28390533
18	0x3cb0e48f	0.02159336
19	0x3e177c1a	0.14793435
20	0x3e80af42	0.2513371
21	0x3d462970	0.04837936
22	0x3c80d477	0.015726311
23	0x3f140565	0.5782073
24	0x3cc16b7b	0.023610821
25	0x3dfd7942	0.12376644
26	0x3abf9726	0.0014617189
27	0xbe240490	-0.16017365
28	0xbd902db1	-0.07039965
29	0x3e5b469b	0.21413653
30	0x3e87b5f5	0.2650601
31	0x3e851e72	0.2599979
32	0xbe93f70c	-0.2889942
33	0x3d890878	0.066910684
34	0xbe90801c	-0.2822274
35	0xbcda902a	-0.02668007
36	0xbe4b5067	-0.1985489
37	0xbe11cd1e	-0.14238402
38	0xbdd56ddb	-0.10421344
39	0x3d873f63	0.06603887
40	0xbe78da47	-0.24302016
41	0xbe20602e	-0.1566169
42	0x3de23d76	0.11046879
43	0xbeddef4e	-0.43346637
44	0xbe497a88	-0.19675648
45	0xbe592c6e	-0.21208355
46	0xbe770339	-0.24122323
47	0xbe2eaf1b	-0.17058985
48	0x3d2908f2	0.041268297
49	0x3c6144da	0.013749326
50	0xbdb50f35	-0.08840791
51	0xbcdb830c	-0.026795886
52	0xbe7efacf	-0.24900363
53	0x3d49e404	0.04928972
54	0xbd92fad1	-0.07176746
55	0xbef00145	-0.4687597
56	0x3e021b0a	0.12705627
57	0xbdd002f8	-0.10156816
58	0xbe9ac2fb	-0.30226883
59	0xbe7edd19	-0.2488903
60	0x3de6c572	0.112681285
61	0xbe434ad2	-0.1907151
62	0xbd6f9029	-0.05848709
63	0xbe524fc0	-0.20538235
64	0xbe0f5dd7	-0.14000641
65	0xbd821203	-0.06351092
66	0xbc4aab65	-0.012369965
67	0x3c9e4a35	0.019322494
68	0xbdcbe1d8	-0.09955186
69	0xbdbdbcb0	-0.09264505
70	0xbdca1914	-0.098680645
71	0xbdb4f7dd	-0.08836339
72	0xbdc70e5f	-0.09719538
73	0xbd7848ed	-0.060616422
74	0xbe13625d	-0.14392991
75	0xbd9f05b5	-0.077647604
76	0x3da8ecf7	0.082483225
77	0xbc998ad9	-0.018742966
78	0x3e1fe2a4	0.156138
79	0xbe1a9449	-0.15095629
80	0xbdc54b91	-0.09633554
81	0x3e0c4de8	0.13701594
82	0xbda06816	-0.07832353
83	0xbe000a37	-0.12503897
84	0x3e16b4a5	0.14717348
85	0x3dbecb7f	0.093161575
86	0x3dd27a12	0.10277189
87	0x3dbd0697	0.092297725
88	0x3cbad9e0	0.022808969
89	0x3db8295d	0.089922644
90	0x3d81ddd0	0.063411355
91	0xbd2e7507	-0.042592075
92	0xbd8b989c	-0.06816217
93	0x3dc9c9bc	0.09852931
94	0x3c4a4f16	0.012347957
95	0xbb464cbe	-0.0030258144
96	0x3ed88fce	0.42297214
97	0xbd07295d	-0.03299843
98	0xbe08d2a2	-0.133616
99	0xbd8ea0b8	-0.069642484
100	0x3db7db45	0.08977369
101	0xbdb3aa22	-0.08772685
102	0x3c465bbc	0.012106832
103	0xbe310401	-0.17286684
104	0x3e77da50	0.24204373
105	0x3e9cb324	0.30605423
106	0x3c2b90db	0.010471548
107	0x3f12e19e	0.57375515
108	0xbbc38a6e	-0.00596743
109	0xbe37381d	-0.178925
110	0x3dd60ffc	0.104522675
111	0x3e567adb	0.20945303
112	0xbd1cadd7	-0.038251724
113	0x3cb436f0	0.021998852
114	0xbd4b405b	-0.04962192
115	0xbd82c15f	-0.06384539
116	0x3cff25f5	0.031146029
117	0x3e033ae9	0.12815441
118	0x3e7580da	0.23974934
119	0x3f3f684b	0.74768513
120	0xbe36199f	-0.17783211
121	0xbde25947	-0.110521846
122	0x3e1768a9	0.14786018
123	0xbd20c6d2	-0.03925211
124	0xbde67876	-0.11253445
125	0x3c8896f6	0.016673546
126	0x3e7f9e66	0.24962768
127	0xbd370c17	-0.044689264

policy_net.lstm.bias_hh_l1 f4 [128]
0	0x3eb5e5aa	0.35526782
1	0x3da83007	0.082122855
2	0xbbc63511	-0.0060488065
3	0xbdee0cda	-0.11623545
4	0x3e576737	0.21035467
5	0x3bb899d5	0.0056335726
6	0x3e014f8c	0.12628001
7	0xbe1eb965	-0.1550041
8	0x3e3b161c	0.18270153
9	0x3ea4a497	0.32156822
10	0xbdff5757	-0.12467831
11	0x3eacafa6	0.3372776
12	0x3e59eae1	0.21281005
13	0xba9f263c	-0.0012142132
14	0x3e9d7837	0.3075578
15	0x3d9d6645	0.07685522
16	0x3d66790b	0.05626778
17	0x3e6498fe	0.22323987
18	0x3d778422	0.060428746
19	0x3e1ecfb1	0.15508915
20	0xbd265f3f	-0.040618178
21	0xbdb8c9e8	-0.090228856
22	0x3e3f560d	0.1868517
23	0x3efc6179	0.49293116
24	0xbddf9682	-0.10917379
25	0xbd38de43	-0.04513384
26	0xbc43717f	-0.011928915
27	0xbdeb9b88	-0.115042746
28	0x3d0b7b77	0.034053292
29	0x3e4fb781	0.20284845
30	0x3e167fc6	0.14697179
31	0x3e6d6646	0.23183545
32	0xbe1e2fa7	-0.15447865
33	0x3cd582a9	0.02606328
34	0xbe4a9b3a	-0.19785777
35	0xbcc04869	-0.023472028
36	0xbda5a5fb	-0.08088299
37	0xbd8d4e6e	-0.06899725
38	0x3d92f54b	0.07175692
39	0xbe6ef48d	-0.23335476
40	0xbdaac1eb	-0.08337768
41	0x3970499c	0.00022915605
42	0xbe1d9773	-0.15389805
43	0xbef5b87a	-0.47992307
44	0xbe2861ae	-0.16443512
45	0x3d4063a4	0.046970025
46	0xbeac6222	-0.3366862
47	0xbe4158ba	-0.18881503
48	0xbe644a99	-0.22294082
49	0x3d18945f	0.037250873
50	0xbd1f7ff3	-0.03894038
51	0x3d107df2	0.03527636
52	0xbddeca1a	-0.108783916
53	0x3db06b38	0.086142
54	0xbdf583d0	-0.11988032
55	0xbe79f3a0	-0.24409342
56	0x3d74e958	0.059792846
57	0xbd4f053d	-0.050542105
58	0xbe76f2bb	-0.24116032
59	0xbe1932c5	-0.14960773
60	0xbdecad86	-0.115565345
61	0xbe834377	-0.2563741
62	0xbd51a7b7	-0.051185336
63	0xbe8addb1	-0.27122262
64	0x3e38ee26	0.18059596
65	0x3e4151be	0.18878838
66	0x3c07b34d	0.008282495
67	0xbd783a7a	-0.060602643
68	0x3d548c51	0.05189163
69	0x3e1e0a5d	0.15433641
70	0x3de645e0	0.11243796
71	0xbda61b14	-0.081106335
72	0x3cad4bb6	0.021154266
73	0x3e0e0f59	0.13873042
74	0xbdf848db	-0.12123271
75	0x3e0662bb	0.131236
76	0xbdeffede	-0.11718534
77	0xbdbfef93	-0.09371867
78	0xbe01cc02	-0.12675479
79	0x3e24047b	0.16017334
80	0xbcd5fb99	-0.026120948
81	0xbe24b88e	-0.16086027
82	0xbd2f7776	-0.042838536
83	0xbde55926	-0.11198644
84	0xbdd37593	-0.1032516
85	0x3b6034cb	0.0034211155
86	0xbde5f8bb	-0.11229082
87	0x3b9f3f5f	0.0048598493
88	0xbc08815f	-0.008331626
89	0xbd71c050	-0.059021294
90	0xbdfaf338	-0.122534215
91	0x3e1801d2	0.14844444
92	0xbdaca3d6	-0.08429687
93	0x3b420f4f	0.0029611175
94	0xbd9b7e42	-0.07592441
95	0xbd8e019f	-0.06933903
96	0x3ed5d302	0.4176255
97	0x3df0596e	0.11735807
98	0x3d190c3f	0.037365194
99	0x3dafef06	0.08590512
100	0x3d23a745	0.039954443
101	0x3c8d00fa	0.01721238
102	0x3e398c3b	0.181199
103	0x3accbdb4	0.0015620501
104	0x3d2b3d07	0.041806247
105	0x3ddbb639	0.107281156
106	0xbdc944d0	-0.09827578
107	0x3ed802ca	0.42189628
108	0x3e19b419	0.15010108
109	0x3d755d7b	0.059903603
110	0x3df91ac6	0.1216331
111	0x3e2d4503	0.16920857
112	0x3e2ea079	0.17053403
113	0x3de0b6da	0.10972376
114	0x3d926368	0.071478665
115	0x3e62a442	0.22132972
116	0x3dd5d389	0.10440738
117	0x3cf79aa6	0.03022511
118	0x3e8e6942	0.2781468
119	0x3f307eeb	0.6894366
120	0xbe0bc2c8	-0.13648522
121	0x3de0207c	0.10943696
122	0x3c8e0a5e	0.017338928
123	0x3dd100c0	0.10205221
124	0x3cd6b81c	0.026210837
125	0xbdf988f8	-0.12184328
126	0x3e21294f	0.15738414
127	0x3e36f7d5	0.17867978

policy_net.dense1.weight f4 [8, 32]
0	0xbed158b0	-0.40887976
1	0xbe97ddb7	-0.29661343
2	0x3e23654b	0.15956609
3	0xbdee9ea8	-0.11651355
4	0xbe12b8f2	-0.14328364
5	0xbe293d3e	-0.16527268
6	0xbe0e9ea6	-0.13927707
7	0xbdae51b3	-0.08511677
8	0xbe7bb61a	-0.24581185
9	0x3dc6c6e4	0.09705904
10	0x3cd826ed	0.026385749
11	0x3ebf40a8	0.37354016
12	0xbe5abed8	-0.21361864
13	0x3e75a865	0.23990019
14	0xbd812d5d	-0.063074805
15	0xbd46fb62	-0.04857958
16	0x3df54c07	0.11977392
17	0x3e2b7606	0.16744241
18	0x3e62c6a8	0.22146094
19	0x3e7ded3e	0.24797532
20	0x3ea3f6af	0.32024142
21	0xbda0d93b	-0.078539334
22	0x3d5ff533	0.0546772
23	0xbef87749	-0.48528507
24	0xbcf97e31	-0.03045568
25	0x3e4c7877	0.19967829
26	0x3df21bdb	0.11821719
27	0xbda826aa	-0.082104996
28	0x3e869f24	0.2629329
29	0xbcd914a0	-0.026499093
30	0x3e6bd290	0.23029542
31	0x3e4699b7	0.19394575
32	0x3e8a45a4	0.27006257
33	0x3dc3434e	0.09534322
34	0x3d3391ed	0.043840338
35	0x3e30913a	0.172429
36	0x3dba4434	0.0909504
37	0x3e0f7026	0.14007625
38	0x3e605876	0.21908745
39	0xbe385a00	-0.18003082
40	0x3dda660a	0.10663994
41	0xbe58cc6f	-0.21171735
42	0x3d57d3ec	0.05269234
43	0xbc8cf3a2	-0.017206017
44	0xbd87912e	-0.06619488
45	0xbd6b974f	-0.057517346
46	0x3e88e3c6	0.26736277
47	0x3dbc6366	0.09198646
48	0xbdc0e8bf	-0.09419393
49	0xbe8a0d8d	-0.26963463
50	0x3ab5421a	0.0013828904
51	0xbe0bc06d	-0.13647623
52	0xbe0df408	-0.13862622
53	0xbe0d02d5	-0.13770612
54	0xbbf43363	-0.007452415
55	0x3d9c8d8d	0.07644186
56	0xbc82ba12	-0.015957866
57	0xbe201daf	-0.15636323
58	0x3dca4f8e	0.09878455
59	0xbdcad2f0	-0.099035144
60	0xbc44623b	-0.011986311
61	0xbe43c510	-0.19118142
62	0xbd99bdc9	-0.07506902
63	0x3e051eaf	0.12999986
64	0x3eb95d7a	0.3620413
65	0xbcc377e0	-0.023860872
66	0xbc464d70	-0.0121034235
67	0xbc9e3c60	-0.019315898
68	0x3eacc96a	0.33747417
69	0x3d17d380	0.037066936
70	0xbc1af2b6	-0.009457281
71	0x3d915307	0.07095914
72	0x3da8cc0e	0.08242045
73	0xbe8a4429	-0.27005127
74	0x3e430f6a	0.19048849
75	0xbe9169a2	-0.28400904
76	0x3ea6031c	0.32424247
77	0x3db1fcd3	0.086908005
78	0x3dc3623f	0.09540223
79	0x3ddd6feb	0.10812362
80	0xbe9772c2	-0.2957974
81	0xbeabf9fe	-0.33589166
82	0xbe95a9f3	-0.29231223
83	0xbb03ca04	-0.0020109424
84	0xbe444907	-0.19168483
85	0x3d98f772	0.074690714
86	0xbd78326d	-0.060594965
87	0x3f0f95ad	0.5608776
88	0x3db0f5c7	0.08640628
89	0xbe385a4d	-0.18003197
90	0xbe030d9a	-0.12798157
91	0xbe2564bd	-0.1615171
92	0xbe10a577	-0.1412562
93	0xbdb4c160	-0.08825946
94	0xbec20c5a	-0.37900048
95	0xbccc7b45	-0.024961123
96	0xbe1a1e9f	-0.15050744
97	0x3e09a2f5	0.1344107
98	0xbdb43f42	-0.08801128
99	0xbd385bf9	-0.045009587
100	0xbdc651f2	-0.096835986
101	0xbe796818	-0.24356115
102	0xbe34a589	-0.17641272
103	0xbe15a4af	-0.14613603
104	0xbb2c1a3d	-0.0026260756
105	0x3e89481d	0.2681283
106	0xbdb6fb6b	-0.08934673
107	0x3c05ef62	0.008174749
108	0xbe5dfead	-0.21679182
109	0x3d9eeee8	0.077604115
110	0xbe61f3e1	-0.22065689
111	0x3de29ebb	0.11065432
112	0x3de69014	0.112579495
113	0x3e18b120	0.14911318
114	0x3e0227a7	0.12710439
115	0x3e14ac8a	0.14518943
116	0x3e6d71da	0.23187962
117	0x3e45b738	0.19308174
118	0xbea24736	-0.31694955
119	0x3e6a7a3a	0.22898188
120	0xbe19df22	-0.15026525
121	0xbd1344a7	-0.035954144
122	0xbc2f220b	-0.010689269
123	0x3de5680c	0.11201486
124	0x3cea950a	0.02863552
125	0x3e7ab355	0.24482472
126	0xbdd611c1	-0.10452605
127	0xbe827b6b	-0.25484785
128	0xbe6cf06e	-0.23138592
129	0xbd8e17c7	-0.06938129
130	0xbe2a5939	-0.16635598
131	0xbe7efd20	-0.24901247
132	0xbe3ebc45	-0.18626507
133	0xbe6e5ad9	-0.23276843
134	0xbde6db08	-0.11272246
135	0x3d8a9f65	0.06768683
136	0xbda4accc	-0.08040771
137	0x3e2482c9	0.16065516
138	0xbe27bf33	-0.1638153
139	0xbd779edf	-0.060454246
140	0xbe89e632	-0.26933438
141	0x3e26e665	0.16298826
142	0xbe8ddf69	-0.2770951
143	0x3e6a56aa	0.22884622
144	0x3d999459	0.07498998
145	0x3da5e438	0.0810017
146	0xbd47d29a	-0.04878483
147	0x3dbb4556	0.09144084
148	0x3dd32353	0.10309472
149	0x3e23c068	0.15991366
150	0xbc59e56d	-0.013299328
151	0x3e42ba0e	0.19016287
152	0xbe1a0f22	-0.15044835
153	0x3d891f7c	0.06695458
154	0x3e6a640b	0.22889726
155	0x3e129305	0.14313896
156	0x3e3577ff	0.17721556
157	0x3dea1b88	0.114310324
158	0xbe4ae103	-0.19812398
159	0x3cbbd5d9	0.022929119
160	0x3e5fe22a	0.21863618
161	0x3d1e042e	0.038578205
162	0xbe44afda	-0.19207707
163	0x3e0635a2	0.13106397
164	0x3dd44eaa	0.103665665
165	0x3e3797ec	0.17929047
166	0x3dc87641	0.0978818
167	0xbe145e1a	-0.14489022
168	0x3e73811e	0.23779723
169	0xbe99fe42	-0.30076796
170	0x3e6539a3	0.22385268
171	0xbdbd71a5	-0.092501916
172	0x3e87fb2d	0.2655882
173	0x3c27d631	0.010243938
174	0x3e1dbed1	0.15404822
175	0xbb2bcd0e	-0.0026214751
176	0xbd307d17	-0.043088045
177	0xbe6bdd54	-0.23033649
178	0xbe05b45f	-0.13057087
179	0xbe5a5271	-0.21320511
180	0xbd9f797e	-0.07786845
181	0xbc206346	-0.009789294
182	0x3e80d5f7	0.25163242
183	0x3e050d44	0.12993342
184	0xbcbffa3d	-0.023434753
185	0xbe560359	-0.20899715
186	0xbe4696dc	-0.19393486
187	0xbdfdbc86	-0.123894736
188	0xbde0d6fe	-0.109785065
189	0xbc848743	-0.016177779
190	0xbe3981a5	-0.18115862
191	0xbc6b4ec6	-0.014362043
192	0xbe2b2da5	-0.16716631
193	0x3ccf6938	0.025318727
194	0x3e8125f7	0.25224277
195	0xbe1ce575	-0.15321906
196	0xbda4c9bf	-0.080462925
197	0x3e959578	0.29215598
198	0x3de058ed	0.10954461
199	0xbd84a2b8	-0.06476349
200	0xbdc66f5f	-0.09689211
201	0x3deebd0e	0.11657153
202	0xbdf034e6	-0.117288396
203	0x3f2b5b26	0.66935956
204	0xbe349ece	-0.17638704
205	0x3e0395d5	0.12850125
206	0xbe450d0c	-0.19243258
207	0xbe44df6f	-0.19225858
208	0x3e2e7ee6	0.17040595
209	0x3ebf68b9	0.37384585
210	0x3e252e5b	0.16130964
211	0x3c92c441	0.017915847
212	0xbe7c708b	-0.24652307
213	0xbe220d0c	-0.1582529
214	0x3e25cb6f	0.16190885
215	0xbf3c6462	-0.7359067
216	0x3d4939f1	0.049127523
217	0xbc919274	-0.01777003
218	0xbe4269bc	-0.18985647
219	0xbde24a95	-0.11049382
220	0xbe177c93	-0.14793615
221	0xbd9759fc	-0.0739021
222	0x3ea27faa	0.31738025
223	0x3e8e804d	0.2783226
224	0x3eb723e4	0.3576957
225	0x3e6d86f6	0.23196015
226	0xbe0622e7	-0.13099252
227	0xbd068f16	-0.0328513
228	0xbcab7019	-0.020927476
229	0x3d52bfe5	0.051452536
230	0x3e002693	0.12514715
231	0xbe11f534	-0.14253694
232	0x3dfd5b59	0.12370939
233	0xbde4e363	-0.11176183
234	0x3e12d0c2	0.14337447
235	0x3dcc49a7	0.099749856
236	0x3e5af53f	0.21382616
237	0x3caf83be	0.021425124
238	0x3dc7f48c	0.097634405
239	0xbd98fc99	-0.07470054
240	0xbe0094a0	-0.12556696
241	0xbdef841b	-0.11695119
242	0xbe9403d5	-0.28909174
243	0xbdda900a	-0.106720045
244	0xbe9563bf	-0.29177663
245	0xbdb1f956	-0.08690135
246	0x3e80a8dd	0.25128832
247	0x3e28cbd0	0.16483998
248	0x3d91e0cd	0.071229555
249	0xbda3368f	-0.079693906
250	0xbe600759	-0.21877803
251	0xbc6c336f	-0.01441656
252	0xbddc42c2	-0.107549205
253	0xbdd8a1b6	-0.10577719
254	0xbdb00edb	-0.085965835
255	0x3e3e8fb2	0.18609503

policy_net.dense1.bias f4 [8]
0	0x3d6dc96d	0.058053423
1	0xbc370061	-0.011169524
2	0x3d91d364	0.07120398
3	0xbdaabcf3	-0.083368205
4	0xbc149dc3	-0.009070816
5	0x3cac582e	0.021038141
6	0xbdb02861	-0.08601452
7	0xbd82ccc6	-0.06386714
