trained_models/15_lag_ppo_InvertedPendulum-v2_eps_0.5_actor.pth (torch, 234044 bytes, 44 tensors)

policy_net.lstm.weight_ih_l0 f4 [128, 4]
00000000: 6a39 103b 3e49 a4bf a23a e13d f5aa 7dbe
00000010: ad5f 8dbe 9bf5 30bf adcb 58bd 3fff 7ebe
00000020: 9135 8fbd 416a a53f 8911 503d 25d7 c43e
00000030: 97b3 663e 5954 e7bd dd6d df3e fb4c d2bd
00000040: 7ebe 0e3e bff4 463f 3c31 a53d b5cf a73d
00000050: cb07 5fba efe3 febe 40be 293e 1086 fabd
00000060: d028 af3d 6871 53bf 28cc 513e 6a69 3fbe
00000070: 9ed7 07bd d748 a9bf 0ddc 573e 326e 5fbe
00000080: adc9 893e 4e1b 913f a765 a83e eed0 cd3e
00000090: e507 d0bc 7540 00bf a75e 873e 454f 753a
000000a0: ba84 8a3e 8960 8abe 1d5c ffbe ec86 03be
000000b0: 1f0e 9c3c 0303 9abe fd82 d0bd 0648 593e
000000c0: a7a0 a3be 6097 01bf 48e6 0cbd b4b1 d2bd
000000d0: 5bb8 c73d efcb 393f 5e39 423e c947 ae3e
000000e0: e781 103e 8f56 7c3f c305 a43d c16e b03e
000000f0: 5423 63be da8e 8ebf 0b69 a03d 5157 88be
00000100: b45e dabe d9ea 0abf d7d0 05be 2838 ecbe
00000110: b1b8 b5bd 12cf 90bf a2e6 3d3e 4581 67bd
00000120: 60c0 643e 744d 683f aca8 283e 6ce6 e5bd
00000130: 96fd e9bd 8b7a da3e d4ce 233e d14d 623e
00000140: 80f1 5d3e e393 cb3e c3f3 0b3e 1514 153e
00000150: 0bdf 80be a2ad 82bf 0ffa 033e a40d 73be
00000160: 64f2 4f3c 50d6 2d3f d058 9a3d 1657 243e
00000170: 63e0 43be edd4 a93f b60f 86bd 4d05 353e
00000180: 4dd7 39bb a599 3b3f 4f9b f83d 77a2 3b3d
00000190: d8c0 34be 6d67 4ebf 7620 4e3e c44e e1bd
000001a0: 28c0 c63e 3cf2 953e b62f cfbd 9a46 4b3e
000001b0: 8396 73be b0fb a9bf 698e 583e 0b29 8ebc
000001c0: cd61 56bd de89 4cbf abd3 ab3e be07 8bbe
000001d0: b612 1dbd e57e 253f 5f55 78bc 7c78 833e
000001e0: 19b0 e83d 7cbb a23f f242 80be eeea b13e
000001f0: 36f9 60be acc5 78bf b44a c23e c507 0dbe
00000200: dbbb 8bbd b648 78bf a53e a2bd 3b6c 1dbe
00000210: feba f23d 7cb3 ecbe d5b8 533d 24cc 0fbe
00000220: 9556 f13d 6b40 b23f 8a48 e63d 793a 0b3e
00000230: df8b c2bd bd86 d83c ed96 4dbd 30b8 3d3e
00000240: 5fa9 7b3d 6ea4 903f 649c c1bd d129 7a3e
00000250: c7b3 00be bae4 f7bc 3165 fabd df56 a23d
00000260: d52c 8ebd 0b02 5dbf f771 7f3d ae02 d0b9
00000270: 57d4 afbc bc1b 2cbf 6f5e 063e 0e84 423e
00000280: 290c 643e 8540 a03f a219 3f3e 5813 55bd
00000290: 5434 e4bc f20c 59bf da06 8d3d 0bd5 4dbd
000002a0: 771e 6a3d 3b54 723e 834f f63c e474 443e
000002b0: 0044 c0bb bd70 113e 72bd 1bbd 34fb e53d
000002c0: ff1f 1a3d 26e0 f3be 7508 aabd d865 91bd
000002d0: ab25 573e cf94 8f3d e7b1 fdbd ecd4 51bd
000002e0: b6d8 213d f545 853f 86c0 0ebe 4a4e 593c
000002f0: fd59 8cbe 675a 5cbf fc54 24be 7139 4b3c
00000300: 91d7 353e 6a9c 58bd e6f5 993d 071e 2b3e
00000310: 3ac4 e23c d59c babf c43a 433d d9b3 0abe
00000320: 19b7 033e 7b77 2e3f d319 883d d4cf 003c
00000330: d40f 813e 0c4b 053f 4e00 d3bd f87c 69bc
00000340: 19ba 0f3e 1131 503f d5ed 2d3d a0c1 c2bd
00000350: 870b 993d 146c 51bf 1d46 c43c 2780 4dbd
00000360: c758 43bd e023 443f f372 043e 6128 323e
00000370: 6ac1 1d3d 71ea cf3e 93d3 553c b5c1 193e
00000380: 0b59 34be 2e67 a43f a132 8abd e603 31bd
00000390: 8944 66bd 56c4 c3be e570 97bd 50c6 973d
000003a0: fdaf 383d dce0 d93e f501 983d a5b3 f43a
000003b0: 4ecc 393c df0c 86be e7e3 75bd 91c3 a6bc
000003c0: 8e85 29be 96b9 43bf bb45 4a3d e2b4 283e
000003d0: 30aa ee3d dea7 4c3f 6ac4 a53d 0c29 883d
000003e0: bdc5 153e fe82 733f 275c 83be 5e4b 0a3e
000003f0: efc2 ab3d cf9c 6fbf 4e6a 89bc 9706 ad3d
0.0022006878 -1.2834852 0.109975114 -0.24772246 -0.27612057 -0.69124764 -0.052928615 -0.24902056
-0.06992639 1.2923051 0.050797973 0.38445392 0.22529446 -0.11295385 0.43638507 -0.10268589
0.13939855 0.777172 0.08066031 0.08193914 -0.0008507936 -0.49783275 0.16576481 -0.12232602
0.08552706 -0.8259492 0.20488036 -0.18692556 -0.033164613 -1.3225354 0.21080036 -0.2181938
0.2691168 1.1336458 0.32890055 0.40198463 -0.02539439 -0.50098354 0.26439402 0.00093578204
0.27054387 -0.27026775 -0.49874964 -0.12844437 0.019049702 -0.30080423 -0.10181234 0.21218881
-0.31958506 -0.50621605 -0.0343993 -0.102878004 0.0975196 0.725768 0.18967196 0.34039143
0.14112054 0.9856958 0.080089115 0.344595 -0.22181445 -1.1137345 0.07832535 -0.26629117
-0.42650378 -0.542646 -0.13067947 -0.46136594 -0.08873118 -1.1313193 0.1854501 -0.056519765
0.2233901 0.90743184 0.16470593 -0.1122559 -0.11425321 0.42671618 0.15996867 0.22099997
0.21674156 0.39761266 0.13667206 0.14558442 -0.25170168 -1.0209239 0.12888359 -0.23735672
0.012692068 0.6790514 0.07536471 0.16048846 -0.19128565 1.3268105 -0.065459654 0.17677803
-0.002835709 0.7328132 0.12138998 0.045809235 -0.17651689 -0.80626565 0.2012957 -0.110013515
0.3881848 0.29286373 -0.10116522 0.19851151 -0.23787884 -1.3279934 0.21148075 -0.017353555
-0.052339364 -0.7989787 0.33559927 -0.27154344 -0.038347922 0.6464675 -0.015157073 0.2567786
0.11361713 1.2713466 -0.25051075 0.3474955 -0.21970066 -0.97176623 0.3794762 -0.13772495
-0.0682294 -0.9698595 -0.07922105 -0.15373318 0.11852072 -0.46230686 0.05168994 -0.14042717
0.11784092 1.3925909 0.112443045 0.13596524 -0.094993345 0.026431436 -0.050192762 0.18527293
0.06144082 1.130018 -0.09453657 0.24430014 -0.1256858 -0.030260433 -0.12226332 0.079267256
-0.06942145 -0.8633124 0.062364545 -0.00039674848 -0.021463556 -0.6722982 0.13121961 0.18995687
0.22270264 1.251969 0.18662122 -0.0520204 -0.027856983 -0.8478538 0.068860725 -0.050252
0.05715796 0.23664944 0.030067211 0.19185215 -0.005867481 0.14203162 -0.038022466 0.11229554
0.03762817 -0.4763195 -0.08302394 -0.07099503 0.21010463 0.07010805 -0.12387448 -0.05122845
0.039513312 1.0411974 -0.1394063 0.0132632945 -0.27412406 -0.86075443 -0.16048044 0.012403832
0.17758013 -0.052883543 0.075176045 0.16710673 0.027681459 -1.4579111 0.047663465 -0.13545169
0.12862815 0.6815106 0.066455506 0.00786205 0.25207388 0.5206764 -0.103027925 -0.014250986
0.14035834 0.8132487 0.042463142 -0.09509587 0.07472902 -0.8180554 0.023959214 -0.050171044
-0.047692087 0.7661724 0.12934475 0.17398216 0.038514532 0.40608552 0.0130509315 0.150153
-0.17612092 1.2843988 -0.06747938 -0.04321661 -0.056217704 -0.3823573 -0.0739458 0.07410872
0.04508971 0.42554367 0.07422248 0.0018669261 0.011340214 -0.26181695 -0.060031798 -0.020356925
-0.16554853 -0.76455057 0.049382906 0.16475251 0.116535544 0.79943645 0.08094104 0.06648454
0.14626212 0.95121753 -0.25656244 0.13505313 0.0838679 -0.93598646 -0.016774323 0.084485225

policy_net.lstm.weight_hh_l0 f4 [128, 32]
00000000: 75c5 ee3d b815 eabd 9df8 533d 41f5 9bbd
00000010: 3466 b7bd f370 1fbe dc71 03be 796b 313d
00000020: a1e3 36bc 0d8a 293d 4e5d 933d 0ef3 bbbd
00000030: 4101 103e e7f9 153e e68a a5bd a65c fc3d
00000040: 351b 763e 6c24 04be e77e 07be 19b4 1c3d
00000050: 0f82 f2bd 8a48 3e3e 0314 d53c 48ef 0cbe
00000060: 6551 273e ce09 89bd adb6 00be 617d 93bd
00000070: adb9 353c e43a 173d a845 183d 2e51 5abd
00000080: cc3f 17bd 4dd5 a93d 1188 5dbb fa2d 02bd
00000090: 1126 f3bd 8058 bbbc 3b9f 4cbd d059 553e
000000a0: 9127 353d 8442 283e f282 a4bd 6a18 313d
000000b0: 8457 953d ae73 12be 280a 84bd 2abc 17be
000000c0: 17cb e2bc 3838 6a3c c1fd c6bd 0b55 3ebe
000000d0: ae10 0b3e 7e6d 27bb 94f6 fc3d 2a21 a23d
000000e0: 9bcd a53d 413c 37be bbb1 17bd 5976 193e
000000f0: 5223 2a3e c1b9 cb3d 3975 82ba 4cd6 52be
00000100: e275 c1bd 9987 643e 291b bdbc c16c efbd
00000110: d349 13be 07ba 7ebd 9ce4 213e 0f72 06bd
00000120: ce15 1d3c d43c f8bc 0602 1c3d 35f0 313c
00000130: e688 edbc 71dc 4a3e 3343 653d 7aee 83bc
00000140: 7685 4e3d cb4a 373e b045 a4bd 98ad 5a3d
00000150: 7d32 f93d 5f4e a6bb d7d8 a9bd 871e 913c
00000160: c9f8 64be f9b4 52bd fdab d3bd e7c4 843d
00000170: c5d6 3abe 470d d4bd 988a 523d ff4b ec3d
00000180: 4f5b 0cbc 6ce7 b63d 5937 313d 0725 563d
00000190: 193f 473d 0fa4 39be c320 483c 1d06 7dbd
000001a0: 1234 c13c 36a5 91bd 9f52 103e e10e 16be
000001b0: 0070 343d bf75 4d3c 301d 80bd 29c4 413e
000001c0: 6036 ebbd ad73 a23c 63cf 33bd da45 36be
000001d0: 3a33 dd3d a560 6abe 058f 18bd 2e5c 28be
000001e0: 8630 20bd 97c2 a5bd 40f5 f73d 608d fd3d
000001f0: a5fe eebd 78ab 103e 64b2 d43b 2a56 8cbc
00000200: 6e8f 37be d0fc c23d b38f 7e3d 9ae3 bbbc
00000210: 1d9f 13be b5e2 a83c 8e1c af3d 2e50 93bd
00000220: 5e0e 7f3e 71b3 19be bdcc 573e 3a91 28be
00000230: ffe0 f5bd 7bd4 dd3d 6d5f 55bd 6d24 053e
00000240: 01df d23d 12a4 35bb f4ee d83d b7bd d4bd
00000250: ed4f 193e eecd 3bbd 2b03 e73c d85a b93d
00000260: f0ee 88be e750 d63d 665c 15be 1967 50bd
00000270: e323 7dbd 8793 6c3e 7309 403e 138e 513c
00000280: bc18 b039 2acf 133d dc19 ddbd 4489 7cbe
00000290: dd60 ea3d 0516 39be 4243 6fbe d0eb 243e
000002a0: 31f6 fabc d9d6 403e 51fd be3d e3c4 8b3e
000002b0: 6e02 8e3d 135b ee3d e305 1d3e 4dc3 b6bd
000002c0: 95db ea3c a840 8abe 0c28 ba3d 1f7b 35be
000002d0: 9763 203e 2d52 203e d793 34be 7ccc 63bd
000002e0: 28eb 22be 37d4 18bb 6e3d f7bc 2e4a 413e
000002f0: 11f6 853e 9432 dabd a934 223c 2c0e a9be
00000300: 41e3 0e3e c679 f23c a1d4 adbd d659 44be
00000310: 5652 d8bd dca8 4bbd 4f9b 04be 3323 173e
00000320: d9b9 d8bd 53b9 d3bc 2779 0d3e 1ede 52be
00000330: 14bd b0bd a36e e2bd d10d 8bbd 772b 5f3e
00000340: 4914 a8bd e80a 313d b406 7d3d 7746 b0bd
00000350: 1090 bdbd c9e2 e4bd cb7a f43d 92b3 4bbe
00000360: 3970 43be cebc d63d eae7 98bd 46bb a33c
00000370: 9fa8 a33d 9c77 cc3d 1dd9 543e 65ff 94bc
00000380: 1802 43bd 79cb c63d 383b 9fbd 3958 3fbe
00000390: 30de 66bc 468f 003b 1e55 d73d 89c3 243e
000003a0: 935c 103e 5a2b e63d 0c54 b63d 690c 273d
000003b0: f7ac a33d bf4a bcbd 4f9e 26be e8c3 efbd
000003c0: a642 6b3d 5154 a7bd 7080 2c3e 1fc8 24be
000003d0: fbef 273d fb0c 433e 39b8 ef3d 836d 973d
000003e0: 5775 cc3d 0b21 5cbd 09c3 fbbc 09f3 993d
000003f0: 462e 463e 1e84 183e cd04 aebd 540f 0bbe
0.11658756 -0.11429924 0.051750768 -0.07615138 -0.089550406 -0.1557043 -0.12836403 0.043315385
-0.011162669 0.04139142 0.07195531 -0.091772184 0.14062978 0.14646111 -0.080831334 0.12322359
0.24033816 -0.12904519 -0.13232003 0.038257692 -0.11841213 0.18582359 0.026010519 -0.13763154
0.16339643 -0.06691323 -0.12569685 -0.072016485 0.011091632 0.036921397 0.037175804 -0.053300075
-0.036926076 0.08292637 -0.0033803026 -0.031782128 -0.11872495 -0.022869349 -0.04995654 0.20835042
0.044227187 0.16431624 -0.08032788 0.043236174 0.07292083 -0.14301941 -0.0644725 -0.14817873
-0.027684731 0.01429563 -0.097163685 -0.18587129 0.13580582 -0.002554744 0.123517185 0.07916482
0.08095857 -0.17894079 -0.03703473 0.14986552 0.16615036 0.09947539 -0.0009953148 -0.2058956
-0.094463125 0.22317351 -0.02308424 -0.11690665 -0.1438363 -0.06218913 0.15809864 -0.03282362
0.009587718 -0.030302443 0.038087867 0.0108604925 -0.028995942 0.19810654 0.05597229 -0.016104925
0.050420247 0.17899625 -0.08021104 0.05338821 0.12167833 -0.0050752605 -0.08293312 0.017714752
-0.22360529 -0.05144212 -0.103355385 0.06482869 -0.1824599 -0.10354095 0.051401705 0.115379326
-0.008566692 0.08930859 0.043265674 0.052281406 0.04864416 -0.1812899 0.012214842 -0.06177341
0.0235844 -0.071115896 0.14094017 -0.14654113 0.044052124 0.01254028 -0.06255567 0.18922485
-0.114849806 0.01983055 -0.04389895 -0.17800084 0.10800786 -0.2288843 -0.03724577 -0.16441414
-0.039108776 -0.08093756 0.121073246 0.12380481 -0.11669663 0.1412791 0.0064909924 -0.01713093
-0.17925808 0.095208764 0.06214876 -0.022935677 -0.14416166 0.020615915 0.08550368 -0.071930274
0.24907824 -0.15009858 0.21074195 -0.1646165 -0.12005805 0.10831543 -0.05209296 0.13002177
0.10296441 -0.0027716202 0.10592452 -0.10387748 0.14971896 -0.045850687 0.028199753 0.0905053
-0.26744795 0.1046465 -0.14586028 -0.05087957 -0.061801802 0.23103152 0.18753605 0.012790221
0.00033587764 0.03608624 -0.10795948 -0.24661738 0.114442565 -0.18074806 -0.233655 0.1610558
-0.030634971 0.18831958 0.0932566 0.2729865 0.06934057 0.11638465 0.15334277 -0.089239694
0.028669158 -0.27002454 0.090896696 -0.17722748 0.1566299 0.15656348 -0.17634521 -0.055614933
-0.15910017 -0.002331985 -0.03018066 0.18875954 0.26164296 -0.10654178 0.0099002505 -0.33018625
0.13953878 0.029599082 -0.08487821 -0.19174895 -0.10562579 -0.049721584 -0.1294987 0.14759521
-0.105823226 -0.025845205 0.13815747 -0.20592543 -0.08629814 -0.110562585 -0.06789745 0.21793924
-0.08206994 0.04322329 0.06177397 -0.0860719 -0.09255993 -0.11176068 0.119374834 -0.1989272
-0.19085778 0.104852304 -0.07466109 0.01998676 0.07991146 0.09983751 0.20785947 -0.018188188
-0.04760942 0.09706778 -0.07774967 -0.18685998 -0.01409106 0.0019616648 0.10514282 0.16090216
0.14097814 0.112387374 0.089027494 0.04078332 0.07991975 -0.09193944 -0.16271327 -0.11707288
0.057436608 -0.08170379 0.1684587 -0.16091965 0.041000348 0.1904792 0.117050596 0.073939346
0.09983318 -0.05374245 -0.030732648 0.075170584 0.1935359 0.14894149 -0.084970094 -0.13580066

policy_net.lstm.bias_ih_l0 f4 [128]
00000000: 9ad4 b1bd 1340 7e3c f8b7 4b3e 5d4b c83c
00000010: 0272 3d3d bd6b 96bd d4b1 9d3d f774 2d3d
00000020: 5bda d0bb 5deb 903e 6ea8 8e3d 0e58 ec3e
00000030: 605e 583e 26fa f1bc 716b 603e 81eb 313e
00000040: b253 e1bd c488 193e 5949 b43e 0815 e03d
00000050: c6a5 433e 0c76 493e 3a4e 7b3d 7885 5abe
00000060: 60df c4bd 6537 1bbe 640e 713e 24dc 30bd
00000070: d373 163e 87cf 023f a7b3 ad3c 67e6 8dbd
00000080: 8d98 2e3b 9d1b 4fbd cf0c a53d 5127 83be
00000090: 7b3a 15bd 69af c2bc ac7a 2dbe e438 4fbe
000000a0: 0a94 8dbc 28db bebd 2b9d 57be 2845 a2be
000000b0: fd88 083d 9b73 76be 03e0 8abd 8e6f 67be
000000c0: a9dc 87be 0fc0 41bd b801 83be 5085 9dbc
000000d0: 1f67 01be e3ac dbbd 3b0d 773c c7f3 64be
000000e0: efd9 c73d c639 81be 935e 1dbe 1a04 88be
000000f0: 9288 62bd 0357 a1bd a5f8 313d 062d efbd
00000100: 2edd 81bd 9027 e63d 745f f3bd 7007 613d
00000110: 8be1 943d d8ea c9bd b190 d1bd b89f e9bd
00000120: 2b3c ab3d e70a a33d 164e 52bd ca3a 96bc
00000130: 6a99 90bc 26fc c8bd 1a5f 09bd e7d6 633d
00000140: 7204 863d d896 253e 2ecf 7dbd 2c1d d43d
00000150: 98c0 3ebd 1612 83bd 348d 8e3c 0bdd 9bbd
00000160: 2e0c 42bd 6a4a 143d f8e1 bcbd ce97 19bd
00000170: 0450 0abe 0b82 09bd 8b22 a1bc a1ef 8e3d
00000180: 9f17 6bbc f36a 29be 9c76 01bd 8639 a63e
00000190: ce14 b93d 2ce0 963b 183e 343d 37eb e63c
000001a0: f7c8 5dbb 3254 e13e 8ece 403d 2e9f a63e
000001b0: 1b0c 8b3e 649a 4d3e 3384 a53d 62c3 563e
000001c0: 2915 f83c 45e1 0e3e 28a0 853e abea 273e
000001d0: f266 623e 0730 373e 031c 2b3e 6b87 913d
000001e0: a55d 943c b75a 0ebe 20b7 8d3e 774a 22be
000001f0: 9b99 cd3d 4b99 523e 556d 133e 1358 52bd
-0.08683129 0.015518206 0.19894397 0.024449999 0.046251304 -0.07344768 0.07699934 0.042347874
-0.0063736863 0.28304568 0.06965719 0.4616093 0.21129751 -0.029538225 0.21915986 0.17374994
-0.11002292 0.14993578 0.3521221 0.109415114 0.19106206 0.19673938 0.0613539 -0.21339977
-0.09612918 -0.1515785 0.23540646 -0.043178692 0.14692621 0.5109791 0.021203829 -0.069287114
0.002664122 -0.050563443 0.08059084 -0.25615934 -0.036432724 -0.023765283 -0.16941327 -0.20236546
-0.017282505 -0.093191445 -0.21056049 -0.31693387 0.033333767 -0.24067537 -0.06781008 -0.22601148
-0.26535538 -0.047302302 -0.2558725 -0.019228607 -0.12636994 -0.10726335 0.015078838 -0.22358619
0.097583644 -0.2523939 -0.15368108 -0.2656563 -0.055306025 -0.07877924 0.043450017 -0.116785094
-0.06341015 0.11238015 -0.118834406 0.054938734 0.072695814 -0.09859246 -0.10232676 -0.11407417
0.083610855 0.07961064 -0.051344 -0.01833858 -0.017651279 -0.098137185 -0.03353796 0.05562487
0.065438166 0.16170824 -0.06196516 0.103571266 -0.04657039 -0.06399934 0.017401315 -0.0761052
-0.047374897 0.03620378 -0.092227876 -0.037498288 -0.13507086 -0.033571284 -0.019669792 0.06979299
-0.014348893 -0.16544704 -0.031607255 0.32465762 0.09037171 0.00460436 0.04400453 0.028188331
-0.0033841708 0.44009548 0.047071986 0.3254332 0.27157673 0.20078427 0.080818556 0.2097297
0.030283527 0.13953121 0.26098752 0.16398112 0.22109583 0.17889415 0.16709904 0.07105907
0.01811106 -0.13901792 0.27678776 -0.15848719 0.100390635 0.20566289 0.14397176 -0.051353525

policy_net.lstm.bias_hh_l0 f4 [128]
00000000: 1d04 43be 4cc6 44be 840e ae3c c631 493d
00000010: 587e 363e c0ec dfbd 49d8 1cbd 8f73 ec3d
00000020: 75dd 773d b822 023f 8ea4 873e d175 d83e
00000030: cd28 483e 03f7 92bd 5771 013d 7370 1dbd
00000040: 872b 643e 01c0 533e 7271 9e3e 79ad 8f3e
00000050: a21b 853e f6e0 313d 2490 acbd a699 8ebd
00000060: 7ef5 a93c feaa 73bd fcaf 983e 42bc 04be
00000070: e66d a13d f152 ef3e d6e1 bfbd 809f 773d
00000080: 0753 69be 5a14 5cbd c40a 61be 6d5c 13be
00000090: 77be 923d efa8 44be 2c98 92be b518 8abc
000000a0: e738 69be 7dd4 e2bb 2c2e c0be 52c4 72be
000000b0: 6b17 0bbe 1d48 3cbe bb1f 1dbe 88b7 a7bd
000000c0: a62a 49be b3ab 223e 5ab9 f6bd 7045 03be
000000d0: 5666 0fbd 868b 983d df66 fbbd 4e96 2ebe
000000e0: cf86 d6bd 7431 dfbd 6f0a b03d 56d0 b3bc
000000f0: 3996 01be b402 53be bcac 63bd 3987 92bd
00000100: c175 c4bc 5efc c6bd d275 4ebd b905 56bd
00000110: 5462 01be 7cb8 ab3d 5e6f e33d f26e c23d
00000120: 7f13 fc3d ee35 0dbe fc39 013e 0a53 e93b
00000130: 86af 85bd eb92 b83d a540 2ebc b195 b1bc
00000140: f0af 89bd e09d 62bd a3e3 ae3d e406 dabd
00000150: 138d ba3d 62e5 d83c ebe4 613c c5e0 ad3b
00000160: cd0e 6ebd e059 9d3b 7fb8 d23d 1610 eebb
00000170: ec9e f63d 8250 b43d d419 c73d fb12 033d
00000180: 47d4 53be 6972 57be c670 fe3d 8755 b03d
00000190: 332c 373e 0b18 e1bc c57d f93c 96db 7f3e
000001a0: 582c 34be 1d80 733e a3fd 9e3e c3bc d13e
000001b0: 338e 4b3e 7342 aebd e909 0e3e 42b0 bc3d
000001c0: b664 663e c96b 4b3e c6b9 9b3e 391a 273d
000001d0: 6f5e e53e 68dd ed3d e4ed 00bd 003e 67bc
000001e0: bcad 683d 252b 19be 9874 c03e b1ec 1c3c
000001f0: 3545 993e 2307 ab3e e5b7 2c3e 077c e8bd
-0.19044538 -0.19216269 0.021247156 0.049119733 0.17821634 -0.10933828 -0.038292203 0.115454786
0.060513932 0.50834227 0.26492733 0.42277387 0.19546814 -0.0717602 0.03160223 -0.038437318
0.2228223 0.20678712 0.30945927 0.28062037 0.25997645 0.04342743 -0.0842593 -0.069629
0.020746943 -0.059489243 0.29821765 -0.1296244 0.078822896 0.46742967 -0.09369247 0.060454845
-0.22785579 -0.053730346 -0.21976763 -0.14390726 0.071652345 -0.19205068 -0.28631723 -0.016857484
-0.22775613 -0.0069223032 -0.37535226 -0.23707703 -0.13583152 -0.18386884 -0.15344135 -0.08189303
-0.19645175 0.1588581 -0.12047072 -0.12819457 -0.035009705 0.07448487 -0.122754805 -0.17049524
-0.104749314 -0.10898104 0.0859574 -0.021949928 -0.12654962 -0.206065 -0.055584654 -0.07154698
-0.02398193 -0.09716104 -0.05040533 -0.05225155 -0.12635165 0.08384797 0.11105226 0.094938174
0.12308406 -0.13790104 0.12619776 0.0071204947 -0.06527619 0.090123974 -0.01063553 -0.021677824
-0.067230105 -0.055326343 0.08539512 -0.106458455 0.09108939 0.026476566 0.013787488 0.0053063356
-0.058119584 0.0048019737 0.10289096 -0.007265101 0.12042031 0.08804418 0.09721723 0.032000523
-0.20686446 -0.21039738 0.124238536 0.08610063 0.17887954 -0.027477285 0.03045548 0.24986109
-0.17595041 0.2377934 0.31052884 0.40964326 0.19878463 -0.08508768 0.13870968 0.09213306
0.22499356 0.19865336 0.3041517 0.040796492 0.4479861 0.116144955 -0.03147687 -0.014113903
0.05680631 -0.14957865 0.37588954 0.009577916 0.29935613 0.33403882 0.16867025 -0.11351781

policy_net.lstm.weight_ih_l1 f4 [128, 32]
00000000: 7d49 443d 8f6d 05be 2cbb 1c3d a49a c3bd
00000010: 5eee 753d 787f 01be 2640 96bc 03eb e03d
00000020: 1aac 5cbd c5fb e13a bdf2 1fbe 87ba abbd
00000030: 6597 4abd 8e3d f3bd 0e8a d1bd 5141 9b3d
00000040: 3a3c f2bc 0977 a5bd 553d 103e 3352 6fbd
00000050: 8a69 18be 2187 f4bd ad08 993d ea97 24be
00000060: 8216 09be 6018 4f3e 4a83 99bb 225a 543d
00000070: d6fa 39bd 2d76 dfbd 526d b6bd 201d d5bd
00000080: fbe8 653c 24ff 7a3e 5604 d3be e902 48bc
00000090: 74e1 85be 2b8b 16be 7e75 f33c 2206 69be
000000a0: 6dd4 643e 4352 233e aa55 e83e 5030 543d
000000b0: 5fb6 32be ed27 58be 67cf 68be 27ff 813e
000000c0: 7760 3fbe d01e 433e 8ae9 2e3e a9ff 83be
000000d0: 4d34 c23d afc3 28be 19de 053e f043 a1be
000000e0: 95ee b6be 08c3 1f3e 5f10 cebc 916b 48be
000000f0: 354e 7dbe 5d8a 963e 0ab9 e13d 0ce7 2ebd
00000100: 9e64 98bd 35cc f2bd 6612 0fbe 91b3 10bc
00000110: 879b a4b9 f6eb a03d d188 6dbd e909 f6bd
00000120: cb2f fa3d 40df 5d3e 1110 103e dd82 dc3e
00000130: 9a5d 423e 5e51 a5be 2c4a 96bd b032 6abd
00000140: 058e d33d e037 9a3c 135e 743e 3b12 7cbe
00000150: 3da1 7a3e 6db0 733d e445 8d3e 1c06 c0bd
00000160: 2ea6 ab3c 2878 dc3d 1f18 a5be 50d6 2cbe
00000170: 766d e5bd 3d9e ea3d cda3 a9bc f491 e9bd
00000180: 418f c93d c382 673d 71bf 5cbe d6e7 22be
00000190: e6cb 01bd 9132 dc3b 856c f0bd 9b38 3a3e
000001a0: 2635 4c3e db85 573e 811f a23e 3143 7d3e
000001b0: b0b3 aa3d 4661 9fbe bf57 85bd 35dc 67be
000001c0: 048f 233d 55fb 20be bb9d 48bd fe19 00be
000001d0: 108e 933e aa77 ac3d 5b12 5b3e f583 09be
000001e0: bf16 b63c 8cc8 c13d d2a8 88bc cb27 9b3e
000001f0: 0cc9 823d e692 0e3e 1b7e 803e 419f 06be
00000200: 9914 04bd 3b6f bcbd dcd5 e93d 8b94 503d
00000210: 5b0b 753e 6013 babd 5a03 44bd 4bf2 52be
00000220: 6b7d 113d 0408 59be edb3 03be 300f e8be
00000230: fa81 96be a64e e63d 7cce 913e 74e4 98bd
00000240: 7a3d 92be 8c7d 0abc 7aa6 c0bd be55 883e
00000250: c201 bcbe e91d 36bd a376 51be 043d 2c3e
00000260: 0650 663e 54d1 2cbd f7eb 883e 87f4 acbb
00000270: e303 3bbe 9daa 88be 8e3b 4bbe d80d 103e
00000280: 8506 403d d3ba fa3d aa2f 7c3d 5c42 8e3e
00000290: 72ec 973e d635 febd 8ab2 853e 5e23 aebd
000002a0: f39e 90be 61fd 62bd a553 dbbd c94b 72be
000002b0: aca4 c5bd fb6a 883d a75d 453e d3bb 0bbe
000002c0: 6fb5 da3d 3633 8e3d 6195 aabe 5203 0b3e
000002d0: 7eab 97be bcb3 84be 752f 5cbe 369e b73d
000002e0: 7571 d13d 4768 503d 9fdd 3abd 08d8 4f3e
000002f0: e320 76be ccec 8fbe 25d7 62be 2a2d 02bd
00000300: a41c 0cbe e085 4c3d 62af f93d 3a57 853e
00000310: af4d a33e f997 783e 7c00 b33e 4e0c 41be
00000320: af18 c23d 1b54 ddbe c567 833d aed6 df3c
00000330: 51f1 a5be a229 b33d a4c3 06be d21d 2e3e
00000340: 3141 bcbe d4e5 113e 2e36 a3be 03af 953d
00000350: 7941 4fbe cd54 6bbe ea70 be3d e7cb 3fbe
00000360: deee 173e 3a7d b23e 5b32 9a3c 787e 94be
00000370: 4b50 93be 1df2 b8be 2af7 f03d 1b73 7c3e
00000380: b4a6 0e3e 858c b43d 2e6b 16be 7798 3e3a
00000390: 5726 9ebe 15be 0cbe 9f1b ffbc 1548 1d3e
000003a0: 42f4 903e 9d1f 063e 6504 1a3e 6997 c83e
000003b0: 7b70 ee3d 51e9 27bd 4c2c 11be 2d9f 313c
000003c0: f26e 2b3d 0d03 8dbe 03d5 283e ff75 ecbc
000003d0: 277f 9e3e 4d52 c4bd be62 843e 23a6 203d
000003e0: 8c86 89bd 43d4 ff3c 2fe5 b3be dc59 ca3d
000003f0: f79a 1bbe 5c0c 883e cae1 3e3c 5c66 87bd
0.047921646 -0.13030075 0.03826444 -0.0955098 0.060041778 -0.12646282 -0.018341135 0.10982325
-0.053875066 0.0017241171 -0.15619941 -0.08385187 -0.049460787 -0.11876975 -0.1023141 0.075808175
-0.029569734 -0.08079345 0.14085896 -0.058428 -0.1488401 -0.11939836 0.07472358 -0.16073576
-0.13387492 0.20224142 -0.0046848403 0.05184377 -0.04540523 -0.10911212 -0.0890757 -0.10405946
0.014032598 0.24511391 -0.41214246 -0.012207725 -0.2614857 -0.14701526 0.02971911 -0.22756246
0.22346659 0.15949349 0.45377856 0.051803887 -0.17452382 -0.2110898 -0.22735368 0.25389978
-0.18689142 0.19054723 0.17081276 -0.2578099 0.09482632 -0.16480897 0.13073005 -0.31497145
-0.357289 0.15601742 -0.02515429 -0.19572283 -0.24736865 0.29402438 0.110216215 -0.042700812
-0.07441066 -0.11855356 -0.13971862 -0.0088318745 -0.00031396394 0.07857506 -0.057991806 -0.12013609
0.12216147 0.21667194 0.14068629 0.4306859 0.18981019 -0.3228864 -0.07338366 -0.057177246
0.103298225 0.018825471 0.23864011 -0.2461633 0.2447557 0.059494425 0.27592385 -0.09376165
0.020953264 0.107651055 -0.32244965 -0.16878629 -0.11202519 0.11455963 -0.02070799 -0.114047915
0.09841777 0.05652119 -0.21557404 -0.15908751 -0.031688593 0.006719895 -0.117394485 0.18185656
0.1994215 0.21047156 0.3166466 0.24732663 0.08335054 -0.311289 -0.06510877 -0.22642596
0.039931312 -0.15720876 -0.04897855 -0.12509915 0.28819323 0.084212616 0.21393721 -0.13429244
0.022227643 0.094620794 -0.016682062 0.30303797 0.06386003 0.13923225 0.2509621 -0.13146688
-0.032246206 -0.09200903 0.114177436 0.05092291 0.23930113 -0.09085727 -0.04785476 -0.2060024
0.03552 -0.21194464 -0.12861605 -0.45324087 -0.2939604 0.1124547 0.28477848 -0.07465449
-0.28562528 -0.008452784 -0.09406753 0.26627916 -0.3672009 -0.04446212 -0.20455413 0.1682015
0.22491464 -0.04219182 0.26742527 -0.0052781734 -0.18263201 -0.26692668 -0.19846937 0.14067781
0.046881218 0.12242665 0.061568893 0.27785003 0.2967258 -0.12412612 0.26112777 -0.085028395
-0.2824627 -0.055417422 -0.10709313 -0.23661722 -0.09650549 0.0666103 0.19274007 -0.13645868
0.10679137 0.069433615 -0.33317092 0.13575485 -0.29623026 -0.25918376 -0.21502478 0.08965723
0.10226718 0.050880697 -0.04562151 0.20297253 -0.24035983 -0.2811035 -0.22152384 -0.031781353
-0.136828 0.04993236 0.12191655 0.2604311 0.31895205 0.24276723 0.34961307 -0.1885235
0.09477364 -0.4322823 0.06416277 0.027324047 -0.32410672 0.08748175 -0.13160568 0.17003563
-0.36768487 0.14247829 -0.31877273 0.073087715 -0.2023982 -0.22981568 0.092988804 -0.18730126
0.14837214 0.34861165 0.01882284 -0.29002738 -0.28772196 -0.36122218 0.11765893 0.24653284
0.1393078 0.088158645 -0.14689323 0.0007270644 -0.30888626 -0.13744386 -0.0311411 0.15359528
0.28311354 0.13097997 0.15040739 0.39178017 0.11642548 -0.040993992 -0.14177054 0.010841173
0.041853853 -0.2754139 0.16487508 -0.028864859 0.30956385 -0.0958601 0.25856584 0.03922094
-0.06715116 0.031229144 -0.3513579 0.098804206 -0.15195833 0.2657193 0.011650512 -0.066113204

policy_net.lstm.weight_hh_l1 f4 [128, 32]
00000000: f1c3 09be 86bf 12be cab8 01be 3771 febd
00000010: 75e3 283e ebaf edbd 697f 023e 7d5d cdbc
00000020: 52d6 303c c0c9 44bd f6bd 9bbd 6f61 f23d
00000030: 166e 1bbe c902 343d 8d7b a53c b393 e33d
00000040: 1a79 76bc c044 e2bd 09ca 413d 469a 24be
00000050: 0047 6c3d 4e17 753e 1b0b 21bc d62c b13c
00000060: 5fe7 64be 708b 053e 4e9d ecbc f891 e93b
00000070: 9200 bf3d 6315 e83b c60d 2cbe 384a 383e
00000080: 366b 07be b539 ef3c 8346 a33d ca3c 3f3d
00000090: 6ed2 b13c ce38 5c3b c287 40bd 5444 ad3c
000000a0: 1636 e4bd 491e 7abd 14e4 043c 68ff 5dbd
000000b0: 4b11 70bd fe7e 2bbe 948a e7bc 0195 993d
000000c0: 259b f7bd a8ec 20be 27ce 9f3c d55e df3d
000000d0: ffaa 1e3e d98a b63d 5be0 013e 1c33 7cbd
000000e0: 9377 02bd e7b0 143e 9383 2abe 132c 16be
000000f0: 5120 e43d 3366 fcbd f84c 0a3d 645b 23bc
00000100: 60c1 853b e2eb 873d ffae 0dbe 7efa fb3d
00000110: 5e34 44be 35e5 c7bd beef 833e 4789 123e
00000120: def1 323e ee38 a4bd 0436 ce3d 9045 10be
00000130: c72e b03d 731b b33b 55b5 c6bd 0338 d43d
00000140: 20d3 f23d 7f32 1bbe 4657 8dbd fdc4 64be
00000150: a785 bfbd 3bdc 35be 2601 033e f8e5 95bd
00000160: 7fd4 6cbd 0165 0ebe c9e7 b93d a31e ccbd
00000170: 0363 b23d b71b 0bbc afd0 11be f531 8f3d
00000180: 30c4 fcbd f3da 003d e366 963b c787 abbd
00000190: 54d6 063e 8f94 483d 2d12 00be b7cc 34be
000001a0: e12d 543e 7861 81bd 4093 243d 3fe2 3d3e
000001b0: 2daa 47be 8c1f 24be 1926 a03d ef28 493e
000001c0: e750 523d 3605 03be 5cca 61be 3e3c 48bd
000001d0: e65f 72be 755a aa3d 66a9 2c3d 5e8f 553c
000001e0: 44ea 4abe 11e5 dbbc 5878 003e 8499 2dbe
000001f0: 744c 37be 76c7 3ebd 6759 543d 1ab0 963e
00000200: e4ee 4bbc 40e1 91be 90ea 9abc 7a1e 193e
00000210: 3cf7 683d ca19 d4bc e031 21be 7a20 20be
00000220: 9465 b3bd 66ca 0cbd a3e2 6dbd 4e7c 053c
00000230: c102 82be 23b9 70be eb21 6c3e 8c62 70bd
00000240: fa12 893d 4cd1 6c3d 4fe4 85bd 2ef9 393e
00000250: 3c84 b93c 7ed7 dc3d 8f8b 9abd 2809 00be
00000260: dab3 85be a069 7cbd d739 f83c cf45 883e
00000270: e1ef f53d 6ddf 9c3d 4e8d 4e3e 7e7e 083e
00000280: 623d 3f3e 5811 18bd 03cf 75be 52db 803a
00000290: cd21 e23c 81ea 0b3e 2be4 3ebd ae23 debd
000002a0: a523 e13d 0faf a3bd 1312 82be 5935 0d3e
000002b0: 701d 94bd 86e0 0d3e 9235 903e 406c 8f3d
000002c0: bff6 963d c415 07bd 01a2 2bbe 7d6a 5abe
000002d0: e922 87be 031b 4f3e dfd0 7bbe afb1 84be
000002e0: 680a fabd 4334 a0bd 591e 1e3e ae0e e9bd
000002f0: 0fb4 7b3d 4526 9cbd 387d 443d 2892 0c3d
00000300: becf 10be d691 62bb 2eb0 7a3e fe5c 163e
00000310: e1f4 953d f0e0 983d d5a8 a63d 6b56 73bd
00000320: ac9a a1bd ad80 913c dd2d 1fbe b235 6fbd
00000330: 2e5a 663e 575d 31be cf65 03bd 9569 06bd
00000340: 672c 933c 6671 fabc 86cb 2bbc 2bb1 353e
00000350: 1fc2 033d c805 eabd 51ef 8ebd 6028 b03b
00000360: fe32 053e fc8b a63d e386 1b3d ad39 a4be
00000370: b724 733d 90bd 42bd a303 13be 37ad 60be
00000380: 0bad 46bd f83a 74bc 74fe 03be b4eb 2e3c
00000390: 14bf 7ebd a61f 6e3e f743 923d 500f 1a3d
000003a0: ea5d b83d 63af 803d 9927 b33d 7b1e 573d
000003b0: 92c9 21bd e118 b83d c7fd 8ebc 29f0 98bd
000003c0: 75d4 42be ccf6 013e acf9 033e 74ab e4bc
000003d0: 8f33 ccbd d955 0abe 3e21 5fbc f840 1dbd
000003e0: 9037 873d 625e c33d 734a 18be 7369 5a3d
000003f0: 8e7f f13d a34f ab3d 9315 74bd 561f e6bc
-0.13453652 -0.14330873 -0.12668148 -0.12423938 0.16493018 -0.11605819 0.12743916 -0.025068993
0.010793285 -0.048043966 -0.076045915 0.1183499 -0.15178713 0.04394797 0.020200515 0.11112156
-0.015043521 -0.11048269 0.047311816 -0.16074476 0.0576849 0.23934671 -0.009829308 0.021627825
-0.22353886 0.13041472 -0.028883602 0.0071279965 0.09326281 0.0070826276 -0.16802129 0.17997062
-0.13224491 0.029202322 0.079724334 0.046688832 0.021706786 0.0033603194 -0.04700447 0.021150745
-0.111431286 -0.06106404 0.008111019 -0.054198653 -0.05861024 -0.16747662 -0.028264321 0.07499123
-0.12090138 -0.15715277 0.01950748 0.1090676 0.15494917 0.08913202 0.12683241 -0.06157218
-0.031852316 0.14520608 -0.16651754 -0.1466525 0.11138976 -0.123241805 0.03376481 -0.00997052
0.00408189 0.06636788 -0.13836287 0.12303637 -0.19160601 -0.09760515 0.25768846 0.1431018
0.17475078 -0.08018671 0.100688964 -0.14089036 0.08602672 0.0054659187 -0.09702555 0.10362246
0.11856675 -0.15155981 -0.06901412 -0.2234077 -0.09351664 -0.17759793 0.12793407 -0.07319254
-0.05781984 -0.13905717 0.09077413 -0.09966781 0.08710291 -0.008490494 -0.14239763 0.069919504
-0.12342107 0.031458806 0.004589902 -0.08375507 0.13167697 0.0489698 -0.12506934 -0.17656218
0.20720626 -0.06317419 0.04017949 0.18543337 -0.1949851 -0.16027659 0.078197666 0.19644521
0.051346686 -0.12794957 -0.2204985 -0.048885576 -0.23669395 0.083180346 0.04215374 0.01303467
-0.19815928 -0.026842626 0.12545907 -0.16953093 -0.17900258 -0.04657694 0.051843073 0.2943123
-0.012447093 -0.28492165 -0.018910676 0.14953032 0.056876406 -0.025891203 -0.15741682 -0.15637389
-0.08759609 -0.03437271 -0.058077466 0.008147312 -0.25392726 -0.23508124 0.23059814 -0.05868773
0.066930726 0.05781679 -0.06537687 0.18161461 0.022646062 0.107832894 -0.0754615 -0.12503493
-0.26113778 -0.06162417 0.030301018 0.2661576 0.12008644 0.076598026 0.20171091 0.13329503
0.1867576 -0.037125915 -0.2400475 0.0009830988 0.027604008 0.13663675 -0.046604317 -0.10846649
0.10993127 -0.07992374 -0.25404415 0.13789882 -0.07232177 0.1385518 0.2816587 0.07003069
0.07371282 -0.03297974 -0.16761018 -0.21329685 -0.26393822 0.20225148 -0.24591397 -0.25916812
-0.12209016 -0.07822468 0.15441264 -0.11379753 0.061451014 -0.07624487 0.04797098 0.034319073
-0.14141747 -0.0034571788 0.2448127 0.14683911 0.073220976 0.074647784 0.08137671 -0.059408586
-0.078908294 0.017761553 -0.15544839 -0.058400817 0.22495338 -0.17320763 -0.032079514 -0.032815535
0.017965509 -0.03057165 -0.0104855355 0.17743365 0.03216755 -0.11426884 -0.0697924 0.005375907
0.13007733 0.08132169 0.037970435 -0.32075253 0.059361186 -0.047544062 -0.14356856 -0.21941076
-0.04850487 -0.014906637 -0.12890035 0.010676313 -0.062193945 0.2325426 0.071418695 0.03761226
0.09002288 0.06283452 0.08747787 0.052519303 -0.039498873 0.0898912 -0.017454995 -0.07467682
-0.19026358 0.12691802 0.12888211 -0.027913786 -0.099707715 -0.13509311 -0.013618765 -0.038392037
0.066023946 0.095394865 -0.1487215 0.05332322 0.11791907 0.08364799 -0.059590887 -0.028091114

policy_net.lstm.bias_ih_l1 f4 [128]
00000000: 4f31 c3bd c645 853e c55d 1d3e 9f77 d03c
00000010: 45ec 2bbe 5afb debc e7a5 023e 5aaa 0e3e
00000020: 94d0 b83e a8f8 1b3e 2098 e13e c565 d43d
00000030: 1db4 193e 6d9a 943e da58 24be 72eb 033f
00000040: 02a1 1cbe dd3d 0c3e da87 45be cbae 943d
00000050: 58e0 2b3e fee3 313e 5f22 213d c3da 61bd
00000060: b2af 823c 912f 663e 985d 9e3e e733 02be
00000070: e2bf ab3c 6f80 d53d 9f29 c93e f9ed 6b3e
00000080: b167 4cbd 3ad1 dcbd aa0f e8bd 9899 11be
00000090: 1d77 febd 7109 6ebe a655 f0bd 6cb4 06be
000000a0: 4f3c a1be 160e f6bb 73d4 b2be f744 1dbe
000000b0: cfdd 0ebe 6a6d d2be 7103 5b3d e14a b5be
000000c0: 35a6 9fbe bcd3 abbe 962a 70be a8ea 49be
000000d0: 7968 e0ba 73ba 4abd 22bd a2be c168 c3bb
000000e0: bf36 86be a8b7 8dbc b2a8 22be c088 a9be
000000f0: 898e b0be 4d93 ecbd 3be9 59be 5019 06bd
00000100: 1bfe 963d efd5 bdbc 5b32 65bc 52f3 bd3d
00000110: c943 a0bd 738d 17bd 78a8 583b f344 0b3e
00000120: 232e 54bc 0c5d 6bbd 380d 02be a2b7 743c
00000130: 75eb 683d 3bea a3bd 1bdc 00bd f4a9 1abe
00000140: e906 6dbd e73d 043e 0e23 9a3d 3c1b 073e
00000150: f359 533d 8460 ffbc b19a 2b3c 158d 07be
00000160: e486 f23d bc71 1a3e e442 33bd 14dd 0a3e
00000170: 3b14 233d 1877 b73d 4076 97bc c32a 0ebe
00000180: 857d 213c fbc2 503d 98e6 0cbe 58df 56be
00000190: b9a5 38bc 85ad f0bd 5c90 573e fe69 8ebd
000001a0: d736 dd3e 56a6 7e3e 3e20 ef3e 402e 913d
000001b0: bdc8 8b3d 91e1 823e 8777 fdbd 383d 253f
000001c0: 7d02 3d3d 87f9 563e 358d d7bd 052f 063e
000001d0: 8923 98bd 7dab 1bbe 6a2f f33d 048a b93d
000001e0: d819 46bb fd71 6b3e b116 773e ba5e fa3d
000001f0: 3624 93bc e968 9c3e 0a36 ea3e 2afd 7abd
-0.09530889 0.26029795 0.15367801 0.025447665 -0.16789348 -0.027219463 0.12758599 0.13932171
0.36096632 0.15231574 0.44061375 0.103709735 0.15010114 0.29024068 -0.16049519 0.51531136
-0.15295795 0.13695474 -0.19290105 0.072599016 0.16784799 0.17372128 0.03933942 -0.055140268
0.015952919 0.22479083 0.3093078 -0.12715112 0.02096552 0.104248874 0.39289567 0.23039998
-0.049903575 -0.10782094 -0.11331113 -0.14218748 -0.12425063 -0.23245789 -0.11735086 -0.13154763
-0.31491324 -0.0075090034 -0.3492771 -0.15358339 -0.13951801 -0.410991 0.05347008 -0.3540869
-0.31181493 -0.33559978 -0.23453745 -0.1971842 -0.0017120979 -0.049494218 -0.31784922 -0.0059634154
-0.26213643 -0.017299488 -0.15884665 -0.33112144 -0.34483746 -0.11551533 -0.21280377 -0.032738984
0.073726855 -0.0231733 -0.013989056 0.09274925 -0.07825429 -0.03700013 0.00330594 0.13600521
-0.012950453 -0.057461783 -0.12700355 0.01493636 0.056865174 -0.0800366 -0.03145991 -0.15103894
-0.05786792 0.12914239 0.075262174 0.13193983 0.051599454 -0.031173952 0.010473893 -0.13237412
0.118421346 0.15082449 -0.043764964 0.13560897 0.039814215 0.08958262 -0.018489003 -0.138835
0.009856586 0.050967198 -0.1375984 -0.20983636 -0.01126998 -0.11751846 0.21051162 -0.0695381
0.43205902 0.2486814 0.46704286 0.070888996 0.06825397 0.2556272 -0.12376314 0.6454654
0.04614495 0.20993625 -0.1052498 0.13103874 -0.07428653 -0.15202136 0.11874278 0.090595275
-0.0030227806 0.22992702 0.2412975 0.12225099 -0.017961603 0.3054879 0.45744354 -0.061276592

policy_net.lstm.bias_hh_l1 f4 [128]
00000000: d5a7 143e 9cef 513d 2ab1 143d 91a7 62be
00000010: 8971 0fbd 78f0 70be be13 1f3d 8860 9a3d
00000020: 400d 943e 17f9 743e 7f3e b93e 1181 bcbd
00000030: 417f 28be 4fc5 a93d 471b 99ba fd47 353f
00000040: 6a1e fabd 4c2c b03e fd6e 19bd c1c9 013e
00000050: 89ef 373e d13b 293d eb7e d93d 4dc6 c43d
00000060: 52c0 c2bd 6fac a93b c131 583d 380b 49be
00000070: 37e6 57bd 2aa0 ef3d 3818 0f3e fde4 6b3e
00000080: 5846 89be 296c 14be 0f97 a63d 1352 ccbe
00000090: 0bd2 b33d 4549 7b39 3d23 a3bd 2464 81be
000000a0: 4181 65be b076 0abe 4805 aebe 41be 8b3c
000000b0: 6305 963d b9a8 9abe 250d a5bc 0e49 eebe
000000c0: 4872 acbd 8faa e7bd 233a adbd f679 ebbc
000000d0: d9e7 5ebc 8c31 ed3c 144a 65be 83b7 30be
000000e0: 59e9 ecbc bcea c0bd cbe9 cabe 5f1c 05be
000000f0: 0067 62be d567 7cbe 87cb 07be 2b5e b0bc
00000100: 8672 9cbd fa21 be3c 33c8 bc3d 472e 26bd
00000110: 1aea b6bd df81 a23d 844b 5a3d 06d1 efbd
00000120: 016a e33c c98c 8a3d 75c3 cb3d 39e6 e1bd
00000130: 1aff 093e a5bd 603d 699a 03bd 13c2 8e3d
00000140: 92dd 66bd a06f f0bd a8bc b9bd c26c bfbd
00000150: 98ff 2a3e 5faf 3f3d 45ef 673d 568e 443d
00000160: 1b1f 0c3b c379 12be 691c 49bc b06f 02be
00000170: d376 4c3d cd28 fbbd 7cb0 8abc 58a6 59bd
00000180: 521a c73c 723c 103e fafb 5d3d fed3 21be
00000190: 4653 2cbe b588 f0bd 9c97 7c3c 583e f73d
000001a0: fc00 833e 9c82 643e 3bb1 913e 47ce 3b3e
000001b0: f4e4 8ebd eba5 863e 7043 2c3e c32b 1b3f
000001c0: 1d6d acbd 446f 343e 14aa c13d c701 8c3e
000001d0: 1a89 473d 7768 be3d 4419 083e b706 79bc
000001e0: 3cdb de3d b730 a6bd 80df 78bc beea f5bc
000001f0: c85c 1a3c 73ef 413e c242 883e a6b7 3bbd
0.14517148 0.0512539 0.03630177 -0.22134234 -0.035020385 -0.23529232 0.038837187 0.07537943
0.2891636 0.23923145 0.36180493 -0.09204305 -0.16454794 0.08289587 -0.0011681103 0.7081297
-0.12212832 0.34408796 -0.037459362 0.1267462 0.17962469 0.04131681 0.10619911 0.09608135
-0.095093384 0.0051780264 0.052781824 -0.19633186 -0.052709784 0.11700471 0.13974082 0.23036571
-0.2681148 -0.14494385 0.08134281 -0.39906368 0.08780297 0.0002396452 -0.079657055 -0.25271714
-0.22412588 -0.13521838 -0.33988404 0.017058494 0.07325246 -0.3020685 -0.02014787 -0.4654011
-0.08420235 -0.11311828 -0.08458354 -0.028744679 -0.0136050815 0.02895429 -0.2239154 -0.17257504
-0.028919863 -0.09419772 -0.39631495 -0.12999104 -0.22109604 -0.24648984 -0.13261233 -0.021529278
-0.07639031 0.02320956 0.092178725 -0.040571477 -0.0893137 0.07934927 0.053294674 -0.1170979
0.027760508 0.06765134 0.0994939 -0.110302396 0.1347622 0.05486836 -0.03212968 0.069706105
-0.05636365 -0.11740041 -0.090691864 -0.09346916 0.16699064 0.046798106 0.05662467 0.047987305
0.0021380845 -0.14304261 -0.01227484 -0.12737918 0.049918007 -0.122636415 -0.016929857 -0.053137153
0.024304543 0.14085558 0.05419538 -0.15803525 -0.16828641 -0.11744825 0.015417006 0.12072438
0.2558669 0.22315449 0.2845553 0.18340407 -0.06977263 0.2629846 0.168226 0.6061365
-0.08419249 0.1762057 0.09456268 0.27345106 0.048714735 0.09297269 0.13290888 -0.015199355
0.108816594 -0.0811476 -0.015190005 -0.03001916 0.009421535 0.18938999 0.26613432 -0.045829438

policy_net.dense1.weight f4 [8, 32]
00000000: bb9c 963d 6798 9f3e 499c b6be 6abc 7a3d
00000010: e3d6 17be 78d1 2d3e de58 9d3e 592b 98be
00000020: c1c8 15bd 6aa1 623e c45d e4be fcfb 513e
00000030: b166 123e 4168 233d 8db0 49be d9f1 14be
00000040: 9d26 c5bd 2cff debe 7266 173e f209 84be
00000050: 3e45 043e 83f4 5abe 00bf e0be 4f9b a7be
00000060: e6f4 073e 9d22 9b3e 6e94 283d 0e6b 22bc
00000070: 2654 1b3e cf97 a1be 2eec debe 90ad a1be
00000080: b310 3cbb 1dfc b0be b323 123e 8016 6abe
00000090: 354f 3bbd dc18 46be 777d 89be 789e ef3a
000000a0: fe59 863d 90b2 35be 68ae 543d a021 2d3d
000000b0: 9cee 06bd b278 463e fc11 a63a 373e 733e
000000c0: 5188 083e 3a2d 5e3e 3321 0c3c 351d 663e
000000d0: 9a18 52be 2284 0f3e a9bf 2f3e 6891 7b3e
000000e0: 68fa 2fbe 5d03 48be d5d5 193e e87c 7e3e
000000f0: c5ad 10be c8a3 fb3b ac7c a43e c6e4 e63d
00000100: b21d 1dbe 6d6c 4a3e 91fb 89be 7b05 723e
00000110: f1f9 6e3c 9d18 863c 0dbd 573e 8cd6 653d
00000120: f3a6 bb3d 0840 283e 9457 c0bd f8e0 723e
00000130: f624 2f3e 3c0f ebbe 3643 86bd f424 97be
00000140: 948d 60be dc7c acbe 0bfe 9e3d 1354 6abe
00000150: 2e8c 363e 12fd acbd 6c98 71be 2d9d 98be
00000160: 1c11 353e 72c2 6f3e 2e81 c2bd 8fa5 5bbd
00000170: 07a5 973e d4e6 cbbd baf0 8ebe 729f 42be
00000180: eed8 8bbc 9fe5 ce3c 3855 07be cbe7 a6bd
00000190: a46f 3cbe 4ef5 68bd 5244 933b 2ab6 0c3d
000001a0: 2a01 b53e 8858 fbbc 0784 9d3d 6584 b3bd
000001b0: f17a 23bd c46c f43d fdf8 44bc 92ac 053f
000001c0: 52d5 4dbd baec 2cbd 2221 d1bd 69a1 28be
000001d0: 2271 2e3c 796d 5a3d 7bc8 20bd 29a7 9e3d
000001e0: 5969 1e3e 2dcf 73bd a28a 413e f17e 21be
000001f0: 976b 1dbe 1b63 7cbe d315 9ebe 1503 e4bd
00000200: 7e1b 53be 1c4d 933d 1a34 84bd f5a8 15bd
00000210: bebd aebd 94b8 2cbe c27c d1bd b15e 82be
00000220: f7cb 9f3e e14a 07be 1284 75bd 0126 efbc
00000230: 3ee7 bebd 8739 993d 8697 c63d 1fe4 803e
00000240: fd58 dbbd 9da8 2abe eea0 423e 5c73 13be
00000250: d8c1 55be 2014 febd 07d8 dabd 6dda 8ebe
00000260: d604 c7bd 7171 0e3e 6bb6 273e 12aa f8bd
00000270: 63fb 363d 6efd 82be 11ac debd 70e8 a4bc
00000280: ce3d a1bc 5228 803e 3e62 4bbe 1932 d63d
00000290: 02d5 ebbd 63c1 8abd b53c e03d 4514 a8bd
000002a0: 46ff 9cbd 7958 053f 2231 7bbe 7a9a 0b3e
000002b0: 456e 30bd 869f e4be 2fe8 72be b211 8abe
000002c0: a51e 95bd c8a0 1abe 9835 21bc 3336 5dbe
000002d0: 66c5 113e 9ba3 653d 034e 81be 27f3 1ebe
000002e0: ca07 ff3d 024f 7f3e a24c e3bd cc1a 223e
000002f0: dde9 2f3e 6e9c a9bb 4acc 6cbe 0f17 dabd
00000300: 0494 34be cd3e 7b3e 5ea2 48bd ff3c 833d
00000310: c8d7 61be 15e5 6abc 5a44 c1bc 9e99 18be
00000320: 7f7a 443e e03f 923e 1039 92be 0bf7 f93c
00000330: 7b96 d03d 5fde 90be bbdf 56be 2415 883d
00000340: 16d4 f0bb 2623 89be a22f 9c3d 2503 043d
00000350: 683e f43d 1529 95be 4ed1 c0bd ca86 193d
00000360: 59b3 1e3e c47a 8fbd ec92 81bd bdbc 073e
00000370: 2156 e03d 8916 1dbe f827 e5be 54f1 75be
00000380: 72fc 453e 241f c63c 433c cebc 4c6b 2bbd
00000390: 4e9b 893b 7b10 14bd 3207 4abe ae00 a93d
000003a0: ad0a f3be 4f92 233e fa39 d73d e548 28bd
000003b0: d94e 47be d4fb 6abe 0608 15be dd6a e6be
000003c0: e2aa 8b3e d5e5 8f3e a8e9 3abe 251e 543e
000003d0: 1b07 21be bea2 3e3c e72c 453d c342 1cbe
000003e0: 1b78 883c 2e3a 163e 399d a1be 162d aa3d
000003f0: ed1f 2f3e 481c d23d eddb fb3d 068d 5d3d
0.07354113 0.3117096 -0.3566611 0.061214842 -0.14828067 0.16974437 0.30731863 -0.29720572
-0.036568407 0.22131887 -0.44602787 0.2050628 0.14296986 0.039894346 -0.19696255 -0.14545383
-0.096265055 -0.43554056 0.14785174 -0.25788838 0.12917039 -0.21382336 -0.4389572 -0.3273568
0.13277015 0.30299845 0.04115718 -0.009913219 0.15168819 -0.31561133 -0.43539566 -0.3157773
-0.0028696477 -0.34567347 0.1427143 -0.22860146 -0.045729835 -0.1934542 -0.26853535 0.001828148
0.065601334 -0.17743897 0.05192414 0.042268395 -0.0329424 0.19381979 0.0012670155 0.23754202
0.1333325 0.2169694 0.008552837 0.22472079 -0.20517197 0.14015248 0.17162956 0.24567187
-0.17185366 -0.19532533 0.15022977 0.24852335 -0.14128788 0.0076794364 0.32126367 0.11274104
-0.15343359 0.19767924 -0.26949742 0.23634903 0.014585958 0.016369158 0.21068211 0.05611281
0.091627024 0.16430676 -0.09391704 0.23718631 0.17103943 -0.4591006 -0.06555788 -0.2952038
-0.21929008 -0.3368901 0.077632986 -0.22883634 0.17826912 -0.08446707 -0.235933 -0.29807416
0.17682308 0.23414019 -0.09497295 -0.053624686 0.29618093 -0.09956136 -0.27918035 -0.19006136
-0.017071214 0.025255976 -0.13216102 -0.0814968 -0.18401963 -0.056874566 0.0044942284 0.034353413
0.3535245 -0.030681863 0.07691198 -0.08765487 -0.039912168 0.11934808 -0.012022254 0.52216446
-0.050252266 -0.042217948 -0.10211398 -0.16467823 0.01064709 0.053327058 -0.039253693 0.07746727
0.15469874 -0.05952375 0.1890054 -0.1577108 -0.15373074 -0.2464718 -0.30876026 -0.111334
-0.20615956 0.07192442 -0.0645525 -0.036538083 -0.08532284 -0.16867286 -0.10228874 -0.2546287
0.312103 -0.13212158 -0.059940405 -0.029192926 -0.0932145 0.074816756 0.096968696 0.25174043
-0.107103325 -0.16665883 0.19006702 -0.14399475 -0.20874727 -0.12406182 -0.10685735 -0.2790102
-0.09717719 0.13910462 0.1637818 -0.12141813 0.044673335 -0.25583977 -0.10872663 -0.020130366
-0.019682791 0.25030762 -0.19861695 0.10458774 -0.115152374 -0.06775167 0.10949079 -0.08206991
-0.07665877 0.52088124 -0.24530461 0.13633147 -0.04307391 -0.44652957 -0.23721384 -0.26966625
-0.072812356 -0.15100396 -0.009839438 -0.21602707 0.14235458 0.05606423 -0.2525483 -0.15522443
0.124526575 0.24932483 -0.11098601 0.15830535 0.17179056 -0.0051761186 -0.23124805 -0.10648929
-0.17634588 0.24535675 -0.04898297 0.064081185 -0.2205497 -0.014336844 -0.023592163 -0.1490235
0.19187354 0.28564358 -0.2855916 0.030513307 0.10184952 -0.28294656 -0.20983784 0.06644657
-0.0073495014 -0.2678463 0.07626273 0.03222956 0.119259655 -0.29132906 -0.09414922 0.03748206
0.15498103 -0.070058376 -0.06326851 0.13255592 0.10953928 -0.15340628 -0.44757056 -0.2401784
0.19334581 0.02418477 -0.02517522 -0.041850373 0.004199422 -0.03614853 -0.19729307 0.08252083
-0.47469082 0.15973781 0.10509105 -0.041085143 -0.19463672 -0.22947627 -0.14553842 -0.45003405
0.2727881 0.28105035 -0.18253195 0.20714624 -0.15725367 0.01163548 0.048138525 -0.15259843
0.016658833 0.14670631 -0.31565264 0.08309381 0.17102022 0.102593005 0.12297807 0.05408957

policy_net.dense1.bias f4 [8]
00000000: 4c94 cf3c 7624 0c3d 12fc 06bc 6afb 43bd
00000010: a7b7 9b3d 4664 47bc 4068 97bd 8750 173d
0.025339268 0.03421446 -0.008238809 -0.04784719 0.07603388 -0.012169903 -0.07392931 0.03694203

policy_net.dense_out.weight f4 [1, 128]
00000000: 1566 243d e38f 863d 0df6 98bd 79e6 503d
00000010: 0d68 a13d 0f20 6cbd 6e60 2fbb 4a58 debc
00000020: 1210 07bc 681e a33c 45ff 78bc 7086 403d
00000030: b05d b93d 11d7 2abc a669 30bc 4c18 10be
00000040: b6e5 5b3d 86a9 31bd 233c 303d fc75 0b3e
00000050: 9a03 043e 7346 2cbd 3209 30bd d84e 63bc
00000060: 43f4 a3bc 6885 9fbd 53f9 953d 517f c0bd
00000070: 3c94 29bc 07e3 fb3b 466d 703d de52 ba3d
00000080: 9ece 32bd 816f 58bd 97cf 413d da50 1abe
00000090: bb27 c63c 1d13 1bbd 302f 1d3b 9bc2 233e
000000a0: 5ba4 db3d c27c b1bd 9964 313e 1185 0cbe
000000b0: d298 c33d 14e7 b63d b1cd 723c 98c1 dd3d
000000c0: ac7a 77bd 9139 833c d839 92bc 977e 03be
000000d0: ed1c fbbc e823 aa3d c1f9 e5bd 0e02 0a3d
000000e0: fd0e a6bd 445f 71bd f39c 163d a744 1e3d
000000f0: 1eb4 803c 2c96 4fbd 899d 62ba a29a 353d
00000100: 6074 9f3c 00ee 08be b40d c23d dce0 f8bd
00000110: 49a0 c2bd f17f 543d d2dc 163a 91d3 d33d
00000120: 2665 ebbd 65d9 fabc f94a f43b 1933 10be
00000130: 8dd0 6bbd 3c82 653d 17fa 813d cb71 f33d
00000140: 8a7c 70bd 33a1 b2bc 6777 adbc 0dcf fcbd
00000150: 63b2 72bd 9a68 a63d 90a3 05bb f50d 443e
00000160: ac22 5bbd b08c c6bd 0af0 5bbc 3c22 ddbc
00000170: a220 fdbc 32da c13d 6fc8 f9bd a9c0 083e
00000180: f95a a73d 525f cabc ae75 963d 05c3 34be
00000190: 3554 ebbd 5d64 453e a10b 023d a316 863e
000001a0: a9e7 3cbd d6ed c93d 39c9 4dbd 0ecd 16be
000001b0: bdc5 dabd 058e 243d 9e42 a5bd 649a 203e
000001c0: f7b2 19be d393 113e 8cbb 10be 1779 f6bc
000001d0: 832e e0bd 25f1 61be c89c bdbd 75ba 353d
000001e0: f424 debe 4d55 a03e dc49 ddbe 17ce cfbd
000001f0: 8f6c 16be c7c4 a4be 7059 cabe 8152 923e
0.040136416 0.06570413 -0.074688055 0.051001046 0.07881174 -0.05764776 -0.0026760357 -0.027141709
-0.008243578 0.01991196 -0.01519758 0.04700321 0.090510726 -0.010427252 -0.010767376 -0.14071769
0.053685866 -0.04337456 0.0430261 0.13619226 0.12891999 -0.042059373 -0.04297752 -0.013873778
-0.020013934 -0.07789117 0.073229454 -0.09399284 -0.010350283 0.007686976 0.05869796 0.09097837
-0.043654077 -0.052840713 0.047317114 -0.15069905 0.024188867 -0.037860025 0.0023984425 0.15992205
0.10724708 -0.08666374 0.17323531 -0.13722636 0.095506325 0.089307934 0.014819548 0.10827941
-0.060419723 0.01601866 -0.017849848 -0.12841259 -0.030653441 0.0830763 -0.112292774 0.033693366
-0.081083275 -0.058928743 0.036770772 0.03863969 0.015710887 -0.050680324 -0.00086446904 0.044336922
0.019464672 -0.1337204 0.0947527 -0.121522635 -0.09503228 0.051879827 0.00057549507 0.103430875
-0.11493902 -0.03062124 0.0074552265 -0.14081992 -0.057571936 0.056032404 0.06346529 0.11886939
-0.05871252 -0.021805381 -0.0211751 -0.12344179 -0.059252154 0.0812542 -0.002039168 0.19145949
-0.053499863 -0.09694803 -0.013423929 -0.026993863 -0.03089935 0.094654456 -0.12196433 0.13354744
0.081716485 -0.024703655 0.07346664 -0.17652519 -0.114906706 0.19276567 0.03174937 0.26189145
-0.046119366 0.09859817 -0.05024073 -0.1472666 -0.10682247 0.040174503 -0.08069347 0.15683895
-0.15009676 0.14216547 -0.14134043 -0.030087037 -0.109463714 -0.22064646 -0.09258419 0.044367272
-0.43387568 0.3131508 -0.43220413 -0.101467304 -0.1468985 -0.3218138 -0.3952136 0.2857857
