trained_models/15_lag_lstm_ppo_Walker2d-v2_eps_0_actor.pth (torch, 958716 bytes, 50 tensors)

policy_net.log_stds f4 [6]
00000000: b3bf a4bf 8769 a2bf 37aa 9abf 234d aabf
00000010: 011c a7bf 1113 97bf
-1.2871002 -1.2688454 -1.2083195 -1.330479 -1.3055421 -1.1802694

policy_net.lstm.weight_ih_l0 f4 [256, 17]
00000000: fc08 023e 4067 c03d d1ba e7bd 9ec0 25be
00000010: 5245 e93c 7421 ec3b 33c2 20be b6f9 f33d
00000020: 3486 eabc fc6d 8dbe 9a3a ca38 386f d3bd
00000030: 0acd b6bd f27c 2f3c b22e 4d3d 9831 edbd
00000040: bd18 923d a4a3 1b3c fc93 78be 74b0 213e
00000050: 7f6e fe3c 3368 8dbd c9c1 653d 67b9 353e
00000060: 5dfe b0bc b00b bdbe 74d3 153e 8790 b13d
00000070: 31ff 923c f3a3 ed3d de4c 15bd 2464 12bd
00000080: 2180 983d be7a c5bc 5498 713d fdff 86bd
00000090: ab0f 3a3b 351e 85ba e118 213e 3087 9f3c
000000a0: e49c ad3d 1600 f7bc cd80 2fbd 32e5 d9bc
000000b0: d236 1ebd 869d 9bbd 563e c0bc 44d1 4ebb
000000c0: d4fc 1cbe 8f57 ebbd a4b1 c2bd fc7f 0d3d
000000d0: bd89 4fbe 1854 6e3d 0990 8bbd 706f 873d
000000e0: 7d75 403c 7126 d33d 359b b83d acf1 dcbd
000000f0: 7870 cebd c400 30bd 6b9c f1bd 1cef c8bd
00000100: 317f 793d 36c4 ce3d e2fd 933d 0fa7 ea3b
00000110: 69b7 95bd 1f65 943c b77c c8bd fc1c 28bd
00000120: fb08 12be 557d bebd c19a a33d 4ae3 b1bc
00000130: 5a56 093e b025 abbd 8388 9f3d 4a5c a8bc
00000140: c999 89bc 2850 543b a4be c2bd f361 e33d
00000150: 8acf 133e 351d 863d 90fb 84bd a1c1 fcba
00000160: 2956 b73c 040b 563d 403c c0bc 5f9f 7bbd
00000170: c747 593c 1d64 af3d ed40 63be 97e1 80bc
00000180: b99e a9bd 2026 323e 8f42 fabd f4c2 d5bd
00000190: f02f 913b 5f7f 7cbd aac6 f33d ae87 ff3c
000001a0: c813 79bd 38bc 11be d1d0 9ebd b6d9 bbbd
000001b0: c618 4cbd 2c19 c8bc 772b d23b 8979 cf3c
000001c0: 5b99 c4bd 9b1b 6abd f4e8 24be ca0e 063e
000001d0: cfee b13c 202d 873d fc94 9bbd 3b8d 263e
000001e0: b0fd 30be 926c a0bd c956 013e 8461 3c3c
000001f0: d536 1abe 7a7f 5e3d f25d a43c fd71 f5bd
00000200: 2dd6 06be 07a6 b13d 2d83 d2bd 7132 a5bc
00000210: 70c3 8a3b 1f80 9f3b 8b99 c0bd 737f a3bb
00000220: fc54 283e 7470 89be 045d 1fbe c8ad 30bd
00000230: 2f5c a33d f83d 29be 23ae 43be c26a 613d
00000240: ff94 29bc 017f 813d 8f4d 08bd 2fb1 a83d
00000250: 8b34 7fbc 5c31 54bd 0428 ffbd 317a 8b3d
00000260: be6d 9abd 4833 3a3c 4eac 49be 06fa 9cbc
00000270: 6798 2f3e 0c18 3bbd 6f24 38be d371 b63c
00000280: a212 823d eae6 bdbd 1b06 4bbd 0d71 c2bd
00000290: 48dd 553d d535 7a3d 0b88 393d a664 70bd
000002a0: 10b0 27bd 9ceb f0bd 7923 843d f04b 17be
000002b0: 6a49 ecbd eee6 7cbd ff0f a43c b1aa 33be
000002c0: bbe6 38be f36c 093e 90c4 373e ec40 b7bd
000002d0: ca29 4a3d a341 e9bc 595b 94bd f456 163d
000002e0: 601a 15bd 2cfa 8c3d 9821 e2bc cb02 223e
000002f0: bffd 5bbe fc0d 31be 6e75 153d eb1d f93c
00000300: 43e0 37be 5347 e73c 503f cdbd 335e 61be
00000310: a834 db3c a6f1 533d 11c1 aabc d1b2 b5bc
00000320: a0d8 1cbe 64a0 1e3d e71b 02be 06fd 5a3d
00000330: b2ac b1bd 9b44 b4bd 87d5 303e 67f3 ff3d
00000340: 58fa 5b3d de0c 0f3e af81 b13d da2b dd3d
00000350: 4ac5 aebd 6d52 a53d 598b f73d 3e60 8ebd
00000360: 0cd3 49bb de4d f7bd a57a d13d ce7f e03d
00000370: 54a6 01bd b9c1 16bd 3000 8fbd cb4a 73be
00000380: 9648 a1bd 131e 373e 58e0 75bd 9f5e 23be
00000390: 2377 14bd beee a8bd 0c0f 17be d6c9 25bd
000003a0: 3dc4 b6bd 3140 98bd 7f8e a53d 9da7 cdbd
000003b0: 5450 523d 89ae 97bd e158 a1bd 0a17 aa3c
000003c0: e326 213d fde7 b23d d599 cbbd d62f ef3d
000003d0: 8f9c 25bd c782 9f3d d9b0 03be 4532 723d
000003e0: fabc 9c3a 6e5e d2bd c9c5 cbbd 0feb 063c
000003f0: c7e0 893d 6296 8d3c 9e34 e83d 3431 fe3d
0.1269874 0.093946934 -0.11314929 -0.16186759 0.028475437 0.0072061364 -0.15699081 0.11912863
-0.028628446 -0.27622974 9.643026e-05 -0.10323948 -0.08925827 0.010710942 0.05009336 -0.11581725
0.07133625 0.009499464 -0.24275202 0.15789968 0.031058548 -0.0690464 0.05609301 0.17746507
-0.021605665 -0.3692298 0.14631444 0.086701445 0.01794395 0.116035365 -0.03645026 -0.035740033
0.07446314 -0.02410638 0.058983162 -0.06591795 0.0028390686 -0.0010156097 0.15732147 0.019473642
0.0847719 -0.030151408 -0.042847443 -0.026598547 -0.0386265 -0.075984046 -0.023467224 -0.0031557838
-0.15330821 -0.1149131 -0.095065385 0.034545884 -0.20267387 0.058185667 -0.06814582 0.06613052
0.011746761 0.103100665 0.090139784 -0.10788283 -0.100800455 -0.04296948 -0.117974125 -0.098112315
0.060912315 0.10096018 0.07226159 0.007161028 -0.07310373 0.018114625 -0.097894125 -0.041043267
-0.14261238 -0.09301249 0.07988501 -0.021714825 0.13411847 -0.08356798 0.077897094 -0.02055182
-0.016796963 0.003239641 -0.09509018 0.11102667 0.14434639 0.065485395 -0.06493294 -0.001928378
0.022379952 0.0522566 -0.02346623 -0.061431285 0.013261742 0.08564017 -0.22192736 -0.01573257
-0.08282227 0.17397356 -0.12219726 -0.10437575 0.0044307634 -0.061644908 0.119031265 0.031192627
-0.06080988 -0.14231956 -0.07754672 -0.091723844 -0.049828313 -0.024426065 0.006413873 0.025326507
-0.09599563 -0.057155233 -0.1610449 0.13091579 0.021720318 0.06600404 -0.07596776 0.16264813
-0.17284274 -0.07833208 0.12630762 0.011497859 -0.1505998 0.05432079 0.020064328 -0.11984632
-0.13167639 0.08674245 -0.10278926 -0.020165654 0.0042347237 0.004867568 -0.09404286 -0.0049895584
0.16438669 -0.26843607 -0.15562826 -0.04313448 0.07976567 -0.16527545 -0.19109397 0.055033453
-0.010350465 0.06323052 -0.03327709 0.0823692 -0.015576492 -0.051804885 -0.12458804 0.068104155
-0.07540463 0.011364765 -0.19694635 -0.01916219 0.1714798 -0.04567723 -0.17982648 0.022271072
0.0635121 -0.09272559 -0.04956637 -0.09494219 0.052212983 0.061086494 0.045295756 -0.058689736
-0.04093939 -0.11763689 0.06452078 -0.14775062 -0.1153744 -0.06174367 0.020027159 -0.17545582
-0.18056767 0.13420467 0.17946076 -0.0894793 0.04935626 -0.02847368 -0.07243986 0.03670402
-0.036402106 0.06883654 -0.02760391 0.15821378 -0.21483515 -0.17290491 0.036488943 0.030409774
-0.17956643 0.028232252 -0.100218415 -0.2200859 0.026758507 0.051744126 -0.020844014 -0.022179993
-0.15317011 0.03872718 -0.12705956 0.05346396 -0.08675517 -0.08802148 0.17268954 0.12497597
0.053705543 0.13969752 0.08667313 0.1079938 -0.08533724 0.08072362 0.12087125 -0.069519505
-0.003079596 -0.12075399 0.10228471 0.10961877 -0.031652763 -0.036805842 -0.06982458 -0.23759
-0.07875173 0.17882566 -0.060028404 -0.15954064 -0.03624643 -0.082486615 -0.14751834 -0.04047569
-0.08924148 -0.074341185 0.080838196 -0.10041735 0.051346138 -0.07406337 -0.078782804 0.020762939
0.039343726 0.087356545 -0.099414505 0.11679046 -0.04043251 0.07788616 -0.12860431 0.059129972
0.0011958175 -0.10271917 -0.09949834 0.008234753 0.06732326 0.017283622 0.11338161 0.124117285

policy_net.lstm.weight_hh_l0 f4 [256, 64]
00000000: f72e 083e 308a 2e3e 02cd a33d cb30 7d3e
00000010: c34e c13c ebe1 20be e2c9 313e 13e8 d23c
00000020: cea4 cabc 1a88 853d a658 9b3c cf06 833d
00000030: 7b47 763b 56e7 46bd ef4f 053e 0695 d33d
00000040: ea11 ae3d acc5 82be cca6 2a3c fe1f 79bd
00000050: 1385 a23d 65e8 333e 1edc 2a3e 553a 153e
00000060: 25a9 2f3d b18d 0bbe 8781 ffbd 5420 16bc
00000070: 2396 b9bd f9d7 89bd a9f8 343d f4a5 49bd
00000080: b4f7 91bc 024d 5d3e 42ac babd 040f 44be
00000090: 4faf b83d 81ad d23d be34 883d c190 8dbd
000000a0: 5eb2 603d 6361 353d 9323 093e 6732 8cbb
000000b0: 101e b6bd 2bfb 5f3e d84d 2bbe 5d02 1cbd
000000c0: adbb babd c90a 84bc c304 4dbe f6e6 bc3d
000000d0: 4c31 19be d2d3 eb3d c32a 903d cde1 a73d
000000e0: 840e 463e 52d8 23be 6650 513e 8fb0 e0bd
000000f0: 45c8 89bc 7b84 0c3c 1a1e 3abd b922 13be
00000100: 8163 74bd 9225 3b3c fd5d bcbd 96cd 403d
00000110: 8449 38bd 1112 35bd 5215 583c c76b e0bd
00000120: 3d5a 493d 60ce e93d d2e8 b1bc bec1 14be
00000130: aa37 9e3c bde8 91bd b1b3 063e 6d09 a03d
00000140: 6923 6e3d 4fb6 29bc 5fd3 c03b 98d2 bb3c
00000150: 3cc2 523d 80ac cbb8 029b 6dbd 7124 ae3d
00000160: 0cfd 393a 45b0 d93d d8aa 8fbd bc63 fb3d
00000170: 3ee6 74bc b3a5 89bd 1f8d 9abd 7167 0dbe
00000180: c690 19bd b0c4 343d 7667 d2bd a9fc f5bc
00000190: 91b0 c53c aca6 8fbd e81f 81bd 3abe 143e
000001a0: 4fe7 093d acce 7cbd ce03 d5bc 0758 90bc
000001b0: bb84 173d 68be d13c f395 d93d a433 9fbd
000001c0: 7b61 54bd 4524 5f3c eb6a 793c a7b7 c5bd
000001d0: 56a5 123d 16bb 8bbc ccf9 adbc 7065 2f3d
000001e0: c07d d43d 0348 90bc 436d b93d dd5f fdbd
000001f0: b679 e7bd 9d3f a8bd 8dff dbbd f781 7a3d
00000200: 8c8e 0f3d c1f3 87bd 8e8b 9c3d e695 ee3c
00000210: c483 083e a3d9 b23d d622 c03d 0d51 813c
00000220: c85a b23c 3041 0fbd 047a 8a3d 402a 0a3d
00000230: cd7e 8139 d680 8e3d e40a dabb 89ae 78bd
00000240: 28e0 66bd 07ca cabd 9262 783d 2f1d a73d
00000250: a812 96bc 3bb5 013d 3d60 d33d 5862 8f3d
00000260: db31 1f3e 34dd 8b3c e3c8 f9bd f28f 8b3d
00000270: cb91 913d b8df a6bd 2166 3f3e 322f db3d
00000280: f333 5c3d b384 dcb9 2821 33bd 6fea f2bd
00000290: 8b25 54bd 3f69 07be e359 08be 9a6d 81bd
000002a0: 0dc7 f0ba 8e66 153e 8615 4d3d 7070 05be
000002b0: 2e89 d2bc 1fea da3c 5f21 d8bc aeba 72bc
000002c0: 341a 003d 0975 a0bd 7193 8abd a6fc 263d
000002d0: b4ce 0fbe 6683 d03d e4e1 bfbd b584 023e
000002e0: ef2c a83d 7ae9 543b cf62 c73d 23f2 c6bd
000002f0: d982 eabd d6dd f7bc f8b3 ac3d fdc8 cd3c
00000300: 17ac f5bd 5e84 a5bc 2a3a 943c 7a8b 68bd
00000310: 3e69 e03d c6ca 6cbd 4a39 113e 6fde e3bd
00000320: b3f5 7abd 0046 423d 61e1 efbd b790 f93d
00000330: cb7e a33d b580 143d fd4d 58bc 904e f13c
00000340: d727 84bd 2d1c a4bd d1da fbbd 4970 8c3d
00000350: e10c 39bc d2e2 c33b d17d 0f3d 1461 fbbb
00000360: ea08 263e 180e 773d 45a9 b23d 245b 033e
00000370: 566a 303d b481 5bbd 8ed9 3f3d fefa 263e
00000380: d507 053e bf07 59bd e43e 013e 00d4 693d
00000390: d0d1 5cbd 6084 b73d a26a 06be c343 b83d
000003a0: 31a6 91bb 835c 873d 0d3b 923d 8c53 abbd
000003b0: 2473 32bd c501 763d fbdf 7b3d 4925 52ba
000003c0: 123f 753c 3127 d43d 89ee 1fbe b523 053d
000003d0: 3df2 09bb d591 153d 4f5d 09be 4f1e 0fbe
000003e0: 6d88 7e3d 5e4e 30bd 9d56 883d 4976 433d
000003f0: f225 8bbd bead 1cbd 0861 35bb fbfa 7dbd
0.13299166 0.17044902 0.079980865 0.24725644 0.023597127 -0.15711181 0.17362168 0.025745427
-0.024736788 0.065201 0.01896317 0.06397783 0.0037579227 -0.048560463 0.13018773 0.10331158
0.084995106 -0.25541437 0.010415744 -0.060821526 0.07935538 0.1756912 0.1668553 0.14573033
0.04288592 -0.1362827 -0.12475877 -0.009162981 -0.090618394 -0.06730647 0.044182453 -0.04923053
-0.01781831 0.21611407 -0.09114887 -0.19146353 0.090178125 0.102869995 0.06650685 -0.06912375
0.054857604 0.04428233 0.13392477 -0.0042784694 -0.08892453 0.21873157 -0.16728914 -0.03808819
-0.091178276 -0.016118424 -0.20021348 0.0922374 -0.14960212 0.11515011 0.07039406 0.08197365
0.19341475 -0.16000488 0.20440826 -0.10971176 -0.016819129 0.008576508 -0.045438863 -0.14368714
-0.059665207 0.011422532 -0.09197614 0.047071062 -0.044991985 -0.044206683 0.013188677 -0.10958057
0.049158324 0.11416316 -0.021717463 -0.14527032 0.019313652 -0.071244694 0.13154484 0.07814298
0.05813924 -0.010358407 0.0058845724 0.022927567 0.051454768 -9.711925e-05 -0.058009155 0.085030444
0.0007094897 0.10629324 -0.07015008 0.12274882 -0.014947472 -0.06721058 -0.07546448 -0.13808991
-0.037491582 0.04413289 -0.1027364 -0.030027704 0.024132045 -0.07014212 -0.06304914 0.1452569
0.03366786 -0.061720535 -0.02600279 -0.0176201 0.036991816 0.025603488 0.10624304 -0.077735215
-0.051850777 0.013619487 0.015223245 -0.096541695 0.035802208 -0.017056983 -0.021237276 0.042821348
0.103755474 -0.017612463 0.09054043 -0.123718 -0.113025114 -0.08215258 -0.10742102 0.0611591
0.035048053 -0.06638289 0.076438054 0.029124212 0.13331515 0.08732917 0.093816444 0.015785718
0.021771803 -0.034974277 0.06761554 0.0337317 0.0002469927 0.06958167 -0.0066541303 -0.060713325
-0.056366116 -0.09901815 0.06064088 0.08159863 -0.018319443 0.031666975 0.1032109 0.070011795
0.15546362 0.017073251 -0.12196519 0.06814565 0.07107886 -0.0814814 0.18691303 0.10702361
0.05376048 -0.00042060539 -0.043732792 -0.11861121 -0.051793616 -0.13223742 -0.13315539 -0.06319733
-0.0018369869 0.14589903 0.050069354 -0.13031173 -0.025700178 0.026722966 -0.0263831 -0.014815016
0.03127499 -0.07834823 -0.067664035 0.040768288 -0.14043695 0.10181312 -0.09369257 0.12745936
0.082116954 0.0032487796 0.09735643 -0.09714153 -0.114507385 -0.030257147 0.08432764 0.025120253
-0.11995714 -0.02020472 0.018094141 -0.05677364 0.10957573 -0.057810567 0.1418201 -0.1112641
-0.061269473 0.04743004 -0.117129095 0.12185805 0.07983168 0.036255557 -0.013202188 0.029456407
-0.06452911 -0.080131866 -0.12297595 0.06857354 -0.0112945745 0.005977967 0.035032097 -0.0076714847
0.16214338 0.060316175 0.08723692 0.12827736 0.04307016 -0.05359049 0.046838336 0.16306683
0.12991269 -0.052985903 0.12621647 0.057086945 -0.05391103 0.089607954 -0.13126615 0.089972995
-0.0044448604 0.06609442 0.07140169 -0.08365545 -0.043566838 0.06006028 0.0614929 -0.000801642
0.01496865 0.10359038 -0.15618338 0.032504756 -0.0021048926 0.03651603 -0.134145 -0.13976406
0.062141825 -0.043043487 0.06657145 0.047720227 -0.06794347 -0.03825163 -0.0027676243 -0.06200693

policy_net.lstm.bias_ih_l0 f4 [256]
00000000: 5cc9 493e 1fc0 063d be4b b53c 1a5a fd3d
00000010: 6340 9fbb d919 11bd d377 93bc e6aa b43d
00000020: 44ae 2a3e 1044 f9bc cbb3 dabc b7d1 3ebd
00000030: e244 f63d 49fc 313e b120 263e f2c5 df3c
00000040: fa2e 72bd 186d d6bd 4998 c73a 9c3f 83bd
00000050: 62c2 443d 8420 bf3a 1dad 1fbb 5b01 823d
00000060: dcfe 53bd e9ee a03d fa0c 0e3e 5a51 b53d
00000070: 63d7 a0ba 3074 9ebc 1c32 033e 5a80 c03d
00000080: 4230 113e 3a61 a93c 8c78 b43d 942e f63d
00000090: 9900 733d f21f 9b3d dd14 7a3d 78fb 823d
000000a0: 889e 673d 2c25 143e e7ab 2b3d 3bea 273c
000000b0: 7dfb f73d a8e2 30bd b0e0 223d 04f7 4bba
000000c0: 75b3 aabc e049 183e 9839 0b3e 897e a1bd
000000d0: ba0d 4abc cf4c 763d 566d e53d d2f0 ab3d
000000e0: 105b 883c 7115 fbbd 8ac0 1fbd 197b e23d
000000f0: f231 95bc 9cf0 fdbc 2071 50bd 35ae 043e
00000100: 2353 eabd f0f7 f0bd 012a a9ba 41d3 b03d
00000110: 35e6 8f3d f15c 23bb 3159 953b 13d0 49be
00000120: bb9c 4ebe 3796 c93a a22f 48bd c4b9 fcbd
00000130: b8f5 82bc d8e4 0dbe 164a dfbc 3928 adbd
00000140: 7fc0 373e 946e 713d 0b60 213e a89c 3d3d
00000150: 07ba 05be ce38 bdbd 888e 9ebd d841 6cbd
00000160: 661d 8fbc 7f4b 08be 2f88 353d a063 18be
00000170: fa5f f2bd 2d56 7ebc 7250 8cbd 7d7e 94bd
00000180: 10af 35be 8e74 013e 7967 83bd ce72 b83a
00000190: 0d1d 23be a8f0 2d3d 4125 b5bd 9c0f 17be
000001a0: f929 20bc c17d d2bd 27a7 6ebb 7431 2d3e
000001b0: 1e2c 45be d329 8c3b 3904 173e 995b 183c
000001c0: 6c45 b83d 8190 4dbe c954 bdbd 3fa4 d9bd
000001d0: 338e bb3d 40e7 8f3c c03d 1abe 676c eebd
000001e0: 48e1 fdbd b5b8 febb 37f7 ee3d 8b74 f03d
000001f0: 1b0b 93bd 8988 50bd 3200 693c 77bb 72be
00000200: cf82 9ebd 66ca 113e 0fb5 dc3d 8f43 ed3d
00000210: 0be5 bbbb 0d62 29bd 9ac6 3dbb b35b 153d
00000220: 2d51 0f3e 5207 2e3e 5149 153e cb69 9a3c
00000230: 4a66 223e 4796 673d 7cc2 253e ba99 fc3d
00000240: 370c d43d 704f b93d 8b15 33bd 6bd9 27bd
00000250: 521c 0d3e d962 d83d 7ca6 1f3c 1771 5f3d
00000260: 9594 0c3e 38e0 0abd 8d8f 633d 5dbb 4f3d
00000270: aceb f53c 4e81 72bd 234a 09bc 044c 703c
00000280: b683 353d 40b3 943d ab22 70bc c84e bd3d
00000290: 453c 40bd 5cd0 153e 55dd 0dbe b8b9 adbd
000002a0: ef63 42bd 55f2 0e3e a0fb dd3d e985 08be
000002b0: b718 c53d db28 1d3e e8ae 20be 36fd 27bc
000002c0: 7007 12be ae6b d43d 3fb3 1abe a22c ed3c
000002d0: 43fc bbbd ecd8 293e 90e6 013e 72dc e93b
000002e0: 1e7a 443c 73dc 963d 8208 263e 83a9 36bc
000002f0: d278 e5bd 9281 fabd f7c0 c1bd 73f6 f73d
00000300: 8604 d53d 7a84 a73c b0a0 f7bc de99 4cbc
00000310: 410b 41bd 2083 293c 9c17 9bbd 1401 c03b
00000320: a390 f63d b831 a53c 8010 0dbd 3a8c 75bd
00000330: d9fd 233e cc1e 0d3e e6e9 8cbd 7b17 623d
00000340: 2581 aa3c 63e8 9d3c 36be 423d b1db 9f3d
00000350: 3aff a5bd 4508 cbbc 1e0f 4abd 0e77 ee3d
00000360: 6830 36bc 3a39 833d 08d6 8ebd 0a11 b7bc
00000370: 73ca f63d 61a9 67bd 9ee7 d3bc d410 963d
00000380: 13ff 6e3d d656 c23d 5cda e83c 585f 883d
00000390: 4632 d93d bd9c f6bd 99b0 3f3e 34ef 223d
000003a0: be91 69bd 4cad 72bd eceb 8ebc 60be f53d
000003b0: 362e c93b 69b0 843d 71f7 263e 4aa3 6abd
000003c0: 8e3d 083e 3496 023e 1aad 1b3d dca7 0d3e
000003d0: 3be2 ae3c a1b7 e2bb b336 553e 51d2 bc3d
000003e0: d7c0 f93d 32eb b3bd 04b4 a7bd f9ba c83c
000003f0: 0f64 b9bd d31e 1a3d 3e5b bbbb ac7d 033e
0.19705719 0.032898065 0.022130843 0.12370701 -0.0048599704 -0.03542504 -0.018001473 0.08821659
0.1666804 -0.030427963 -0.02669706 -0.04658672 0.12024857 0.17381395 0.16223408 0.027316067
-0.05912683 -0.10470027 0.001522788 -0.06408617 0.04803694 0.0014581834 -0.0024364658 0.06347915
-0.051756725 0.078580685 0.13872138 0.08853407 -0.0012271221 -0.019342512 0.12812084 0.09399481
0.14178565 0.020676244 0.08812055 0.12020603 0.05932674 0.075744525 0.061055053 0.0639562
0.05654767 0.14467305 0.041911986 0.010248716 0.121085145 -0.043184906 0.03976506 -0.00077806436
-0.020837525 0.14871931 0.13596189 -0.07885463 -0.012332374 0.060131844 0.11202495 0.08395542
0.016644984 -0.12259949 -0.03900198 0.11058635 -0.018212292 -0.03099852 -0.050889134 0.1295708
-0.11441638 -0.1176604 -0.0012906195 0.086340435 0.070263304 -0.0024927224 0.0045577516 -0.1970828
-0.20176975 0.001537985 -0.04887355 -0.123401195 -0.015986308 -0.13856828 -0.027257007 -0.084549375
0.17944525 0.058943346 0.15759294 0.046291977 -0.13059245 -0.0923935 -0.077420294 -0.05767998
-0.017470073 -0.1331005 0.044319328 -0.14881754 -0.11834712 -0.015523476 -0.06851281 -0.07250688
-0.17742562 0.12642118 -0.0641622 0.00140723 -0.1592905 0.042465836 -0.08844996 -0.14752048
-0.009775632 -0.10277892 -0.0036415549 0.16913396 -0.1925511 0.004277447 0.14747705 0.009299182
0.08997616 -0.20074655 -0.09244687 -0.106270306 0.09157982 0.017566323 -0.15062618 -0.1164177
-0.123964846 -0.0077734836 0.11668246 0.11740979 -0.071798526 -0.05091146 0.014221238 -0.23704325
-0.077397935 0.14237365 0.10776722 0.115851514 -0.005734091 -0.041353274 -0.0028957487 0.036464404
0.1399581 0.1699498 0.14578749 0.018849274 0.15859333 0.0565398 0.16187471 0.123340085
0.10353892 0.090483546 -0.043721717 -0.04097883 0.13780335 0.10565729 0.009744283 0.05455121
0.13728555 -0.033905238 0.055556823 0.050715793 0.030019604 -0.059205346 -0.008379492 0.014666561
0.044315062 0.07260752 -0.014656703 0.09243542 -0.046932478 0.14630264 -0.13853963 -0.08482689
-0.047458585 0.1395963 0.10839009 -0.13332333 0.096238546 0.15347616 -0.15691721 -0.010253241
-0.1426065 0.10372101 -0.1510744 0.028951947 -0.091789745 0.16586655 0.12685609 0.007136875
0.011992006 0.07366266 0.16214183 -0.011148813 -0.11204685 -0.12231745 -0.09460633 0.12107553
0.104012534 0.020448912 -0.030227989 -0.012487857 -0.047129873 0.010346204 -0.075728625 0.0058595035
0.12039306 0.02016531 -0.034439564 -0.059948184 0.16014804 0.1378128 -0.0688055 0.055198174
0.020813534 0.01927585 0.04754468 0.07805575 -0.08105321 -0.024784217 -0.049330823 0.11643802
-0.011119939 0.064073995 -0.06974417 -0.022346992 0.12050333 -0.056558017 -0.02586728 0.073274285
0.058348726 0.09489219 0.028424434 0.066588104 0.10605292 -0.12041614 0.1871971 0.039778903
-0.057023756 -0.0592473 -0.01744648 0.11999202 0.006139542 0.0647896 0.16305329 -0.05728463
0.13304731 0.1275261 0.03800688 0.13833565 0.02134811 -0.006918863 0.20821647 0.09219802
0.121949844 -0.08785094 -0.08188632 0.024503218 -0.09052288 0.037627053 -0.005717664 0.12840909

policy_net.lstm.bias_hh_l0 f4 [256]
00000000: 1810 863d 7def 63bd af9e 8dbd 6307 d43c
00000010: 5094 46bd bde7 ac3d 6ff0 bc3b 0331 173e
00000020: a84c 893d 0d1f 453e 1eff f93d 3942 2c3d
00000030: 4de4 083e b917 ff3c 7235 103e 502a 123e
00000040: c3a0 213e dd52 093d 12bf 41bc 8205 193e
00000050: 2141 dabc 2c90 313e 31d2 3dbd a75c b33d
00000060: 9946 df3d 8b6c 373e 4a80 a53d 414b 65bd
00000070: 0a96 7d3a 48f7 01bd bf92 ab3d f990 063e
00000080: 03a1 213e 4ede 023e b873 e73d 8e77 ac3d
00000090: 31ca c3bc 5a4c a23c 3090 503d e0be d33d
000000a0: b0ea 783d b13f 263d dc1f 913d a212 363e
000000b0: 641e 9cbd 70a7 793d ddef f63d db8e cd3d
000000c0: 9f8e 4a3c 1303 ed3d e3ae d93d 0c62 7abc
000000d0: e21a 80bb 7a8b 81bd 652b 0a3e a52d 603c
000000e0: 8861 133d 667d 593d c151 94bd 2d05 ea3d
000000f0: 0dac 94bd 033b fbbc b94a 92bd 7e5a b53d
00000100: c6a3 d3bd 9224 42be cb66 243b 2736 0cbe
00000110: e150 8f3d 239d 943d c651 9dbd 5b6b 92bd
00000120: be47 5cbe 0938 eabd 9ad3 a43c c67b 8bbd
00000130: 09d4 c0bd 4502 30be 7b1d 82bd 8daa 823d
00000140: 9eaf 5e3d af6a dd3d b67d f53d 08fe dd3c
00000150: f0bf f13c 87e3 38bc c14e 34be ccbf a1bd
00000160: f0ec e6bd 362e 063d 35bb 93bd 4b6b c4bd
00000170: 1500 f3bd 8dc9 23be 323e ecbd 06b2 56bd
00000180: 8ea0 b23c aee0 573d 192c 343c 61ed 9739
00000190: 3800 4abc efcc bbbd 2445 09be 15fb a3bd
000001a0: cd5e f3bd a9ac f03b b39f 1a3c ebd8 4abd
000001b0: d2a2 57be b3ee 9d3c 2e1e 85bd 93ca 4fbd
000001c0: 90c0 04be 4dcd 06be cb8c 10bd e2fe aa3c
000001d0: 2c44 753d bbb3 8dbd 84e4 43be 681e db3a
000001e0: fb7a 94bd 1880 e8bd 2dee b4bd e621 9ebc
000001f0: accb b7bc 988e 4ebe 638b 073d b413 f1bd
00000200: 77c2 12be 0a4d 93bd d31f 93bd d99d 5ebc
00000210: 5a31 2bbc 3b30 c83d 8e9b ba3d cc8b ffbd
00000220: 5ee4 3f3c b8c8 a93d 9ffb db3c 861f 0b3b
00000230: 4f89 283b 7f00 cabd ccce 903d 8d67 1d3c
00000240: db84 2f3e fa98 843d 11bb 01bc 5b97 31be
00000250: af53 9ebd 3a64 003e d7b1 8bbd 88cb a03d
00000260: 3f68 51bd 244b 2fbe 7e3e c53c 24ac adbd
00000270: 3d97 413a 12f6 ae3d 8036 98bc daab 4b3d
00000280: 1ea4 d63d 384b 273e a8eb 28be 1434 32bc
00000290: 9c8d e63d 2336 cb3c 3d9e 04be 8511 a0bc
000002a0: 981b 5abd 4d31 d83d ae5a 1f3d bb03 a9bd
000002b0: f1ec 243b b07f 7a3d 5365 32be a76f 00be
000002c0: bcf0 28bc e4af c9bd 20b5 ecbc a712 b8bd
000002d0: 5130 8abd 15a7 083e d99a d03d 205a 8d3d
000002e0: 054b c0bc 1b78 9fbc b9fd 4d3d 9ca2 ac3c
000002f0: a693 853d b444 eabd a57f 9bbd d4f6 f8bb
00000300: 4162 993b 0c99 ee3d 9d83 103e 41b2 c8bd
00000310: a253 ad3d 2a72 e1bd 4c10 bfbc 3471 f53d
00000320: 71f5 383d 15ed f93d b2a0 f33d a66b b83d
00000330: c41e ff3d 6039 cdbc 2434 92bd ce31 2a3b
00000340: 7e38 7c3d e8c2 d63c 7f8e 54bc f4d2 893d
00000350: 669f fbbc 0374 afbd 7bac d03c aa10 f5bc
00000360: 0a01 90bd 2114 dd38 3cae cb3d 1222 0c3e
00000370: a0ff 1c3e 4c87 123e cfc2 d33d 8cce b83d
00000380: 2831 383a 7691 b5bd ac29 be3d 056d 8e3d
00000390: 5e94 af3d d03a 04be 3797 da3d 8606 433e
000003a0: 3697 623d c31b 4d3d e0e3 65ba e70f a63d
000003b0: ae37 b63d 9f1a 52bd ef10 243d d910 333d
000003c0: de7d 103e 3973 193e 7d79 1e3e 0389 163d
000003d0: 4b5b 82bc 7823 fc3d 6ea3 293e a159 7fbd
000003e0: 4a94 d53c b9b8 a4bc 98ba 8ebd 2118 8c3d
000003f0: 01f7 8dbd a25e e7bc 0c74 9e3d 3d35 053e
0.065460384 -0.055648316 -0.06915032 0.025882429 -0.048481286 0.08442638 0.0057659666 0.1476479
0.06704074 0.19250126 0.12206863 0.042055342 0.1336834 0.031139242 0.14082888 0.14273953
0.15783982 0.03352629 -0.01182534 0.14943507 -0.026642384 0.17340153 -0.046343032 0.087579064
0.10902137 0.179125 0.0808111 -0.05597997 0.00096735416 -0.031729966 0.08377599 0.1314124
0.15784077 0.12780115 0.113013685 0.08421241 -0.023900123 0.019811798 0.050918758 0.10339141
0.06077069 0.040588085 0.07086155 0.17780545 -0.07622984 0.060950696 0.12057469 0.10037013
0.012363105 0.11572852 0.1062906 -0.015282165 -0.0039094547 -0.06325431 0.13493116 0.0136827575
0.035981685 0.053098105 -0.07242156 0.114267685 -0.072593786 -0.030667787 -0.071431585 0.08855151
-0.10333972 -0.18959263 0.0025085683 -0.13692532 0.06997848 0.07256534 -0.07681613 -0.07149383
-0.21511742 -0.11436469 0.02012043 -0.06810717 -0.094154425 -0.17188366 -0.06353279 0.06380186
0.0543667 0.10811364 0.11986868 0.02709867 0.029510468 -0.0112847155 -0.17608167 -0.078979105
-0.11275661 0.032758914 -0.07213441 -0.09590777 -0.1186525 -0.15994854 -0.115353 -0.05241587
0.021805074 0.052704506 0.010996842 0.00028977825 -0.012329154 -0.09169947 -0.13405281 -0.080068745
-0.11883316 0.0073448014 0.009437489 -0.049523275 -0.21058205 0.01927886 -0.06499897 -0.0507303
-0.12964082 -0.13164254 -0.03529052 0.02087349 0.059879467 -0.069190465 -0.1913014 0.0016717436
-0.07250019 -0.11352557 -0.08834491 -0.019303273 -0.022435986 -0.20171583 0.033091914 -0.11771336
-0.14331995 -0.071924284 -0.07183804 -0.0135874385 -0.010448778 0.09774824 0.09111701 -0.12477836
0.011712162 0.08290237 0.02685338 0.0021228506 0.0025716608 -0.09863376 0.070706934 0.009607208
0.17140524 0.064744905 -0.007918135 -0.17342894 -0.07730805 0.12538233 -0.0682103 0.078513205
-0.051124807 -0.17118508 0.02407765 -0.08480099 0.0007384902 0.08543028 -0.018580675 0.049724437
0.104805216 0.16337287 -0.16496146 -0.010876674 0.112574786 0.024806088 -0.12950988 -0.019539604
-0.05324897 0.105562784 0.03890484 -0.08252665 0.0025165642 0.06115693 -0.17421465 -0.12542592
-0.010311302 -0.098480016 -0.02889496 -0.08987933 -0.06747497 0.13344987 0.10185785 0.069019556
-0.023473272 -0.01946645 0.050290797 0.021073632 0.06522302 -0.11438885 -0.07592706 -0.0075977836
0.004680902 0.11650285 0.14112706 -0.09799624 0.08463217 -0.11008103 -0.0233232 0.119844824
0.045155946 0.12203423 0.118958846 0.09004907 0.1245704 -0.025051773 -0.07138851 0.0025969627
0.061577313 0.026215985 -0.012973427 0.06729689 -0.030715656 -0.08567049 0.02547287 -0.029915173
-0.07031448 0.000105418505 0.09945342 0.13684872 0.15331888 0.14309424 0.10339891 0.09023771
0.0007026368 -0.08865635 0.09285292 0.069543876 0.08573221 -0.1291306 0.10673373 0.19045457
0.055319987 0.050075304 -0.0008769613 0.08108502 0.08897339 -0.05129492 0.04005521 0.04371724
0.14110515 0.1498536 0.15476032 0.03675176 -0.015912673 0.123114526 0.1656625 -0.062341336
0.026071686 -0.020107614 -0.06969184 0.0684054 -0.06931878 -0.028243367 0.07736978 0.1300859

policy_net.lstm.weight_ih_l1 f4 [256, 64]
00000000: 0d5c 2cbd 4220 d4bd 0059 8f3d 1086 88bc
00000010: 1476 ab3d 2a33 d5bd 7626 b03d 07ae ff3d
00000020: d304 f9bc 686d 80bd d52a 2c3d 8ad8 efbc
00000030: 71ed ad3d b6fc d1bd 03da 9b3d d0fa 87bb
00000040: 04d0 68bb 6100 38be 20c3 f6bd 37c0 913d
00000050: ad73 e43d 85e4 1e3e bca4 df3d 3ee5 1dbc
00000060: d223 bf3c 3553 a6bd aa56 6f3d fafa 60bd
00000070: 57b5 c2bd 1fbe 3e3d 9c72 373b 53c2 debd
00000080: d75d ffbc 1933 aa3d 9f56 babc e0bb 383b
00000090: 4f6a a7bd 65fc dfbc dd65 15bd 534f d93c
000000a0: 72de 0e3e 06cf 6fbc 7818 863c 0014 513d
000000b0: 2c39 fabd d92b db3d 8b19 3b3d 5119 b8bd
000000c0: e1d3 e2bd a1d8 17bd 4ed4 3abd 6d0e c33d
000000d0: aab5 bd3c 0150 2e3c 7646 c93c 8302 a8bd
000000e0: e5bb 0a3e c9ea 653d a7b1 e3bc 1450 23be
000000f0: c71d bc3d 6a5f a43d f625 b2bd 2004 e8bc
00000100: a089 77bd 9ad3 d03d 5c94 0c3e 3057 773d
00000110: fdb3 003d fe52 18be 6e9c 96bd 49b7 7fbe
00000120: f5f9 7d3e b361 fe3d 2b31 443e 57ec 42bd
00000130: cd31 f63d 1413 073e b665 433d 433d 30be
00000140: 438b 0b3e 04b1 9bbc 2973 f0bd 5db8 a23d
00000150: 48b0 dfbd 29f6 9cbc e67f adbd 581d a3bd
00000160: 6fc7 34bd 5fab cfbd e6ef bdbc 375b 81be
00000170: 7077 313e 9683 103d d8e5 ec3d 91b4 903e
00000180: c607 4c3e 23a7 bf3d 2b08 ff3b 6e1e 3f3e
00000190: 7e18 753c 72a0 4fbe 166d c1bd 2d5b 373e
000001a0: 4112 933d e945 03bb f59c f63d 1b7d 36be
000001b0: b5b3 d0bb 4678 d63d 5dc9 88be 3064 33be
000001c0: 4b42 f9bd 0108 35be 3de9 eb3d 6bdd 5ebd
000001d0: 8fd9 3ebe 4c66 90bd 2737 7dbd 4387 b2bc
000001e0: 4b76 893d c03f c4bd e3bc ddbd 497a 373d
000001f0: 8109 b73d 090d cdbd b792 583d 7ae4 a23e
00000200: f2df 07be f4a6 113e c90d d83b d9b5 95bd
00000210: 2fc6 76bd 78ac ff3c 2979 5cbd 8008 02be
00000220: 9e3b 813d 50f1 353d 20c8 fabd 673f d33c
00000230: ca89 c73d ad34 ce3d d273 eebc 9e24 adbd
00000240: 97c8 99bd d748 483b bf96 be3c 9db7 d2bb
00000250: f508 d5bd a0f9 abbc ff0f c23d d0a8 5cbc
00000260: 2c7b 463d 81af 0cbe ab22 383d e0fa a7bb
00000270: d411 5ebd 2cbf bb3d b0df 19bc d3d6 cabd
00000280: 6265 063d acb7 4c3d f604 80bc a679 233d
00000290: 14d7 f53d 63fa f53d 3b11 e13d 8a9b 7bbd
000002a0: 5cb9 68bd 20f3 d0bd 6e01 82bd b84e 77b9
000002b0: a8a5 4dbc 8ee1 f73d 5818 11be 5fad 4dbd
000002c0: 155b 33bd 8ae4 7a3d 299a c23d eeb9 d3bd
000002d0: 8cc3 323d 07a8 95bd d6c0 6ebd c58b dabc
000002e0: b8a8 963c efae 3e3d 4cd1 8b3d 6bab e4bb
000002f0: c1a4 363e cf58 fcbc 1f83 4bbd 3e32 023e
00000300: 2770 aabc 056b d1bd 92c3 4d3c 3212 4ebd
00000310: ceee a23d a43b 61bd fc84 8bbc 4019 d13d
00000320: 6440 1ebc bcfd a7bc 87c5 ab3c 12ce 1fbb
00000330: c38f a53d eda9 abbd 9401 14bd 5bc2 d5bd
00000340: 2f60 c7bd e7f5 63bd b288 7d3d dd45 713d
00000350: 28cc cebd 80a7 63bd 7ed7 afbd be5d a03c
00000360: 3755 73b7 808a 0cbd 215b 4cbd c576 583d
00000370: fbca dd3c 1c64 933d e01a 653d 1f0a a63c
00000380: ece4 e43d d383 823d 4b6a 0e3d c301 1cbe
00000390: ccea 9f3d 3e34 873d c770 e0bd 8b64 173c
000003a0: 5dda e5bd f804 513d e5c8 cdbc 77ba 9b3d
000003b0: 6dac c43d 032f b63d 6b17 643d baa6 5e3d
000003c0: 5f33 abbd 5dbd 233d 7e8e 6fbd 63ba 1f3d
000003d0: dda6 c83d 0848 683b 45f9 f6bd ed6e c7bc
000003e0: b21c 153d 3681 fcbd 6ee1 ae3d 3a3f ecbc
000003f0: 1c02 74bd 5e52 c83d f958 863d 2b5c 38bd
-0.042079974 -0.10357715 0.06999397 -0.016665488 0.08372131 -0.104101494 0.08601086 0.12484365
-0.030397808 -0.062708676 0.042033035 -0.029278059 0.08492554 -0.10253279 0.07609942 -0.004149772
-0.0035524378 -0.17968895 -0.12048936 0.0711674 0.11154876 0.15516861 0.109200925 -0.009637175
0.02333251 -0.08121339 0.05843226 -0.05492685 -0.09507244 0.046568032 0.0027991896 -0.10876908
-0.031172676 0.08310527 -0.022746382 0.0028188154 -0.08174574 -0.02734203 -0.036474098 0.026527083
0.13952044 -0.014636761 0.01636909 0.051044464 -0.12217936 0.10701723 0.045678657 -0.08989204
-0.11075569 -0.037071828 -0.045612626 0.09524236 0.023157913 0.010639192 0.024569731 -0.08203604
0.13548239 0.05613211 -0.027794672 -0.15948516 0.09185367 0.08026011 -0.08698647 -0.02832228
-0.060433984 0.1019661 0.1372847 0.060385883 0.03142165 -0.14875409 -0.07354055 -0.24972261
0.24802382 0.124209784 0.19159381 -0.047588672 0.120212175 0.13190871 0.04770442 -0.1721087
0.13627343 -0.019005306 -0.11740715 0.07945321 -0.10922295 -0.019160347 -0.0847166 -0.07964581
-0.044135507 -0.10140108 -0.023185682 -0.25264904 0.17330718 0.03528174 0.11567277 0.2826276
0.1992484 0.09358051 0.007782956 0.18663952 0.014959453 -0.20276049 -0.094446346 0.17905875
0.07181216 -0.0020030683 0.12041656 -0.17821161 -0.006369079 0.10472159 -0.26716128 -0.17518687
-0.121708475 -0.17678834 0.11519096 -0.05441038 -0.1863768 -0.070507616 -0.061820175 -0.021793013
0.06712016 -0.09582472 -0.10827043 0.044794355 0.089373596 -0.10012252 0.052874293 0.3181494
-0.13269022 0.14223844 0.00659344 -0.07310075 -0.060247596 0.03121017 -0.053826485 -0.12698555
0.06310199 0.044419587 -0.12245202 0.025787069 0.09743078 0.10068641 -0.029107962 -0.0845425
-0.075089626 0.0030560994 0.02326524 -0.00643058 -0.10402099 -0.020993054 0.09475707 -0.013467982
0.04845731 -0.13738824 0.044954937 -0.005126342 -0.05421622 0.091673225 -0.00939171 -0.09904256
0.03281153 0.04997985 -0.015627366 0.039910935 0.120039135 0.12010648 0.109896146 -0.06142763
-0.056817397 -0.102026224 -0.06347929 -0.0002358508 -0.012551703 0.12103568 -0.14169443 -0.050214168
-0.043788034 0.061253108 0.0950206 -0.10338198 0.04364352 -0.07307439 -0.05828937 -0.026677975
0.018390998 0.04655355 0.068270296 -0.0069784424 0.17836286 -0.030804066 -0.049685594 0.12714478
-0.020805432 -0.102254905 0.012558835 -0.05031032 0.07955705 -0.05498852 -0.017031185 0.10209894
-0.009658907 -0.020506732 0.020968212 -0.0024384302 0.08084061 -0.0838202 -0.036134318 -0.10437461
-0.097351424 -0.055654433 0.06189794 0.058904517 -0.100975335 -0.055579662 -0.08586024 0.01957595
-1.4503769e-05 -0.03431177 -0.049891595 0.052847642 0.027074328 0.07196829 0.055933833 0.020268498
0.11176476 0.063728 0.034769338 -0.15235047 0.07808456 0.06601761 -0.109590106 0.00924028
-0.1122329 0.05103013 -0.025120208 0.07603925 0.096032 0.088956855 0.055686396 0.05435822
-0.08359408 0.039975513 -0.0584855 0.03899611 0.09797452 0.0035443325 -0.12059263 -0.024344886
0.03640432 -0.123293325 0.08539091 -0.028838743 -0.059572324 0.09781335 0.06559939 -0.045009773

policy_net.lstm.weight_hh_l1 f4 [256, 64]
00000000: 3187 ce3d 2711 ecbd 612a 89bc 1b56 afbd
00000010: 6a67 bc3d d8c2 a73d 5abc c7bd e48d 6c3b
00000020: 43ba 883d a733 25be 6ee5 303b 0e4e a73c
00000030: 436f d5bc b2d0 35be 072a a23d 5035 d0bd
00000040: be67 cc3d e8ae b3bc d728 483d 85f0 94bd
00000050: 66e3 523d c1da 993c e6f6 f33b 7c34 ccbd
00000060: b7b7 21bd 65df 033c 8d02 633c 9b4c 9ebd
00000070: e15c 673d 8900 05bd 2c0d f2bc a706 2f3d
00000080: 3c9d f6bc 87a7 0a3e fef9 ae3d 9aec 14bd
00000090: a7ec 023b 724b 8cbb 3980 453d 4484 3bbd
000000a0: 05bd d1bc 9308 993d 26e6 a93d 5022 f73d
000000b0: 97be 42bc dc5a 67bd f399 04be 6539 29be
000000c0: cc3f 94bd 2957 e93d d9be 503d 794c 5c3a
000000d0: 60e4 163b 197d 813d 8ebf cc3b 43c9 92bd
000000e0: be94 7e3d 8937 793c 933e 5dbc c032 c9bd
000000f0: 6c50 1a3c 4848 fa3d 1e96 233d 5548 4d3c
00000100: 04c9 a43d 3e09 23be 6968 17bd f4b3 063e
00000110: 519c 3c3e f111 313c 5eba b9bd 2537 5bbd
00000120: b01c 09be 4981 1fbd a854 2fbe 37e4 803d
00000130: b7fa 2ebe 200a f9bd 6556 edbd 5d3d edbc
00000140: f1c5 17be 1c6f 883d 4a52 603d a642 dc3c
00000150: 9b8d 14be 61a9 253c cd9d 503d 2c13 79bd
00000160: 8768 9c3b f154 2e3e 4f94 113a 25fb 49bd
00000170: 3d65 17be c35a 673d 5ad0 7bbd 99ea dd3d
00000180: 88af 63bd 4a02 a8bd 9113 20be 2934 c0bb
00000190: 8cae ecbc 9e40 7b3c 5234 ee3c c6b6 cabd
000001a0: d926 023e f304 e9bc 03a4 0a3e eefb 67bc
000001b0: e5d0 6cbc 6845 e33c db31 08bd 31e2 723c
000001c0: 7fae 21be 3373 66bd c3bc eebd c859 3bbd
000001d0: 1805 7c3b d53b 233d 04a8 0d3e 9dae 0b3d
000001e0: 5e91 0bbd 9f3c 22ba 593d 00bd 0799 5fbd
000001f0: 3956 77bd 898f e73d 60dc 05bd f097 7a3d
00000200: 301e c6bd 62cf 8fbc aafe 14bd 1a1a d6bd
00000210: 87e7 843d d318 a6bd 9bbf e23d 74a5 36be
00000220: f134 48bc b210 2f3e 75ce 96bd 42e5 b2bd
00000230: 8436 02bd 35e5 abbd 8fe6 b43c 3429 c1bb
00000240: 5436 87bd b203 633d b675 473d 16fd 7abd
00000250: a108 123e b3ce e63d 613a 09be 2236 79bc
00000260: 5d87 4b3d 6702 333c 60d3 0fbe 867c f1bc
00000270: c2bf 6abc 6901 eb3d a4ae a23d f620 18bd
00000280: d291 8b3d 5cbb 91bd 2bc8 08bc be0b b8bd
00000290: 24b7 133c 91cb eebd c494 123c 39ee 013d
000002a0: 6c49 dcbd fa04 98bd 9500 ff3d e343 42bd
000002b0: 9f3a 83bd b47d d3bd 2ebc 0cbe c488 6e3d
000002c0: 2b81 81bd 2772 f2bd f2b2 a5bd bf1f 5ebd
000002d0: 131f 663d a1eb 573d 12ad a1bd b9c7 94bd
000002e0: df29 e33d 56e2 42bd 3abc 4a3d 0f16 3d3d
000002f0: 1286 993d 5a56 37bc c03d 9bbc 681e 563d
00000300: 69f5 64bd 2d6d f93c ab8b d53b 7de8 1d3c
00000310: 9381 d23c a734 72bd c7c5 c33c 141d a43d
00000320: 335a c73d 6a16 35be 41d3 21bd b6fd 573d
00000330: b2c2 5fbd e5a5 f63d 7a6f c63c 82c3 91bd
00000340: 4b65 d43c 5ddd adbc 5034 a4bc 2455 583d
00000350: eb08 febd 98f4 843d b231 a33d e057 c0bd
00000360: 75c0 123c be7c e63c 728a ca3a fa5e 8f3b
00000370: 2149 c3bd 2830 65bc 9d35 e7bd 91a9 5d3c
00000380: 3448 53bd ad79 1e3d 8a48 15bd 0cc8 86bd
00000390: 574e 883d caa8 ebbd bba6 853d 8ccc 213d
000003a0: 7262 5e3d 24a4 033e 35f9 873d 1bbd 1bbd
000003b0: cd9e b5bd 5a75 fc3d 62a8 07bd 5ed7 86bd
000003c0: 5b1e f73b 82a0 de3d b10c 94bd 223e a33d
000003d0: af67 c43d c28c cabd 82f8 0a3d 79d7 21be
000003e0: af0d c63d 968d 023e f604 573d 381e a5bd
000003f0: a6a5 dabc 0cee 0f3d 4b46 203c cae7 60bd
0.100843795 -0.11526709 -0.01674384 -0.08561345 0.09199412 0.0819146 -0.09752722 0.0036095316
0.066761516 -0.16132985 0.002699222 0.020422962 -0.02605403 -0.17755392 0.07918172 -0.101664186
0.09980725 -0.021933988 0.048867073 -0.07272438 0.051486395 0.018781068 0.007445204 -0.09970948
-0.039481845 0.008048867 0.013855589 -0.07729455 0.05648506 -0.032471213 -0.029547296 0.042730954
-0.030104272 0.13540469 0.08543776 -0.036358453 0.0019977482 -0.0042814547 0.048217986 -0.045780435
-0.025602827 0.074723385 0.082958505 0.120670915 -0.0118862605 -0.056483135 -0.12949352 -0.165258
-0.07238731 0.113935776 0.050963257 0.00084037293 0.0023024306 0.063226886 0.006248421 -0.07167294
0.06215357 0.0152109945 -0.013503688 -0.09824133 0.009418588 0.12220818 0.039938085 0.012529452
0.08046153 -0.15921494 -0.036964808 0.13154584 0.18419005 0.0108075 -0.0906875 -0.053519387
-0.1338985 -0.038941655 -0.17122138 0.062935285 -0.17087828 -0.12160134 -0.11588744 -0.028959924
-0.14821602 0.066618174 0.054765977 0.02688725 -0.14507143 0.010111184 0.05093174 -0.0608093
0.004773203 0.1702459 0.0005553411 -0.049311776 -0.14784713 0.05648304 -0.061477996 0.108357616
-0.05558732 -0.082035616 -0.15632464 -0.005865593 -0.028891824 0.01533523 0.029077683 -0.098981425
0.12710132 -0.028444743 0.13539128 -0.014159186 -0.014454101 0.027743056 -0.03325067 0.014824436
-0.15789221 -0.056262206 -0.11657097 -0.04573992 0.0038455185 0.039851982 0.13833624 0.03410207
-0.03407418 -0.0006188843 -0.031308506 -0.054589298 -0.060384963 0.11306674 -0.03268087 0.061180055
-0.096737266 -0.017554943 -0.03637568 -0.10454197 0.06489473 -0.081102036 0.11071702 -0.17836553
-0.012219653 0.17096213 -0.07363597 -0.08735134 -0.03179027 -0.08393327 0.022082595 -0.0058948044
-0.06602159 0.055423446 0.048696242 -0.061276518 0.14261104 0.112698935 -0.13401176 -0.01521066
0.04968964 0.010925866 -0.14045477 -0.029478323 -0.014327945 0.11474878 0.07943466 -0.03714081
0.068149224 -0.07115814 -0.008348505 -0.08986615 0.009015832 -0.11659921 0.008946601 0.031721327
-0.107561916 -0.07422824 0.12451283 -0.047428023 -0.064076655 -0.1032671 -0.1374366 0.0582359
-0.06323465 -0.11838179 -0.08090772 -0.054229494 0.05618198 0.052714948 -0.07894339 -0.072646566
0.11091971 -0.047579132 0.049495913 0.046163615 0.07496275 -0.011190021 -0.018950343 0.05227509
-0.055898104 0.030447567 0.006516894 0.009637949 0.025696551 -0.059132244 0.023898019 0.08013359
0.09734001 -0.17684332 -0.039508108 0.052732192 -0.054629035 0.120433606 0.024223078 -0.07117368
0.025927207 -0.021223718 -0.020044476 0.05281557 -0.12404045 0.06491965 0.07968463 -0.09391761
0.008957018 0.028135654 0.0015452637 0.0043753358 -0.095354326 -0.013988532 -0.11289523 0.013529197
-0.05158253 0.038690258 -0.03644613 -0.06581125 0.06655567 -0.11506803 0.06525942 0.03950171
0.054293104 0.12855583 0.06639329 -0.038022142 -0.088681795 0.123270705 -0.033119567 -0.06584047
0.0075414605 0.10870458 -0.07228983 0.07970835 0.095900886 -0.09890129 0.0339284 -0.15804853
0.09670579 0.12749323 0.052494965 -0.080624044 -0.026690315 0.03513913 0.009782384 -0.05490855

policy_net.lstm.bias_ih_l1 f4 [256]
00000000: aa05 2f3d 6936 43bd 177d ac3d 25b5 7a3d
00000010: cea6 f23d aa2b 1c3d fe44 203e 12be f03c
00000020: 73dd fc3d 65b1 e63d 1d6c bebc 9af8 23bd
00000030: b835 b33d 82be 243e 7ead 043e 41d6 d13d
00000040: 11c9 b73d a867 73bd 5b21 35bd 7915 a43d
00000050: 3410 b5bd cc3e 0d3e 1673 963d 1154 373e
00000060: 5641 bd3d 038b a93d c880 2e3e 13b2 c43c
00000070: 62e8 733d dcb9 a7bd 42aa 6f3d 73c1 2c3d
00000080: 01ea d73d 35cc e9bc 74f7 163e 9528 3c3e
00000090: 5078 1dbd 8867 66bd b7b8 b83d c9c0 dc3c
000000a0: e7bf 63bb ef16 dd3d c44b 6d3d d222 d73d
000000b0: 7b2c 843d f33d 923a 8542 d53d 885d 3c3e
000000c0: fc90 5b3e 9ddb 063c d3e6 2f3e 3f7b e73b
000000d0: 8ab9 00bd 8410 5c3d c37b 333c e02c 3cbd
000000e0: 742e 693b 7d22 8dbd f6e1 dc3d 8767 acbd
000000f0: 37db 913d d190 ba3c 0f81 c9bd 5052 a03d
00000100: ede9 0ebe 16c2 3abe a286 b73c d661 4d3d
00000110: dbbf 64bd a417 b5bc 2958 08be 7a3e 87bd
00000120: 1f12 44bd e5bd 70bc 401b 263c 5583 99bd
00000130: f86f 003c 0869 fdbd 89fb 86bd eda6 bdbd
00000140: c2e4 87bd f94c c3bd 3407 4a3c 81b5 babd
00000150: 5404 133e 7d8e b0bd 4dd6 30be a533 64be
00000160: f462 f93b f885 e9bc 0e64 5abe 937f 133d
00000170: 5278 03bc a3f5 683d a2d6 a63d 4a13 923d
00000180: 8185 c93d 10bd e83c 60f1 533d a1e6 9bbd
00000190: 328e 8bbd acfb dfbc 64ef 193d dae9 68bd
000001a0: a37c f93c 31c3 b7bd 0971 33bc 5d5e e9bc
000001b0: 94fd 0cbe c4e4 13bd 9a4b 5f3c 0d6a 693d
000001c0: c6f0 32bb 37f4 2f3d aa6f 00be feb6 99bd
000001d0: 0df9 2ebe 25a0 783d 461d 213d 5ed4 1a3d
000001e0: 1761 99bd 0ef8 4e3d fdf3 e83c 4699 293c
000001f0: 5f29 663b ea17 c43c 5975 03bd a66b eb3d
00000200: 48db bc3d c059 ddbd 2162 4ebd 178c 1cbd
00000210: 32b1 f53d 9a06 143e 0d5b 87bd 00d4 c9bd
00000220: 84bf 473c 71bf dd3d 9082 2e3b 7a0a 2cbd
00000230: 9dae 10be 46d7 c7bd 8930 a43d 68bc 09be
00000240: 3dab e7bd 90aa de3c 1bc1 88b8 a151 423d
00000250: d12f ef3c eb22 76bd 17f7 503d 9014 8abd
00000260: cf21 fd3d 4b68 063d f3c2 f5bd 47fb 8f3d
00000270: 94ca cd3c 04a9 04be 9339 f9bd 7258 cdbd
00000280: 2382 8fbd 39bc d53d d7e6 b8bd e494 7a3d
00000290: 0b5c 5ebd 4240 c23d 6228 3ebd 6569 b43d
000002a0: b5b3 2dbd 0c19 f4bc 91bc c53d 1b93 64ba
000002b0: b858 16bd 909f 1abe 320b 27bd a720 04bd
000002c0: 1572 193d 452f 603d 6e1c 2fbc 305f b63c
000002d0: d272 103d f036 593d ca00 3cbd 121b 663d
000002e0: 3be1 6bbd 7028 0e3e 9f24 05be 8d6c b93a
000002f0: 3204 143d 34c5 863d 4f27 be3d 8047 f73d
00000300: 8e4c a1bd d77e bfbc f4a9 533d 4295 13bd
00000310: 47a3 bcbd 64fe 3b3d daf0 063e 5823 39bd
00000320: e1bc e63d 4b94 583d 8dde 973d 52fc 2abd
00000330: 3db9 363e 47d2 5d3d 552a 973d df78 843d
00000340: cbb8 4b3d c1ef 093b bae0 cd3c 734e f7bc
00000350: 26f0 de3d 9daf 8a3d 0be3 e43d cd2f d33d
00000360: cfb0 89bd 72e3 393d 53b3 433e 5d1b f4bc
00000370: d3e7 e13c 76c1 a1bd f7b3 a93d 8eee 943c
00000380: cb3b bcbd 7681 96bd 27b9 363e f139 ffba
00000390: db82 033e 1f82 e23d 4f7b 813d fc18 2abc
000003a0: 53b7 d73c 51d0 e6bc 3dcd 6ebd ceb4 a4bd
000003b0: 0ef7 9d3d 5653 95bb a239 023e 1f8f 0c3e
000003c0: 44ec 1d3d 0767 803b e4b8 2d3e 67a7 0e3e
000003d0: 5691 1d3e db45 bebd 0691 b03d 223f b33d
000003e0: 4642 0e3e 120e 7ebc 09e6 563d b396 2b3d
000003f0: a822 d23d 3429 ae3d 0bab fc3d 3679 e5bc
0.04273001 -0.04765931 0.084222965 0.06120791 0.11848222 0.03812758 0.15651318 0.029387508
0.123469256 0.11264304 -0.023244912 -0.040032007 0.087504804 0.16088298 0.12956807 0.10245944
0.08973897 -0.059425026 -0.044221263 0.08011908 -0.08840981 0.13793486 0.0734617 0.17903163
0.092409775 0.082784675 0.17041314 0.024010694 0.05954779 -0.08189747 0.05851198 0.042176675
0.105426796 -0.028539756 0.14742833 0.18374856 -0.038444817 -0.05625108 0.090196066 0.026947396
-0.0034751834 0.1079539 0.057933584 0.10504688 0.064537965 0.0011157378 0.10413078 0.18395054
0.21442026 0.008231071 0.17177896 0.0070642526 -0.031426944 0.053726688 0.0109548 -0.045941234
0.0035580667 -0.06891344 0.10785286 -0.08418184 0.0712189 0.022774132 -0.09839069 0.078282
-0.13956423 -0.182381 0.022403065 0.05014213 -0.05584703 -0.022106 -0.1331488 -0.06603713
-0.047868844 -0.014693712 0.010138333 -0.07495753 0.007839195 -0.12373549 -0.06590945 -0.09260354
-0.06635429 -0.09536166 0.012330819 -0.091166504 0.1435712 -0.086209275 -0.1726925 -0.22285326
0.007610673 -0.028506264 -0.2132723 0.036010336 -0.008024292 0.056874882 0.08146407 0.07132585
0.09839917 0.028410465 0.051743865 -0.07612348 -0.06814231 -0.027341686 0.037581816 -0.056863643
0.03045494 -0.08972777 -0.010952243 -0.028487379 -0.13768607 -0.03610684 0.013628865 0.056985904
-0.0027304157 0.04295751 -0.12542596 -0.07505606 -0.17087193 0.0606996 0.039334558 0.037800185
-0.074892215 0.050529532 0.028436655 0.010351485 0.0035119874 0.023937184 -0.032094333 0.11495142
0.09221512 -0.10808134 -0.05038655 -0.038219538 0.11996688 0.14455643 -0.066091634 -0.09854889
0.012191657 0.1082753 0.0026628114 -0.04200218 -0.1412911 -0.09757857 0.0801707 -0.13450778
-0.11311958 0.02718094 -6.520954e-05 0.04744113 0.029197605 -0.060091894 0.051016893 -0.06742203
0.12359964 0.032814305 -0.12000074 0.07030349 0.02512101 -0.129551 -0.121691845 -0.10026635
-0.070072435 0.10436291 -0.09028404 0.06117715 -0.054286998 0.094849125 -0.04642523 0.08809165
-0.04240771 -0.0297971 0.09655107 -0.000871943 -0.036705703 -0.15099931 -0.04078216 -0.032257702
0.037462313 0.05473258 -0.0106879305 0.022262186 0.03526575 0.053030908 -0.04589919 0.05617816
-0.057587843 0.13882613 -0.13002251 0.001414673 0.036136813 0.06580582 0.09284841 0.120741844
-0.0787593 -0.023375912 0.05167575 -0.036031015 -0.0921083 0.045896903 0.13177815 -0.045199722
0.112664945 0.0528758 0.07415495 -0.041744538 0.178441 0.054155614 0.07381121 0.06468367
0.04973678 0.0021047445 0.025131572 -0.030188775 0.108856484 0.06771777 0.111761175 0.10311852
-0.06723177 0.045382924 0.19111376 -0.029798204 0.027576363 -0.07898228 0.08286279 0.018180158
-0.09191092 -0.073489115 0.17844068 -0.0019472224 0.12842886 0.11059975 0.063223474 -0.010381933
0.026332533 -0.028175505 -0.0583012 -0.08042298 0.077131376 -0.0045570536 0.12717298 0.13726471
0.0385554 0.003918532 0.16965061 0.13931046 0.15387473 -0.092906676 0.08621411 0.08752276
0.13892469 -0.015506284 0.052465472 0.041891765 0.102605164 0.085039526 0.12337311 -0.0280119
