trained_models/unlagged_ppo_Walker2d-v2_eps_0_actor.pth (torch, 99810 bytes, 26 tensors)

policy_net.log_stds f4 [6]
-1.2246045 -1.1873387 -1.1329513 -1.1872448 -1.1906146 -1.1787516
00000000: d7bf 9cbf b7fa 97bf 8c04 91bf a3f7 97bf
00000010: 0f66 98bf 55e1 96bf

policy_net.layers.0.weight f4 [64, 17]
0.19064783 -0.16915345 -0.21190943 0.2929846 0.18418536 -0.23726894 0.42093265 -0.15031004
0.08468492 0.21760331 0.010195177 0.03916045 -0.006237839 -0.058580905 -0.1763342 -0.0071805883
-0.14151232 0.13284166 0.32697803 0.12393621 -0.009078905 -0.2557669 -0.2169656 0.052171968
-0.12577187 0.09744765 -0.18117847 -0.031000355 -0.10733158 -0.14990139 -0.015711918 -0.18435812
-0.17996068 0.045770146 0.17462845 0.0028827563 -0.15523703 0.10059272 0.01453782 0.079811245
0.24429286 -0.24870154 0.044762347 -0.01430551 -0.04066168 0.03399975 0.22733442 0.12493803
0.15906732 -0.10455098 -0.07711593 0.072258934 -0.2701365 -0.31657743 -0.040285997 -0.047345746
0.08589742 0.06450236 0.02783565 0.025403371 0.26072428 -0.14069213 -0.12919332 0.16889346
0.18453744 -0.07973628 0.07910789 -0.035803277 0.049397197 -0.23976056 0.013311445 -0.080403
0.22241734 -0.115811355 -0.29809478 -0.30911562 -0.25520557 0.106167786 -0.21274921 0.0025785815
-0.17047419 0.079300754 0.07557145 0.12128037 0.056080207 0.1793005 -0.23565418 -0.21204501
-0.18538566 0.092373565 0.008156031 -0.37077177 0.054671198 0.08956275 0.2009246 -0.09289319
0.1244117 -0.09108479 0.0055377055 -0.21268968 -0.20015241 0.14416929 0.0019444705 -0.1491509
0.006145069 -0.07027897 0.019785115 -0.18092938 0.31174105 -0.19710909 0.17387713 0.27596828
0.12368794 0.04247817 0.044810984 0.20946941 -0.11406156 0.069341384 0.090404525 0.12503569
-0.36434072 -0.24304877 0.18593694 -0.26153967 -0.2757808 0.064283416 -0.08835649 -0.06886027
0.25401294 -0.16981295 -0.15756446 -0.03659276 -0.10000009 0.013731725 -0.18841559 -0.06840861
0.09459918 -0.20236701 -0.17433517 -0.13426387 0.041977644 -0.23415494 -0.35116166 -0.054200474
-0.06778562 0.14061774 -0.18966854 -0.27971855 0.05009212 -0.07045049 -0.17642039 0.1488174
0.02646911 0.18924296 0.08902792 -0.17400026 -0.16775668 -0.052009374 -0.34443927 -0.063489586
0.20638654 0.040525198 0.15391485 0.033540253 -0.22020577 0.14213146 0.03161235 -0.13932604
-0.14765397 -0.024841622 -0.17782967 -0.029953418 -0.095500715 0.19093426 -0.117645554 0.108703755
0.018922778 0.039715834 -0.23865865 -0.19574802 0.0046986784 0.08102737 -0.19684394 0.19967182
-0.14691636 0.20171784 0.1404045 0.113428466 -0.20441449 0.20325862 -0.1661259 0.19220681
-0.03304212 -0.22479981 0.0712805 -0.40976214 0.0633167 -0.25525203 0.12378796 0.14235985
-0.018404663 0.13277029 0.15219629 -0.03351462 -0.1768536 -0.2330217 -0.2404763 -0.19129501
-0.14921334 -0.15095589 0.031876292 0.08836392 -0.06948187 -0.18402351 0.18098105 -0.017459221
0.0059068673 0.10531439 0.14488477 0.08422088 0.17364277 0.11995654 -0.22939351 0.33528313
0.062495127 -0.2138941 -0.15198457 -0.06904172 0.2521031 -0.036278266 0.16705127 -0.14987437
0.06292664 -0.12386888 0.017600913 0.104223765 0.035025336 0.1398872 -0.1537373 0.1275592
-0.35694483 -0.21199454 0.122503154 0.15800175 0.107544884 0.2631575 0.21075955 0.104071535
0.11888074 -0.030410534 0.04779893 0.06314075 -0.19746767 0.20634009 -0.07830818 0.039286956
00000000: 2f39 433e 9036 2dbe c9fe 58be 1402 963e
00000010: 169b 3c3e a1f6 72be 7c84 d73e e0ea 19be
00000020: 4a6f ad3d 67d3 5e3e ac09 273c b566 203d
00000030: c966 ccbb 88f2 6fbd f490 34be 244b ebbb
00000040: 9be8 10be a507 083e aa69 a73e 45d2 fd3d
00000050: b0bf 14bc e1f3 82be 3b2c 5ebe 46b2 553d
00000060: 57ca 00be a292 c73d d986 39be 75f4 fdbc
00000070: a9d0 dbbd c07f 19be 48b6 80bc 60c8 3cbe
00000080: 9d47 38be 7a79 3b3d cdd1 323e a0ec 3c3b
00000090: 75f6 1ebe 8e03 ce3d 0930 6e3c 1474 a33d
000000a0: e827 7a3e 9eab 7ebe b958 373d a861 6abc
000000b0: dd8c 26bd 5243 0b3d 5bca 683e 83df ff3d
000000c0: 8be2 223e d31e d6bd f5ee 9dbd 7efc 933d
000000d0: 554f 8abe 7016 a2be ee02 25bd 9ded 41bd
000000e0: fdea af3d d019 843d 9707 e43c bb1a d03c
000000f0: a77d 853e 9911 10be 414b 04be 68f2 2c3e
00000100: 62f7 3c3e c64c a3bd 5103 a23d 75a6 12bd
00000110: b754 4a3d cb83 75be 3f18 5a3c 54aa a4bd
00000120: 5fc1 633e 812e edbd e19f 98be 6744 9ebe
00000130: 4eaa 82be 7f6e d93d eeda 59be 6bfd 283b
00000140: c990 2ebe 6f68 a23d 34c5 9a3d d861 f83d
00000150: 5cb4 653d 8d9a 373e 544f 71be 5422 59be
00000160: bdd5 3dbe 5a2e bd3d e0a0 053c ccd5 bdbe
00000170: e8ee 5f3d ad6c b73d 2ebf 4d3e c93e bebd
00000180: 90cb fe3d aa8a babd a475 b53b 53cb 59be
00000190: c1f4 4cbe 1da1 133e 9add fe3a 03bb 18be
000001a0: 935c c93b 6cee 8fbd 6514 a23c 8d45 39be
000001b0: 869c 9f3e f7d6 49be d90c 323e b74b 8d3e
000001c0: 1a50 fd3d 97fd 2d3d b98b 373d 267f 563e
000001d0: 1b99 e9bd db02 8e3d 0226 b93d 5b09 003e
000001e0: de8a babe c7e1 78be 4166 3e3e 87e8 85be
000001f0: 2433 8dbe 06a7 833d 3ff4 b4bd 9d06 8dbd
00000200: fc0d 823e 72e3 2dbe 9458 21be 4ae2 15bd
00000210: d9cc ccbd 07fb 603c 04f0 40be d019 8cbd
00000220: 37bd c13d 4c39 4fbe eb84 32be 787c 09be
00000230: c0f0 2b3d 50c6 6fbe 76cb b3be 5101 5ebd
00000240: 30d3 8abd 19fe 0f3e 7838 42be 4537 8fbe
00000250: 652d 4d3d 5948 90bd 8ca7 34be 9763 183e
00000260: bfd5 d83c e8c8 413e 4554 b63d 202d 32be
00000270: 68c8 2bbe c807 55bd 585a b0be d406 82bd
00000280: fe56 533e c0fd 253d db9b 1d3e 8161 093d
00000290: 9f7d 61be e98a 113e f47b 013d 7cab 0ebe
000002a0: 9a32 17be a880 cbbc fb18 36be df60 f5bc
000002b0: e195 c3bd 4584 433e 27f0 f0bd 13a0 de3d
000002c0: f103 9b3c 12ad 223d ef62 74be 2b72 48be
000002d0: 5ff7 993b aef1 a53d 7591 49be c576 4c3e
000002e0: 3e71 16be 1f8f 4e3e 32c6 0f3e 2f4d e83d
000002f0: 0852 51be 0723 503e e81c 2abe ddd1 443e
00000300: 2d57 07bd ec31 66be 83fb 913d 58cc d1be
00000310: 30ac 813d 65b0 82be 8b84 fd3d c8c6 113e
00000320: 60c5 96bc eff4 073e 58d9 1b3e a046 09bd
00000330: 1c19 35be 3e9d 6ebe 6b3f 76be d7e2 43be
00000340: 62cb 18be 2e94 1abe b790 023d 25f8 b43d
00000350: 834c 8ebd a970 3cbe 1953 393e a406 8fbc
00000360: 658e c13b 12af d73d ac5c 143e ff7b ac3d
00000370: 69cf 313e c6ab f53d 22e6 6abe 3baa ab3e
00000380: e4fa 7f3d 0e07 5bbe d8a1 1bbe bf65 8dbd
00000390: a813 813e 8598 14bd 7d0f 2b3e ab78 19be
000003a0: afdf 803d f8ae fdbd ca2f 903c 4573 d53d
000003b0: ba76 0f3d 973e 0f3e 506d 1dbe e19e 023e
000003c0: 79c1 b6be 1915 59be efe2 fa3d 36cb 213e
000003d0: 7e40 dc3d 94bc 863e 5ad1 573e 7523 d53d
000003e0: bf77 f33d 831f f9bc d0c8 433d f04f 813d
000003f0: f734 4abe d14a 533e 0a60 a0bd 5ceb 203d

policy_net.layers.0.bias f4 [64]
-0.16408628 -0.24617897 0.28028393 0.24400471 -0.1059488 0.20099302 -0.016787596 0.15146731
0.027991896 -0.08612646 0.09331771 0.29406473 0.22654977 -0.0809681 -0.13575596 -0.090242974
0.15528023 0.021526385 0.0061409445 -0.00857287 -0.07611828 0.1554507 -0.009587658 -0.15813605
-0.07927957 -0.17468224 -0.059692923 0.10258546 -0.11104575 -0.04794202 -0.03262272 0.112775326
-0.12851337 0.22455242 0.24751428 0.162086 0.014999897 0.15254757 0.06553675 -0.06063422
-0.008552332 -0.2094038 -0.08239134 -0.08260475 0.04008608 0.034518827 0.16648549 0.222621
-0.03175719 0.16801013 -0.19761121 -0.02034126 0.252113 -0.12132664 0.06360903 -0.04747797
-0.06342301 0.023222942 0.2947191 0.03306231 -0.14344057 -0.11681804 0.24628174 0.19807447
00000000: 3c06 28be 5716 7cbe 6081 8f3e 5fdc 793e
00000010: affb d8bd 1dd1 4d3e 2486 89bc 3f1a 1b3e
00000020: 434f e53c 1263 b0bd 5b1d bf3d a78f 963e
00000030: aafc 673e 9ad2 a5bd 9c03 0bbe 4fd1 b8bd
00000040: c801 1f3e 1a58 b03c fa39 c93b 3975 0cbc
00000050: e7e3 9bbd 782e 1f3e 8d15 1dbc 6bee 21be
00000060: 545d a2bd e7df 32be 9180 74bd 5318 d23d
00000070: f46b e3bd da5e 44bd 679f 05bd c0f6 e63d
00000080: 0299 03be 12f1 653e 6274 7d3e dff9 253e
00000090: 21c2 753c 6e35 1c3e 2238 863d 965b 78bd
000000a0: 151f 0cbc f36d 56be cabc a8bd ae2c a9bd
000000b0: 4d31 243d 9d63 0d3d 2c7b 2a3e c2f6 633e
000000c0: d413 02bd d90a 2c3e 985a 4abe b7a2 a6bc
000000d0: f514 813e 1a7a f8bd 7345 823d 4378 42bd
000000e0: ece3 81bd 0a3e be3c 6ce5 963e 586c 073d
000000f0: 16e2 12be 4c3e efbd 4831 7c3e 09d4 4a3e

policy_net.layers.2.weight f4 [64, 64]
-0.027583001 0.05103942 0.10880704 0.015828481 0.011419197 -0.090261854 -0.098486 0.024827575
-0.06234629 0.01982663 -0.009827421 0.0025825852 0.08810454 -0.07371615 -0.016717868 0.12577796
0.0093740765 0.07126436 0.087181434 -0.113792196 0.07840885 0.031263832 -0.04078231 0.026427269
0.08746023 0.064168364 -0.05928466 0.04858959 -0.08378938 -0.0012819525 -0.04573845 0.11446195
0.08942433 -0.051195204 0.036541626 -0.0052839513 -0.05968865 0.07238502 -0.027746037 -0.08376203
-0.018653672 0.07134867 -0.075817265 -0.06825726 -0.12190487 0.054350723 -0.035752468 0.013335814
-0.027236981 0.13665305 -0.023273248 0.12319264 0.089180246 0.07888105 0.12647274 -0.11392672
-0.031343874 -0.015651098 0.11308112 0.04757469 -0.09588703 0.017200228 -0.10324881 -0.06908658
0.115833946 -0.07341786 0.050982367 0.07138169 0.020537185 -0.052893832 -0.03983832 0.05876832
0.029279275 -0.090226755 -0.0369102 -0.08011565 0.11442422 0.14195913 -0.07242148 0.011802368
0.09612899 -0.08826383 0.078788444 -0.07625761 -0.050507978 0.0061846473 0.108246185 0.048954587
-0.0136192385 -0.035023186 0.10023024 0.07740232 0.13022982 -0.042691246 -0.0069915084 -0.030647362
0.023777854 -0.114086576 0.10551823 0.056766998 -0.0914974 -0.0574526 -0.0056788074 0.08216304
-0.01857142 -0.073886424 -0.09926056 -0.01026149 -0.120231755 0.07021774 -0.09282359 -0.034346752
-0.058455672 0.04392145 0.0059411926 0.11161032 0.0848445 -0.090250045 0.034164038 0.09381931
0.060082793 0.016319674 0.046161704 0.04827917 -0.0640109 -0.07080996 0.052742265 0.031118337
0.05168709 -0.027142566 -0.032836564 0.0035216413 -0.08363848 0.070109226 0.058364317 -0.11037528
-0.07459978 0.104053736 0.07522466 -0.0017751739 0.060852952 -0.087466225 0.015580407 0.14737523
-0.09607156 -0.07210744 0.11106878 -0.04178734 0.010435073 -0.1214737 0.015089998 -0.034677383
0.11795377 0.05882042 -0.10344867 -0.04546156 -0.018491883 -0.0021668759 0.061213836 -0.11900657
0.02810994 0.08176662 0.04790319 0.1165186 0.08968615 0.040453147 0.06805381 -0.07685612
0.098212704 -0.0013266652 0.018504648 0.10100789 -0.10774858 0.045536898 -0.046187907 -0.08630268
-0.06741344 0.0021150887 0.043465048 -0.108270615 -0.092136845 -0.038594067 0.056401663 -0.077762924
0.03901059 -0.098172896 0.040941443 0.083201155 0.10124721 -0.04685374 -0.015771488 -0.08629491
0.03474805 0.05629594 0.079286225 -0.12425345 0.040839847 -0.13228434 0.080505416 -0.03475154
0.11599968 -0.008195622 -0.0030200274 0.064695075 0.04780262 -0.0064361743 0.050073136 0.10111715
-0.08246156 -0.09860833 -0.038917247 -0.12457175 0.106130354 0.051227257 0.026906183 -0.040992275
0.038811877 -0.08656664 -0.12992705 -0.051895138 0.11069927 -0.12049787 -0.02880336 -0.13472936
-0.04305492 -0.07931938 0.063075654 0.022896722 0.087874874 -0.06658352 0.105212435 -0.07174634
0.041454528 -0.025894253 0.05354663 -0.111583784 0.10985908 -0.07702284 -0.10964298 0.10979844
-0.07411897 0.032154277 0.023001097 -0.108672775 0.065852985 0.10288078 -0.041645944 0.008579925
0.033637628 -0.013130196 0.081380285 -0.0811789 -0.037200652 0.074629016 0.049505524 0.04778497
00000000: bff5 e1bc b60e 513d 3ad6 de3d bbaa 813c
00000010: 9517 3b3c 35db b8bd 07b3 c9bd 3363 cb3c
00000020: d35e 7fbd 756b a23c 3103 21bc 9740 293b
00000030: 2770 b43d 7ef8 96bd e9f3 88bc f0cb 003e
00000040: ba95 193c 0cf3 913d 2e8c b23d e20b e9bd
00000050: d294 a03d 810e 003d 5a0b 27bd 007e d83c
00000060: 591e b33d b46a 833d 79d4 72bd e105 473d
00000070: c499 abbd 3007 a8ba 3e58 3bbd 076b ea3d
00000080: 1a24 b73d 10b2 51bd acac 153d ff24 adbb
00000090: 167c 74bd 993e 943d a84b e3bc 6d8b abbd
000000a0: 96cf 98bc 401f 923d 1546 9bbd 76ca 8bbd
000000b0: 43a9 f9bd dd9e 5e3d 2e71 12bd 757e 5a3c
000000c0: 1720 dfbc c7ee 0b3e 8aa7 bebc 6c4c fc3d
000000d0: 22a4 b63d 638c a13d 1282 013e 6a52 e9bd
000000e0: 6f62 00bd bb36 80bc 1397 e73d aedd 423d
000000f0: 6b60 c4bd 7ee7 8c3c 1d74 d3bd 447d 8dbd
00000100: 593a ed3d 1a5c 96bd e3d2 503d 9030 923d
00000110: 993d a83c 34a7 58bd 822d 23bd 0db7 703d
00000120: 17db ef3c cec8 b8bd 262f 17bd ad13 a4bd
00000130: 3f57 ea3d bc5d 113e b751 94bd b85e 413c
00000140: 47df c43d abc3 b4bd d65b a13d f32c 9cbd
00000150: 74e1 4ebd 95a8 ca3b 2db0 dd3d 9b84 483d
00000160: 3a23 5fbc 7974 0fbd 8345 cd3d 1c85 9e3d
00000170: f75a 053e 04dd 2ebd 0619 e5bb 2d10 fbbc
00000180: c6c9 c23c 39a6 e9bd f119 d83d 8384 683d
00000190: fd62 bbbd 6b53 6bbd 4a15 babb 1945 a83d
000001a0: 1723 98bc c451 97bd 1f49 cbbd cf1f 28bc
000001b0: 113c f6bd 52ce 8f3d 4b1a bebd 2eaf 0cbd
000001c0: 376f 6fbd fae6 333d 56ae c23b f493 e43d
000001d0: f4c2 ad3d 04d5 b8bd 97ef 0b3d 5724 c03d
000001e0: 6019 763d d6b0 853c 0e14 3d3d 61c0 453d
000001f0: 2618 83bd d004 91bd 4608 583d e2eb fe3c
00000200: d8b5 533d 165a debc a27f 06bd 56cb 663b
00000210: a74a abbd 6d95 8f3d 6c0f 6f3d 6f0c e2bd
00000220: c5c7 98bd 201a d53d 630f 9a3d f4ac e8ba
00000230: f240 793d 7e21 b3bd f744 7f3c 88e9 163e
00000240: 2bc1 c4bd 11ad 93bd 0778 e33d 3429 2bbd
00000250: def7 2a3c 34c7 f8bd 0a3c 773c df09 0ebd
00000260: bf91 f13d aeed 703d e5dc d3bd e735 3abd
00000270: 4a7c 97bc 2502 0ebb 5cbb 7a3d b7b9 f3bd
00000280: d146 e63c 4275 a73d 2336 443d 4ea1 ee3d
00000290: 5fad b73d 33b2 253d cc5f 8b3d be66 9dbd
000002a0: be23 c93d 7fe3 adba 0f97 973c 3add ce3d
000002b0: 4aab dcbd e684 3a3d 882f 3dbd 76bf b0bd
000002c0: 0f10 8abd 4d9d 0a3b 6808 323d fcbc ddbd
000002d0: 3eb2 bcbd d014 1ebd 6e05 673d 2b42 9fbd
000002e0: 92c9 1f3d df0e c9bd 37b2 273d 5e65 aa3d
000002f0: b25a cf3d b5e9 3fbd 3533 81bc 63bb b0bd
00000300: f953 0e3d 9296 663d d160 a23d 9878 febd
00000310: af47 273d 8c75 07be 06e0 a43d a157 0ebd
00000320: 3d91 ed3d ee46 06bc a7eb 45bb da7e 843d
00000330: aecc 433d 8be6 d2bb 7d19 4d3d 8216 cf3d
00000340: 9be1 a8bd 2af3 c9bd b167 1fbd 791f ffbd
00000350: df5a d93d acd3 513d 5b6a dc3c 84e7 27bd
00000360: 34f9 1e3d da49 b1bd 990b 05be ff8f 54bd
00000370: 4db6 e23d 96c7 f6bd 06f5 ebbc 7ef6 09be
00000380: 5b5a 30bd 3372 a2bd cf2d 813d e891 bb3c
00000390: bef7 b33d f15c 88bd 9e79 d73d bfef 92bd
000003a0: 39cc 293d 2f20 d4bc b653 5b3d 0a86 e4bd
000003b0: ccfd e03d 27be 9dbd 808c e0bd 01de e03d
000003c0: b0cb 97bd 34b4 033d cc6c bc3c d58f debd
000003d0: eedd 863d 29b3 d23d f094 2abd d092 0c3c
000003e0: 9cc7 093d 0920 57bc b5aa a63d 2041 a6bd
000003f0: b65f 18bd 19d7 983d 4ec6 4a3d 2cba 433d

policy_net.layers.2.bias f4 [64]
-0.056004424 0.08828589 0.054999083 0.08715478 0.13234068 -0.05732667 -0.10905143 -0.06921937
-0.09182488 -0.15167946 -0.025451802 -0.18732335 0.06671377 -0.099346414 0.019434648 0.14095572
-0.048678145 0.007797794 0.036521997 0.0102728885 -0.011858583 0.062181182 0.004703865 -0.13645762
-0.110490724 -0.03848613 -0.09386024 -0.111587144 -0.029745521 0.13967568 0.10017551 -0.002117937
0.123936795 0.13732341 0.013905942 -0.19609806 0.04793606 -0.103823096 0.020106772 0.03678763
0.13512129 -0.046727784 -0.10949629 0.07414883 0.17806718 -0.05388033 0.13873416 -0.073466085
-0.16066977 0.05674511 -0.05018517 0.1831908 -0.036454976 0.05127661 -0.04744833 -0.039153323
-0.10019177 0.15154545 0.13404053 -0.14075616 0.119104944 -0.0066798725 0.1253576 0.13620566
00000000: e564 65bd 3ccf b43d b846 613d 357e b23d
00000010: 5184 073e 5fcf 6abd 5b56 dfbd e3c2 8dbd
00000020: af0e bcbd dc51 1bbe 4c80 d0bc b1d1 3fbe
00000030: 3ba1 883d 2276 cbbd 6935 9f3c b256 103e
00000040: bc62 47bd a384 ff3b 1798 153d 9e4f 283c
00000050: 814a 42bc b2b1 7e3d e122 9a3b 8cbb 0bbe
00000060: f648 e2bd a2a3 1dbd cc39 c0bd cd87 e4bd
00000070: e1ac f3bc 2407 0f3e d128 cd3d 16cd 0abb
00000080: 93d2 fd3d 829e 0c3e c0d5 633c eecd 48be
00000090: 9a58 443d 34a1 d4bd f5b6 a43c a0ae 163d
000000a0: 3c5d 0a3e a265 3fbd 973f e0bd 57db 973d
000000b0: 3e57 363e 9fb1 5cbd 5410 0e3e 6375 96bd
000000c0: 9e86 24be 8f6d 683d f78e 4dbd 5e96 3b3e
000000d0: d051 15bd 6c07 523d 2e59 42bd 3c5f 20bd
000000e0: 5831 cdbd bb2e 1b3e ec41 093e 6222 10be
000000f0: 4bed f33d d5e2 dabb be5d 003e 7f79 0b3e

policy_net.mean_layer.0.weight f4 [6, 64]
0.088595934 0.099059224 -0.12351504 -0.009462576 0.11521279 0.011437269 0.030913038 -0.057504185
-0.106215924 -0.10093758 0.022978181 -0.03872154 -0.03464308 -0.007798753 -0.14146587 0.13611674
-0.008512205 0.088955864 -0.08293515 0.12303214 -0.09367883 0.0069894907 0.10419017 0.027754424
-0.07866303 -0.00360156 -0.039298378 0.0019774341 -0.045027222 -0.033876363 0.123255484 0.12900318
0.072549395 0.13988033 -0.10178131 -0.060573224 -0.02203345 -0.13523571 0.100931056 -0.10706047
0.07733284 0.06587214 -0.114479035 -0.016038902 0.17431375 -0.02291237 -0.06247672 -0.027533721
-0.14239328 -0.039880924 -0.12271027 -0.030464245 -0.011771044 -0.0013146559 0.09835653 -0.04420333
0.10191066 0.1521551 0.13180673 -0.16726838 0.1356215 0.08560811 0.08950392 -0.021502648
0.04628002 -0.00583078 0.015163003 0.010538434 0.067807436 0.08122672 0.080199845 -0.055492576
-0.09266274 -0.06269111 0.012500985 -0.113106675 0.122407556 0.042832393 0.12587564 0.06386462
-0.13219431 -0.13085271 0.07315129 0.0053630685 0.11846219 -0.098888904 -0.06705911 -0.07145446
0.036134124 -0.030676797 0.122898005 -0.07051338 0.082719505 0.08647238 -0.0139001245 0.12703992
-0.113741644 0.0023534023 0.083399296 -0.0825033 0.13784511 -0.07069752 -0.043911014 -0.06215273
-0.04390303 -0.08436515 0.04352253 -0.015475539 0.06894283 0.07620814 -0.10317912 0.09220499
0.09844873 -0.023595022 0.042100787 -0.047811 0.09097566 0.09962005 -0.031985592 -0.05611684
0.09767282 0.088886105 -0.0013021092 -0.07610084 0.0854941 -0.1027515 0.091998614 0.044679426
-0.024348302 0.0626946 -0.030774485 0.07533212 -0.07347396 -0.07756103 0.070393406 -0.118241616
-0.02901146 -0.020342927 -0.06423075 -0.0851602 0.020982219 -0.105713174 -0.041261367 -0.05385669
0.08859828 -0.036199607 -0.066742614 0.11612786 6.477355e-06 0.12417174 0.04178048 -0.09073815
-0.08408757 -0.06715645 0.13376722 -0.06095253 0.080975704 0.14377633 -0.066388324 -0.032142192
-0.06497221 0.0019582382 0.113528825 -0.10390136 -0.13311332 -0.11860875 -0.01877949 0.099928856
0.016588131 -0.110949464 0.018954946 -0.04363512 0.03541999 0.08479422 0.11499619 -0.12443639
-0.03501027 0.06359168 -0.08434261 -0.030880634 -0.05432074 0.12569457 0.004596853 -0.09232083
0.076721825 -0.026216157 0.11776821 -0.07885957 -0.06254901 0.06646691 0.013506856 0.11504792
0.0838317 0.032191917 0.12347276 -0.031635683 0.16578643 -0.015551977 -0.12154339 -0.048160426
-0.009055334 -0.0038897013 0.103195906 -0.0073956004 -0.01971183 -0.045134258 0.020912113 0.13898224
-0.069582276 -0.011588008 -0.075085625 -0.029983684 0.13553402 0.046537176 0.12369571 0.06941781
-0.07036293 -0.061799835 -0.10216115 -0.11887449 0.062424246 0.06161996 0.06458856 -0.028392173
-0.03653401 0.10000282 0.08394033 -0.07729757 0.097300746 0.083184674 -0.085250795 0.036981333
-0.03851021 -0.049454022 0.03845569 0.12198573 0.16417406 -0.07387967 0.037689764 0.10291095
0.017037256 0.006577773 -0.022923872 0.12770973 0.045891777 -0.13409926 -0.08179364 0.06950283
-0.07518074 0.029022811 0.01870259 -0.12083237 -0.013152132 0.07835204 -0.0065111686 -0.007907545
00000000: c971 b53d 90df ca3d 74f5 fcbd ec08 1bbc
00000010: aff4 eb3d 6263 3b3c 573d fd3c 8289 6bbd
00000020: bc87 d9bd 5db8 cebd bd3c bc3c 7a9a 1ebd
00000030: e7e5 0dbd af8c ffbb 6edc 10be 3062 0b3e
00000040: c776 0bbc 7e2e b63d e7d9 a9bd 46f8 fb3d
00000050: b0da bfbd 1908 e53b a861 d53d 3f5d e33c
00000060: 151a a1bd 2608 6cbb 56f7 20bd d797 013b
00000070: 776e 38bd f1c1 0abd 5f6d fc3d 6919 043e
00000080: c794 943d ca3c 0f3e b872 d0bd a11b 78bd
00000090: 7e7f b4bc 3b7b 0abe f1b4 ce3d 8542 dbbd
000000a0: ae60 9e3d f9e7 863d fc73 eabd 0464 83bc
000000b0: 4e7f 323e b9b2 bbbc 97e7 7fbd 668e e1bc
000000c0: 8bcf 11be 2e5a 23bd 864f fbbd 2790 f9bc
000000d0: 56db 40bc 8850 acba 266f c93d 8d0e 35bd
000000e0: 89b6 d03d 8cce 1b3e 58f8 063e 6748 2bbe
000000f0: 5de0 0a3e 4e53 af3d d54d b73d 5226 b0bc
00000100: 1e90 3d3d 2110 bfbb 3e6e 783c 65a9 2c3c
00000110: a0de 8a3d 325a a63d d13f a43d 2f4c 63bd
00000120: f6c5 bdbd 3264 80bd eed0 4c3c 79a4 e7bd
00000130: d0b0 fa3d 0571 2f3d 8be5 003e 74cb 823d
00000140: f25d 07be 41fe 05be 58d0 953d aebc af3b
00000150: 4e9c f23d 4486 cabd 4956 89bd b756 92bd
00000160: 6001 143d e84d fbbc f3b1 fb3d 5269 90bd
00000170: d868 a93d 6e18 b13d 59bd 63bc c116 023e
00000180: 61f1 e8bd 8a3b 1a3b 40cd aa3d 7df7 a8bd
00000190: 4527 0d3e ddc9 90bd 09dc 33bd dc93 7ebd
000001a0: aad3 33bd a3c7 acbd ae44 323d 1d8d 7dbc
000001b0: e631 8d3d 0313 9c3d 934f d3bd f8d5 bc3d
000001c0: 7d9f c93d 594a c1bc e071 2c3d 78d5 43bd
000001d0: 7251 ba3d 9905 cc3d 5303 03bd c6da 65bd
000001e0: b008 c83d eb09 b63d 89ab aaba c2da 9bbd
000001f0: 8817 af3d 616f d2bd c569 bc3d c601 373d
00000200: 1776 c7bc 0766 803d c61a fcbc ba47 9a3d
00000210: 8479 96bd 51d8 9ebd 6b2a 903d a928 f2bd
00000220: 71a9 edbc 36a6 a6bc 698b 83bd 7968 aebd
00000230: e7e2 ab3c 2680 d8bd ae01 29bd d598 5cbd
00000240: 0473 b53d 0a46 14bd 5ab0 88bd 72d4 ed3d
00000250: 0e58 d936 c14d fe3d 0222 2b3d ecd4 b9bd
00000260: 1b36 acbd 5289 89bd 46fa 083e 5ca9 79bd
00000270: 97d6 a53d 1a3a 133e 9af6 87bd 88a7 03bd
00000280: 2610 85bd c955 003b cd81 e83d 3cca d4bd
00000290: dc4e 08be 25e9 f2bd 72d7 99bc 80a7 cc3d
000002a0: d5e3 873c 7939 e3bd 6747 9b3c bdba 32bd
000002b0: 8d14 113d 98a8 ad3d 1f83 eb3d 82d8 febd
000002c0: ee66 0fbd 5b3c 823d d1bb acbd 62f9 fcbc
000002d0: 6d7f 5ebd 14b6 003e 33a1 963b b412 bdbd
000002e0: 5520 9d3d 44c3 d6bc 7630 f13d 2081 a1bd
000002f0: b219 80bd ce1f 883d dc4b 5d3c 3e9e eb3d
00000300: f4af ab3d acdb 033d 49df fc3d 6b94 01bd
00000310: ebc3 293e b8cd 7ebc beeb f8bd de43 45bd
00000320: d35c 14bc 5cea 7ebb 6058 d33d cb56 f2bb
00000330: b47a a1bc b3de 38bd e14f ab3c 5c51 0e3e
00000340: 2781 8ebd a1db 3dbc 7ec6 99bd 58a0 f5bc
00000350: 6ec9 0a3e c49d 3e3d 2d54 fd3d ed2a 8e3d
00000360: 711a 90bd d321 7dbd dd39 d1bd 7874 f3bd
00000370: 91b0 7f3d 3665 7c3d 0247 843d b496 e8bc
00000380: b0a4 15bd 47ce cc3d e8e8 ab3d 304e 9ebd
00000390: 9d45 c73d ba5c aa3d f897 aebd bd79 173d
000003a0: e2bc 1dbd 4d90 4abd b783 1d3d a8d3 f93d
000003b0: 3f1d 283e 394e 97bd 9560 1a3d fac2 d23d
000003c0: b791 8b3c 5c8a d73b d8ca bbbc 57c6 023e
000003d0: 04f9 3b3d 5151 09be 6d83 a7bd 8057 8e3d
000003e0: 5cf8 99bd 3fc1 ed3c 2d36 993c f676 f7bd
000003f0: 0a7c 57bc 0977 a03d a45b d5bb a68e 01bc

policy_net.mean_layer.0.bias f4 [6]
-0.032869764 0.1547369 0.13243286 0.0029176453 0.08970909 -0.03619005
00000000: 72a2 06bd 5a73 1e3e 7b9c 073e f735 3f3b
00000010: 66b9 b73d 053c 14bd

critic.critic_net.layers.0.weight f4 [64, 17]
-0.26250428 -0.23480831 0.20694795 0.054376062 0.17252441 -0.0053640204 0.10749102 -0.17222622
-0.5199512 0.32024476 -0.06899011 0.055794526 -0.07849897 0.009055896 -0.004035319 -0.045163773
-0.04514526 0.034872927 -0.29363033 0.037600145 0.27557534 0.046907455 0.39850354 -0.09933321
-0.047658887 -0.06237798 0.1424211 -0.14137302 0.037812416 0.13259105 -0.06774 0.022370148
-0.048893273 -0.0370668 0.006881288 0.3000346 -0.38396588 -0.22743417 0.089258924 -0.21447556
-0.22158633 0.16560033 0.5959427 -0.34028646 0.14277394 0.077494 0.010121627 0.007260697
-0.21210594 -0.093916155 0.001861128 0.2758605 -0.42200455 -0.2412112 0.031476453 0.29097414
0.33871278 0.20950943 0.17249672 0.15461083 0.29304588 0.08056711 -0.06030269 -0.025358245
0.012819409 0.10146035 0.1309652 0.05049629 0.107387975 0.03419668 0.17845358 0.019948976
0.052620713 -0.15185404 0.08534961 -0.26157218 -0.10204756 -0.031610347 -0.06146133 0.11470138
-0.08029127 -0.20018534 0.08136664 0.10850468 0.020756045 -0.35779795 0.34148356 -0.36889064
-0.029019207 -0.064473554 -0.042031005 0.0071907695 -0.26738146 0.3108199 -0.079069816 0.031148117
-0.08056643 -0.030715086 0.020112453 0.00017660344 -0.01378138 0.0035161215 0.07333097 -0.26418138
0.071197405 0.19298644 -0.07607649 0.27966714 -0.005343855 0.20886861 -0.10238136 0.20105995
0.14045417 -0.078629844 -0.0004933666 0.020567914 -0.046052407 -0.028957667 -0.032931294 0.2805994
-0.11754737 0.16958688 -0.076135166 -0.31842664 0.0197095 0.18380976 -0.08118771 0.04453333
0.27354637 -0.21562833 0.14465283 0.049191732 0.051011022 0.16328171 0.029324727 -0.0260005
0.06713999 0.037224613 0.14300266 0.20219658 -0.3190405 -0.14219874 0.09215855 0.08793731
0.17806181 0.28503445 -0.18189022 -0.03670924 -0.0044083227 0.024215348 0.15262058 0.10693159
0.011431054 -0.024567546 -0.46957994 -0.05996266 -0.059774287 0.14879368 0.020460889 -0.060900815
0.39637244 -0.26392406 -0.00982369 0.10494419 -0.1367886 0.0656476 -0.10624115 0.21192516
0.0863745 0.06760778 0.23053259 -0.08598221 -0.20048043 0.12420742 -0.24437597 0.18207249
-0.019540817 -0.18713975 -0.08452595 -0.30652726 -0.05418036 -0.19053943 -0.093846105 -0.18959527
0.0016998101 -0.08837036 0.0027155967 -0.08140046 -0.16323885 0.052256923 0.09237177 -0.23420665
-0.11589129 -0.11798437 -0.34737355 0.26156962 0.25103214 -0.036310542 0.20558517 0.023151679
0.14225496 0.057134356 -0.1227886 0.14667012 0.07834558 0.23135296 -0.056042947 0.096653365
-0.037129693 -0.09262822 -0.01568987 -0.1733201 0.36825076 0.25922993 -0.12226718 0.012439449
-0.048689675 -0.014730646 0.09010282 -0.04511642 -0.012700441 -0.20676202 0.3578327 -0.26130256
-0.05497465 -0.06643022 -0.21047057 -0.19754381 0.111472465 0.09924489 -0.23469822 -0.031780593
-0.03453162 -0.03048068 -0.013122216 0.0873684 0.074002855 -0.05492558 -0.24467632 -0.40334898
0.17368625 0.34538692 0.065656334 0.2553851 0.010101005 0.12153031 -0.46853983 0.07006664
0.106433876 -0.010802735 0.020047579 -0.0076901307 -0.10363486 -0.028247857 0.026749672 0.03782429
00000000: f666 86be 9771 70be 2aea 533e 6fb9 5e3d
00000010: 3daa 303e aac4 afbb 4024 dc3d 125c 30be
00000020: 861b 05bf 1ff7 a33e b04a 8dbd cd88 643d
00000030: 11c4 a0bd 2e5f 143c b63a 84bb a6fd 38bd
00000040: 3cea 38bd ead6 0e3d b756 96be 9c02 1a3d
00000050: 3618 8d3e 0822 403d a808 cc3e 366f cbbd
00000060: f735 43bd 0e80 7fbd d6d6 113e 17c4 10be
00000070: 31e1 1a3d f3c5 073e 45bb 8abd 9a41 b73c
00000080: 5044 48bd 5bd3 17bd 6d7c e13b 239e 993e
00000090: 2d97 c4be 81e4 68be 62cd b63d 7b9f 5bbe
000000a0: 87e7 62be 2293 293e b38f 183f 073a aebe
000000b0: 5533 123e 2db5 9e3d 2ed5 253c 24eb ed3b
000000c0: 4d32 59be 1d57 c0bd 18f1 f33a 963d 8d3e
000000d0: fb10 d8be 1200 77be 74ed 003d 90fa 943e
000000e0: c36b ad3e a489 563e fba2 303e 4d52 1e3e
000000f0: 1c0a 963e 5e00 a53d f4ff 76bd 18bc cfbc
00000100: 8008 523c 72ca cf3d be1b 063e 33d5 4e3d
00000110: 3aee db3d d111 0c3d 89bc 363e 096c a33c
00000120: d188 573d a07f 1bbe c7cb ae3d caec 85be
00000130: 50fe d0bd da79 01bd e0be 7bbd 8fe8 ea3d
00000140: c06f a4bd 63fd 4cbe 8ea3 a63d b437 de3d
00000150: 9508 aa3c 4b31 b7be efd6 ae3e 3cdf bcbe
00000160: b0b9 edbc b60a 84bd b428 2cbd 8ca0 eb3b
00000170: 39e6 88be c923 9f3e 5bef a1bd 562a ff3c
00000180: 0300 a5bd 349e fbbc dfc2 a43c a02e 3939
00000190: 4ccb 61bc bb6e 663b 8c2e 963d c842 87be
000001a0: f2cf 913d 3d9e 453e fecd 9bbd 8830 8f3e
000001b0: 811b afbb a7e1 553e 52ad d1bd a9e2 4d3e
000001c0: 38d3 0f3e af08 a1bd 4655 01ba 0b7e a83c
000001d0: 73a1 3cbd a138 edbc f7e2 06bd b9aa 8f3e
000001e0: adbc f0bd 2fa8 2d3e c1ec 9bbd d108 a3be
000001f0: d175 a13c a038 3c3e be45 a6bd 9568 363d
00000200: 450e 8c3e accd 5cbe df1f 143e 457d 493d
00000210: eff0 503d 5233 273e 693a f03c 00ff d4bc
00000220: b180 893d d678 183d 4a6f 123e 9f0c 4f3e
00000230: 4759 a3be 8c9c 11be 9fbd bc3d 7a18 b43d
00000240: d655 363e 09f0 913e 6e41 3abe 6e5c 16bd
00000250: b173 90bb 445f c63c 9248 1c3e f3fe da3d
00000260: 5149 3b3c e141 c9bc c86c f0be 689b 75bd
00000270: e2d5 74bd 5f5d 183e 989d a73c 2273 79bd
00000280: 54f1 ca3e 0e21 87be 8bf3 20bc fbec d63d
00000290: 5012 0cbe 4072 863d f694 d9bd e902 593e
000002a0: 1de5 b03d f375 8a3d bc10 6c3e 7117 b0bd
000002b0: be4a 4dbe 7660 fe3d b23d 7abe 3671 3a3e
000002c0: 1014 a0bc 90a1 3fbe f11b adbd 24f1 9cbe
000002d0: 3aec 5dbd c51c 43be 6332 c0bd 4325 42be
000002e0: 2acc de3a 85fb b4bd 27f8 313b 49b5 a6bd
000002f0: 1628 27be 5b0b 563d 692d bd3d ded3 6fbe
00000300: 6a58 edbd caa1 f1bd f2da b1be 74ec 853e
00000310: 4987 803e 5dba 14bd eb84 523e 97a8 bd3c
00000320: 49ab 113e b705 6a3d 9778 fbbd b130 163e
00000330: a673 a03d cae7 6c3e 4a8d 65bd 33f2 c53d
00000340: 4e15 18bd ddb3 bdbd 0b88 80bc d37a 31be
00000350: 5d8b bc3e c9b9 843e 3767 fabd d5ce 4b3c
00000360: d36e 47bd cf58 71bc d487 b83d ffcb 38bd
00000370: 8315 50bc 6cb9 53be d935 b73e 73c9 85be
00000380: 192d 61bd 910c 88bd 9985 57be ed48 4abe
00000390: ad4b e43d e840 cb3d bb54 70be 5e2c 02bd
000003a0: 0771 0dbd 9eb2 f9bc 90fe 56bc 34ee b23d
000003b0: cf8e 973d a5f9 60bd 6e8c 7abe c283 cebe
000003c0: cfda 313e 8ed6 b03e d476 863d d6c1 823e
000003d0: b07e 253c e2e4 f83d 74e4 efbe 197f 8f3d
000003e0: 01fa d93d f4fd 30bc d23a a43c 7efd fbbb
000003f0: 833e d4bd 0d68 e7bc 2122 db3c a5ed 1a3d

critic.critic_net.layers.0.bias f4 [64]
-0.08525632 -0.21844353 -0.104983956 -0.14681305 0.116230786 -0.0939103 -0.19707604 -0.009880369
-0.2922009 0.13324638 -0.009310145 -0.05818991 -0.020248871 -0.123734675 -0.16919142 -0.18821798
0.05384596 -0.25877553 -0.1511937 0.13452092 -0.05789308 0.043012556 0.07370552 -0.25701517
0.12317477 -0.11611196 0.061464958 -0.069390625 -0.12393017 -0.08807105 0.0393174 -0.043501694
0.19768402 0.10805672 0.17314735 0.02006352 -0.19659463 0.19500953 -0.06406761 0.08277345
0.2672393 -0.26976833 0.23178273 -0.13609055 0.23475865 -0.008672456 0.11529739 0.19426024
-0.23742218 -0.090180084 -0.15497811 -0.10991277 0.21038224 -0.039938584 -0.10496092 -0.054594792
0.34859216 -0.0038927768 0.2009443 -0.5175482 0.1848981 0.21155314 -0.0066946656 -0.08685091
00000000: de9a aebd a9af 5fbe d401 d7bd 2956 16be
00000010: 680a ee3d 0b54 c0bd 4dce 49be 45e1 21bc
00000020: 5b9b 95be bd71 083e 9489 18bc 8b58 6ebd
00000030: f6e0 a5bc 9b68 fdbd 8440 2dbe 37bc 40be
00000040: 958d 5c3d 3a7e 84be 85d2 1abe dabf 093e
00000050: 4b21 6dbd ef2d 303d ebf2 963d 7e97 83be
00000060: 0e43 fc3d 1bcc edbd aec2 7b3d ac1c 8ebd
00000070: 1acf fdbd 985e b4bd 480b 213d d52e 32bd
00000080: ae6d 4a3e d74c dd3d 8a4d 313e 405c a43c
00000090: 1a50 49be 94b0 473e e135 83bd 2085 a93d
000000a0: 97d3 883e 131f 8abe 7458 6d3e 525b 0bbe
000000b0: 9264 703e eb16 0ebc 0a21 ec3d 28ec 463e
000000c0: cd1e 73be 56b0 b8bd 95b2 1ebe f219 e1bd
000000d0: 716e 573e a496 23bd c0f5 d6bd ca9e 5fbd
000000e0: ac7a b23e f51d 7fbb 58c4 4d3e 0a7e 04bf
000000f0: ed55 3d3e 63a1 583e ed5e dbbb e4de b1bd

critic.critic_net.layers.2.weight f4 [64, 64]
0.0750395 0.032342695 0.022199012 0.031306814 -0.03683212 0.08285767 0.073303685 0.012740545
-0.028122379 -0.06881994 -0.03404694 0.004630297 -0.05945582 0.025520619 0.028970439 -0.023145063
-0.09940884 -0.1056562 0.08023822 0.053496424 0.03724335 0.13946933 -0.04223671 0.033640627
0.039052043 0.03586136 0.06302513 0.02077829 0.07655728 0.10351391 0.0152562875 0.085004136
-0.056914333 0.09390392 0.055944804 0.06281692 0.068527535 0.16705859 -0.07994991 -0.019428672
0.18898506 -0.07500414 -0.091019735 -0.04103962 0.12117136 -0.03502034 -0.08374982 -0.028747942
0.05287498 0.052904274 -0.11636451 0.06169766 0.010743628 -0.032394312 0.03565259 -0.09160233
0.049775906 -0.027195238 0.054559413 -0.17372993 -0.029657515 -0.051328063 -0.06906999 0.019579733
-0.19709705 -0.020176258 -0.028535604 0.050129015 0.068194665 -0.17019965 0.030096479 0.15465835
0.03520002 -0.036138095 0.03680806 0.06339063 -0.059290875 0.052083913 0.06274386 0.046124488
0.09178449 0.06603422 0.1346795 0.056039516 0.18066105 0.13545252 0.027435245 0.10606667
-0.034748 0.04816157 0.050911516 0.10361082 -0.005849946 -0.18656752 -0.16886304 0.07585055
0.029275905 -0.1086593 0.022741044 0.08677862 -0.039755993 -0.06676373 -0.044833984 0.024551455
0.0725239 0.11983761 -0.06166096 0.14752346 0.091676205 0.20088409 -0.011936524 -0.074882776
0.00989216 -0.10405923 0.062956184 -0.14242968 0.009586212 0.016225452 -0.20354794 -0.06900871
0.023883888 0.039732497 -0.01133013 0.1366754 -0.049821384 -0.075745486 0.16247278 0.027937192
0.14695585 0.032552194 -0.3499394 0.033570834 -0.0072924243 -0.2230305 0.15659691 0.053402472
-0.13638651 0.13981692 0.0695721 -0.0051434017 -0.31009677 -0.024724783 0.24899644 0.050263025
0.24931918 0.29874602 -0.1507565 0.038459465 -0.13809364 -0.023743523 -0.33233368 0.002494233
-0.2855576 0.120306216 0.01311547 -0.1171406 0.01098562 -0.01934717 0.32869434 -0.23631155
0.00923246 0.08675714 0.09309109 0.14368168 0.0626143 -0.15843983 -0.251607 0.08707351
0.023449367 0.10365404 -0.3486515 -0.08823134 0.09669149 0.28167918 -0.29642615 -0.041776303
0.023098057 -0.012133564 -0.08309816 -0.035225328 0.16236837 -0.10916271 -0.3289827 -0.25404721
-0.029936671 -0.1808662 0.17551921 0.099579565 -0.23982576 0.1595193 0.033027098 0.045047116
-0.056958318 -0.06791399 0.060165443 -0.056016956 -0.0011234087 0.13164449 0.0339902 -0.1591968
-0.15423705 -0.039492887 -0.13703431 0.09207406 0.088736646 0.05178816 -0.032904826 0.017575832
-0.10916205 0.015236103 -0.088491 0.013842331 0.019809999 0.13416971 -0.06593188 -0.09642223
0.05435069 -0.03717188 -0.06276037 -0.009438251 0.0666948 -0.011217625 0.15709953 0.072785296
0.04920615 0.109649494 0.06410571 0.09827478 -0.0038100271 0.09258242 0.03009942 0.06094966
-0.021126568 0.01764697 -0.071736194 -0.13418593 -0.018578552 -0.10194098 -0.0024688079 -0.07439775
-0.039647203 -0.0050389622 0.029892055 0.1236021 0.09255439 -0.08937414 0.2229981 0.07699572
-0.10490673 0.122847386 -0.08381599 -0.06553261 -0.03879066 -0.070559554 0.037370533 -0.09635092
00000000: 4fae 993d c679 043d b4da b53c 933b 003d
00000010: 47dd 16bd 48b1 a93d 3e20 963d b8bd 503c
00000020: e760 e6bc 78f1 8cbd ce74 0bbd bfb9 973b
00000030: f287 73bd 9e10 d13c 6a53 ed3c b79a bdbc
00000040: dd96 cbbd 4762 d8bd f053 a43d 111f 5b3d
00000050: 7c8c 183d 0cd1 0e3e 6700 2dbd c1ca 093d
00000060: 09f5 1f3d 5de3 123d 5213 813d 3c37 aa3c
00000070: 10ca 9c3d 1aff d33d 82f5 793c a616 ae3d
00000080: 011f 69bd b350 c03d 6126 653d 28a6 803d
00000090: 2a58 8c3d 6811 2b3e c7bc a3bd e128 9fbc
000000a0: 4d85 413e c59b 99bd 8e68 babd 2919 28bd
000000b0: b128 f83d 7d71 0fbd 0785 abbd ce80 ebbc
000000c0: 6f93 583d 27b2 583d 8450 eebd afb6 7c3d
000000d0: 0b06 303c e6af 04bd 7308 123d 019a bbbd
000000e0: d2e1 4b3d 8cc8 debc b179 5f3d 42e6 31be
000000f0: 51f4 f2bc 603d 52bd 9174 8dbd ad65 a03c
00000100: cfd3 49be ae48 a5bc 80c3 e9bc 1554 4d3d
00000110: a5a9 8b3d d148 2ebe e48c f63c c25e 1e3e
00000120: e52d 103d 8a05 14bd 0cc4 163d f2d2 813d
00000130: fdda 72bd f155 553d da7f 803d 08ed 3c3d
00000140: 82f9 bb3d f33c 873d 6ce9 093e b189 653d
00000150: 36ff 383e 11b4 0a3e e1bf e03c 7b39 d93d
00000160: eb53 0ebd 1145 453d 9888 503d e931 d43d
00000170: e7b0 bfbb 8e0b 3fbe 6fea 2cbe 8857 9b3d
00000180: 06d4 ef3c c488 debd 6d4b ba3c fdb8 b13d
00000190: 2ed7 22bd 6cbb 88bd d7a3 37bd 2220 c93c
000001a0: 6987 943d 6c6d f53d 3490 7cbd 6410 173e
000001b0: bcc0 bb3d 8fb4 4d3e 6991 43bc 245c 99bd
000001c0: ba12 223c 011d d5bd 2cef 803d 16d9 11be
000001d0: 7d0f 1d3c 3deb 843c df6e 50be 7054 8dbd
000001e0: 25a8 c33c 8bbe 223d 02a2 39bc a3f4 0b3e
000001f0: 8211 4cbd 7320 9bbd 445f 263e 8adc e43c
00000200: 987b 163e 7355 053d 422b b3be 9281 093d
00000210: 4af5 eebb 1b62 64be f15a 203e 8dbc 5a3d
00000220: e8a8 0bbe 2b2c 0f3e d17b 8e3d fb89 a8bb
00000230: 01c5 9ebe a18b cabc ecf8 7e3e 9ae0 4d3d
00000240: 874d 7f3e 3df5 983e e95f 1abe ac87 1d3d
00000250: 6b68 0dbe c781 c2bc a427 aabe 4976 233b
00000260: 9b34 92be 1b63 f63d 45e2 563c 69e7 efbd
00000270: 08fd 333c f57d 9ebc a04a a83e a8fb 71be
00000280: be43 173c baad b13d 8ba6 be3d 4a21 133e
00000290: ed3b 803d 0d3e 22be a2d2 80be 9953 b23d
000002a0: e318 c03c 9248 d43d 7382 b2be a2b2 b4bd
000002b0: 3006 c63d 4138 903e 2bc5 97be a11d 2bbd
000002c0: 2338 bd3c dbcb 46bc 5e2f aabd 6f48 10bd
000002d0: e543 263e b390 dfbd 6c70 a8be 7a12 82be
000002e0: c03d f5bc fd34 39be 4fbb 333e 5ff0 cb3d
000002f0: e294 75be 0759 233e 6c47 073d 5383 383d
00000300: 204d 69bd 7d16 8bbd 0a70 763d 0972 65bd
00000310: 573f 93ba d0cd 063e 4f39 0b3d 7c04 23be
00000320: 51f0 1dbe 4bc3 21bd b952 0cbe 5391 bc3d
00000330: 8fbb b53d d21f 543d 36c7 06bd 31fb 8f3c
00000340: 5a90 dfbd d9a0 793c c53a b5bd f2ca 623c
00000350: 9448 a23c c963 093e 4b07 87bd 0579 c5bd
00000360: d49e 5e3d 8b41 18bd 8288 80bd e5a2 1abc
00000370: 4997 883d 21ca 37bc b3de 203e 7510 953d
00000380: 638c 493d ea8f e03d db49 833d 4a44 c93d
00000390: a6b1 79bb da9b bd3d 0f93 f63c 5aa6 793d
000003a0: a011 adbc 6190 903c 6dea 92bd 0968 09be
000003b0: 0c32 98bc 6fc6 d0bd b9cb 21bb d95d 98bd
000003c0: 1b65 22bd e11d a5bb 2fe0 f43c 1923 fd3d
000003d0: 288d bd3d ca09 b7bd 9d59 643e efaf 9d3d
000003e0: 57d9 d6bd 6997 fb3d b8a7 abbd f635 86bd
000003f0: f5e2 1ebd 8781 90bd d811 193d a253 c5bd

critic.critic_net.layers.2.bias f4 [64]
0.13239089 -0.19255705 -0.17045188 0.00889087 0.23260121 -0.025130901 -0.06456377 -0.018702738
-0.3122977 0.1054155 -0.13191068 0.0348233 0.13417466 -0.032298587 0.14610101 0.14502218
0.13012587 0.23473905 0.0552561 0.085847005 -0.23036811 -0.0803372 -0.030793475 0.06434467
0.24531122 0.20837843 -0.19204728 0.2036772 -0.16956903 -0.20361336 -0.031651147 -0.20356737
0.13773215 0.08759198 -0.03250489 -0.0043872967 -0.18845043 -0.14492498 -0.10467846 -0.00035452266
0.08768426 -0.025095051 0.11801459 0.11412359 0.022705367 0.07131063 -0.11009228 -0.040889215
0.085789755 0.07586777 -0.2634297 0.02382134 0.22638166 0.18771005 0.14243409 0.0862724
-0.1443672 -0.15668398 0.025878541 0.08584723 0.116026066 -0.07346129 0.17870414 0.15697879
00000000: 7a91 073e ad2d 45be f08a 2ebe 03ab 113c
00000010: 032f 6e3e 52df cdbc 033a 84bd 7c36 99bc
00000020: 7ce5 9fbe 15e4 d73d 9813 07be e0a2 0e3d
00000030: 1565 093e 864b 04bd 819b 153e b280 143e
00000040: b73f 053e 6f5f 703e 3854 623d 8ed0 af3d
00000050: 9ee5 6bbe d487 a4bd 9942 fcbc 23c7 833d
00000060: dd32 7b3e 2861 553e 0ba8 44be c290 503e
00000070: 81a3 2dbe 0580 50be a2a4 01bd f773 50be
00000080: a809 0d3e 6d63 b33d d923 05bd 50c3 8fbb
00000090: 26f9 40be 3767 14be a961 d6bd 3adf b9b9
000000a0: ce93 b33d 2394 cdbc a2b1 f13d a1b9 e93d
000000b0: 9b00 ba3c 4f0b 923d 1078 e1bd 737b 27bd
000000c0: 8ab2 af3d 9060 9b3d 42e0 86be f924 c33c
000000d0: 98d0 673e 1037 403e 3eda 113e 96af b03d
000000e0: ffd4 13be c471 20be 3cff d33c acd0 af3d
000000f0: 139f ed3d df72 96bd 38fe 363e 0cbf 203e

critic.critic_net.layers.4.weight f4 [1, 64]
-0.12242119 0.2172078 -0.39097902 -0.1304327 -0.105729386 -0.45235607 -0.11941439 -0.079925686
0.114971675 -0.13080613 0.18492858 -0.29963455 -0.16577132 0.12923396 -0.11026731 -0.09764056
-0.20218809 -0.236955 -0.16666228 -0.037534885 0.10950676 0.15121152 -0.096892335 -0.010214833
-0.13789785 -0.15404451 0.19126326 -0.15700884 0.16349576 0.1501403 -0.13534836 0.23145607
-0.18429999 -0.100371726 0.18639097 0.066998914 0.18392222 0.18183753 0.07844005 -0.024888115
-0.23054078 -0.27259704 0.29782254 -0.19554481 0.3202343 -0.23396519 0.08016418 0.11114202
-0.11397581 -0.15029968 0.16745257 -0.15405518 -0.263605 -0.20574138 -0.18745969 -0.17769931
0.049225263 0.12805517 -0.052820332 -0.13472095 -0.2645427 0.017491616 -0.21107769 -0.12948647
00000000: f6b7 fabd b96b 5e3e 672e c8be 2690 05be
00000010: a688 d8bd 379b e7be 888f f4bd 14b0 a3bd
00000020: 4576 eb3d 0bf2 05be eb5d 3d3e b369 99be
00000030: f5bf 29be e855 043e d4d3 e1bd c6f7 c7bd
00000040: 650a 4fbe 55a4 72be 84a9 2abe 2ebe 19bd
00000050: 1545 e03d 31d7 1a3e 7d6f c6bd 1d5c 27bc
00000060: 1835 0dbe d8bd 1dbe 84da 433e edc6 20be
00000070: 6f6b 273e 61be 193e c398 0abe d202 6d3e
00000080: 23b9 3cbe b18f cdbd 46dd 3e3e ba36 893d
00000090: 1b56 3c3e 9e33 3a3e 2da5 a03d 29e2 cbbc
000000a0: e212 6cbe d791 8bbe 327c 983e e63c 48be
000000b0: c0f5 a33e 9294 6fbe 1e2d a43d 6d9e e33d
000000c0: 266c e9bd 29e8 19be b078 2b3e a4c0 1dbe
000000d0: 3cf7 86be dead 52be 6ff5 3fbe cff6 35be
000000e0: 6ea0 493d e520 033e 225a 58bd 4af4 09be
000000f0: 2472 87be 944a 8f3c c024 58be 1a98 04be

exp_avg f4 [6]
0.00087971165 0.003093887 0.0036514043 0.00089163287 -0.0019939633 0.005955967
00000000: 739c 663a cfc2 4a3b 664c 6f3b 78bc 693a
00000010: 27ad 02bb 462a c33b

exp_avg_sq f4 [6]
0.00014904044 0.00015563675 0.00017398711 0.00015771823 0.00016805597 0.00017494302
00000000: bd47 1c39 6c32 2339 4f70 3639 2a61 2539
00000010: 2e38 3039 e970 3739

exp_avg f4 [64, 17]
-0.00016949003 -0.00013731445 -1.827445e-05 -4.975307e-05 -0.00035640126 0.00018563737 0.00010686622 -1.0285154e-05
-0.0003128111 -0.00036735632 -0.0014461173 -0.0009052358 0.0040242323 0.0022856493 -0.0004361886 0.0018042605
-0.00048422904 0.00024343334 -4.082692e-05 -1.7922112e-05 4.4833323e-05 0.0001122247 5.5680714e-05 2.9533281e-05
0.000187335 -0.00034373297 8.863872e-05 -0.00061737373 3.2230848e-05 -0.0014261842 0.00031574827 -0.0009502907
0.000901708 -0.00010887059 -0.000548558 8.730034e-05 0.00010646478 0.00014866407 -0.00043465834 -3.9426726e-05
0.000117178985 -0.00024391782 0.00021159065 -7.700027e-06 -0.000967724 -0.0013935564 0.004179527 0.00031451945
-0.0006302177 0.00026774674 0.002313298 0.000117469695 5.4341467e-06 -2.3545537e-05 -1.4553717e-05 0.00013905109
-5.23339e-05 -7.0489905e-06 7.078274e-05 -8.239714e-05 -0.00028386703 -0.00053733634 -0.00034774997 -0.0003388563
0.00015691188 5.999765e-05 -0.0011797391 0.001394646 0.0006150782 0.0001571309 7.5880846e-05 5.858221e-05
0.0001599614 -0.00023215881 0.00018059427 0.00026038385 0.00024202857 0.00027294498 3.092561e-05 0.0016009419
-0.00018141112 3.6652968e-05 0.0022366736 -0.001829462 0.00031817312 0.00016391661 0.000144794 2.765306e-05
-0.00010087246 0.00013675108 -8.9286856e-05 0.00011312975 -2.4922449e-05 -0.00012987737 -0.00042616914 -0.002009445
-0.0014447608 -0.0005865815 -0.0019363633 -0.0012952581 0.0013270625 0.0011358636 6.863398e-05 1.1111664e-05
3.493683e-05 -0.00018283 0.00013176746 -1.3011066e-05 6.898066e-05 0.000120030876 0.00010606655 -0.00011316034
-0.0012180451 -0.0026577397 0.0024098554 0.0014183496 -0.0016885306 0.0032661885 -0.0027349165 0.0006474756
9.666079e-05 2.8141312e-05 3.7672532e-06 0.0003528433 -8.708873e-06 7.536422e-05 0.00027117407 0.000116441515
-0.00013440003 -0.0019326013 -0.0015003157 -0.0005607219 0.0014561269 -0.0018361965 0.002091614 -0.0007204226
-0.00014464221 -0.00011670951 -1.9267109e-06 -0.00011593067 -0.00015636763 4.7961166e-05 -5.0780174e-05 -0.00017425188
3.3045435e-05 0.0001073125 0.001144045 0.0012127605 0.00016496712 -0.00096201006 -5.660095e-05 0.0033120934
-0.0003192172 -0.00016657794 5.103308e-06 -8.471032e-05 -0.00011947301 8.164281e-05 -4.7062367e-05 6.535404e-05
5.3569285e-05 0.00022062368 -0.00014930162 -0.00019417099 -0.00019238183 0.0008373354 -0.000928185 -0.00064579817
0.0005339738 -0.002127934 -2.8026907e-05 -8.832868e-05 -1.2327454e-05 3.963416e-05 -1.573361e-05 -1.1168364e-05
-6.354815e-05 -1.7808476e-05 3.8251925e-05 0.00025010086 0.001134497 0.001231298 0.00066730083 0.0021515246
0.0014666775 -0.00015161374 -0.0010100204 0.00040192524 -0.00018517941 0.00014181298 -0.00018127207 -2.6001553e-05
-2.9658668e-05 -0.00015927614 -7.7597164e-05 0.0006708322 0.00013407327 0.0040775063 0.0048748334 -0.00034771435
0.007802184 0.0036755824 0.0003401027 0.0042076474 0.00047282575 0.00021908047 -5.747551e-05 -6.8170426e-05
0.00025113468 -8.2197344e-05 -0.00010112129 0.00016979816 0.0006099974 -0.0002988982 0.0005161565 0.00019407329
-0.0010204172 -0.0002317247 9.293952e-05 -0.0011791072 -0.0009809834 0.0010557376 -7.123283e-05 -0.00012929132
-0.00033820135 0.0006153636 -1.5924569e-06 -0.00023650887 0.00029941325 0.00028335684 -0.00034219402 -0.0020563756
-0.00230354 -0.0003200568 0.0006562464 -0.0029737658 0.0017437114 0.0012058517 -0.00017209402 9.499539e-05
-7.944503e-06 0.00020480508 -0.00012098532 2.149374e-05 8.548304e-05 -0.00012502047 -0.00044058656 -0.00017978868
-0.00037981747 -0.0012125586 0.000525073 -0.0005172759 -0.00075459655 0.0008108782 -0.00093448494 0.00018245619
00000000: 22b9 31b9 11fc 0fb9 154c 99b7 f4ad 50b8
00000010: 5edb bab9 a7a7 4239 5d1d e038 668e 2cb7
00000020: cc00 a4b9 bb99 c0b9 a58b bdba 594d 6dba
00000030: b5dd 833b d5ca 153b 3eb0 e4b9 f07c ec3a
00000040: 1fe0 fdb9 2442 7f39 923d 2bb8 7157 96b7
00000050: 6a0b 3c38 2d5a eb38 b68a 6938 3dbe f737
00000060: 5b6f 4439 0f37 b4b9 8de3 b938 40d7 21ba
00000070: 9c2f 0738 cdee baba 048b a539 ee1c 79ba
00000080: 9960 6c3a 7451 e4b8 1bcd 0fba 0315 b738
00000090: d845 df38 b5e2 1b39 dbe2 e3b9 205e 25b8
000000a0: fdbd f538 31c4 7fb9 6fde 5d39 5d2f 01b7
000000b0: dcae 7dba fea7 b6ba 6af4 883b 16e6 a439
000000c0: 3235 25ba 5c60 8c39 b39a 173b 105a f638
000000d0: f756 b636 a883 c5b7 bd2b 74b7 3ece 1139
000000e0: 1981 5bb8 5e86 ecb6 3271 9438 a1cc acb8
000000f0: fdd3 94b9 08dc 0cba 3652 b6b9 86a8 b1b9
00000100: b688 2439 fca5 7b38 7aa1 9aba 8ecc b63a
00000110: 333d 213a 81c3 2439 3822 9f38 2bb6 7538
00000120: 50bb 2739 a86f 73b9 e85d 3d39 2184 8839
00000130: 0dc9 7d39 0e1a 8f39 1fb6 0138 b2d6 d13a
00000140: 2d39 3eb9 d3bb 1938 2895 123b 8fca efba
00000150: 79d0 a639 08e1 2b39 d8d3 1739 7ff8 e737
00000160: 7d8b d3b8 d764 0f39 843f bbb8 1240 ed38
00000170: 8d10 d1b7 b12f 08b9 746f dfb9 e5b0 03bb
00000180: 215e bdba d1c4 19ba 92cd fdba a6c5 a9ba
00000190: d4f0 ad3a 42e1 943a 96ef 8f38 3c6c 3a37
000001a0: 2389 1238 0eb6 3fb9 0f2b 0a39 1a4a 5ab7
000001b0: b6a9 9038 16b9 fb38 0c70 de38 7f50 edb8
000001c0: d0a6 9fba 792d 2ebb aaee 1d3b eae7 b93a
000001d0: af51 ddba 8d0d 563b 493c 33bb 5abb 293a
000001e0: 5eb6 ca38 0211 ec37 ebd0 7c36 d3fd b839
000001f0: 531c 12b7 dc0c 9e38 5e2c 8e39 1032 f438
00000200: bced 0cb9 574f fdba 3ea6 c4ba 69fd 12ba
00000210: 83db be3a 88ac f0ba 7613 093b beda 3cba
00000220: 19ab 17b9 f1c1 f4b8 a44c 01b6 ce1f f3b8
00000230: 9ef6 23b9 e929 4938 ccfc 54b8 62b7 36b9
00000240: 449a 0a38 f60c e138 c8f3 953a 7df5 9e3a
00000250: 06fb 2c39 672f 7cba cf66 6db8 b50f 593b
00000260: 9b5c a7b9 6dab 2eb9 153d ab36 82a6 b1b8
00000270: 958d fab8 a637 ab38 d564 45b8 af0e 8938
00000280: 95af 6038 3857 6739 d98d 1cb9 619a 4bb9
00000290: 1bba 49b9 a180 5b3a 7151 73ba c84a 29ba
000002a0: 60fa 0b3a cf74 0bbb 531b ebb7 193d b9b8
000002b0: 03d2 4eb7 db3c 2638 acfb 83b7 c25f 3bb7
000002c0: 2745 85b8 6963 95b7 b170 2038 f81f 8339
000002d0: 67b3 943a 8163 a13a cded 2e3a 9800 0d3b
000002e0: 883d c03a 81fa 1eb9 a962 84ba 7eb9 d239
000002f0: b82c 42b9 a2b3 1439 da13 3eb9 e91d dab7
00000300: 81cb f8b7 5d03 27b9 a9bb a2b8 c9da 2f3a
00000310: 0596 0c39 9a9c 853b 11bd 9f3b 6e4d b6b9
00000320: 77a9 ff3b 0ae2 703b d04f b239 4ee0 893b
00000330: 99e5 f739 f7b8 6539 dc11 71b8 b8f6 8eb8
00000340: baaa 8339 5d61 acb8 1411 d4b8 d90b 3239
00000350: 3ce8 1f3a 70b5 9cb9 ad4e 073a 2780 4b39
00000360: 85bf 85ba 20fb 72b9 86e8 c238 468c 9aba
00000370: 5794 80ba ad60 8a3a d662 95b8 6092 07b9
00000380: 9e50 b1b9 5a50 213a 67bc d5b5 5eff 77b9
00000390: 91fa 9c39 838f 9439 8168 b3b9 42c4 06bb
000003a0: fdf6 16bb 4ccd a7b9 f307 2c3a 83e3 42bb
000003b0: 3f8d e43a ab0d 9e3a 2374 34b9 4338 c738
000003c0: 6149 05b7 f2c0 5639 80b9 fdb8 754d b437
000003d0: 5c45 b338 ed17 03b9 87fe e6b9 a885 3cb9
000003e0: 3d22 c7b9 b7ee 9eba 0da5 093a cc99 07ba
000003f0: 1ed0 45ba 1d91 543a 39f8 74ba b651 3f39
