trained_models/unlagged_ppo_Walker2d-v2_eps_0_critic.pth (torch, 71121 bytes, 15 tensors)

critic_net.layers.0.weight f4 [64, 17]
-0.26250428 -0.23480831 0.20694795 0.054376062 0.17252441 -0.0053640204 0.10749102 -0.17222622
-0.5199512 0.32024476 -0.06899011 0.055794526 -0.07849897 0.009055896 -0.004035319 -0.045163773
-0.04514526 0.034872927 -0.29363033 0.037600145 0.27557534 0.046907455 0.39850354 -0.09933321
-0.047658887 -0.06237798 0.1424211 -0.14137302 0.037812416 0.13259105 -0.06774 0.022370148
-0.048893273 -0.0370668 0.006881288 0.3000346 -0.38396588 -0.22743417 0.089258924 -0.21447556
-0.22158633 0.16560033 0.5959427 -0.34028646 0.14277394 0.077494 0.010121627 0.007260697
-0.21210594 -0.093916155 0.001861128 0.2758605 -0.42200455 -0.2412112 0.031476453 0.29097414
0.33871278 0.20950943 0.17249672 0.15461083 0.29304588 0.08056711 -0.06030269 -0.025358245
0.012819409 0.10146035 0.1309652 0.05049629 0.107387975 0.03419668 0.17845358 0.019948976
0.052620713 -0.15185404 0.08534961 -0.26157218 -0.10204756 -0.031610347 -0.06146133 0.11470138
-0.08029127 -0.20018534 0.08136664 0.10850468 0.020756045 -0.35779795 0.34148356 -0.36889064
-0.029019207 -0.064473554 -0.042031005 0.0071907695 -0.26738146 0.3108199 -0.079069816 0.031148117
-0.08056643 -0.030715086 0.020112453 0.00017660344 -0.01378138 0.0035161215 0.07333097 -0.26418138
0.071197405 0.19298644 -0.07607649 0.27966714 -0.005343855 0.20886861 -0.10238136 0.20105995
0.14045417 -0.078629844 -0.0004933666 0.020567914 -0.046052407 -0.028957667 -0.032931294 0.2805994
-0.11754737 0.16958688 -0.076135166 -0.31842664 0.0197095 0.18380976 -0.08118771 0.04453333
0.27354637 -0.21562833 0.14465283 0.049191732 0.051011022 0.16328171 0.029324727 -0.0260005
0.06713999 0.037224613 0.14300266 0.20219658 -0.3190405 -0.14219874 0.09215855 0.08793731
0.17806181 0.28503445 -0.18189022 -0.03670924 -0.0044083227 0.024215348 0.15262058 0.10693159
0.011431054 -0.024567546 -0.46957994 -0.05996266 -0.059774287 0.14879368 0.020460889 -0.060900815
0.39637244 -0.26392406 -0.00982369 0.10494419 -0.1367886 0.0656476 -0.10624115 0.21192516
0.0863745 0.06760778 0.23053259 -0.08598221 -0.20048043 0.12420742 -0.24437597 0.18207249
-0.019540817 -0.18713975 -0.08452595 -0.30652726 -0.05418036 -0.19053943 -0.093846105 -0.18959527
0.0016998101 -0.08837036 0.0027155967 -0.08140046 -0.16323885 0.052256923 0.09237177 -0.23420665
-0.11589129 -0.11798437 -0.34737355 0.26156962 0.25103214 -0.036310542 0.20558517 0.023151679
0.14225496 0.057134356 -0.1227886 0.14667012 0.07834558 0.23135296 -0.056042947 0.096653365
-0.037129693 -0.09262822 -0.01568987 -0.1733201 0.36825076 0.25922993 -0.12226718 0.012439449
-0.048689675 -0.014730646 0.09010282 -0.04511642 -0.012700441 -0.20676202 0.3578327 -0.26130256
-0.05497465 -0.06643022 -0.21047057 -0.19754381 0.111472465 0.09924489 -0.23469822 -0.031780593
-0.03453162 -0.03048068 -0.013122216 0.0873684 0.074002855 -0.05492558 -0.24467632 -0.40334898
0.17368625 0.34538692 0.065656334 0.2553851 0.010101005 0.12153031 -0.46853983 0.07006664
0.106433876 -0.010802735 0.020047579 -0.0076901307 -0.10363486 -0.028247857 0.026749672 0.03782429
00000000: f666 86be 9771 70be 2aea 533e 6fb9 5e3d
00000010: 3daa 303e aac4 afbb 4024 dc3d 125c 30be
00000020: 861b 05bf 1ff7 a33e b04a 8dbd cd88 643d
00000030: 11c4 a0bd 2e5f 143c b63a 84bb a6fd 38bd
00000040: 3cea 38bd ead6 0e3d b756 96be 9c02 1a3d
00000050: 3618 8d3e 0822 403d a808 cc3e 366f cbbd
00000060: f735 43bd 0e80 7fbd d6d6 113e 17c4 10be
00000070: 31e1 1a3d f3c5 073e 45bb 8abd 9a41 b73c
00000080: 5044 48bd 5bd3 17bd 6d7c e13b 239e 993e
00000090: 2d97 c4be 81e4 68be 62cd b63d 7b9f 5bbe
000000a0: 87e7 62be 2293 293e b38f 183f 073a aebe
000000b0: 5533 123e 2db5 9e3d 2ed5 253c 24eb ed3b
000000c0: 4d32 59be 1d57 c0bd 18f1 f33a 963d 8d3e
000000d0: fb10 d8be 1200 77be 74ed 003d 90fa 943e
000000e0: c36b ad3e a489 563e fba2 303e 4d52 1e3e
000000f0: 1c0a 963e 5e00 a53d f4ff 76bd 18bc cfbc
00000100: 8008 523c 72ca cf3d be1b 063e 33d5 4e3d
00000110: 3aee db3d d111 0c3d 89bc 363e 096c a33c
00000120: d188 573d a07f 1bbe c7cb ae3d caec 85be
00000130: 50fe d0bd da79 01bd e0be 7bbd 8fe8 ea3d
00000140: c06f a4bd 63fd 4cbe 8ea3 a63d b437 de3d
00000150: 9508 aa3c 4b31 b7be efd6 ae3e 3cdf bcbe
00000160: b0b9 edbc b60a 84bd b428 2cbd 8ca0 eb3b
00000170: 39e6 88be c923 9f3e 5bef a1bd 562a ff3c
00000180: 0300 a5bd 349e fbbc dfc2 a43c a02e 3939
00000190: 4ccb 61bc bb6e 663b 8c2e 963d c842 87be
000001a0: f2cf 913d 3d9e 453e fecd 9bbd 8830 8f3e
000001b0: 811b afbb a7e1 553e 52ad d1bd a9e2 4d3e
000001c0: 38d3 0f3e af08 a1bd 4655 01ba 0b7e a83c
000001d0: 73a1 3cbd a138 edbc f7e2 06bd b9aa 8f3e
000001e0: adbc f0bd 2fa8 2d3e c1ec 9bbd d108 a3be
000001f0: d175 a13c a038 3c3e be45 a6bd 9568 363d
00000200: 450e 8c3e accd 5cbe df1f 143e 457d 493d
00000210: eff0 503d 5233 273e 693a f03c 00ff d4bc
00000220: b180 893d d678 183d 4a6f 123e 9f0c 4f3e
00000230: 4759 a3be 8c9c 11be 9fbd bc3d 7a18 b43d
00000240: d655 363e 09f0 913e 6e41 3abe 6e5c 16bd
00000250: b173 90bb 445f c63c 9248 1c3e f3fe da3d
00000260: 5149 3b3c e141 c9bc c86c f0be 689b 75bd
00000270: e2d5 74bd 5f5d 183e 989d a73c 2273 79bd
00000280: 54f1 ca3e 0e21 87be 8bf3 20bc fbec d63d
00000290: 5012 0cbe 4072 863d f694 d9bd e902 593e
000002a0: 1de5 b03d f375 8a3d bc10 6c3e 7117 b0bd
000002b0: be4a 4dbe 7660 fe3d b23d 7abe 3671 3a3e
000002c0: 1014 a0bc 90a1 3fbe f11b adbd 24f1 9cbe
000002d0: 3aec 5dbd c51c 43be 6332 c0bd 4325 42be
000002e0: 2acc de3a 85fb b4bd 27f8 313b 49b5 a6bd
000002f0: 1628 27be 5b0b 563d 692d bd3d ded3 6fbe
00000300: 6a58 edbd caa1 f1bd f2da b1be 74ec 853e
00000310: 4987 803e 5dba 14bd eb84 523e 97a8 bd3c
00000320: 49ab 113e b705 6a3d 9778 fbbd b130 163e
00000330: a673 a03d cae7 6c3e 4a8d 65bd 33f2 c53d
00000340: 4e15 18bd ddb3 bdbd 0b88 80bc d37a 31be
00000350: 5d8b bc3e c9b9 843e 3767 fabd d5ce 4b3c
00000360: d36e 47bd cf58 71bc d487 b83d ffcb 38bd
00000370: 8315 50bc 6cb9 53be d935 b73e 73c9 85be
00000380: 192d 61bd 910c 88bd 9985 57be ed48 4abe
00000390: ad4b e43d e840 cb3d bb54 70be 5e2c 02bd
000003a0: 0771 0dbd 9eb2 f9bc 90fe 56bc 34ee b23d
000003b0: cf8e 973d a5f9 60bd 6e8c 7abe c283 cebe
000003c0: cfda 313e 8ed6 b03e d476 863d d6c1 823e
000003d0: b07e 253c e2e4 f83d 74e4 efbe 197f 8f3d
000003e0: 01fa d93d f4fd 30bc d23a a43c 7efd fbbb
000003f0: 833e d4bd 0d68 e7bc 2122 db3c a5ed 1a3d

critic_net.layers.0.bias f4 [64]
-0.08525632 -0.21844353 -0.104983956 -0.14681305 0.116230786 -0.0939103 -0.19707604 -0.009880369
-0.2922009 0.13324638 -0.009310145 -0.05818991 -0.020248871 -0.123734675 -0.16919142 -0.18821798
0.05384596 -0.25877553 -0.1511937 0.13452092 -0.05789308 0.043012556 0.07370552 -0.25701517
0.12317477 -0.11611196 0.061464958 -0.069390625 -0.12393017 -0.08807105 0.0393174 -0.043501694
0.19768402 0.10805672 0.17314735 0.02006352 -0.19659463 0.19500953 -0.06406761 0.08277345
0.2672393 -0.26976833 0.23178273 -0.13609055 0.23475865 -0.008672456 0.11529739 0.19426024
-0.23742218 -0.090180084 -0.15497811 -0.10991277 0.21038224 -0.039938584 -0.10496092 -0.054594792
0.34859216 -0.0038927768 0.2009443 -0.5175482 0.1848981 0.21155314 -0.0066946656 -0.08685091
00000000: de9a aebd a9af 5fbe d401 d7bd 2956 16be
00000010: 680a ee3d 0b54 c0bd 4dce 49be 45e1 21bc
00000020: 5b9b 95be bd71 083e 9489 18bc 8b58 6ebd
00000030: f6e0 a5bc 9b68 fdbd 8440 2dbe 37bc 40be
00000040: 958d 5c3d 3a7e 84be 85d2 1abe dabf 093e
00000050: 4b21 6dbd ef2d 303d ebf2 963d 7e97 83be
00000060: 0e43 fc3d 1bcc edbd aec2 7b3d ac1c 8ebd
00000070: 1acf fdbd 985e b4bd 480b 213d d52e 32bd
00000080: ae6d 4a3e d74c dd3d 8a4d 313e 405c a43c
00000090: 1a50 49be 94b0 473e e135 83bd 2085 a93d
000000a0: 97d3 883e 131f 8abe 7458 6d3e 525b 0bbe
000000b0: 9264 703e eb16 0ebc 0a21 ec3d 28ec 463e
000000c0: cd1e 73be 56b0 b8bd 95b2 1ebe f219 e1bd
000000d0: 716e 573e a496 23bd c0f5 d6bd ca9e 5fbd
000000e0: ac7a b23e f51d 7fbb 58c4 4d3e 0a7e 04bf
000000f0: ed55 3d3e 63a1 583e ed5e dbbb e4de b1bd

critic_net.layers.2.weight f4 [64, 64]
0.0750395 0.032342695 0.022199012 0.031306814 -0.03683212 0.08285767 0.073303685 0.012740545
-0.028122379 -0.06881994 -0.03404694 0.004630297 -0.05945582 0.025520619 0.028970439 -0.023145063
-0.09940884 -0.1056562 0.08023822 0.053496424 0.03724335 0.13946933 -0.04223671 0.033640627
0.039052043 0.03586136 0.06302513 0.02077829 0.07655728 0.10351391 0.0152562875 0.085004136
-0.056914333 0.09390392 0.055944804 0.06281692 0.068527535 0.16705859 -0.07994991 -0.019428672
0.18898506 -0.07500414 -0.091019735 -0.04103962 0.12117136 -0.03502034 -0.08374982 -0.028747942
0.05287498 0.052904274 -0.11636451 0.06169766 0.010743628 -0.032394312 0.03565259 -0.09160233
0.049775906 -0.027195238 0.054559413 -0.17372993 -0.029657515 -0.051328063 -0.06906999 0.019579733
-0.19709705 -0.020176258 -0.028535604 0.050129015 0.068194665 -0.17019965 0.030096479 0.15465835
0.03520002 -0.036138095 0.03680806 0.06339063 -0.059290875 0.052083913 0.06274386 0.046124488
0.09178449 0.06603422 0.1346795 0.056039516 0.18066105 0.13545252 0.027435245 0.10606667
-0.034748 0.04816157 0.050911516 0.10361082 -0.005849946 -0.18656752 -0.16886304 0.07585055
0.029275905 -0.1086593 0.022741044 0.08677862 -0.039755993 -0.06676373 -0.044833984 0.024551455
0.0725239 0.11983761 -0.06166096 0.14752346 0.091676205 0.20088409 -0.011936524 -0.074882776
0.00989216 -0.10405923 0.062956184 -0.14242968 0.009586212 0.016225452 -0.20354794 -0.06900871
0.023883888 0.039732497 -0.01133013 0.1366754 -0.049821384 -0.075745486 0.16247278 0.027937192
0.14695585 0.032552194 -0.3499394 0.033570834 -0.0072924243 -0.2230305 0.15659691 0.053402472
-0.13638651 0.13981692 0.0695721 -0.0051434017 -0.31009677 -0.024724783 0.24899644 0.050263025
0.24931918 0.29874602 -0.1507565 0.038459465 -0.13809364 -0.023743523 -0.33233368 0.002494233
-0.2855576 0.120306216 0.01311547 -0.1171406 0.01098562 -0.01934717 0.32869434 -0.23631155
0.00923246 0.08675714 0.09309109 0.14368168 0.0626143 -0.15843983 -0.251607 0.08707351
0.023449367 0.10365404 -0.3486515 -0.08823134 0.09669149 0.28167918 -0.29642615 -0.041776303
0.023098057 -0.012133564 -0.08309816 -0.035225328 0.16236837 -0.10916271 -0.3289827 -0.25404721
-0.029936671 -0.1808662 0.17551921 0.099579565 -0.23982576 0.1595193 0.033027098 0.045047116
-0.056958318 -0.06791399 0.060165443 -0.056016956 -0.0011234087 0.13164449 0.0339902 -0.1591968
-0.15423705 -0.039492887 -0.13703431 0.09207406 0.088736646 0.05178816 -0.032904826 0.017575832
-0.10916205 0.015236103 -0.088491 0.013842331 0.019809999 0.13416971 -0.06593188 -0.09642223
0.05435069 -0.03717188 -0.06276037 -0.009438251 0.0666948 -0.011217625 0.15709953 0.072785296
0.04920615 0.109649494 0.06410571 0.09827478 -0.0038100271 0.09258242 0.03009942 0.06094966
-0.021126568 0.01764697 -0.071736194 -0.13418593 -0.018578552 -0.10194098 -0.0024688079 -0.07439775
-0.039647203 -0.0050389622 0.029892055 0.1236021 0.09255439 -0.08937414 0.2229981 0.07699572
-0.10490673 0.122847386 -0.08381599 -0.06553261 -0.03879066 -0.070559554 0.037370533 -0.09635092
00000000: 4fae 993d c679 043d b4da b53c 933b 003d
00000010: 47dd 16bd 48b1 a93d 3e20 963d b8bd 503c
00000020: e760 e6bc 78f1 8cbd ce74 0bbd bfb9 973b
00000030: f287 73bd 9e10 d13c 6a53 ed3c b79a bdbc
00000040: dd96 cbbd 4762 d8bd f053 a43d 111f 5b3d
00000050: 7c8c 183d 0cd1 0e3e 6700 2dbd c1ca 093d
00000060: 09f5 1f3d 5de3 123d 5213 813d 3c37 aa3c
00000070: 10ca 9c3d 1aff d33d 82f5 793c a616 ae3d
00000080: 011f 69bd b350 c03d 6126 653d 28a6 803d
00000090: 2a58 8c3d 6811 2b3e c7bc a3bd e128 9fbc
000000a0: 4d85 413e c59b 99bd 8e68 babd 2919 28bd
000000b0: b128 f83d 7d71 0fbd 0785 abbd ce80 ebbc
000000c0: 6f93 583d 27b2 583d 8450 eebd afb6 7c3d
000000d0: 0b06 303c e6af 04bd 7308 123d 019a bbbd
000000e0: d2e1 4b3d 8cc8 debc b179 5f3d 42e6 31be
000000f0: 51f4 f2bc 603d 52bd 9174 8dbd ad65 a03c
00000100: cfd3 49be ae48 a5bc 80c3 e9bc 1554 4d3d
00000110: a5a9 8b3d d148 2ebe e48c f63c c25e 1e3e
00000120: e52d 103d 8a05 14bd 0cc4 163d f2d2 813d
00000130: fdda 72bd f155 553d da7f 803d 08ed 3c3d
00000140: 82f9 bb3d f33c 873d 6ce9 093e b189 653d
00000150: 36ff 383e 11b4 0a3e e1bf e03c 7b39 d93d
00000160: eb53 0ebd 1145 453d 9888 503d e931 d43d
00000170: e7b0 bfbb 8e0b 3fbe 6fea 2cbe 8857 9b3d
00000180: 06d4 ef3c c488 debd 6d4b ba3c fdb8 b13d
00000190: 2ed7 22bd 6cbb 88bd d7a3 37bd 2220 c93c
000001a0: 6987 943d 6c6d f53d 3490 7cbd 6410 173e
000001b0: bcc0 bb3d 8fb4 4d3e 6991 43bc 245c 99bd
000001c0: ba12 223c 011d d5bd 2cef 803d 16d9 11be
000001d0: 7d0f 1d3c 3deb 843c df6e 50be 7054 8dbd
000001e0: 25a8 c33c 8bbe 223d 02a2 39bc a3f4 0b3e
000001f0: 8211 4cbd 7320 9bbd 445f 263e 8adc e43c
00000200: 987b 163e 7355 053d 422b b3be 9281 093d
00000210: 4af5 eebb 1b62 64be f15a 203e 8dbc 5a3d
00000220: e8a8 0bbe 2b2c 0f3e d17b 8e3d fb89 a8bb
00000230: 01c5 9ebe a18b cabc ecf8 7e3e 9ae0 4d3d
00000240: 874d 7f3e 3df5 983e e95f 1abe ac87 1d3d
00000250: 6b68 0dbe c781 c2bc a427 aabe 4976 233b
00000260: 9b34 92be 1b63 f63d 45e2 563c 69e7 efbd
00000270: 08fd 333c f57d 9ebc a04a a83e a8fb 71be
00000280: be43 173c baad b13d 8ba6 be3d 4a21 133e
00000290: ed3b 803d 0d3e 22be a2d2 80be 9953 b23d
000002a0: e318 c03c 9248 d43d 7382 b2be a2b2 b4bd
000002b0: 3006 c63d 4138 903e 2bc5 97be a11d 2bbd
000002c0: 2338 bd3c dbcb 46bc 5e2f aabd 6f48 10bd
000002d0: e543 263e b390 dfbd 6c70 a8be 7a12 82be
000002e0: c03d f5bc fd34 39be 4fbb 333e 5ff0 cb3d
000002f0: e294 75be 0759 233e 6c47 073d 5383 383d
00000300: 204d 69bd 7d16 8bbd 0a70 763d 0972 65bd
00000310: 573f 93ba d0cd 063e 4f39 0b3d 7c04 23be
00000320: 51f0 1dbe 4bc3 21bd b952 0cbe 5391 bc3d
00000330: 8fbb b53d d21f 543d 36c7 06bd 31fb 8f3c
00000340: 5a90 dfbd d9a0 793c c53a b5bd f2ca 623c
00000350: 9448 a23c c963 093e 4b07 87bd 0579 c5bd
00000360: d49e 5e3d 8b41 18bd 8288 80bd e5a2 1abc
00000370: 4997 883d 21ca 37bc b3de 203e 7510 953d
00000380: 638c 493d ea8f e03d db49 833d 4a44 c93d
00000390: a6b1 79bb da9b bd3d 0f93 f63c 5aa6 793d
000003a0: a011 adbc 6190 903c 6dea 92bd 0968 09be
000003b0: 0c32 98bc 6fc6 d0bd b9cb 21bb d95d 98bd
000003c0: 1b65 22bd e11d a5bb 2fe0 f43c 1923 fd3d
000003d0: 288d bd3d ca09 b7bd 9d59 643e efaf 9d3d
000003e0: 57d9 d6bd 6997 fb3d b8a7 abbd f635 86bd
000003f0: f5e2 1ebd 8781 90bd d811 193d a253 c5bd

critic_net.layers.2.bias f4 [64]
0.13239089 -0.19255705 -0.17045188 0.00889087 0.23260121 -0.025130901 -0.06456377 -0.018702738
-0.3122977 0.1054155 -0.13191068 0.0348233 0.13417466 -0.032298587 0.14610101 0.14502218
0.13012587 0.23473905 0.0552561 0.085847005 -0.23036811 -0.0803372 -0.030793475 0.06434467
0.24531122 0.20837843 -0.19204728 0.2036772 -0.16956903 -0.20361336 -0.031651147 -0.20356737
0.13773215 0.08759198 -0.03250489 -0.0043872967 -0.18845043 -0.14492498 -0.10467846 -0.00035452266
0.08768426 -0.025095051 0.11801459 0.11412359 0.022705367 0.07131063 -0.11009228 -0.040889215
0.085789755 0.07586777 -0.2634297 0.02382134 0.22638166 0.18771005 0.14243409 0.0862724
-0.1443672 -0.15668398 0.025878541 0.08584723 0.116026066 -0.07346129 0.17870414 0.15697879
00000000: 7a91 073e ad2d 45be f08a 2ebe 03ab 113c
00000010: 032f 6e3e 52df cdbc 033a 84bd 7c36 99bc
00000020: 7ce5 9fbe 15e4 d73d 9813 07be e0a2 0e3d
00000030: 1565 093e 864b 04bd 819b 153e b280 143e
00000040: b73f 053e 6f5f 703e 3854 623d 8ed0 af3d
00000050: 9ee5 6bbe d487 a4bd 9942 fcbc 23c7 833d
00000060: dd32 7b3e 2861 553e 0ba8 44be c290 503e
00000070: 81a3 2dbe 0580 50be a2a4 01bd f773 50be
00000080: a809 0d3e 6d63 b33d d923 05bd 50c3 8fbb
00000090: 26f9 40be 3767 14be a961 d6bd 3adf b9b9
000000a0: ce93 b33d 2394 cdbc a2b1 f13d a1b9 e93d
000000b0: 9b00 ba3c 4f0b 923d 1078 e1bd 737b 27bd
000000c0: 8ab2 af3d 9060 9b3d 42e0 86be f924 c33c
000000d0: 98d0 673e 1037 403e 3eda 113e 96af b03d
000000e0: ffd4 13be c471 20be 3cff d33c acd0 af3d
000000f0: 139f ed3d df72 96bd 38fe 363e 0cbf 203e

critic_net.layers.4.weight f4 [1, 64]
-0.12242119 0.2172078 -0.39097902 -0.1304327 -0.105729386 -0.45235607 -0.11941439 -0.079925686
0.114971675 -0.13080613 0.18492858 -0.29963455 -0.16577132 0.12923396 -0.11026731 -0.09764056
-0.20218809 -0.236955 -0.16666228 -0.037534885 0.10950676 0.15121152 -0.096892335 -0.010214833
-0.13789785 -0.15404451 0.19126326 -0.15700884 0.16349576 0.1501403 -0.13534836 0.23145607
-0.18429999 -0.100371726 0.18639097 0.066998914 0.18392222 0.18183753 0.07844005 -0.024888115
-0.23054078 -0.27259704 0.29782254 -0.19554481 0.3202343 -0.23396519 0.08016418 0.11114202
-0.11397581 -0.15029968 0.16745257 -0.15405518 -0.263605 -0.20574138 -0.18745969 -0.17769931
0.049225263 0.12805517 -0.052820332 -0.13472095 -0.2645427 0.017491616 -0.21107769 -0.12948647
00000000: f6b7 fabd b96b 5e3e 672e c8be 2690 05be
00000010: a688 d8bd 379b e7be 888f f4bd 14b0 a3bd
00000020: 4576 eb3d 0bf2 05be eb5d 3d3e b369 99be
00000030: f5bf 29be e855 043e d4d3 e1bd c6f7 c7bd
00000040: 650a 4fbe 55a4 72be 84a9 2abe 2ebe 19bd
00000050: 1545 e03d 31d7 1a3e 7d6f c6bd 1d5c 27bc
00000060: 1835 0dbe d8bd 1dbe 84da 433e edc6 20be
00000070: 6f6b 273e 61be 193e c398 0abe d202 6d3e
00000080: 23b9 3cbe b18f cdbd 46dd 3e3e ba36 893d
00000090: 1b56 3c3e 9e33 3a3e 2da5 a03d 29e2 cbbc
000000a0: e212 6cbe d791 8bbe 327c 983e e63c 48be
000000b0: c0f5 a33e 9294 6fbe 1e2d a43d 6d9e e33d
000000c0: 266c e9bd 29e8 19be b078 2b3e a4c0 1dbe
000000d0: 3cf7 86be dead 52be 6ff5 3fbe cff6 35be
000000e0: 6ea0 493d e520 033e 225a 58bd 4af4 09be
000000f0: 2472 87be 944a 8f3c c024 58be 1a98 04be

exp_avg f4 [64, 17]
-0.00024341003 0.00024800727 -0.0004795192 2.0987425e-06 -0.00051876326 -0.00016014198 8.674381e-05 -0.00011693306
-0.000504419 0.00012445118 -0.0032885 -0.0011049239 -0.00055079453 0.0018209848 -0.0018553719 0.00020037296
0.0054894 0.0004484373 3.9425988e-05 -1.6338408e-05 -9.826084e-05 0.00016038636 -2.6206084e-05 -5.7363915e-05
0.0002678619 -0.00022185774 0.00030325243 0.000592544 0.0008106927 -0.000902584 -0.00318187 0.0006870611
-0.00013737186 -0.00094104314 0.0012395587 -0.0012771604 0.00090518175 -0.00031386936 0.001981139 0.00015489284
-0.00042325302 0.0010460293 0.0027146356 5.688419e-05 0.020041902 0.0077229426 0.0039389976 -0.025402725
0.012978939 -0.0038353642 -0.014785788 0.00034866662 0.00081416004 -0.0002516999 -9.244148e-05 0.00026275084
-7.6652555e-05 -5.6355188e-05 0.0003709468 -6.185835e-05 0.00016994477 0.006033663 0.007848692 -0.0028200622
-0.0057812706 0.005838262 0.00090221816 -0.0034183078 0.00020297893 -5.696119e-05 -6.0700248e-05 5.384064e-05
2.6607056e-05 -5.4137545e-05 5.6682107e-05 0.00010332779 -3.5027763e-06 -8.7794535e-05 -0.0012116601 -0.0012242808
0.0015184557 3.953766e-05 -0.0018722779 0.0016410443 0.0005278364 0.00023245646 -0.0023797727 0.0008038778
0.00037905973 0.0005721807 0.000108649925 -7.339476e-05 -0.00058340025 0.0012909363 -0.0015421255 -0.0046637147
-0.013531879 0.008857171 0.009417873 -0.008958052 0.0025387385 0.01069521 -0.00013924652 0.001531865
-0.00059117196 -0.00031250253 -0.000649051 -6.593459e-05 4.1853797e-05 0.0004198696 -0.0016100722 0.0019878163
0.0019200571 0.0062749884 -0.005398384 -0.0061232815 0.0035480054 -0.0010745819 -0.0061092754 0.0008319134
0.0010060015 -0.00016418027 -0.0009090648 0.00027693826 -0.0002661055 -9.841703e-05 0.00035981202 0.000103425555
0.001668052 0.00784131 0.0108113885 -0.0038053647 -0.016858198 0.0071607935 0.00089413003 -0.0137740215
-0.0005577805 0.00060260994 9.5728596e-05 -0.00021105993 -0.0003837005 8.165587e-05 -0.00020292014 0.00041379352
0.0006093978 0.00056427065 0.010819137 0.008382544 -0.0027357643 -0.016154142 0.007763998 -2.9959008e-05
-0.007960403 -0.0001146137 0.00044615008 -0.00017508802 9.699683e-05 -0.00027077447 3.1322477e-05 0.0001288297
-3.5458957e-05 -0.0004417795 5.2179123e-05 -0.001832873 -0.0005600145 0.0011396711 -2.1426116e-05 -0.0006300496
0.000596223 0.0010620535 -4.934812e-05 8.6211425e-05 -1.122289e-05 -4.7431964e-05 -4.532962e-05 -1.09329185e-05
-3.5909588e-07 -2.2695318e-05 -1.5791321e-06 2.8059307e-05 0.00026847908 0.0003788264 -0.00025654843 -0.0007315206
0.00019071846 0.0002004008 -0.00044492146 4.6139547e-05 0.00011016947 1.0573519e-06 -6.082636e-05 6.409795e-05
-4.5174074e-05 -1.3669367e-05 1.6201615e-05 8.296948e-05 0.00019013043 0.00018179776 -0.00036343312 0.00062676077
-0.00064531586 -0.00032115716 -0.0006361483 0.00040660912 -0.0001604985 -0.0006600087 0.00082574086 8.877561e-05
0.00039250654 0.0003154824 -8.979667e-05 -4.343418e-05 0.00077025016 -0.00058823393 0.00739737 0.0021069017
0.0035697883 -0.004672803 0.0047451314 -0.0012092105 -0.0038620015 -0.00016398246 -0.00088915945 0.00024835658
0.00012751119 0.00018535732 -3.0255036e-05 1.7626757e-05 -0.00030243493 0.00043586935 -0.0007957993 -0.00178511
-0.004303022 0.0040605688 0.003150343 -0.0025287503 0.0018272287 0.0012587274 -6.3100415e-05 0.0007601272
-0.00044657386 -5.9436363e-05 -0.0004481612 -8.170093e-05 0.00011691661 -5.5258835e-05 -0.0008096221 0.00015024007
-0.0073899715 -0.0041659027 -0.0017210816 0.0050722486 -0.005352295 -0.00035951775 0.005422805 0.00027023925
00000000: e23b 7fb9 f906 8239 fa67 fbb9 1fd8 0c36
00000010: 9dfd 07ba c9eb 27b9 3aea b538 f539 f5b8
00000020: fc3a 04ba 1c7f 0239 e083 57bb 18d3 90ba
00000030: 3263 10ba 1cae ee3a f32f f3ba 351b 5239
00000040: 6de0 b33b 3c1c eb39 555d 2538 770e 89b7
00000050: 6311 ceb8 632d 2839 23d5 dbb7 099a 70b8
00000060: d16f 8c39 7ca2 68b9 dafd 9e39 f454 1b3a
00000070: ab84 543a 639b 6cba ec86 50bb e41b 343a
00000080: 7a0b 10b9 56b0 76ba b078 a23a 6466 a7ba
00000090: b849 6d3a d58e a4b9 ffd5 013b bb6a 2239
000000a0: 0fe8 ddb9 eb1a 893a 07e8 313b ef96 6e38
000000b0: ea2e a43c bd10 fd3b b512 813b 6019 d0bc
000000c0: 9ea5 543c bc5a 7bbb 1740 72bc 3ecd b639
000000d0: 5b6d 553a 97f6 83b9 24dd c1b8 d2c1 8939
000000e0: 87c0 a0b8 ec5e 6cb8 a37b c239 f3b9 81b8
000000f0: 3433 3239 09b6 c53b cd97 003c cbd0 38bb
00000100: d070 bdbb e44e bf3b d682 6c3a b005 60bb
00000110: bed6 5439 9de9 6eb8 6598 7eb8 f2d2 6138
00000120: 3832 df37 bf11 63b8 f3bd 6d38 afb1 d838
00000130: 3d11 6bb6 551e b8b8 91d0 9eba 0c78 a0ba
00000140: eb06 c73a 3dd5 2538 3967 f5ba 4f18 d73a
00000150: 805e 0a3a 8ebf 7339 f6f5 1bbb 53bb 523a
00000160: 89bc c639 66fe 153a fcda e338 83eb 99b8
00000170: 54ef 18ba a234 a93a 2521 caba 13d2 98bb
00000180: d0b4 5dbc ab1d 113c 6c4d 1a3c cbc4 12bc
00000190: f760 263b f63a 2f3c b402 12b9 dcc8 c83a
000001a0: e1f8 1aba 61d7 a3b9 1325 2aba 5d46 8ab8
000001b0: 2c8c 2f38 f221 dc39 0f09 d3ba 0646 023b
000001c0: 6daa fb3a 6b9e cd3b ede4 b0bb cfa5 c8bb
000001d0: a785 683b fcd8 8cba 5130 c8bb c314 5a3a
000001e0: cfdb 833a ce27 2cb9 4e4e 6eba 0632 9139
000001f0: 1384 8bb9 3e65 ceb8 27a5 bc39 2ce6 d838
00000200: 8aa2 da3a d778 003c 4022 313c 6d63 79bb
00000210: 341a 8abc 17a5 ea3b 0d64 6a3a 6fac 61bc
00000220: 0438 12ba 78f8 1d3a e6c1 c838 f84f 5db9
00000230: 692b c9b9 a93e ab38 f6c6 54b9 6df2 d839
00000240: febf 1f3a 90eb 133a c042 313c f056 093c
00000250: 824a 33bb b155 84bc 2369 fe3b 7b50 fbb7
00000260: 5a6c 02bc c35c f0b8 40e9 e939 d597 37b9
00000270: c76a cb38 bcf6 8db9 4160 0338 7616 0739
00000280: c4b9 14b8 a49e e7b9 e8da 5a38 033d f0ba
00000290: f0cd 12ba 0461 953a 3cbc b3b7 ea29 25ba
000002a0: d94b 1c3a 9a34 8b3a 24fb 4eb8 68cc b438
000002b0: f249 3cb7 aff1 46b8 4f20 3eb8 876c 37b7
000002c0: c3c9 c0b4 d361 beb7 91f2 d3b5 e760 eb37
000002d0: a7c2 8c39 389d c639 5981 86b9 84c3 3fba
000002e0: 99fb 4739 ae22 5239 5944 e9b9 f685 4138
000002f0: c90a e738 56ea 8d35 cf1f 7fb8 536c 8638
00000300: 4b79 3db8 7c55 65b7 b4e8 8737 e7ff ad38
00000310: c05d 4739 f7a0 3e39 2b8b beb9 344d 243a
00000320: 6a2a 29ba fc60 a8b9 31c3 26ba 272e d539
00000330: 7d4b 28b9 6f04 2dba 8876 583a 0b2d ba38
00000340: 56c9 cd39 5567 a539 3851 bcb8 182d 36b8
00000350: 9dea 493a b633 1aba a365 f23b f213 0a3b
00000360: 1cf3 693b 501e 99bb 0c7d 9b3b 5f7e 9eba
00000370: a219 7dbb b5f2 2bb9 7b16 69ba db35 8239
00000380: 86b4 0539 7a5c 4239 32cc fdb7 2cdd 9337
00000390: 2190 9eb9 6585 e439 309d 50ba 5afa e9ba
000003a0: 5d00 8dbb 850e 853b fc75 4e3b 64b9 25bb
000003b0: 9f7f ef3a e2fb a43a c754 84b8 4643 473a
000003c0: 2122 eab9 4f4b 79b8 2ef7 eab9 da56 abb8
000003d0: 2131 f538 b9c5 67b8 d23c 54ba c389 1d39
000003e0: 9327 f2bb 2082 88bb ea95 e1ba 1b35 a63b
000003f0: 4e62 afbb a87d bcb9 c9b1 b13b e6ae 8d39

exp_avg_sq f4 [64, 17]
9.408129e-06 5.9100586e-07 3.9883594e-07 4.6597214e-07 3.4132415e-06 2.977716e-07 8.922436e-08 2.8284612e-06
2.3315533e-06 1.1379954e-06 0.00013768407 0.0001723807 6.0587347e-05 0.00019762697 0.00019134046 7.48651e-05
0.00020774739 1.5906236e-06 9.113621e-08 3.7039108e-08 7.352641e-08 5.8486995e-07 4.5406182e-08 2.1659181e-08
4.5217382e-07 7.8318055e-07 3.626533e-07 1.1483322e-05 1.5244935e-05 9.897999e-06 2.4290832e-05 1.8570961e-05
1.2593581e-05 2.5955836e-05 0.00022817409 1.4408655e-05 7.2121566e-06 1.0934816e-05 7.5519485e-05 6.419318e-06
2.4954243e-06 5.9894744e-05 5.6163877e-05 4.3116426e-05 0.0023386127 0.003497198 0.0024377794 0.004501003
0.0035804908 0.0016080444 0.004349766 9.3887365e-06 6.83929e-07 1.3566228e-07 3.0545817e-07 3.4058132e-06
1.7021304e-07 7.3768334e-08 2.7390288e-06 4.3315954e-06 1.4257798e-06 6.950127e-05 0.00012194378 9.703248e-05
0.00017315254 0.00012006247 6.680575e-05 0.00015937911 4.863284e-06 3.815573e-07 2.3001806e-07 4.55282e-07
1.4889318e-06 2.796228e-07 1.2153593e-07 1.0367775e-06 1.3477528e-06 1.331513e-06 3.8562615e-05 5.3153515e-05
3.6884358e-05 4.0609495e-05 5.4612636e-05 2.9807627e-05 5.2516658e-05 4.227535e-05 3.8299436e-06 1.0058006e-06
1.3875855e-06 1.6111646e-05 8.9876045e-07 3.574923e-07 1.2382691e-05 2.8100583e-05 1.0521482e-05 0.0004363501
0.00068137597 0.00038532278 0.0006662138 0.00062157324 0.00025201926 0.00057868776 2.089307e-05 1.4589596e-06
4.374963e-07 6.174448e-07 8.219675e-06 4.8165225e-07 2.113504e-07 6.2463396e-06 1.5784364e-05 6.2941017e-06
0.00021840265 0.00034288663 0.00020087382 0.0003472592 0.00032837308 0.00012970975 0.0002833841 9.981368e-05
3.6451809e-06 1.7233031e-06 3.589133e-06 3.5665857e-05 2.5695679e-06 9.2679096e-07 2.7989672e-05 3.810087e-05
1.48625995e-05 0.00093803473 0.0012624816 0.0010271538 0.001854034 0.0012591728 0.00072334555 0.001961712
0.00011637094 3.8743588e-06 2.3960492e-06 3.538285e-06 3.9062263e-05 2.4634228e-06 1.2035734e-06 3.374566e-05
3.6384063e-05 1.3342983e-05 0.001300059 0.0019611036 0.0012916579 0.002488102 0.0019372334 0.00087930856
0.0022269317 1.7949523e-06 3.6011426e-07 8.850794e-08 1.2082195e-07 6.7900777e-07 8.591155e-08 2.8433258e-08
4.663396e-07 1.0150427e-06 8.1443767e-07 1.906275e-05 2.670157e-05 1.5954198e-05 2.23655e-05 2.7144468e-05
1.52000175e-05 2.9117782e-05 2.9188864e-06 2.7958043e-07 1.6202542e-07 3.9374777e-07 8.202809e-07 1.930901e-07
1.1146919e-07 6.522923e-07 7.6075776e-07 9.310215e-07 2.3697101e-05 2.8302296e-05 1.8605106e-05 2.9158793e-05
3.0786967e-05 1.5858312e-05 2.8072127e-05 1.9361853e-06 7.981988e-08 4.0065945e-08 7.415482e-08 6.9747944e-07
4.8653376e-08 2.431216e-08 5.3743815e-07 7.1261996e-07 3.0777767e-07 1.3565756e-05 1.9894995e-05 2.0213602e-05
3.3197408e-05 1.7602506e-05 1.01325295e-05 3.384638e-05 6.542406e-05 3.2024423e-06 2.5090567e-06 3.0706633e-06
2.058142e-05 2.2957454e-06 8.9026315e-07 1.632669e-05 1.3370183e-05 1.06787065e-05 0.00075773604 0.0010389609
0.0006695966 0.0012989881 0.0010580771 0.0004662898 0.0012666183 5.6248555e-06 7.2743666e-07 1.715987e-07
2.9204892e-07 2.1618184e-06 2.2545963e-07 7.41003e-08 1.65781e-06 3.675075e-06 1.9485374e-06 6.0341983e-05
9.380275e-05 5.5330922e-05 8.8671106e-05 8.804464e-05 3.113537e-05 6.043937e-05 9.781575e-06 8.0819007e-07
3.0174218e-07 4.002927e-07 3.5902438e-06 1.8677305e-07 9.932256e-08 2.9958012e-06 2.0575687e-06 9.4253886e-07
9.701371e-05 0.00012330279 0.00010224169 0.00020319648 0.00014020213 8.962082e-05 0.00019506739 3.0735448e-06
00000000: 9bd7 1d37 9da5 1e35 981f d634 b92a fa34
00000010: 0b0f 6536 6bdd 9f34 9c9b bf33 98d0 3d36
00000020: c877 1c36 39bd 9835 495f 1039 18c1 3439
00000030: 2b1f 7e38 163a 4f39 90a2 4839 e500 9d38
00000040: c4d6 5939 697d d535 a9b6 c333 ee14 1f33
00000050: 92e5 9d33 f5ff 1c35 a004 4333 0b0d ba32
00000060: 4cc2 f234 c23b 5235 b1b2 c234 7ea8 4037
00000070: 7fc4 7f37 950f 2637 2ac4 cb37 d6c8 9b37
00000080: 0549 5337 bcbb d937 0442 6f39 b4bc 7137
00000090: f4ff f136 ad74 3737 3760 9e38 8665 d736
000000a0: 1077 2736 7e37 7b38 8191 6b38 e9d7 3438
000000b0: 6943 193b 3f31 653b 27c3 1f3b 267d 933b
000000c0: aba6 6a3b 04c5 d23a 7b88 8e3b 5184 1d37
000000d0: 3e97 3735 90aa 1134 dafd a334 6d8f 6436
000000e0: cec3 3634 926a 9e33 28d0 3736 1f58 9136
000000f0: 6c5d bf35 36c1 9138 12bc ff38 eb7d cb38
00000100: 4890 3539 0cca fb38 101a 8c38 011f 2739
00000110: 4b2f a336 d6d8 cc34 e2fa 7634 7b6d f434
00000120: 4fd7 c735 111f 9634 8b7f 0234 6727 8b35
00000130: 6fe4 b435 70b6 b235 4bbe 2138 27f1 5e38
00000140: 47b4 1a38 1d54 2a38 df0f 6538 640b fa37
00000150: 5545 5c38 d050 3138 f782 8036 0cff 8635
00000160: 133d ba35 7f27 8737 5942 7135 5eed bf34
00000170: 41bf 4f37 8bb9 eb37 6c85 3037 ebc5 e439
00000180: 5e9e 323a 2605 ca39 daa4 2e3a 13f1 223a
00000190: 7421 8439 14b3 173a 8743 af37 78d1 c335
000001a0: 09e1 ea34 7cbe 2535 3ce7 0937 e44a 0135
000001b0: 8eef 6234 a697 d136 aa68 8437 ec31 d336
000001c0: 0403 6539 77c5 b339 a8a1 5239 5710 b639
000001d0: 7d29 ac39 b202 0839 2c93 9439 1053 d138
000001e0: bb9f 7436 3e4c e735 d6dc 7036 ec97 1538
000001f0: d770 2c36 97c8 7835 5dcb ea37 7fce 1f38
00000200: 615a 7937 72e6 753a da79 a53a 90a1 863a
00000210: 0f03 f33a d40a a53a e69e 3d3a 1190 003b
00000220: 2c0c f438 7d00 8236 d0cb 2036 4673 6d36
00000230: c9d6 2338 4851 2536 788a a135 208a 0d38
00000240: 179b 1838 addb 5f37 be66 aa3a dc85 003b
00000250: d94c a93a 6d0f 233b c4ea fd3a 6681 663a
00000260: b7f1 113b 17ea f035 ba55 c134 c111 be33
00000270: 49bb 0134 0f45 3635 607e b833 653d f432
00000280: 3a5d fa34 9a3c 8835 bb9f 5a35 f2e8 9f37
00000290: 2ffd df37 61d5 8537 8c9d bb37 4db4 e337
000002a0: 9403 7f37 f641 f437 16e2 4336 3e19 9634
000002b0: 35f9 2d34 4864 d334 4631 5c35 3454 4f34
000002c0: d660 ef33 2f19 2f35 e036 4c35 4feb 7935
000002d0: 23c9 c637 b86a ed37 2912 9c37 089a f437
000002e0: 4121 0138 7707 8537 6f7c eb37 69ef 0136
000002f0: 7169 ab33 f914 2c33 0b3f 9f33 6c3a 3b35
00000300: f4f6 5033 01d7 d032 7844 1035 df4a 3f35
00000310: a43c a534 7a98 6337 2de4 a637 6190 a937
00000320: 723d 0b38 18a9 9337 e2fe 2937 46f6 0d38
00000330: 4634 8938 8ae9 5636 4461 2836 9811 4e36
00000340: 43a6 ac37 9b10 1a36 6bfa 6e35 4df5 8837
00000350: 8050 6037 b228 3337 cea2 463a be2d 883a
00000360: de87 2f3a cf42 aa3a 2daf 8a3a 5c78 f439
00000370: a804 a63a 24bd bc36 1145 4335 b140 3834
00000380: e6ca 9c34 c213 1136 df15 7234 1221 9f33
00000390: eb81 de35 4fa1 7636 9ec3 0236 b617 7d38
000003a0: f8b7 c438 2013 6838 f0f4 b938 9ba4 b838
000003b0: 5997 0238 4880 7d38 8b1b 2437 66f2 5835
000003c0: 21ff a134 cfe7 d634 ebef 7036 c98b 4834
000003d0: 284b d533 790b 4936 c314 0a36 c702 7d35
000003e0: d773 cb38 d74a 0139 976a d638 2411 5539
000003f0: 3903 1339 d0f2 bb38 018b 4c39 1943 4e36

exp_avg f4 [64]
-0.00028303487 0.00043793226 0.0013740929 0.00076723617 9.58236e-05 -0.00082335924 0.00050161715 0.0014237117
0.00024134608 -6.645453e-05 -1.5083076e-06 0.00011172371 -2.0949827e-05 -0.00046194275 -8.7720786e-05 0.00033332722
0.00032046906 0.00017092295 0.001131439 0.0002249381 0.00093339075 -3.7352168e-06 -0.00028430473 0.0013132797
-0.0010572969 -0.000843731 -1.9867368e-05 -6.411887e-05 0.0003637009 -0.0015593189 -0.0022680573 -0.00027014394
-0.00028697102 -0.0008347261 -0.00021983367 0.0002006653 -0.00021013994 -0.00088954705 -0.0001364612 -0.00060799334
-0.0014801658 0.0005570424 0.000115694456 0.0016387393 -0.00050733896 0.0019767848 0.00026461715 -0.0007585235
0.0004402077 7.228774e-05 -0.00030218295 -0.00039430064 -0.0005819873 0.0009214766 -0.0005261197 0.0005988809
-0.0004516501 -0.0006479762 0.00012715145 0.0007407328 -0.0005049651 -0.0003688855 0.0003671047 2.5158335e-05
00000000: 4c64 94b9 469a e539 e81a b43a 5920 493a
00000010: e7f4 c838 b4d6 57ba f57e 033a d69b ba3a
00000020: d811 7d39 815d 8bb8 0e71 cab5 364d ea38
00000030: 69bd afb7 e830 f2b9 bdf6 b7b8 6cc2 ae39
00000040: a104 a839 c839 3339 cb4c 943a 5ddd 6b39
00000050: cbae 743a 89aa 7ab6 bc0e 95b9 5b22 ac3a
00000060: ff94 8aba d42d 5dba d9a8 a6b7 8e77 86b8
00000070: 1caf be39 0f62 ccba b0a3 14bb 1ba2 8db9
00000080: 9974 96b9 85d1 5aba 2783 66b9 ae69 5239
00000090: 0359 5cb9 7e30 69ba 0617 0fb9 be61 1fba
000000a0: 1f02 c2ba 7c06 123a fda0 f238 f7ca d63a
000000b0: f1fe 04ba f28c 013b 50bc 8a39 a7d7 46ba
000000c0: adcb e639 2f99 9738 4f6e 9eb9 23ba ceb9
000000d0: 8290 18ba 3f8f 713a 4ceb 09ba 38fe 1c3a
000000e0: 73cb ecb9 f2dc 29ba f553 0539 bd2d 423a
000000f0: a25f 04ba f966 c1b9 f577 c039 1d0b d337

exp_avg_sq f4 [64]
6.531949e-06 1.2102131e-06 0.00015492586 6.843294e-06 3.4459708e-06 2.9108813e-05 1.557675e-05 7.1247756e-05
8.0710335e-05 1.2290001e-06 2.1448939e-06 1.3819531e-06 4.2102845e-05 4.100686e-06 6.813494e-06 2.349032e-06
1.8318415e-05 5.7165133e-05 1.5840125e-05 5.9875097e-06 2.0024509e-05 8.656992e-07 1.3097638e-05 2.0041882e-05
3.9918672e-05 9.568053e-06 4.2425964e-07 1.3671956e-06 3.9571037e-06 4.6020854e-05 0.00040945024 6.5539884e-06
6.525737e-07 9.094263e-06 5.7196503e-06 1.2668984e-05 1.6235542e-06 5.442031e-06 4.986939e-06 3.0616332e-06
1.1638014e-05 8.8292145e-06 2.5929947e-05 1.4313169e-05 1.468208e-05 9.476965e-05 5.18599e-05 2.5947875e-06
2.8309234e-06 3.9678903e-06 7.060718e-06 2.2796473e-06 7.5457724e-06 2.0518777e-05 1.5693693e-05 1.2777316e-05
5.266265e-06 5.601929e-06 3.1232157e-05 5.3427807e-06 9.545098e-06 1.2953601e-05 8.2358456e-05 2.0344737e-06
00000000: 042d db36 9b6e a235 9873 2239 739f e536
00000010: 5441 6736 b32e f437 d1aa 8237 d96a 9538
00000020: 0843 a938 1ff4 a435 fff0 0f36 8c7b b935
00000030: 9697 3038 a098 8936 789f e436 10a4 1d36
00000040: 7faa 9937 98c4 6f38 69e0 8437 51e8 c836
00000050: 4efa a737 6562 6835 edbd 5b37 9d1f a837
00000060: 596e 2738 7a86 2037 cdc5 e334 7c80 b735
00000070: 43c7 8436 8406 4138 7bab d639 55ea db36
00000080: 862c 2f35 9093 1837 6ceb bf36 df8c 5437
00000090: e6e8 d935 b19a b636 7b55 a736 7576 4d36
000000a0: e440 4337 3021 1437 2384 d937 9822 7037
000000b0: 0e53 7637 12bf c638 2584 5938 1c22 2e36
000000c0: e5fa 3d36 eb23 8536 1beb ec36 0bfc 1836
000000d0: b131 fd36 bd1f ac37 f3a5 8337 285e 5637
000000e0: dfb4 b036 34f8 bb36 46ff 0238 2346 b336
000000f0: e223 2037 4b53 5937 dcb7 ac38 fe87 0836

exp_avg f4 [64, 64]
0.00010018024 6.521298e-05 -0.00039019724 -0.00022134284 -0.0005588764 0.00026015373 8.17995e-05 -7.7264085e-05
0.00046628123 -0.00047624827 -0.00020158097 0.000120826924 -0.0002436164 -7.907865e-05 0.0003100107 4.1912135e-05
-0.00032336309 0.00040479482 0.00047875344 2.8726594e-05 0.00019567258 2.2310034e-05 0.00017562266 0.00023013401
-0.00037985443 -0.0004204263 -0.00061228947 -0.00030801908 -0.00015313603 0.0001922006 0.00035368002 -0.0001962558
0.0001367726 -2.670587e-05 -0.00048565684 0.00069316145 0.00041874716 -0.00038371023 -0.00036443034 0.00021205354
-0.00035330994 0.0005574151 -0.00020641132 0.00029301015 0.0005626011 6.4247804e-05 -0.00037281317 -0.0001565129
0.0003424175 4.0480176e-05 -0.0001071384 -5.0682822e-05 0.00022237969 -0.00042556186 -0.00011851358 0.0002131513
-0.00026370492 -6.8000613e-06 0.00015065126 0.0005725828 0.00013495436 7.3793e-05 -7.173254e-05 -0.00038248813
-0.000110721434 -7.18696e-05 0.00060975883 0.00023929207 0.00097590114 -0.00030721558 -7.2705814e-05 0.00018389367
-0.0007162455 0.00083028147 0.0002535337 -0.00044017157 0.00030280766 0.00038752952 -0.0004990974 -6.5637796e-06
0.00063567364 -0.00059157185 -0.00080559554 0.00012000385 -0.00038631895 0.00017800601 -0.0002882111 -0.00046305358
0.0005377441 0.00082863355 0.0011869562 0.0006841585 0.00029483635 -0.00024719944 -0.0004554722 0.00032731387
-0.00013560048 8.89109e-05 0.0007503436 -0.0011614877 -0.0006941488 0.00062024826 0.00056436885 -0.0005236083
0.00047315747 -0.0009642452 0.00019284891 -0.000669119 -0.0009453745 -0.00013001543 0.0005580469 0.00026144882
-0.0004169602 -0.00019538854 8.4778505e-05 0.00026239714 -0.0002785832 0.0005754258 0.00025375537 -0.0004368038
0.00041644272 2.6170266e-05 -0.0002149696 -0.00090098596 -0.0003158315 5.1824143e-05 -3.9298968e-05 0.00084156723
0.00034187036 -0.00017039597 -0.0004923417 -0.0011476157 -0.001020672 0.00036445243 -0.0007833995 0.00021409479
0.0011142868 -0.0016258493 -6.908041e-05 -0.0005089813 0.00041468174 0.00015763128 -0.00031443083 -0.0005581942
-0.0013477679 -0.00041458 0.001302587 0.00073502277 0.00077938684 -9.19258e-05 0.0012701828 0.0015991692
-0.0003807636 -0.000835283 -0.00090902334 0.00016351865 -0.00072759745 -0.00017623199 -1.3190988e-05 0.00049238553
-2.7314669e-05 0.00027952075 -0.0009859377 0.00056081475 0.000814649 -0.00019669448 0.00048745444 0.00045026778
-0.0003658977 0.0006218667 0.00034369173 0.0010479256 0.00040273817 -0.00041556545 5.8366444e-05 6.478443e-05
0.0016180357 0.00027650737 0.0009072092 -0.00056435924 0.0002215844 -0.0013094832 0.00074040605 0.0004219573
-0.00045589046 0.000993777 -2.175534e-05 0.00015923494 0.0006526402 -0.0002842923 -0.00022489646 -0.00071154785
4.8983795e-05 0.00013830657 -0.0004830975 -0.00017584722 -0.0006032144 0.00014514876 4.0627485e-05 -0.0001945007
0.00043658912 -0.0004882528 -3.5903642e-05 0.000138708 -0.00029474116 -0.00029608136 0.00039218942 2.3614887e-06
-0.00037365503 0.00042661972 0.000543236 6.1224986e-05 0.00025331197 3.0365762e-05 0.00014930754 0.00041486986
-0.00040111752 -0.0006000776 -0.0007464833 -0.00033114283 -0.00037835765 0.00019045148 0.0003410656 -0.00030107057
-2.3393246e-05 6.864252e-05 -0.00049310445 0.0007822953 0.00036637246 -0.00042879296 -0.00040667813 0.00024760803
-0.00030458215 0.0006153087 -0.00016494411 0.00032455262 0.0005764055 0.00013319642 -0.00043107528 -0.00025504277
0.00033363485 0.00019704008 -3.404564e-06 -0.00025074513 0.00031859355 -0.00043424586 -0.00024881796 0.00034349356
-0.00030662946 -8.4404994e-05 0.00019752659 0.0005471061 0.00012777558 5.6687346e-05 2.3938792e-05 -0.0005915858
00000000: db17 d238 f4c2 8838 6393 ccb9 4418 68b9
00000010: 8f81 12ba 3e65 8839 c68b ab38 d708 a2b8
00000020: 3577 f439 f6b0 f9b9 7b5f 53b9 7664 fd38
00000030: 4873 7fb9 07d7 a5b8 ef88 a239 d0ca 2f38
00000040: 0f89 a9b9 a43a d439 3301 fb39 e4f9 f037
00000050: 752d 4d39 6f26 bb37 5927 3839 2150 7139
00000060: 3327 c7b9 aa6c dcb9 0d82 20ba 9f7d a1b9
00000070: 2493 20b9 7589 4939 216e b939 04ca 4db9
00000080: 9e6a 0f39 6b06 e0b7 c29f feb9 47b5 353a
00000090: 4b8b db39 b72c c9b9 0311 bfb9 b05a 5e39
000000a0: 753c b9b9 7e1f 123a 1e70 58b9 289f 9939
000000b0: 857b 133a c7bc 8638 2376 c3b9 9d1d 24b9
000000c0: 8086 b339 42c9 2938 7eaf e0b8 4494 54b8
000000d0: 982e 6939 f21d dfb9 7e8a f8b8 5e81 5f39
000000e0: e041 8ab9 152c e4b6 24f8 1d39 6219 163a
000000f0: 8982 0d39 51c1 9a38 1d6f 96b8 b088 c8b9
00000100: 1e33 e8b8 b3b8 96b8 39d8 1f3a 7aea 7a39
00000110: 9ed3 7f3a c711 a1b9 a379 98b8 95d3 4039
00000120: 6cc2 3bba 3fa7 593a b8ec 8439 d4c6 e6b9
00000130: 28c2 9e39 552d cb39 dcd5 02ba 703e dcb6
00000140: 56a3 263a b713 1bba 9a2e 53ba 94aa fb38
00000150: da8a cab9 20a7 3a39 0a1b 97b9 00c6 f2b9
00000160: 65f7 0c3a a838 593a a493 9b3a 1a59 333a
00000170: 4494 9a39 8c9a 81b9 72cc eeb9 539b ab39
00000180: fa2f 0eb9 ad75 ba38 b5b2 443a 0f3d 98ba
00000190: 8af7 35ba 2898 223a 27f2 133a c242 09ba
000001a0: 1f12 f839 66c5 7cba 7c37 4a39 d167 2fba
000001b0: 02d3 77ba c054 08b9 e549 123a 1113 8939
000001c0: 739b dab9 36e1 4cb9 1dcb b138 5992 8939
000001d0: ce0e 92b9 2cd8 163a 780a 8539 d002 e5b9
000001e0: ff55 da39 3888 db37 7669 61b9 2530 6cba
000001f0: 3096 a5b9 c05d 5938 f2d4 24b8 9f9c 5c3a
00000200: 103d b339 52ac 32b9 7e10 01ba 986b 96ba
00000210: 12c8 85ba fa13 bf39 0d5d 4dba a27e 6039
00000220: 430d 923a 731a d5ba 43df 90b8 286d 05ba
00000230: a469 d939 d349 2539 31da a4b9 c753 12ba
00000240: 96a7 b0ba fc5b d9b9 91bb aa3a 8bae 403a
00000250: c44f 4c3a 4ac8 c0b8 437c a63a 379b d13a
00000260: 3aa1 c7b9 e5f6 5aba 864b 6eba 3476 2b39
00000270: 3dbc 3eba eaca 38b9 dd4e 5db7 6f13 013a
00000280: ce21 e5b7 a48c 9239 943a 81ba a403 133a
00000290: 2b8e 553a c63f 4eb9 0791 ff39 eb11 ec39
000002a0: f5d5 bfb9 c504 233a 8631 b439 8c5a 893a
000002b0: 9a26 d339 40e0 d9b9 7ece 7438 e0dc 8738
000002c0: 4514 d43a 31f8 9039 c7d1 6d3a 82f1 13ba
000002d0: 1c59 6839 f7a2 abba cf17 423a 263a dd39
000002e0: 9504 efb9 9f41 823a 3d7f b6b7 4ef8 2639
000002f0: f115 2b3a 110d 95b9 2fd2 6bb9 2b87 3aba
00000300: f373 4d38 6306 1139 4048 fdb9 a163 38b9
00000310: 0821 1eba 1333 1839 6e67 2a38 e2f2 4bb9
00000320: 00e6 e439 2efc ffb9 3e97 16b8 2572 1139
00000330: 7d87 9ab9 5e3b 9bb9 c69e cd39 117a 1e36
00000340: 21e7 c3b9 eeab df39 f367 0e3a ea65 8038
00000350: f5ce 8439 fab9 fe37 708f 1c39 e482 d939
00000360: 154d d2b9 874e 1dba a5af 43ba 3d9d adb9
00000370: 4e5e c6b9 eeb3 4739 0dd1 b239 02d9 9db9
00000380: 9d3c c4b7 2cf4 8f38 ae43 01ba f312 4d3a
00000390: ae15 c039 9ecf e0b9 6a37 d5b9 63d1 8139
000003a0: 53b0 9fb9 ab4c 213a d9f4 2cb9 b728 aa39
000003b0: eb19 173a a4aa 0b39 f201 e2b9 43b7 85b9
000003c0: b6eb ae39 8b9c 4e39 f779 64b6 7176 83b9
000003d0: e708 a739 7eab e3b9 c873 82b9 ed16 b439
000003e0: 1cc3 a0b9 9602 b1b8 241f 4f39 ab6b 0f3a
000003f0: 7ffb 0539 93c3 6d38 2ad0 c837 a714 1bba

exp_avg_sq f4 [64, 64]
3.133499e-06 3.095483e-06 2.1942412e-06 2.9665844e-06 2.9593461e-06 2.457713e-06 1.560643e-06 2.4061123e-06
2.3817715e-06 2.8946574e-06 3.3778228e-06 4.134312e-06 1.3535331e-06 1.9505346e-06 3.1044342e-06 2.3349116e-06
1.363673e-06 2.4731867e-06 3.2212336e-06 3.97942e-06 2.0260704e-06 3.3633362e-06 1.1536791e-06 4.02331e-06
1.655549e-06 2.4742465e-06 3.2247283e-06 3.843151e-06 4.180593e-06 1.1706272e-06 2.1980452e-06 2.6443106e-06
3.3443553e-06 3.1551356e-06 2.8657305e-06 2.7392216e-06 3.3855624e-06 2.9040289e-06 1.8256434e-06 3.0878334e-06
3.8226704e-06 2.7834049e-06 2.3314792e-06 2.8343632e-06 2.1693368e-06 1.2315463e-06 2.4736846e-06 2.9166458e-06
3.2409291e-06 3.5480623e-06 3.009747e-06 4.3609625e-06 3.8177327e-06 3.0789145e-06 1.5061981e-06 2.0960701e-06
3.7100415e-06 2.1860785e-06 1.5348788e-06 4.8184215e-06 2.1170883e-06 1.6999364e-06 1.286495e-06 2.1791882e-06
7.375114e-06 6.547561e-06 4.3051227e-06 5.8179735e-06 6.1936253e-06 4.443339e-06 2.1548265e-06 5.2769146e-06
3.856535e-06 6.5717613e-06 9.0408275e-06 1.0711493e-05 1.9795584e-06 3.7502948e-06 5.930209e-06 5.161564e-06
1.7631727e-06 5.6776084e-06 7.219901e-06 1.02620625e-05 3.6236822e-06 8.8857305e-06 1.5609957e-06 9.4043435e-06
3.5386117e-06 4.863068e-06 7.187251e-06 1.0134686e-05 9.97934e-06 2.9653086e-06 5.517615e-06 4.5952324e-06
8.656825e-06 8.36443e-06 5.91385e-06 5.160597e-06 7.5440253e-06 6.6031907e-06 3.9764464e-06 6.3966636e-06
9.538418e-06 5.998507e-06 4.1137228e-06 6.17373e-06 4.4456992e-06 1.5481188e-06 5.7978127e-06 5.533232e-06
7.617342e-06 8.59228e-06 7.2800613e-06 1.089548e-05 9.472079e-06 6.7235305e-06 2.3380644e-06 5.442108e-06
8.743745e-06 3.5261087e-06 3.2701332e-06 1.2968881e-05 4.4141884e-06 3.3658637e-06 1.7841935e-06 4.4083054e-06
9.4571315e-06 1.0436951e-05 7.230945e-06 1.0709222e-05 1.0323154e-05 9.576078e-06 5.5092005e-06 8.31055e-06
6.548339e-06 1.1757265e-05 1.3331222e-05 1.5983082e-05 5.001249e-06 7.681762e-06 9.624608e-06 9.690938e-06
9.701697e-06 9.007878e-06 1.1799949e-05 1.577467e-05 8.430008e-06 1.1882053e-05 5.6782337e-06 1.6222639e-05
4.004569e-06 9.671588e-06 1.3552319e-05 1.4741101e-05 1.6316106e-05 4.5055945e-06 8.784602e-06 1.0748042e-05
1.2958572e-05 1.262589e-05 1.1048787e-05 9.091777e-06 1.2319577e-05 8.230243e-06 4.021799e-06 1.02250115e-05
1.1299284e-05 7.937607e-06 7.861714e-06 1.0174076e-05 7.919969e-06 4.40541e-06 6.969206e-06 1.0204864e-05
1.3271897e-05 1.3106143e-05 1.1846651e-05 1.5989579e-05 1.38565065e-05 1.1458606e-05 5.506889e-06 7.2998782e-06
1.2051176e-05 8.944264e-06 3.92801e-06 1.4665907e-05 7.126026e-06 6.87698e-06 4.062223e-06 7.731094e-06
3.2104363e-06 3.0738265e-06 2.0978478e-06 2.845854e-06 2.9359942e-06 2.118695e-06 1.2420403e-06 2.4149492e-06
2.0677408e-06 2.9644716e-06 3.760292e-06 4.6035816e-06 1.2101057e-06 1.7964421e-06 2.9944538e-06 2.4119179e-06
1.0593119e-06 2.5739737e-06 3.3652939e-06 4.4577423e-06 1.8445994e-06 3.7418615e-06 9.665542e-07 4.256862e-06
1.7492733e-06 2.442505e-06 3.2594016e-06 4.2885636e-06 4.4481826e-06 1.2858154e-06 2.3908146e-06 2.3957543e-06
3.5990697e-06 3.5572104e-06 2.8817387e-06 2.6291507e-06 3.3987558e-06 2.9906428e-06 1.8508895e-06 2.9649598e-06
4.0735063e-06 2.8528918e-06 2.1081123e-06 2.7912704e-06 2.1066799e-06 1.006281e-06 2.5782992e-06 2.7582362e-06
3.4786992e-06 3.7324246e-06 3.155908e-06 4.688707e-06 4.2256265e-06 3.2063078e-06 1.3333034e-06 2.3263058e-06
3.9022375e-06 1.873513e-06 1.5690373e-06 5.338624e-06 2.0335008e-06 1.6233114e-06 1.0334079e-06 2.133625e-06
00000000: 1a49 5236 febb 4f36 c740 1336 8815 4736
00000010: 2e99 4636 30ef 2436 4977 d135 b278 2136
00000020: 86d6 1f36 d641 4236 8eae 6236 78b9 8a36
00000030: 0bab b535 eee5 0236 c655 5036 7ab1 1c36
00000040: 7307 b735 06f9 2536 5f2c 5836 f586 8536
00000050: a0f7 0736 adb5 6136 1dd8 9a35 f8ff 8636
00000060: 3b34 de35 3b0b 2636 6968 5836 6af4 8036
00000070: 0547 8c36 721e 9d35 2182 1336 e974 3136
00000080: 966f 6036 d1bc 5336 e050 4036 78d3 3736
00000090: 8533 6336 d6e2 4236 a108 f535 9338 4f36
000000a0: 7d44 8036 88ca 3a36 8276 1c36 fd35 3e36
000000b0: ec94 1136 9c4b a535 9401 2636 98bb 4336
000000c0: bd7e 5936 3f1b 6e36 0ffb 4936 6254 9236
000000d0: 131a 8036 599f 4e36 9328 ca35 36aa 0c36
000000e0: 07fa 7836 8bb4 1236 0902 ce35 edad a136
000000f0: 4d13 0e36 5f29 e435 a2ab ac35 2b3e 1236
00000100: bf77 f736 1fb3 db36 b974 9036 0338 c336
00000110: d6d2 cf36 fe17 9536 a39b 1036 5a10 b136
00000120: 6267 8136 0083 dc36 0fae 1737 83b5 3337
00000130: 8ed8 0436 93ad 7b36 1cfc c636 7f31 ad36
00000140: 27a6 ec35 4982 be36 7a42 f236 392b 2c37
00000150: 632e 7336 ec13 1537 6783 d135 59c7 1d37
00000160: e378 6d36 702d a336 042a f136 2508 2a37
00000170: f06c 2737 9dff 4636 f423 b936 bf30 9a36
00000180: c83c 1137 f454 0c37 966f c636 3129 ad36
00000190: af22 fd36 fa90 dd36 6a6d 8536 eca2 d636
000001a0: 3207 2037 c846 c936 9c08 8a36 f027 cf36
000001b0: 442c 9536 f5c8 cf35 d58a c236 1aaa b936
000001c0: 7898 ff36 9027 1037 4047 f436 bbcb 3637
000001d0: 45ea 1e37 b09a e136 a4e7 1c36 5a9b b636
000001e0: 19b2 1237 16a2 6c36 7674 5b36 eb94 5937
000001f0: 971d 9436 19e1 6136 6c78 ef35 0eeb 9336
00000200: 12aa 1e37 5d1a 2f37 58a1 f236 c2ab 3337
00000210: 9c31 2d37 f1a8 2037 acdb b836 8a6d 0b37
00000220: ceb9 db36 1241 4537 2aa9 5f37 6813 8637
00000230: 67d0 a736 ebe0 0037 6079 2137 4396 2237
00000240: 79c4 2237 8b20 1737 65f8 4537 d953 8437
00000250: 9c6e 0d37 0759 4737 a887 be36 da15 8837
00000260: fc5e 8636 2743 2237 c45e 6337 8c50 7737
00000270: 92de 8837 c32e 9736 9461 1337 7d52 3437
00000280: a568 5937 c9d3 5337 2e5e 3937 e388 1837
00000290: 2eb0 4e37 a014 0a37 fef2 8636 178c 2b37
000002a0: 0e92 3d37 c32b 0537 cee5 0337 53b1 2a37
000002b0: 02e0 0437 2fd2 9336 06d9 e936 8f35 2b37
000002c0: 5daa 5e37 75e2 5b37 fbc0 4637 5c21 8637
000002d0: 3e79 6837 573e 4037 d1c7 b836 7af1 f436
000002e0: 682f 4a37 520f 1637 59cd 8336 970d 7637
000002f0: 191c ef36 cfc0 e636 3b4e 8836 ccb4 0137
00000300: e072 5736 f047 4e36 c0c8 0c36 66fb 3e36
00000310: ff07 4536 e72e 0e36 2eb4 a635 8310 2236
00000320: 84c3 0a36 3cf1 4636 5359 7c36 7778 9a36
00000330: ea6a a235 481d f135 53f4 4836 6fdc 2136
00000340: ae2d 8e35 88bc 2c36 4fd7 6136 b793 9536
00000350: f493 f735 b11c 7b36 8dba 8135 2bd6 8e36
00000360: 93c8 ea35 ebe9 2336 18bc 5a36 7be6 8f36
00000370: 9941 9536 4894 ac35 e271 2036 bfc6 2036
00000380: 8c87 7136 69b8 6e36 e563 4136 7770 3036
00000390: 2e16 6436 dab2 4836 146c f835 9ff9 4636
000003a0: 27af 8836 4f74 3f36 1879 0d36 a951 3b36
000003b0: 7c60 0d36 8d0f 8735 d806 2d36 231a 3936
000003c0: 9973 6936 917a 7a36 16ca 5336 b053 9d36
000003d0: dbc9 8d36 f32b 5736 f5f3 b235 a11d 1c36
000003e0: f7ef 8236 6b75 fb35 b697 d235 6e22 b336
000003f0: 4777 0836 8ee0 d935 a0b3 8a35 662f 0f36

exp_avg f4 [64]
-0.0006697636 0.0010557955 -6.507974e-05 -0.0006286274 -0.0003153658 0.00044572525 2.5944277e-05 -0.0003358858
0.00050963403 -0.0005903443 0.0007944117 -0.00027002027 -0.00081142597 0.0005311987 -0.000503118 -0.00047574408
-0.0011638616 -0.0012090353 -0.00053580105 -7.668524e-05 0.00036816043 0.00068944023 -0.0005857719 -3.093092e-05
-0.00027040156 -0.0006612818 0.0011003336 -0.000709827 0.00043920468 0.00067157205 -0.00046188993 0.001271653
-0.000615233 -0.000562897 0.0007482793 0.00023925304 0.00081828574 0.0009616351 0.00031838825 -0.00013135975
-0.001189229 -4.0943367e-05 7.364206e-05 -0.00082175067 0.0001659273 -0.0010831521 0.00041550407 0.00046650702
-0.0003617194 -0.0007468006 0.0008504591 -0.00019177377 -0.001296171 -0.0010210155 -0.0008597573 -0.000886333
0.00014001461 0.0005971146 -0.00017003142 -0.0005636091 -0.0012017181 9.9874895e-05 -0.0012452215 -0.0006432743
00000000: 1393 2fba 9e62 8a3a 6b7b 88b8 78ca 24ba
00000010: ae57 a5b9 3bb0 e939 e9a2 d937 d419 b0b9
00000020: f698 053a 56c1 1aba 1140 503a 8291 8db9
00000030: e0b5 54ba 2440 0b3a ade3 03ba 4a6d f9b9
00000040: b78c 98ba 7e78 9eba 0075 0cba 13d2 a0b8
00000050: a805 c139 8dbb 343a 7d8e 19ba d3bb 01b8
00000060: afc4 8db9 df59 2dba 1239 903a af13 3aba
00000070: 0e45 e639 700c 303a d129 f2b9 98ad a63a
00000080: 9647 21ba 618f 13ba 2c28 443a 00e0 7a39
00000090: 3a82 563a 3d16 7c3a 59ed a639 9dbd 09b9
000000a0: e7df 9bba 9bba 2bb8 4870 9a38 c16a 57ba
000000b0: c5fc 2d39 8ef8 8dba 03d8 d939 8395 f439
000000c0: 28a5 bdb9 f1c4 43ba 58f1 5e3a e116 49b9
000000d0: 48e4 a9ba 98d3 85ba 5661 61ba cd58 68ba
000000e0: e3d0 1239 af87 1c3a 764a 32b9 2bbf 13ba
000000f0: f882 9dba ed73 d138 b336 a3ba 68a1 28ba
